experiements/starter_team/continuous_state/actor_critic/results/random_ac/checkpoints/model_a4000.pt (torch, 14903 bytes, 6 tensors)

weight f4 [64, 8]
0	0xbe0dcedd	-0.13848443
1	0x3d570730	0.05249709
2	0x3d8002c7	0.0625053
3	0x3e425689	0.18978323
4	0x3ea044bd	0.31302443
5	0x3d6d6913	0.057961535
6	0x3eb451da	0.35218698
7	0x3cb3ea30	0.021962255
8	0xbebb5f87	-0.3659632
9	0xbe2e451f	-0.17018555
10	0xbdd504ea	-0.10401328
11	0x3d6492be	0.055804007
12	0xbe495417	-0.19660984
13	0xbe9294f9	-0.28629282
14	0xbe1b1f11	-0.1514857
15	0x3d02c26e	0.031923704
16	0xbe33eed5	-0.17571576
17	0xbe602fb2	-0.21893194
18	0x3eac96fa	0.33708936
19	0xbd5bee9a	-0.053694345
20	0xbdc7a912	-0.097490445
21	0x3e9e5f1e	0.30931944
22	0x3c7b93fa	0.015355105
23	0xbd4522ff	-0.048129078
24	0xbe01fb83	-0.126936
25	0xbe702327	-0.2345091
26	0xbda407cd	-0.080093004
27	0xbd685c6d	-0.05672877
28	0xbd1fe148	-0.039033204
29	0x3e3d4dd6	0.18486723
30	0x3e8fdaef	0.2809672
31	0xbde621d9	-0.11236925
32	0xbd267cc3	-0.040646326
33	0x3e836e6d	0.25670186
34	0x3e964297	0.2934768
35	0x3ea82638	0.3284166
36	0xbe1c2f9e	-0.1525254
37	0xbe3b498e	-0.18289778
38	0x3dc3fbc3	0.09569504
39	0xbe8f2ca0	-0.27963734
40	0xbea154c5	-0.31509987
41	0xbe36ab05	-0.17838676
42	0x3e874372	0.26418644
43	0x3d8925f8	0.06696695
44	0x3c906953	0.017628348
45	0xbd7f3f9e	-0.06231653
46	0xbe74864f	-0.2387936
47	0xbe1ad69d	-0.15120931
48	0x3e9b5431	0.3033767
49	0xbe5424ce	-0.20717165
50	0xbe68faa9	-0.2275187
51	0xbd1d5c9b	-0.038418394
52	0xbe84646e	-0.25857872
53	0x3b6f2bd1	0.0036494622
54	0xbdf22384	-0.1182318
55	0x3eac44c8	0.33646226
56	0x3e1b2d7e	0.15154073
57	0xbe0ff9c9	-0.14060129
58	0x3e0fc5fe	0.14040372
59	0x3d543858	0.051811546
60	0xbdf84ced	-0.121240474
61	0xbea3c5f6	-0.3198697
62	0xbdf7266c	-0.12067875
63	0xbce2acf3	-0.02767036
64	0xbea9dafa	-0.33174878
65	0xbe1e36ce	-0.15450594
66	0x3e851763	0.25994405
67	0x3deb057a	0.11475654
68	0x3e960305	0.2929918
69	0x3e6bf422	0.23042348
70	0xbe351400	-0.1768341
71	0xbea38a90	-0.31941652
72	0xbe9cb72c	-0.306085
73	0x3e22ee9c	0.15911335
74	0x3dc45795	0.095870174
75	0xbe39aa56	-0.18131384
76	0xbea3c343	-0.3198491
77	0xbd81ad8a	-0.06331928
78	0xbd251fd1	-0.040313546
79	0xbeb84d4c	-0.35996473
80	0x3d8d69ca	0.06904943
81	0xbe7f16d4	-0.24911052
82	0xbe8a61e1	-0.270278
83	0xbe0e1a9b	-0.13877337
84	0x3e49be3c	0.19701475
85	0xbeb6b337	-0.35683605
86	0x3e6fdd70	0.23424315
87	0xbe2c68ac	-0.16836804
88	0xbd4aadbd	-0.049482096
89	0x3ce70272	0.028199408
90	0x3d6da8a5	0.05802216
91	0x3e82f235	0.25575414
92	0x3e4a0ce4	0.1973148
93	0xbea176a5	-0.3153583
94	0xbe8b1ac6	-0.27168864
95	0x3bd51ca2	0.0065036574
96	0xbe9f9eee	-0.3117594
97	0x3e42c2a9	0.1901957
98	0xbcb78c32	-0.022405718
99	0x3dce31ea	0.10068114
100	0x3dfb6353	0.12274804
101	0xbd00add5	-0.03141578
102	0xbd5f4dae	-0.05451744
103	0x3e8c7567	0.2743332
104	0x3dd289fd	0.102802254
105	0x3ca2d76f	0.019878117
106	0xbd05ff43	-0.03271414
107	0x3e9660ed	0.29370824
108	0x3e046074	0.12927419
109	0x3ea1d5d1	0.3160844
110	0x3ea9c47d	0.3315772
111	0x3d17ca5c	0.03705822
112	0xbd0c3e57	-0.03423914
113	0xbe1314b5	-0.14363368
114	0x3e8bde40	0.27318
115	0xbd391f2d	-0.045195747
116	0xbe8241e6	-0.25440902
117	0xbea4c2a1	-0.3217974
118	0xbeafe5db	-0.34355053
119	0xbea1ab30	-0.31575918
120	0xbe1aa449	-0.15101732
121	0xbd5a2e18	-0.053266615
122	0xbd38f74b	-0.045157712
123	0x3df28b21	0.11842943
124	0x3e71d397	0.23615871
125	0xbcbf8121	-0.023377003
126	0x3e5057f1	0.20346047
127	0xbd72c40a	-0.05926899
128	0xbe3e2734	-0.18569642
129	0xbeafece2	-0.34360415
130	0xbeb01c92	-0.34396797
131	0xbe7313ea	-0.23738065
132	0x3e926c58	0.28598285
133	0x3d5dd5ee	0.054159097
134	0x3ea3181a	0.31854326
135	0x3e6a1976	0.22861275
136	0xbebe9a64	-0.37227166
137	0x3d7430b6	0.059616767
138	0xbda84d12	-0.08217825
139	0x3e47669a	0.19472733
140	0xbe857912	-0.26068932
141	0xbe00a06d	-0.12561198
142	0xbe1a5a8a	-0.150736
143	0x3d0c623b	0.034273367
144	0x3dcc32f4	0.09970656
145	0xbea40a5d	-0.32039157
146	0xbe20fcda	-0.15721455
147	0x3e5cf99b	0.21579592
148	0x3e8dcfe2	0.27697664
149	0x3e5a5275	0.21320517
150	0x3de63104	0.11239818
151	0x3b086abd	0.0020815574
152	0x3e00f939	0.12595071
153	0xbebdc476	-0.3706395
154	0xbe44cd45	-0.19218929
155	0xbdbd030a	-0.09229095
156	0x3cc7d416	0.024393123
157	0x3e2bc29b	0.16773455
158	0xbea67697	-0.32512352
159	0x3dcf2b61	0.10115696
160	0x3e9dbfbd	0.30810347
161	0x3d4d9620	0.050192
162	0x3ea983bf	0.33108327
163	0x3d7d5f51	0.06185848
164	0x3e9565f1	0.29179338
165	0x3e20301b	0.15643351
166	0x3d9180cf	0.071046464
167	0xbe8179a1	-0.25288108
168	0xbea58b28	-0.3233273
169	0x3de7e898	0.113236606
170	0xbe779263	-0.24176936
171	0xbe9cd74e	-0.30633014
172	0xbeae7575	-0.34073988
173	0xbe5896d1	-0.21151282
174	0x3cb3fb30	0.021970361
175	0x3e18b7d7	0.1491388
176	0x3e1cac5c	0.15300125
177	0x3e20b6a9	0.1569468
178	0x3e8b762c	0.27238595
179	0xbca6c23c	-0.02035629
180	0xbe152bcd	-0.1456749
181	0x3e15eddc	0.14641517
182	0x3cf3b459	0.029749082
183	0xbd7d5ece	-0.06185799
184	0x3eaac3a9	0.33352402
185	0xbdfb3ced	-0.1226748
186	0x3e14db66	0.14536819
187	0x3e4ff422	0.20307973
188	0x3e9427f2	0.28936726
189	0x3ecb85ba	0.39750463
190	0xbcd16cae	-0.025564518
191	0x3cb18789	0.021671074
192	0x3e9677f1	0.29388383
193	0x3d0f72ab	0.035021465
194	0xbe5d4d03	-0.21611409
195	0xbe493f5c	-0.19653076
196	0x3c6ea395	0.014565368
197	0xbc5b4578	-0.013383262
198	0xbe90f4a5	-0.2831165
199	0xbe8672c1	-0.26259425
200	0xbd8b1d4c	-0.06792697
201	0x3e07730d	0.13227482
202	0x3e8d86ca	0.27641898
203	0x3e372833	0.17886429
204	0x3eb80a0c	0.35945165
205	0xbead6fd7	-0.3387439
206	0xbe935cd4	-0.2878176
207	0xbe8ced54	-0.27524817
208	0x3cd43257	0.02590291
209	0xbdde7f2c	-0.108641
210	0xbe014046	-0.12622175
211	0x3ea54718	0.32280803
212	0x3e188785	0.14895447
213	0x3d12a92f	0.035805877
214	0x3d93b7c8	0.07212788
215	0x3da2b1aa	0.07944043
216	0xbea7cee0	-0.3277502
217	0xbe81c3aa	-0.25344592
218	0xbe7641bc	-0.24048513
219	0xbe3cdbdf	-0.18443249
220	0x3e02aa0b	0.12760179
221	0xbd36f2f0	-0.044665277
222	0x3e291539	0.16512002
223	0x3d688dfb	0.056776028
224	0x3ea8ed8b	0.3299373
225	0xbe30c1b9	-0.172614
226	0xbe7c267d	-0.24624057
227	0x3e464095	0.19360574
228	0x3e98cce2	0.29843813
229	0x3ea2434b	0.31691965
230	0x3e743e65	0.23851927
231	0xbe0694d8	-0.13142717
232	0x3ea9cf8e	0.33166164
233	0x3d4e4ddc	0.05036722
234	0x3e64c581	0.22340967
235	0x3ec220f0	0.37915754
236	0x3d84bed1	0.06481708
237	0x3d126f33	0.03575058
238	0xbda5f138	-0.081026495
239	0x3dfb8f53	0.12283196
240	0x3e1ac62f	0.15114664
241	0xbd8daab6	-0.06917326
242	0x3ca55621	0.020182671
243	0x3e8da33f	0.2766361
244	0x3d86ae90	0.06576264
245	0x3d849b8e	0.06474982
246	0xbe12c79d	-0.14333959
247	0x3d4688a5	0.048470158
248	0xbd8255be	-0.0636401
249	0xbd056ea2	-0.03257621
250	0x3e7e5513	0.2483714
251	0x3e3f4d86	0.18681917
252	0xbca76e3b	-0.020438304
253	0x3e8cfa5a	0.27534753
254	0xbe6b315c	-0.22968048
255	0xbe6f0331	-0.23341061

bias f4 [64]
0	0xbe1a8761	-0.15090705
1	0x3e867d3c	0.2626742
2	0xbe8393dd	-0.25698748
3	0xbd356eee	-0.044295244
4	0xbd96415d	-0.07336686
5	0x3e069773	0.13143711
6	0x3e5281b3	0.20557289
7	0xbe131eaa	-0.14367166
8	0x3dedc2d1	0.11609424
9	0xbea7de75	-0.3278691
10	0x3d9dea8f	0.07710754
11	0x3daf57cb	0.08561667
12	0xbe9a3c7c	-0.3012427
13	0x3e017e11	0.12645747
14	0xbe66843d	-0.22511382
15	0x3ebe9026	0.37219352
16	0x3e77caaf	0.24198411
17	0xbe9d6677	-0.30742237
18	0x3e183ac3	0.14866166
19	0xbea0908b	-0.31360278
20	0x3e2d94f2	0.1695135
21	0x3cf6cb9e	0.03012639
22	0x3ea622e5	0.32448497
23	0xbd5cd32d	-0.05391233
24	0x3dfe0ba4	0.12404564
25	0xbea436e2	-0.32073122
26	0xbe72c0e1	-0.2370639
27	0xbec6a2d4	-0.38796103
28	0x3e6d1218	0.23151433
29	0x3e13f983	0.1445065
30	0x3ebd856f	0.37015864
31	0x3e0546fc	0.1301536
32	0x3e4002fa	0.18751135
33	0xbe4c5e70	-0.199579
34	0x3e0c8ce4	0.1372562
35	0x3e0e173f	0.13876055
36	0xbebed2a4	-0.3727008
37	0x3d324e25	0.043531556
38	0x3df0b8f7	0.11754029
39	0x3d41de40	0.047331095
40	0x3aec558c	0.0018030866
41	0x3ec16e06	0.37779254
42	0xbe99c8b9	-0.30035952
43	0xbe181fa3	-0.14855818
44	0xbe8db3de	-0.2767629
45	0xbd615694	-0.055014208
46	0xbe84d50b	-0.2594379
47	0x3d8511c1	0.06497527
48	0x3e488297	0.19581066
49	0xbe02028f	-0.12696289
50	0x3d914006	0.070922896
51	0xbe861102	-0.2618485
52	0xbe92cb57	-0.2867076
53	0xbdbb0cc1	-0.09133292
54	0xbce834ce	-0.028345492
55	0x3bf619d0	0.0075104013
56	0x3e1520be	0.14563271
57	0xbc934c75	-0.017980793
58	0xbe11bc4f	-0.1423199
59	0xbecff2e1	-0.4061499
60	0x3e16c950	0.14725232
61	0xbd91518e	-0.070956334
62	0xbe7ab735	-0.2448395
63	0xbcedd2f9	-0.029031264

weight f4 [32, 64]
0	0xbbfed252	-0.007776537
1	0x3c0bb0f6	0.0085260775
2	0xbe0d5eda	-0.13805714
3	0xbdf32ee8	-0.11874181
4	0x3a3ceac2	0.00072066125
5	0xbd92f136	-0.071749136
6	0xbc4c86f8	-0.012483351
7	0xbde251c6	-0.11050753
8	0xb98556a7	-0.00025432298
9	0xbc2863d2	-0.010277705
10	0xbd041afe	-0.032252304
11	0xbd3a4b15	-0.04548176
12	0xbd74571f	-0.059653398
13	0x3e09dfe2	0.13464311
14	0xbdf753bd	-0.12076519
15	0xbd138c64	-0.03602256
16	0xbca75933	-0.020428276
17	0xbe1832d6	-0.14863142
18	0x3ddd4c63	0.10805585
19	0x3d495ff0	0.04916376
20	0x3e15477d	0.14578052
21	0xbe02f65e	-0.12789294
22	0x3dd52477	0.10407346
23	0x3dbcc51a	0.09217282
24	0xbd9de757	-0.0771014
25	0x3dc3746b	0.09543689
26	0x3df73f30	0.12072599
27	0xbdc61889	-0.096726485
28	0x3e157ca4	0.14598328
29	0x3e066a55	0.131265
30	0x3d98fa63	0.074696325
31	0xbdafce8b	-0.08584317
32	0xbceac2e6	-0.028657388
33	0x3c618f39	0.013767057
34	0x3d88c1f0	0.06677616
35	0x3e15a2e9	0.14612927
36	0x3d0b87ba	0.034064986
37	0x3dc87ccf	0.0978943
38	0xbd80b886	-0.06285195
39	0xbd4214d2	-0.047383137
40	0xbd9e5c5e	-0.077324614
41	0xbd03eb08	-0.032206565
42	0x3d981474	0.07425776
43	0xbda3b98d	-0.079943754
44	0xbd33efed	-0.043929983
45	0x3dab73d1	0.083716996
46	0xbd967c2d	-0.073479034
47	0xbb8a467e	-0.004219829
48	0x3d8c99e9	0.068652935
49	0xbdf00d10	-0.117212415
50	0x3d5cd6c3	0.05391575
51	0x3db552f6	0.08853714
52	0xbb585ec5	-0.0033015471
53	0x3ce40227	0.027833058
54	0x3b71c0d5	0.0036888618
55	0x3d0fad0c	0.03507714
56	0xbd958902	-0.07301523
57	0xbe01ba4e	-0.12668726
58	0x3c6d63ed	0.014489156
59	0xbdda50c2	-0.106599346
60	0xbddf04a2	-0.108895555
61	0xbe08826c	-0.13331002
62	0x3c532bc1	0.01288885
63	0xbdc13bdd	-0.09435246
64	0x3e134b4d	0.14384194
65	0x3daed9c7	0.085376315
66	0x3bd4878d	0.0064858855
67	0x3d86202d	0.06549106
68	0xbd46a121	-0.04849351
69	0x3daffa81	0.08592702
70	0xbd2df96c	-0.042474195
71	0x3dbf85ee	0.09351717
72	0x3cd1e106	0.025619995
73	0xbe2c0952	-0.1680043
74	0xbdd57c60	-0.10424113
75	0xbd0c9517	-0.03432187
76	0xbb99f154	-0.004697958
77	0x3e05dd83	0.13072781
78	0xbd17bffe	-0.037048332
79	0x3c510f22	0.012759956
80	0xbdbeb743	-0.09312298
81	0xbe2cb0f1	-0.16864373
82	0x3e10fd9d	0.14159246
83	0x3d776164	0.060395613
84	0x3dade5d3	0.08491101
85	0x3d5c99fb	0.053857785
86	0x3d27bd9b	0.040952306
87	0x3da22184	0.07916549
88	0x3d68834a	0.056765832
89	0x3dae94f4	0.08524504
90	0x3d7d70a8	0.061875015
91	0xbe10e308	-0.14149106
92	0xbd6fe7b4	-0.05857058
93	0x3bb2a6ee	0.0054520285
94	0x3d97accc	0.07406005
95	0x3d7deb3c	0.061991915
96	0x3d899c3d	0.06719253
97	0x3d7ef6c4	0.062247053
98	0x3de588a8	0.11207706
99	0x3dfa1035	0.122101225
100	0xbe20c3fb	-0.1569976
101	0x3c0045ce	0.007829143
102	0xbd8be788	-0.068312705
103	0x3db20d94	0.08693996
104	0x3de1f30a	0.11032684
105	0x3d56f355	0.052478153
106	0x3d0a7212	0.033800192
107	0xbdacbd93	-0.08434596
108	0xbe1ce0c8	-0.15320122
109	0x3d28e5b9	0.041234706
110	0xbd505132	-0.050858684
111	0x3dbc8c63	0.09206464
112	0xbddb0e07	-0.10696035
113	0xbda68b2b	-0.08132013
114	0x3df9a6d8	0.12190026
115	0x3daec592	0.08533777
116	0x3de72aa9	0.11287434
117	0xbca029e7	-0.01955123
118	0x3e0913b0	0.13386416
119	0x3d995120	0.074861765
120	0xbdc2b15b	-0.09506484
121	0xbdbce96e	-0.09224211
122	0xbe02cda0	-0.12773752
123	0xbdb9735c	-0.09055206
124	0x3d28d82d	0.041221786
125	0xbe2a323f	-0.1662073
126	0x3d6d359b	0.05791245
127	0x3d75585e	0.059898727
128	0xbda962b6	-0.08270781
129	0x3dc1ece5	0.09469012
130	0xbd2ad158	-0.041703552
131	0xbdf558f2	-0.119798556
132	0xbc19b843	-0.00938231
133	0x3cf070ce	0.029350664
134	0x3da5f46e	0.08103262
135	0xbc707c07	-0.014678008
136	0x3da38fe4	0.07986429
137	0x3d036bcd	0.03208523
138	0x3dcc179b	0.0996544
139	0x3d350b72	0.04420037
140	0xbcaaf04e	-0.02086654
141	0xbe2def3f	-0.16985796
142	0x3d29566d	0.041342188
143	0xbdc39f03	-0.095518135
144	0x3db70796	0.08936994
145	0x3d7e06d3	0.062018227
146	0xbdc9c860	-0.098526716
147	0xbcece7c6	-0.028919112
148	0xbd9f82ba	-0.07788606
149	0x3d6cf256	0.057848297
150	0x3d9740d3	0.07385411
151	0xbddbd238	-0.107334554
152	0xbdbf9da2	-0.09356238
153	0x3dcd678a	0.10029514
154	0x3d784391	0.06061131
155	0x3df59aed	0.119924404
156	0xbce1e116	-0.02757315
157	0xbce7b7f9	-0.028285967
158	0xbc8a8cff	-0.016912935
159	0x3d77c5ea	0.06049148
160	0x3dc77cac	0.09740576
161	0x3cf97097	0.030449195
162	0x3d265d0b	0.040616076
163	0xbd5928dc	-0.053017482
164	0x3db3afc4	0.08773759
165	0xbd69a2c0	-0.057039976
166	0x3cd165a1	0.025561156
167	0xbca30fae	-0.019904938
168	0x3cc9affa	0.024620045
169	0xbc36f576	-0.011166921
170	0x3cc865f5	0.02446268
171	0x3d8d6b6b	0.06905254
172	0x3dd5d3d1	0.104407914
173	0x3c223dd8	0.00990244
174	0x3e12ec99	0.14348067
175	0xbdf3604a	-0.118836
176	0x3c5d75cd	0.013516855
177	0x3db025ff	0.08600997
178	0xbd045df8	-0.032316178
179	0x3dbb6134	0.091493994
180	0xbddbaf0d	-0.10726748
181	0x3d08de5e	0.03341519
182	0xbdaf748d	-0.08567152
183	0x3d88977b	0.066695176
184	0xbd88892e	-0.0666679
185	0x3dc9f2e3	0.0986078
186	0x3cb87385	0.022516022
187	0xbd5aeedf	-0.05345046
188	0x3dc9404b	0.09826716
189	0xbcf82bae	-0.030294266
190	0x3d8c20ee	0.06842218
191	0x3dc20c85	0.09475044
192	0x3d28aab0	0.041178405
193	0xbd884240	-0.06653261
194	0x3e14b577	0.14522348
195	0xbcb1c930	-0.021702379
196	0x3d78c52e	0.06073492
197	0xbd6e98b5	-0.0582511
198	0xbd8a19d4	-0.067432076
199	0x3b96109a	0.004579616
200	0xbcedf7ff	-0.029048918
201	0x3e13d0de	0.14435145
202	0x3cc317f1	0.023815127
203	0x3da6a86e	0.08137594
204	0xbd48436a	-0.048892416
205	0xbce78984	-0.028263815
206	0xbac12e71	-0.0014738572
207	0xbd2ff5a7	-0.04295888
208	0x3cc304d4	0.023806013
209	0x3c3d41a2	0.011551293
210	0xbdfbbaf3	-0.12291517
211	0x3bf3853f	0.0074316557
212	0xbe04a6c0	-0.12954235
213	0xbce1af44	-0.027549393
214	0xbde462a7	-0.11151629
215	0x3d69f361	0.05711687
216	0x3d937614	0.07200256
217	0xbcc13a00	-0.023587227
218	0xbcc69012	-0.02423862
219	0xbca433ca	-0.020044226
220	0xbe0f2c00	-0.13981628
221	0x3d393ce0	0.04522407
222	0x3cbfe203	0.0234232
223	0xbe02b39a	-0.12763825
224	0x3dd0a170	0.10187042
225	0x3dd66f6c	0.10470471
226	0xbcfec630	-0.031100363
227	0xbd9fc6d1	-0.07801593
228	0x3e171080	0.14752388
229	0x3d6f5a1b	0.05843554
230	0x3d850748	0.064955294
231	0x3d887dcd	0.066646196
232	0x3dcebc08	0.10094458
233	0xbd38e0ae	-0.045136146
234	0x3e011c5c	0.12608474
235	0x3d9fb9af	0.07799088
236	0x3dc045ca	0.09388311
237	0x3deebcf8	0.11657137
238	0xbaaef39c	-0.0013347748
239	0xbde37a8e	-0.1110736
240	0xbd95a15a	-0.07306166
241	0xbd9dc215	-0.07703034
242	0x3c29a5ba	0.010354454
243	0x3d921b11	0.07134069
244	0xbd945001	-0.07241822
245	0xbdceb6e0	-0.100934744
246	0xbd83a3a3	-0.064276956
247	0x3d679c57	0.05654558
248	0xbe035a70	-0.12827468
249	0x3d172aae	0.036905937
250	0x3e0b100a	0.13580337
251	0x3d39fb94	0.04540594
252	0xbcab43fc	-0.02090644
253	0x3e2f337f	0.17109488
254	0x3d5c061c	0.053716764
255	0xbd829377	-0.06375783

bias f4 [32]
0	0xbd339745	-0.043845434
1	0x3d0ae5aa	0.03391043
2	0xbe24eef4	-0.16106778
3	0xbe6da230	-0.23206401
4	0x3e4403a0	0.19142008
5	0x3e02e5f6	0.12783036
6	0x3e21b6ba	0.15792361
7	0xbd9ca094	-0.07647815
8	0x3df80583	0.12110426
9	0x3da7636b	0.08173259
10	0x3e217671	0.15767838
11	0xbdfaebfb	-0.12252041
12	0xbded22b9	-0.115788884
13	0x3c2d7233	0.010586309
14	0xbdc3f7d4	-0.09568754
15	0xbd01fcc4	-0.031735197
16	0x3e2a5a5c	0.16636032
17	0x3daf584c	0.08561763
18	0x3dba2998	0.09089965
19	0x3d7a8c26	0.061168812
20	0x3e3e4713	0.185818
21	0x3df3f1f5	0.11911384
22	0xbe10b9d0	-0.14133382
23	0xbe09eba2	-0.13468793
24	0x3d18c05f	0.037292834
25	0xbe082030	-0.13293529
26	0x3e03fb1b	0.12888758
27	0xbd8d9345	-0.06912855
28	0xbe2cf599	-0.16890563
29	0xbe538fd6	-0.20660338
30	0x3d8da169	0.06915552
31	0xbc6a95ab	-0.01431791

weight f4 [7, 32]
0	0x3e0bc3fe	0.13648984
1	0x3e027c12	0.12742642
2	0x3d9415fb	0.07230755
3	0xbe367ec0	-0.17821789
4	0xbd9e1de7	-0.07720547
5	0x3e611c01	0.21983339
6	0x3defe3a4	0.11713341
7	0xbdcf64cf	-0.101266496
8	0x3e01320f	0.12616752
9	0x3e09e895	0.13467629
10	0x3e28777e	0.16451833
11	0xbe21e360	-0.15809393
12	0x3dbed86b	0.09318622
13	0x3d9953b4	0.07486668
14	0xbe126f07	-0.14300166
15	0xbd67a574	-0.056554273
16	0x3e1acce3	0.1511722
17	0x3cd4b2bd	0.025964135
18	0x3e75d65c	0.24007553
19	0x3dbd56ce	0.09245072
20	0x3e46582b	0.19369571
21	0xbe201421	-0.15632679
22	0x3da2a19f	0.07940983
23	0xbe10d35d	-0.14143129
24	0x3d41344c	0.047169015
25	0xbe285bec	-0.16441315
26	0x3e5ba0f3	0.21448116
27	0xbd8b3549	-0.06797273
28	0xbe2332c0	-0.15937328
29	0xbe0f39c1	-0.13986875
30	0xbe0f7a4c	-0.14011496
31	0x3c7b0a48	0.015322275
32	0x3e6a60c6	0.22888479
33	0x3ec537ce	0.38519138
34	0xbe963160	-0.29334545
35	0xbee36cc6	-0.44418925
36	0x3ee6135f	0.44936654
37	0x3eb1615f	0.346446
38	0xbbba8b33	-0.0056928634
39	0xbe9d6620	-0.30741978
40	0x3e4e3e8c	0.20141047
41	0x3f06a550	0.52595997
42	0x3db16e0d	0.08663569
43	0xbe896ebb	-0.26842293
44	0xbea42e85	-0.32066742
45	0xbe754e7e	-0.23955724
46	0xbeeb34be	-0.45938677
47	0xbe3e5db6	-0.18590435
48	0x3e423145	0.18964107
49	0x3dabdccd	0.08391724
50	0x3ef29628	0.47380185
51	0x3e570142	0.20996574
52	0x3e8ac68d	0.27104607
53	0x3e30e7ce	0.17275926
54	0xbe43cade	-0.19120356
55	0xbed3427e	-0.41261667
56	0xbdf08ee9	-0.11746008
57	0xbeafd91b	-0.34345326
58	0x3f13f749	0.577992
59	0xbe533855	-0.20626958
60	0xbee9f73f	-0.45696446
61	0xbe225686	-0.15853319
62	0xbcec6ed8	-0.028861448
63	0xbecb1d3e	-0.39670748
64	0xbdd14219	-0.10217685
65	0xbdf51d3b	-0.11968466
66	0xbe081088	-0.13287556
67	0x3e0f4d3e	0.1399431
68	0x3dc579a4	0.09642342
69	0xbd9102db	-0.07080623
70	0x3e141485	0.14460953
71	0xbb95a5c8	-0.004566882
72	0xbced9c91	-0.02900532
73	0xbe043332	-0.12910154
74	0x3e07e265	0.13269956
75	0x3e032d93	0.12810354
76	0x3da4f297	0.08054083
77	0xbd24d104	-0.040238395
78	0xbe29653e	-0.16542527
79	0xbe02b5cd	-0.12764664
80	0x3e0c2fe9	0.13690151
81	0x3df40307	0.1191464
82	0x3d740285	0.059572715
83	0x3c29cbf2	0.010363566
84	0x3d2b6ba5	0.041850705
85	0x3d99858a	0.07496174
86	0x3d51c29f	0.051210996
87	0x3da63803	0.08116152
88	0x3e241034	0.16021806
89	0xbcfdfe80	-0.031005144
90	0x3dc40dde	0.095729575
91	0xbdff5278	-0.124669015
92	0xbd9f01f9	-0.07764048
93	0x3d379433	0.04481907
94	0x3de49d85	0.11162857
95	0x3e11c6f4	0.14236051
96	0x3da8fa2c	0.082508415
97	0xbda76f29	-0.08175499
98	0xbce0a2ba	-0.027421344
99	0x3d6ef3d4	0.058338
100	0xbdab4654	-0.083630234
101	0xbe61cd1a	-0.22050896
102	0xbe0a9583	-0.13533597
103	0x3cbe67e1	0.023242893
104	0xbac50fa0	-0.0015034564
105	0xbda34796	-0.07972638
106	0xbe07e87a	-0.13272277
107	0xbdb8c41c	-0.0902178
108	0xbdb01b2c	-0.085989326
109	0x3dca62d5	0.09882132
110	0x3bb41b9d	0.005496456
111	0x3d08ae85	0.03336956
112	0xbdd78730	-0.10523832
113	0xbe0fb475	-0.14033683
114	0xbde60ff8	-0.112335145
115	0xbd8e3903	-0.06944468
116	0xbe41c05e	-0.18921039
117	0xbdc83dc8	-0.09777409
118	0xbdde3a7c	-0.10850999
119	0x3d8f4660	0.06995845
120	0x3dc87a09	0.09788901
121	0x3e404f98	0.18780363
122	0xbe45bed3	-0.19311075
123	0xbd56e838	-0.052467555
124	0xbce51699	-0.027964877
125	0x3e304daa	0.17217126
126	0x3cf07a79	0.029355275
127	0x3e4578ed	0.19284411
128	0xbe72bc57	-0.23704658
129	0xbe3cf03b	-0.18451016
130	0x3d9b4cb6	0.07582991
131	0x3e4164e8	0.18886149
132	0xbe842d55	-0.25815836
133	0xbe5227c0	-0.20522976
134	0xbe0e79ca	-0.13913646
135	0xbd734f67	-0.059401896
136	0xbe5eca10	-0.21756768
137	0xbe8c8593	-0.2744566
138	0xbe477e19	-0.19481696
139	0x3e2fd77b	0.17172043
140	0x3e39d5d1	0.1814797
141	0xbd9fb908	-0.07798964
142	0x3de462b6	0.1115164
143	0x3e43d581	0.19124414
144	0xbe1f037d	-0.15528674
145	0xbe3e51e1	-0.18585922
146	0x3d434f4a	0.047683038
147	0x3dfbe27e	0.12299059
148	0xbd234876	-0.039864026
149	0xba9758e4	-0.0011546877
150	0x3de6d1f8	0.11270517
151	0x3da824fe	0.08210181
152	0xbd955a45	-0.07292608
153	0xbd038c5d	-0.032116283
154	0x3d4651dd	0.048417915
155	0xbde4ff8a	-0.11181553
156	0x3d893f22	0.06701495
157	0x3e50731e	0.20356414
158	0xbd2bbffa	-0.04193113
159	0x3e0c6fa0	0.13714457
160	0xbda53e2a	-0.080684975
161	0xbd3ff752	-0.046866722
162	0x3e103d61	0.14085914
163	0x3e6688d6	0.22513136
164	0xbc95c52a	-0.018282492
165	0xbe65e324	-0.22449929
166	0xbd5a52a5	-0.053301472
167	0x3e758678	0.23977077
168	0x3d576dec	0.052595064
169	0xbe4a2d92	-0.19743946
170	0xbdb2329d	-0.0870106
171	0x3dd880df	0.10571455
172	0x3df97083	0.12179663
173	0x3e08623e	0.13318726
174	0x3cb7b17f	0.022423504
175	0x3d1be7b9	0.038062785
176	0xbd3281c9	-0.043580804
177	0xbe20cb27	-0.15702496
178	0xbe387988	-0.1801511
179	0xbcc70dab	-0.02429851
180	0xbe449e13	-0.19200926
181	0x3e1f0cf6	0.15532288
182	0x3cb2c478	0.0218222
183	0x3e2ea306	0.17054376
184	0xbe1e2c61	-0.15446617
185	0xbb16029b	-0.0022889737
186	0xbe69eda2	-0.22844556
187	0x3dd23d9e	0.10265659
188	0x3e2d7c46	0.16941938
189	0x3d820900	0.06349373
190	0x3deecf4e	0.11660634
191	0x3daf9105	0.08572582
192	0xbe45de8e	-0.19323179
193	0x3c51c96f	0.012804373
194	0x3e8bc814	0.27301085
195	0xbcfd2db4	-0.030905582
196	0xbdfe9d47	-0.12432342
197	0xbe14af5e	-0.14520022
198	0xbe6bc1cb	-0.23023145
199	0x3e91eb99	0.2850006
200	0xbe304c9f	-0.17216729
201	0xbead5d49	-0.33860233
202	0xbdd93a6f	-0.106068484
203	0x3bd1d2f1	0.00640332
204	0xbb60e5b2	-0.0034316597
205	0x3e2cc9f8	0.1687392
206	0x3d632770	0.055457532
207	0x3e83ed37	0.25766918
208	0xbe8fcd6d	-0.28086415
209	0xbdad9cee	-0.084771976
210	0xbe0bc0de	-0.13647792
211	0xbcf6b761	-0.030116739
212	0xbc353591	-0.0110601345
213	0x3e01c59c	0.12673038
214	0x3d7ffc31	0.062496368
215	0x3e25fb11	0.16209055
216	0xbd27bd1f	-0.040951844
217	0x3e2f186b	0.17099158
218	0xbe17ea18	-0.14835393
219	0x3e3351de	0.17511699
220	0xbc7981a8	-0.015228666
221	0x3e8630b0	0.2620902
222	0x3d6c71d1	0.05772573
223	0x3be7af1b	0.0070704347

bias f4 [7]
0	0x3d7d9e34	0.061918452
1	0x3f27f61e	0.6560992
2	0xbd41ec3a	-0.047344424
3	0xbea37215	-0.31922975
4	0xbe5a7732	-0.21334532
5	0xbd8d380d	-0.068954565
6	0xbdbe5598	-0.092936695
