experiements/starter_team/continuous_state/actor_critic/results/random_ac/checkpoints/model_afinal.pt (torch, 14911 bytes, 6 tensors)

weight f4 [64, 8]
00000000: 3378 0dbe ade5 583d 79c4 813d 744c 433e
00000010: 84c2 a03e 0638 6f3d 0a49 b43e 4f70 ba3c
00000020: 357d bbbe be91 2ebe a77c d6bd 07e8 613d
00000030: 331d 4abe d3bd 92be 0b0c 1bbe ca2f 003d
00000040: 9713 34be fc61 60be f279 ac3e 50e7 5cbd
00000050: b702 c8bd 203d 9e3e fc11 7b3c ef3c 46bd
00000060: ba2a 02be 9e5f 70be a53a a5bd 83cf 6abd
00000070: ed7a 22bd 4d0d 3d3e 46e7 8f3e f611 e7bd
00000080: 3551 26bd 8e79 833e 005d 963e 3531 a83e
00000090: fbf1 1bbe 3e46 3bbe 8ae1 c33d 6817 8fbe
000000a0: 5064 a1be 0adb 36be 250e 873e 8673 883d
000000b0: a2a3 8c3c 39f5 7fbd 5c84 74be 963c 1bbe
000000c0: 5c45 9b3e bf42 54be f61e 69be b37a 1ebd
000000d0: cb7f 84be 6f15 653b 4c29 f2bd 7b28 ac3e
000000e0: 75f1 1a3e 713d 10be cef1 0e3e 0550 513d
000000f0: 12f8 f9bd 70ec a3be de10 f7bd e0e1 e7bc
00000100: f3d2 a9be 8420 1ebe c320 853e c6f0 ea3d
00000110: c20a 963e 04ec 6b3e 8923 35be 7384 a3be
00000120: 40fb 9cbe aa42 223e 59fd c13d aeeb 3abe
00000130: 2f45 a4be 8b1c 83bd cb47 24bd b6b9 b8be
00000140: 38f9 8c3d 4c4a 7fbe d29f 8abe 319e 0ebe
00000150: d432 493e 76c3 b6be 30f0 6f3e 78c7 2cbe
00000160: fe82 4abd 9d4b e73c c5bb 6e3d 380a 833e
00000170: 9b4f 4a3e cd73 a1be b925 8bbe ef3d da3b
00000180: 10af 9fbe bd96 423e d045 b7bc 43f4 cd3d
00000190: 277a fb3d 0aad 01bd c9c2 5fbd a263 8c3e
000001a0: e59e d33d f764 a83c 3883 00bd 95f6 963e
000001b0: a9d9 053e a924 a23e 41bb a93e afb9 1c3d
000001c0: ccf2 0dbd 2c9a 13be 6852 8b3e dadb 3dbd
000001d0: 85cc 82be dc0e a5be e0e4 afbe a319 a2be
000001e0: d76e 1abe 120a 59bd 987e 36bd e7f1 f33d
000001f0: 5585 723e d738 bdbc 4349 503e 2eac 70bd
00000200: 452f 3ebe caef afbe 8d1d b0be 3a0e 73be
00000210: d36e 923e dfcb 5d3d e819 a33e dc1b 6a3e
00000220: 47cb bebe aa19 723d 6b81 aabd cff6 453e
00000230: 5b17 86be a83c 01be f633 1abe 5a61 083d
00000240: a298 cc3d f2e7 a3be 427f 20be 905f 5d3e
00000250: 280d 8e3e 0f89 5a3e f014 e63d 9df5 1f3b
00000260: e4b8 003e 0af5 bdbe 59cf 45be cd0e bfbd
00000270: 0007 be3c c063 2b3e 276c a6be df51 cd3d
00000280: b705 9e3e ac65 503d 4b2c aa3e 8afe 813d
00000290: 2535 963e 1dea 203e 6618 913d 86c5 80be
000002a0: 85bd a5be 6ce5 e63d 9183 78be f262 9dbe
000002b0: 58fe aebe 442e 59be be79 b43c b6be 173e
000002c0: c2ee 1c3e 420c 213e 8fce 8b3e e3ac a0bc
000002d0: ea48 14be 7f3b 163e 041d f33c 248c 7abd
000002e0: ad0f ab3e f1cc f9bd 8332 163e 856b 513e
000002f0: d0e5 943e 8ee1 cb3e 63ad d2bc 81d1 bb3c
00000300: a165 963e c6a8 0e3d 2dac 5dbe eb8b 49be
00000310: b999 683c 4194 5ebc f9f3 90be 58a3 86be
00000320: 7e1e 8bbd 3f73 073e 2b58 8d3e a5f7 363e
00000330: ffda b73e 9565 adbe d858 93be 3d01 8dbe
00000340: e671 d43c ec67 debd 6613 01be 5252 a53e
00000350: efb1 183e 1d9e 123d 649d 933d 2cd0 a23d
00000360: 34ff a7be d8f8 81be 2359 77be 0f22 3ebe
00000370: c63d 013e a629 39bd 813b 293e 1803 643d
00000380: d116 a93e a652 30be d783 7bbe c6ef 463e
00000390: 121f 993e 4983 a23e 9048 743e 5ce9 05be
000003a0: 3d0a aa3e f899 503d 1dcd 653e c8af c23e
000003b0: c41b 873d 74d9 143d d240 a6bd 8b7a fd3d
000003c0: 0e15 1b3e 18e5 8cbd a2a5 ab3c 6404 8e3e
000003d0: 797a 883d c05d 853d cee3 12be 6b53 493d
000003e0: 44b4 81bd dab4 03bd 2bec 7e3e 68f1 3f3e
000003f0: 4f26 a1bc f425 8d3e f138 6bbe fd50 6ebe
-0.13815384 0.05295341 0.06336302 0.19072133 0.31398404 0.058403037 0.35211974 0.022758631
-0.36618963 -0.17047784 -0.10472994 0.05515292 -0.19737701 -0.2866045 -0.15141313 0.031295575
-0.17585598 -0.21912378 0.33686787 -0.053931534 -0.09766143 0.3090601 0.015324112 -0.048397955
-0.12711611 -0.23473975 -0.08067826 -0.057326805 -0.039668012 0.18462105 0.28106135 -0.11282723
-0.04060479 0.25678676 0.29367828 0.32850042 -0.15229027 -0.18288514 0.095645025 -0.27947545
-0.31521845 -0.17856994 0.2637798 0.06662659 0.01716787 -0.062489722 -0.23878616 -0.1515983
0.30326355 -0.20728587 -0.22765717 -0.038691234 -0.25878748 0.0034955402 -0.11824283 0.33624634
0.15131171 -0.14085938 0.13959429 0.051101703 -0.12205519 -0.32016325 -0.12063764 -0.028305948
-0.33168754 -0.15442091 0.26001558 0.11471705 0.29305083 0.23039252 -0.17689337 -0.31936988
-0.3066044 0.15845743 0.0947215 -0.18253967 -0.32084033 -0.064019285 -0.04010753 -0.36079186
0.06883472 -0.24930686 -0.27075058 -0.13927533 0.19648296 -0.35696 0.23431468 -0.16872966
-0.04944133 0.028234297 0.05828454 0.25593734 0.1975693 -0.3153366 -0.27177218 0.006660215
-0.3118825 0.19002815 -0.022372156 0.10056355 0.12279158 -0.031659164 -0.05462912 0.27419764
0.10333041 0.020555956 -0.03137514 0.29485002 0.13071312 0.31668594 0.33150676 0.03826302
-0.034655377 -0.1441428 0.27211308 -0.046352245 -0.2554666 -0.322379 -0.34354305 -0.31660184
-0.15081345 -0.05298812 -0.044554323 0.119113736 0.23683675 -0.023098392 0.20340447 -0.058757953
-0.1857272 -0.34362632 -0.34397545 -0.23735896 0.28600177 0.054149505 0.31855702 0.2286219
-0.37264463 0.059106506 -0.08325466 0.19332431 -0.26189694 -0.12620795 -0.15058884 0.033295967
0.0999005 -0.32012898 -0.15673545 0.21618485 0.27744412 0.21341346 0.11234462 0.0024407872
0.1257053 -0.37101012 -0.19317378 -0.09328995 0.023196697 0.1673727 -0.3250439 0.10025381
0.30863735 0.05087821 0.33236918 0.063473776 0.2933742 0.15714307 0.07084732 -0.25150698
-0.32371154 0.112742275 -0.24268939 -0.30739552 -0.34178424 -0.21209055 0.022030707 0.14818844
0.15325454 0.15727332 0.2730603 -0.019613689 -0.1448094 0.14671133 0.029676922 -0.061168805
0.33410397 -0.121972926 0.14667706 0.20451172 0.29081583 0.39820522 -0.025717443 0.022927048
0.29374412 0.034828924 -0.21647711 -0.1968228 0.014196807 -0.013585151 -0.28311136 -0.26296496
-0.06792925 0.13227557 0.2760633 0.17867906 0.35909268 -0.33866563 -0.2877872 -0.27540007
0.025933217 -0.10859665 -0.12605056 0.32289368 0.14911626 0.03579532 0.07207754 0.07949862
-0.32811892 -0.25385165 -0.24155097 -0.1856768 0.12621221 -0.045205735 0.16526605 0.055667013
0.3302522 -0.17219028 -0.24562012 0.19427404 0.29906517 0.31740788 0.23855805 -0.13077301
0.33210936 0.050928086 0.22441526 0.38024735 0.06597093 0.036340192 -0.08117832 0.12376889
0.1514475 -0.06879634 0.020953003 0.27737725 0.06663985 0.06512022 -0.14344713 0.04915182
-0.06333211 -0.032154895 0.24894778 0.18744433 -0.019671587 0.27568018 -0.2297094 -0.23273082

bias f4 [64]
00000000: 1ee5 17be ea88 853e 14ec 83be 9a22 3cbd
00000010: 5550 95bd fd85 053e 81df 513e 4118 15be
00000020: be12 ee3d 057d a9be e566 9b3d 0f75 b03d
00000030: 5f59 9abe f90d 053e 9790 69be b182 bf3e
00000040: a8d2 773e 5520 9fbe 287a 193e 9308 a2be
00000050: bae8 313e e262 df3c 8128 a73e db39 4dbd
00000060: bd28 fc3d 4f7d a4be 3c70 72be 7d48 c8be
00000070: 1103 6f3e 3d0e 173e e4a0 be3e 1a31 073e
00000080: 8656 3e3e 8794 4ebe f406 0f3e eded 103e
00000090: 4141 c0be 023d 363d 2355 ea3d b648 3c3d
000000a0: a227 af3a d170 c23e ff9c 9bbe f5db 19be
000000b0: ab5b 8fbe 585b 69bd ba76 86be 47b4 893d
000000c0: 553e 483e a472 01be 8174 953d 3177 86be
000000d0: 1b3c 92be 6eb1 bbbd 4ebd dbbc 5d09 e63b
000000e0: 6fad 153e 3d99 abbc de9e 14be 6665 d1be
000000f0: 5b4c 163e b591 98bd d31f 7dbe bbfa debc
-0.14833495 0.2608102 -0.2576605 -0.045931436 -0.07290713 0.13039394 0.20495416 -0.14560033
0.116246685 -0.33103195 0.07587985 0.08616077 -0.3014631 0.12993611 -0.22809063 0.37404397
0.24201453 -0.31079355 0.14988005 -0.31647167 0.17373934 0.02726883 0.3264809 -0.050104003
0.12312458 -0.32126853 -0.23675627 -0.39117804 0.23341013 0.14751525 0.37232125 0.13202325
0.18587694 -0.20173846 0.13967496 0.14153261 -0.37549785 0.044491775 0.1144202 0.04596778
0.0013363252 0.37976697 -0.30393216 -0.15025313 -0.27999625 -0.056971878 -0.26262456 0.06723838
0.19555028 -0.12641388 0.07297612 -0.2626281 -0.28561482 -0.091647014 -0.026823666 0.007020159
0.14616941 -0.020947093 -0.14513728 -0.40897673 0.14677565 -0.074496664 -0.24719171 -0.027219167

weight f4 [32, 64]
00000000: 0141 fbbb b01e 0d3c 2eee 0dbe 340a f4bd
00000010: a768 423a 417b 92bd 530e 47bc d25a e3bd
00000020: 9030 5f39 8cbd 3dbc fbb2 05bd df64 38bd
00000030: abf4 75bd 62c0 0a3e 0469 f9bd 4196 0fbd
00000040: 0824 a5bc fe2a 19be 6188 de3d 3a98 453d
00000050: 3a3d 163e baaa 03be 6623 d73d 9121 be3d
00000060: dc0b 9ebd d88b c23d 44ba f63d 20bb c8bd
00000070: bb5b 163e cd89 073e 7c70 9b3d 7aa8 aebd
00000080: b72f ebbc 94c7 553c 05fb 893d 8459 163e
00000090: fa12 073d e214 c93d f0c0 81bd eb28 43bd
000000a0: ed90 9ebd b657 01bd a3d8 953d 4917 a5bd
000000b0: 685e 38bd ea5d aa3d 3c68 99bd db27 71bb
000000c0: acb3 8c3d a0d7 f0bd 50e6 5e3d 22df b43d
000000d0: 4ca6 75bb 69b7 e03c 9299 813b 1ffc 0f3d
000000e0: c656 95bd 5d40 02be 16b3 603c e005 ddbd
000000f0: 1a51 debd 7217 09be c949 483c 5e97 c0bd
00000100: 2958 133e 4beb ae3d 07ab c13b a525 853d
00000110: 0d93 46bd bc4e b03d 65b2 2cbd 75ab be3d
00000120: 8bc5 d43c d23f 2dbe aa32 d6bd 729f 0abd
00000130: a320 a5bb 1d98 063e ac6c 1bbd 1e8b 5e3c
00000140: 1360 bebd c995 2dbe 137b 113e 2bfb 733d
00000150: eca6 af3d db0b 5a3d 544f 2b3d 6b5d a33d
00000160: 7c9d 683d bef3 ad3d 8666 7c3d c11b 12be
00000170: 23e2 6cbd c603 d43b c5e3 993d 6cd1 7f3d
00000180: f685 893d fc47 7c3d e08f e63d c341 fb3d
00000190: 5bce 21be d35f 043c 9a14 8dbd 686c b13d
000001a0: 89b2 e13d ddf3 583d 2cb5 063d a625 aebd
000001b0: e6d3 1dbe a929 273d 86d0 55bd ce72 bd3d
000001c0: 6af9 dabd 8b39 a7bd fcb8 fa3d 5d5d ae3d
000001d0: cc4b e63d bfd5 a2bc a552 093e c97a 993d
000001e0: 5c76 c2bd e097 bdbd 3b74 03be 7500 bcbd
000001f0: 0f15 2a3d a3a5 2abe 19c3 6a3d cdb7 763d
00000200: 51d9 a9bd e27b c13d b465 28bd 1745 f4bd
00000210: 84ce 1abc e846 ec3c 3d57 a53d 933a 68bc
00000220: 1aec a13d af3c 0a3d c3ea cc3d 8ce0 313d
00000230: 984a a7bc e8fa 2ebe f307 2e3d 993d c6bd
00000240: a93e b63d e35b 813d d87b cbbd 68c8 e3bc
00000250: 50fa a1bd 82f9 703d b1eb 943d 90a1 ddbd
00000260: 4432 bfbd 39ff cd3d 1542 793d e5c6 f83d
00000270: a918 eabc ef64 f3bc 781c 97bc 86b3 743d
00000280: 30e2 c73d 11be ff3c 1af7 233d dba4 5cbd
00000290: 9c4b b63d 0c8c 6abd 0fb5 d63c 1f6c a1bc
000002a0: 6b2e cb3c 5eb9 44bc d451 d33c 9fed 8e3d
000002b0: d9b4 d83d f230 2d3c 3ec2 143e c3e1 f4bd
000002c0: f9d3 5c3c 7a4d b13d e3de 06bd 6cfc bb3d
000002d0: af7a dabd 9ee9 0b3d edae afbd ad36 883d
000002e0: 106b 88bd f1ac cb3d 694f c03c 562b 54bd
000002f0: bc3b c83d 4cdc f2bc 908b 8d3d 0034 c13d
00000300: 8ee6 273d d557 88bd 6a2c 153e eeed adbc
00000310: 7ae1 783d 43da 6fbd ee8a 8abd 0057 a43b
00000320: 2547 f2bc fd24 153e 6d10 c63c 5593 a53d
00000330: 6f16 47bd c9a1 edbc b53a 08ba 5dd5 33bd
00000340: c15b c03c d77e 4d3c c7d1 fcbd bcb3 083c
00000350: a9a7 05be 84df dbbc ba4d e6bd c030 673d
00000360: 81cf 933d 0340 bfbc bc26 c4bc 315a 9abc
00000370: a4e1 0fbe a5d8 343d 62ba b63c 4b35 03be
00000380: cdc4 d03d 2d90 d73d 08f1 01bd 53f1 a0bd
00000390: 1242 183e 9c56 6e3d 3b5d 863d 78de 883d
000003a0: eef5 ce3d 7ec6 3abd 710c 023e a93e a13d
000003b0: 5764 c23d c3aa ef3d a69d 1339 83c4 e4bd
000003c0: 8047 95bd e40c 9dbd 17e5 203c edbb 923d
000003d0: 0b5e 93bd 3fde cdbd d4f7 83bd 00f7 663d
000003e0: b860 03be a5a8 193d 6bb4 0b3e aa61 3f3d
000003f0: dd85 afbc 1ab1 2f3e 59af 5e3d 6179 83bd
-0.007667661 0.0086132735 -0.1386039 -0.119160086 0.0007416107 -0.07152415 -0.012149411 -0.11101307
0.00021285028 -0.011580836 -0.032641392 -0.045018073 -0.060047787 0.1354995 -0.12178233 -0.035055403
-0.020158783 -0.14957806 0.10865856 0.048240878 0.14671794 -0.12858096 0.105047986 0.09283746
-0.07717106 0.09499329 0.12047246 -0.09801316 0.1468343 0.1323616 0.07589814 -0.08528228
-0.028709276 0.013048071 0.06737331 0.14682585 0.03297708 0.09818436 -0.06335628 -0.047646444
-0.07742486 -0.03157779 0.07316711 -0.08061082 -0.045011908 0.08318694 -0.07490584 -0.0036797437
0.06870207 -0.11759877 0.054418862 0.08831622 -0.0037483154 0.027431207 0.0039550746 0.03515255
-0.07291941 -0.12719865 0.013714572 -0.10792136 -0.10855313 -0.1338785 0.012224623 -0.09403871
0.14389099 0.08540972 0.0059102806 0.06501321 -0.048480082 0.086087674 -0.042162318 0.093100466
0.025973102 -0.16918877 -0.10458882 -0.033843465 -0.005039291 0.13143964 -0.037945434 0.013582973
-0.092956685 -0.1695167 0.14207105 0.059565704 0.0857676 0.053233963 0.0418237 0.079768024
0.056790814 0.08493756 0.06162121 -0.142684 -0.05783285 0.0064701764 0.07514147 0.06245558
0.06715004 0.061592087 0.11257911 0.122684024 -0.15801375 0.008079487 -0.06888695 0.08663255
0.11020381 0.05296694 0.032887623 -0.085032746 -0.15412864 0.040811215 -0.052200817 0.09250413
-0.10692103 -0.08165272 0.12242314 0.085139014 0.11244926 -0.019877313 0.13410433 0.074941225
-0.094952315 -0.092574835 -0.12837307 -0.09179775 0.04152399 -0.16664748 0.057314966 0.06023388
-0.08293403 0.09447457 -0.041112617 -0.1192724 -0.009448651 0.028842404 0.0807328 -0.014174121
0.07906361 0.03374928 0.10005715 0.043427035 -0.020421311 -0.170879 0.04248805 -0.096797176
0.0889867 0.06316354 -0.09935731 -0.027805522 -0.079090714 0.0588317 0.07271517 -0.10821831
-0.09335759 0.100584455 0.060854036 0.12147311 -0.028576212 -0.029711215 -0.018446192 0.05974152
0.09759939 0.03121856 0.040030576 -0.053868156 0.0890114 -0.057262465 0.026209382 -0.019704876
0.024802407 -0.012007086 0.025795855 0.069789164 0.10581369 0.0105707515 0.14527223 -0.11957123
0.013478273 0.086573556 -0.032927405 0.09179005 -0.10667931 0.03415834 -0.08578286 0.066510536
-0.066610456 0.09945095 0.023475366 -0.05179914 0.097770184 -0.029646061 0.06911385 0.09433746
0.04099136 -0.06657378 0.14567724 -0.021231618 0.060761906 -0.05855776 -0.0676478 0.005015254
-0.02957494 0.14564891 0.024177754 0.08084742 -0.04860538 -0.02900781 -0.00051967363 -0.04390465
0.023481252 0.012542448 -0.12344699 0.008343633 -0.13052239 -0.026839979 -0.11245294 0.056442976
0.072173126 -0.023345953 -0.023944251 -0.018841835 -0.14050919 0.04415192 0.022305671 -0.12813298
0.10193787 0.10525546 -0.031724006 -0.07858529 0.14868954 0.058188066 0.06560751 0.066830575
0.10105501 -0.045599453 0.12700059 0.078732796 0.094917946 0.11702492 0.00014077741 -0.11170294
-0.07289028 -0.07668474 0.009820244 0.0716475 -0.07195672 -0.10052156 -0.06443754 0.0563879
-0.12829864 0.037514348 0.13643043 0.046724 -0.021426136 0.17157403 0.054366443 -0.064196356

bias f4 [32]
00000000: e06f 29bd 4be9 133d a20e 28be ff09 70be
00000010: 6b67 463e 9c60 053e e211 233e bfe3 a1bd
00000020: 7948 fc3d 234b ad3d 3b45 233e 3b89 ffbd
00000030: fe3d f1bd e2e2 033c 426a c9bd 81ef 0bbd
00000040: d488 2c3e 0990 b23d aa30 bf3d d9b8 803d
00000050: 4aa6 403e a288 f43d 7897 12be 0b59 0cbe
00000060: d406 183d f06a 0abe 4739 063e 0633 92bd
00000070: 6348 2fbe bea1 55be d2d1 8b3d bc3e 87bc
-0.041366458 0.036111157 -0.16411832 -0.23441313 0.19375388 0.13025135 0.1592479 -0.07904767
0.123185106 0.08461597 0.15944378 -0.124773465 -0.11779402 0.008049699 -0.0983472 -0.034163956
0.16849071 0.08718879 0.09335454 0.06285257 0.18813434 0.11940123 -0.14315593 -0.13705842
0.037115887 -0.13517356 0.13107787 -0.07138638 -0.17117457 -0.20862481 0.068271294 -0.016509406

weight f4 [7, 32]
00000000: a0a4 0c3e ac25 033e 9ff2 913d d595 37be
00000010: f064 9cbd fa16 623e efed f03d b328 d1bd
00000020: fc23 023e bdea 0a3e 8c40 293e cc81 22be
00000030: 02b6 bd3d e79a 973d 054e 13be 1835 6abd
00000040: c392 1b3e 0ea8 d93c 20d8 763e 4f59 be3d
00000050: 2e4f 473e 86e0 1fbe a67f a13d 5adb 11be
00000060: f60e 3f3d 7c56 29be 8686 5c3e fbe8 8cbd
00000070: 6c1c 24be 3d20 10be 0471 0fbe 6f25 6d3c
00000080: 0c5b 6f3e 6423 c83e a499 98be 7d84 e6be
00000090: 8e4d e93e dc73 b43e f253 dbba 8358 a0be
000000a0: 64ec 523e 015a 083f 32c6 b73d e4b4 8bbe
000000b0: 4eec a6be 6add 78be 1011 eebe 8a5e 43be
000000c0: 22e7 473e 71b1 b33d 14c3 f53e 8f8e 593e
000000d0: d1e1 8c3e 366a 323e 40a1 47be 2570 d6be
000000e0: cbb5 f1bd 27ac b2be 74bd 153f debc 56be
000000f0: 6311 edbe dac6 27be 58a5 f5bc 750d cebe
00000100: cb08 d1bd 81e7 f4bd 3f31 08be c129 0f3e
00000110: 1fb1 c53d 4bbe 90bd bf2e 143e b34d 99bb
00000120: 06e5 ecbc 0710 04be 5cfa 073e 8e1d 033e
00000130: 25c1 a43d 1a39 25bd 7a79 29be 65c5 02be
00000140: a44d 0c3e b233 f43d f994 743d 54e9 293c
00000150: 37c5 2b3d 508e 993d 5493 513d 22ee a53d
00000160: 1e07 243e 6117 ffbc e054 c43d 5a83 ffbd
00000170: e43f 9fbd 5b12 373d f298 e43d 0ca9 113e
00000180: c1f8 a83d 8971 a7bd 9f9f e0bc d4f4 6e3d
00000190: ce47 abbd 90cd 61be 7e94 0abe 176d be3c
000001a0: f24a c5ba d448 a3bd 7fe7 07be 7bc1 b8bd
000001b0: 4c19 b0bd 6264 ca3d 9644 b43b eeb3 083d
000001c0: ee87 d7bd 4bb4 0fbe 3911 e6bd 413c 8ebd
000001d0: 31c1 41be 423d c8bd dc38 debd d846 8f3d
000001e0: 0079 c83d b14f 403e 78bf 45be 11e9 56bd
000001f0: 7f11 e5bc 754d 303e b682 f03c 6779 453e
00000200: 4318 74be c938 3ebe 5f0e 9e3d cf18 433e
00000210: efff 84be 9cc1 53be 4595 0fbe d3f3 6cbd
00000220: 0659 60be 7263 8dbe eb59 48be 0cff 303e
00000230: 2f2b 3b3e eef1 9dbd 0fb7 e73d 9029 453e
00000240: ba9e 20be d27b 3fbe d102 3d3d 3b4c fa3d
00000250: 9efd 28bd a73d c5ba 7fcf e83d a28a ab3d
00000260: 9611 95bd 64cd fabc 4257 3f3d 7aaa e2bd
00000270: 2b65 8c3d f5f4 513e 906c 2bbd 3cf2 0d3e
00000280: 674b a8bd 5572 48bd d3d1 113e e773 683e
00000290: 667a a6bc 27e9 67be fe12 5fbd 3a7c 773e
000002a0: 0b32 513d 5861 4cbe aa83 b4bd fad2 db3d
000002b0: f511 fd3d 08ae 093e c147 c73c ec06 233d
000002c0: 5d91 39bd cb35 22be 198f 3abe 9390 d0bc
000002d0: 2b26 46be 8f58 1e3e 5422 bd3c c79e 303e
000002e0: e90a 1ebe 99a4 0cba c04d 6cbe 83d0 d33d
000002f0: e58a 2f3e d85c 853d ede3 ef3d 2938 b33d
00000300: 17f1 48be 68a9 1e3c 794d 8d3e 9de4 debc
00000310: 35fc 02be a14e 18be dc31 6ebe 0196 933e
00000320: 01e3 32be 375f afbe 0048 ddbd a464 0f3c
00000330: 0b75 06ba fe1c 2f3e 725d 6f3d 8f37 853e
00000340: 5169 91be adaf b1bd eb95 0fbe ca4d ffbc
00000350: d5fd 59bc 9d1c 013e 9c4c 843d 32d2 293e
00000360: ca41 24bd 1586 323e fbea 1bbe 09d3 353e
00000370: 95ed 3fbc f3d4 873e ce6c 6e3d 512a 2c3c
0.13734674 0.1280734 0.071263544 -0.1792825 -0.0763644 0.22079077 0.11764132 -0.10212841
0.1270904 0.13566108 0.16528529 -0.15869826 0.09263231 0.07402592 -0.14385231 -0.05717954
0.15192704 0.026569393 0.24105883 0.09294378 0.19463798 -0.15612993 0.07885675 -0.14243832
0.046645127 -0.16536897 0.21535692 -0.06880375 -0.16026467 -0.14074798 -0.14007956 0.014474257
0.23374575 0.390895 -0.29804718 -0.45022956 0.45566982 0.35244644 -0.0016733392 -0.3131753
0.20597988 0.53262335 0.0897335 -0.27286446 -0.3260216 -0.24303213 -0.46497393 -0.19079033
0.19521764 0.08774079 0.48000395 0.21245788 0.27516034 0.17423329 -0.19495106 -0.41882434
-0.118022524 -0.34896967 0.5849221 -0.20970485 -0.46302328 -0.1638445 -0.029986069 -0.40244642
-0.10206755 -0.11958218 -0.13300036 0.13980772 0.09652924 -0.070675455 0.14470957 -0.004678452
-0.0289178 -0.12896739 0.13279098 0.12804243 0.08044652 -0.04033766 -0.16550246 -0.12770613
0.13701493 0.119239226 0.059712384 0.010370571 0.041936126 0.07497847 0.051165894 0.08102061
0.1601834 -0.031139078 0.09586501 -0.12476225 -0.07775858 0.04469524 0.111619845 0.14224643
0.08250571 -0.08175952 -0.027419863 0.058338955 -0.08363305 -0.22051072 -0.13533208 0.023245377
-0.0015052243 -0.07972875 -0.13271903 -0.090212785 -0.08598575 0.09882428 0.00550134 0.03337472
-0.105239734 -0.1403362 -0.11233754 -0.06945086 -0.18921353 -0.09777309 -0.10850689 0.06995934
0.09788704 0.187804 -0.19311321 -0.052468363 -0.027962444 0.17217048 0.029359203 0.19284593
-0.2383738 -0.1857635 0.07717585 0.19052432 -0.25976512 -0.20679325 -0.14021786 -0.057849716
-0.2190896 -0.27614933 -0.19565551 0.17284793 0.18278192 -0.0771216 0.113142125 0.19254136
-0.1568555 -0.18699577 0.046145264 0.12221571 -0.041257493 -0.0015048281 0.11367702 0.083760515
-0.07278745 -0.030615516 0.046714075 -0.11067672 0.06855234 0.205036 -0.04185158 0.13861936
-0.08217507 -0.04893716 0.14240198 0.22700463 -0.020322036 -0.22647534 -0.05446147 0.24168482
0.051073115 -0.19959009 -0.088141754 0.107336 0.12356941 0.13445294 0.024326207 0.039801523
-0.045304645 -0.15840833 -0.1821865 -0.025459563 -0.19350497 0.1546347 0.023087658 0.17248069
-0.1543385 -0.0005365103 -0.23076534 0.10342505 0.17142828 0.06511849 0.11713395 0.08750946
-0.19623218 0.009683944 0.2759817 -0.02720862 -0.12791522 -0.14873745 -0.23261207 0.2882538
-0.17469408 -0.3425233 -0.108047485 0.008752022 -0.0005129135 0.17100903 0.058438726 0.2601895
-0.28400663 -0.086760856 -0.14022033 -0.031165022 -0.013305147 0.12608571 0.064599246 0.1658409
-0.040101804 0.1743396 -0.15226357 0.17756285 -0.011714359 0.26529655 0.058209233 0.010508136

bias f4 [7]
00000000: c806 813d 2528 2a3f e937 41bd 0271 a3be
00000010: d5af 5cbe bca1 92bd b499 c8bd
0.063001215 0.66467506 -0.04717246 -0.31922156 -0.2155145 -0.07159755 -0.097949415
