experiements/starter_team/continuous_state/actor_critic/results/random_ac/checkpoints/model_c3000.pt (torch, 14135 bytes, 5 tensors)

weight f4 [64, 8]
0.32015595 -0.21049868 -0.1908469 -0.26833612 -0.25550392 0.26288137 -0.1763256 -0.05941111
-0.06470411 -0.27490327 0.10564595 -0.32654443 -0.3253272 -0.09858283 -0.29717514 -0.26914838
0.22616668 -0.049572323 0.16336879 0.206739 0.028325623 -0.31415713 -0.13183428 -0.3306459
-0.18034704 -0.280041 -0.14792432 0.28235388 -0.2852936 0.0738851 -0.28275335 -0.18344326
0.26526025 0.2285428 0.20863779 0.2521415 -0.005776264 -0.066257864 -0.0027766847 0.11616534
0.083039545 0.2079585 -0.16367087 0.25307176 -0.26920828 -0.26345557 -0.10323339 0.25819322
0.0584595 0.3313026 0.062501185 -0.09738225 -0.06093502 -0.2625082 -0.2255263 0.015196739
-0.28104222 0.21883936 0.13681418 0.333158 -0.3095778 -0.2228696 -0.07310888 0.3235995
0.027905494 -0.060411282 0.2510262 -0.23830464 0.33248082 0.13130394 0.2716116 0.038982175
0.16172206 -0.2229183 0.14097153 0.25107607 -0.31490156 -0.08226554 -0.3399031 -0.0064296667
-0.30431092 -0.24371222 0.30996987 -0.22687131 0.33411777 0.024580525 -0.054993235 0.20020168
-0.09523386 0.21220863 -0.10188607 -0.16374348 0.21984938 0.028968962 0.354281 -0.15561347
-0.019900858 0.32873163 -0.14217159 0.15479566 0.21239708 0.23601586 -0.12741771 0.056357693
-0.14505582 0.118610606 0.13076639 0.26336452 0.20506975 0.09940452 0.06341079 0.03363099
0.035832312 -0.03702005 0.1902246 0.09365813 0.1459058 -0.048734076 0.0215428 0.07320566
0.15826681 -0.3142944 0.22863899 0.22405566 -0.09899229 -0.2345381 0.071761884 -0.1200838
0.23268466 0.02651938 0.12709618 -0.17111912 0.03970698 0.19718245 0.35833892 -0.25663227
0.116627745 0.044414967 -0.23785156 -0.106604114 0.27498582 0.25158325 0.22836849 -0.1708429
-0.09711667 0.14043917 0.32208884 -0.22036836 -0.0864384 0.33747283 -0.03387073 -0.32102513
-0.089779854 0.10404105 -0.110197425 0.15329 -0.2514917 -0.33444092 0.11819128 0.10440095
-0.16902135 -0.30406702 0.11207494 -0.07942996 0.21509281 -0.092968725 0.29356924 0.048524167
0.05327393 0.014775374 0.22710122 -0.3254539 0.3025648 -0.31367338 0.05035623 0.020908952
-0.0349837 -0.09301589 -0.29551762 -0.30353943 0.27462688 0.36802122 0.00726514 0.22119325
-0.12125086 0.3243755 0.23141637 0.11827747 0.23563229 -0.21090084 -0.018182995 0.2861059
0.0014715597 -0.28085998 -0.33437654 -0.19115208 0.034733474 -0.32741106 -0.08301206 0.11074349
0.1593404 -0.11300629 0.13976473 -0.24604347 0.07157177 -0.038902313 -0.2703794 -0.15381362
-0.2995207 0.1298125 0.14069788 -0.01121871 -0.29126573 -0.28676698 -0.24717937 0.06952617
0.2833612 -0.24915336 -0.33136317 -0.11647427 -0.09942876 0.06812131 0.035661787 0.112037875
0.06124148 -0.28644568 0.07795855 -0.15097344 -0.041519642 -0.28847674 0.2406618 0.24037397
-0.1583177 0.058448292 -0.2852329 0.09825434 -0.13755536 -0.13076964 -0.072285175 -0.12012491
0.112686545 0.049437523 0.16532895 -0.16743991 -0.32592055 -0.03678798 -0.20192964 -0.18052588
0.29758066 0.06818645 -0.008515526 -0.17805292 -0.106280185 0.038224287 -0.28009266 0.31941357
00000000: 7beb a33e f78c 57be 5f6d 43be 5a63 89be
00000010: 69d1 82be 6398 863e b38e 34be 1059 73bd
00000020: 9783 84bd 1fc0 8cbe e75c d83d d530 a7be
00000030: 4991 a6be cbe5 c9bd 5727 98be d1cd 89be
00000040: 3d98 673e 590c 4bbd 264a 273e 63b3 533e
00000050: 230b e83c 34d9 a0be 91ff 06be 6b4a a9be
00000060: e5ac 38be 8961 8fbe 7979 17be b090 903e
00000070: 0112 92be 1251 973d 0cc5 90be 8dd8 3bbe
00000080: 31d0 873e 2007 6a3e 25a5 553e b118 813e
00000090: d046 bdbb 34b2 87bd 0af9 35bb 18e8 ed3d
000000a0: a310 aa3d 13f3 543e 5699 27be 9f92 813e
000000b0: abd5 89be a6e3 86be 076c d3bd e731 843e
000000c0: 3b73 6f3d 7fa0 a93e 9f00 803d 5870 c7bd
000000d0: 0097 79bd 7a67 86be 5ef0 66be befb 783c
000000e0: c4e4 8fbe 6d17 603e 0419 0c3e af93 aa3e
000000f0: fb80 9ebe ee37 64be 1cba 95bd d5ae a53e
00000100: 109a e43c d271 77bd 8286 803e 2206 74be
00000110: ed3a aa3e 8a74 063e ad10 8b3e c6ab 1f3d
00000120: 789a 253e b244 64be d75a 103e 0b8d 803e
00000130: c73a a1be d67a a8bd c707 aebe f4af d2bb
00000140: a4ce 9bbe b28f 79be 5fb4 9e3e f450 68be
00000150: 7c11 ab3e 195d c93c 9640 61bd ab01 4d3e
00000160: f809 c3bd 384d 593e a5a9 d0bd 5fac 27be
00000170: 3220 613e 5150 ed3c 5264 b53e 2359 1fbe
00000180: 2007 a3bc 834f a83e 6e95 11be c182 1e3e
00000190: 9f7e 593e 24ae 713e ca79 02be 53d7 663d
000001a0: 8389 14be 1eea f23d a0e7 053e b7d7 863e
000001b0: cefd 513e 9994 cb3d 84dd 813d a6c0 093d
000001c0: e7c4 123d 56a2 17bd 3dca 423e d5cf bf3d
000001d0: 5468 153e 629d 47bd 877a b03c d9ec 953d
000001e0: b210 223e 32eb a0be 5720 6a3e d96e 653e
000001f0: 78bc cabd c12a 70be e5f7 923d 7fee f5bd
00000200: e344 6e3e 2c3f d93c 8025 023e da39 2fbe
00000210: c9a3 223d 32ea 493e 3378 b73e 4e65 83be
00000220: 87da ee3d 78ec 353d 5c8f 73be 4253 dabd
00000230: f1ca 8c3e 85cf 803e 6ed9 693e 71f1 2ebe
00000240: 1be5 c6bd 49cf 0f3e d4e8 a43e 3ea8 61be
00000250: 9e06 b1bd 3dc9 ac3e 09bc 0abd 685d a4be
00000260: 80de b7bd 7913 d53d 30af e1bd 0ef8 1c3e
00000270: 85c3 80be d73b abbe 450e f23d 2ad0 d53d
00000280: ef13 2dbe acae 9bbe 8c87 e53d 2dac a2bd
00000290: 4a41 5c3e 6366 bebd b54e 963e 47c1 463d
000002a0: c435 5a3d 6914 723c 398d 683e e5a1 a6be
000002b0: c6e9 9a3e cc99 a0be 5642 4e3d 4049 ab3c
000002c0: 114b 0fbd 1d7f bebd 164e 97be 8569 9bbe
000002d0: e59b 8c3e 476d bc3e 6910 ee3b 7c80 623e
000002e0: 5f52 f8bd 8c14 a63e 6af8 6c3e 753b f23d
000002f0: 9749 713e 64f6 57be 81f4 94bc 797c 923e
00000300: 5ae1 c03a e1cc 8fbe 6733 abbe 5fbd 43be
00000310: b044 0e3d 6ca2 a7be 3a02 aabd 7ccd e23d
00000320: 212a 233e d76f e7bd 7c1e 0f3e d2f2 7bbe
00000330: 3894 923d 0858 1fbd 2b6f 8abe 5181 1dbe
00000340: c75a 99be 91ed 043e 1b13 103e aece 37bc
00000350: c820 95be 1fd3 92be 971c 7dbe bd63 8e3d
00000360: b814 913e 0f22 7fbe 6fa8 a9be 108a eebd
00000370: 4ea1 cbbd 2f83 8b3d 1812 123d 1d74 e53d
00000380: 59d8 7a3d 02a9 92be bba8 9f3d c898 1abe
00000390: 8010 2abd 39b3 93be 0c70 763e 9824 763e
000003a0: 091e 22be 7a67 6f3d 0c0a 92be 9239 c93d
000003b0: 50db 0cbe 7ae8 05be 400a 94bd 0c04 f6bd
000003c0: 34c8 e63d 007f 4a3d fe4b 293e 5e75 2bbe
000003d0: 0fdf a6be feae 16bd a5c6 4ebe c7db 38be
000003e0: 7e5c 983e 56a5 8b3d b484 0bbc 8153 36be
000003f0: 6da9 d9bd 1291 1c3d 4e68 8fbe 2d8a a33e

bias f4 [64]
-0.27949882 0.0077500353 0.33174786 -0.28570446 -0.02549688 -0.24083543 -0.15676653 0.33692884
0.33200547 -0.04514866 -0.2884664 0.05462513 -0.19223984 -0.07567632 -0.075562075 -0.31210712
-0.033995774 0.33860734 -0.21170668 -0.09853668 -0.029928058 -0.17807613 0.14588653 -0.04169134
0.3398657 0.24896853 0.20850886 -0.26188207 0.014540355 0.10163284 0.28800395 -0.16838607
0.21215566 0.038551226 -0.14620852 -0.09287942 -0.2688477 -0.33574116 -0.28944513 0.11858888
0.27336755 0.10144843 -0.2856425 -0.015353217 -0.14286499 -0.26595685 -0.35232273 0.084963426
-0.09949166 0.15928726 0.34445915 -0.07962699 0.32669145 -0.25623116 -0.15526372 0.27723578
0.28795588 0.111544736 -0.093122795 -0.025384404 -0.19621278 -0.25858718 0.025142638 -0.30646205
00000000: 781a 8fbe 02f4 fd3b dbda a93e db47 92be
00000010: d5de d0bc 909d 76be 6887 20be f081 ac3e
00000020: 9ffc a93e cded 38bd deb1 93be 9abe 5f3d
00000030: 85da 44be 30fc 9abd 4ac0 9abd 81cc 9fbe
00000040: 273f 0bbd f15d ad3e a3c9 58be 99cd c9bd
00000050: b02b f5bc 9759 36be 4763 153e 8ac4 2abd
00000060: e102 ae3e 9bf1 7e3e 5983 553e 6815 86be
00000070: ab3a 6e3c e124 d03d 4175 933e 666d 2cbe
00000080: 553f 593e e4e7 1d3d b0b7 15be 9137 bebd
00000090: 68a6 89be 44e6 abbe 2732 94be bade f23d
000000a0: d5f6 8b3e 32c4 cf3d bc3f 92be 0f8c 7bbc
000000b0: 334b 12be 7f2b 88be a563 b4be 4e01 ae3d
000000c0: 49c2 cbbd 331c 233e f35c b03e 7a13 a3bd
000000d0: 1a44 a73e bb30 83be 74fd 1ebe d9f1 8d3e
000000e0: f46e 933e 9171 e43d 2ab7 bebd f4f2 cfbc
000000f0: 01ec 48be 8a65 84be eff7 cd3c 98e8 9cbe

weight f4 [32, 64]
0.07476454 0.099260546 0.02517306 0.033790935 0.14468113 -0.044856384 0.115040906 0.109060526
-0.10283489 0.07637568 -0.061120603 -0.021568313 -0.0053223954 0.11858341 0.067875914 0.043231003
-0.0035204506 0.09769836 0.03751632 -0.09376171 -0.066893145 0.099825054 -0.116538554 0.07855396
-0.02600494 0.040541265 -0.044542473 0.011138785 0.044688668 -0.04781501 0.10783526 0.08930397
-0.07629195 -0.08779923 0.004945896 -0.0763017 0.019980395 0.02556842 0.015526602 -0.023874009
-0.067091756 -0.117063336 0.029289605 0.07422441 0.01960375 -0.053717453 -0.09567498 0.17272723
0.07731687 0.061350506 0.14262427 -0.08167154 0.047718473 0.012110046 0.053648494 -0.033062812
-0.06568531 -0.06625449 0.035033923 0.006513788 -0.07380721 0.120328516 -0.029897835 -0.05486934
0.043169662 0.05902932 0.06435298 0.08064793 -0.0992195 0.02595491 0.025620736 -0.079527184
-0.013750926 -0.07650125 0.02693826 -0.057282954 -0.05570238 -0.04225818 0.009839066 0.062525444
-0.06539415 0.13657112 0.009799982 0.04573217 0.0191191 -0.021966545 -0.06763819 0.021172862
0.019517997 0.071968794 -0.020254994 0.024373107 -0.08781279 -0.016447222 -0.08224762 -0.09871996
-0.022886895 0.026420051 0.08788683 -0.07411536 0.037599508 -0.033218995 0.05279654 -0.12644453
0.0012778408 0.07180064 -0.06498133 0.086384006 -0.026115675 0.05480372 -0.06812039 0.04564606
0.04480724 -0.07004419 0.08114862 0.014857795 0.09837596 -0.060456842 -0.06790871 -0.12384466
0.12312321 0.08529516 -0.037545297 0.051373582 -0.07464191 -0.06470529 -0.05056505 0.055794347
-0.08592359 -0.008550277 -0.06827363 0.08051295 0.051953834 -0.015705762 0.07695421 -0.049099695
-0.033667814 -0.12478588 0.1178403 0.09607819 -0.06572372 0.07505363 -0.019466886 0.04899769
0.12439176 0.075124964 -0.118927985 -0.030104417 0.08108405 0.06578324 -0.0010449607 -0.10771344
-0.10429052 -0.048963256 0.0112769455 0.1039439 -0.07032172 -0.048871975 0.063385665 0.043273695
0.011401552 0.113248415 0.07191632 0.030448787 0.008965245 0.07563342 -0.09686498 -0.036346257
-0.0123978425 -0.061624993 0.09971491 0.09300931 0.044953212 -0.09609689 -0.04451705 0.040539704
0.10128977 0.057820436 0.01727646 0.114189945 -0.1040145 -0.048007652 -0.12272963 -0.12370022
0.04344447 0.044114083 -0.06274624 0.016689211 -0.043261316 -0.11153333 0.02588359 -0.058902454
-0.09497617 -0.03431822 0.0034921758 -0.07637901 0.08241009 0.06038782 -0.09317956 0.13743618
0.016741788 -0.003566188 -0.095087245 -0.07163094 0.039161813 -0.017411854 -0.07572468 0.059995193
0.061133496 0.06303602 0.01670893 0.10956032 -0.02390887 0.017864762 -0.009895126 -0.011103023
0.064718924 -0.048425954 -0.042807523 0.08210099 -0.09715137 -0.0783049 -0.08146768 0.09347283
0.030723961 0.10235741 -0.07108506 0.05958085 -0.03957268 -0.06523936 -0.040633734 -0.060424868
0.009018651 0.0040033185 -0.09404643 -0.037722565 0.06311858 -0.009007378 -0.11743304 -0.11521959
0.15216579 0.0040586437 0.146006 0.123720616 0.049223624 0.014770095 0.0150332 -0.11035594
-0.0035370584 0.01691486 0.023132937 -0.10752749 -0.106550045 -0.04127136 0.11820814 -0.047482423
00000000: 271e 993d 1d49 cb3d bc37 ce3c 5d68 0a3d
00000010: 4a27 143e 54bb 37bd 919a eb3d 205b df3d
00000020: 199b d2bd da6a 9c3d 9959 7abd 08b0 b0bc
00000030: 7d67 aebb dcdb f23d 8702 8b3d fe12 313d
00000040: 5cb7 66bb 1416 c83d b6aa 193d 2406 c0bd
00000050: 46ff 88bd 1471 cc3d c4ab eebd e6e0 a03d
00000060: 5008 d5bc 990e 263d 2b72 36bd 737f 363c
00000070: 770b 373d acd9 43bd bcd8 dc3d 00e5 b63d
00000080: f43e 9cbd 15d0 b3bd 2f11 a23b 1144 9cbd
00000090: edad a33c dd74 d13c 4a63 7e3c 6d93 c3bc
000000a0: 6767 89bd e7be efbd c1f0 ef3c f802 983d
000000b0: 0b98 a03c d506 5cbd 3ef1 c3bd 68df 303e
000000c0: 4f58 9e3d ab4a 7b3d 190c 123e 6943 a7bd
000000d0: 7274 433d 3769 463c 86be 5b3d df6c 07bd
000000e0: 0586 86bd 6fb0 87bd bb7f 0f3d 9d71 d53b
000000f0: 3c28 97bd cc6e f63d 4eec f4bc acbe 60bd
00000100: acd2 303d bac8 713d 7fcb 833d be2a a53d
00000110: 9833 cbbd 649f d43c 94e2 d13c 26df a2bd
00000120: 904b 61bc b0ac 9cbd a0ad dc3c 88a1 6abd
00000130: 2e28 64bd ea16 2dbd 0934 213c 570d 803d
00000140: 5eed 85bd 4dd9 0b3e 1b90 203c a851 3b3d
00000150: a99f 9c3c 2ff3 b3bc e485 8abd b672 ad3c
00000160: 35e4 9f3c 6064 933d cded a5bc 1caa c73c
00000170: 31d7 b3bd 53bc 86bc 7171 a8bd b12d cabd
00000180: 4c7d bbbc dd6e d83c 03fe b33d cbc9 97bd
00000190: f101 1a3d a410 08bd 2f41 583d ad7a 01be
000001a0: 397d a73a 370c 933d ee14 85bd 19ea b03d
000001b0: 8af0 d5bc de79 603d b482 8bbd 5df7 3a3d
000001c0: cc87 373d 5473 8fbd 3f31 a63d 1c6e 733c
000001d0: 5679 c93d 98a1 77bd b913 8bbd 45a2 fdbd
000001e0: 0628 fc3d 3baf ae3d 19c9 19bd 1b6d 523d
000001f0: dcdd 98bd 3584 84bd 4c1d 4fbd 9d88 643d
00000200: b5f8 afbd 7616 0cbc 0cd3 8bbd f9e3 a43d
00000210: 8bcd 543d 5fa9 80bc 2b9a 9d3d c31c 49bd
00000220: 43e7 09bd bd8f ffbd 4156 f13d a4c4 c43d
00000230: 289a 86bd b8b5 993d 0579 9fbc cdb1 483d
00000240: 1bc1 fe3d 1edb 993d 8490 f3bd 8a9d f6bc
00000250: 650f a63d 5db9 863d 10f7 88ba dd98 dcbd
00000260: 4596 d5bd b28d 48bd f0c2 383c 8ae0 d43d
00000270: d504 90bd fb2d 48bd 58d0 813d c23f 313d
00000280: 93cd 3a3c c9ee e73d dd48 933d bc6f f93c
00000290: f7e2 123c b2e5 9a3d 2661 c6bd d0df 14bd
000002a0: 5220 4bbc 7d6a 7cbd 5537 cc3d aa7b be3d
000002b0: dc20 383d 72ce c4bd 8357 36bd f60c 263d
000002c0: 0371 cf3d 1fd5 6c3d 5d87 8d3c 6bdc e93d
000002d0: 8e05 d5bd aca3 44bd ac59 fbbd 8a56 fdbd
000002e0: d4f2 313d f8b0 343d 1a81 80bd d0b7 883c
000002f0: c732 31bd 966b e4bd d309 d43c b343 71bd
00000300: de82 c2bd 4391 0cbd fddc 643b 996c 9cbd
00000310: 9fc6 a83d 3859 773d edd4 bebd 12bc 0c3e
00000320: 1326 893c b5b6 69bb 1abd c2bd 3eb3 92bd
00000330: 2368 203d 4ea3 8ebc 8b15 9bbd 85bd 753d
00000340: 1e67 7a3d 0719 813d 2ae1 883c 2961 e03d
00000350: 89dc c3bc 1f59 923c 2b1f 22bc 74e9 35bc
00000360: 5b8b 843d 4b5a 46bd f156 2fbd 9024 a83d
00000370: 4cf7 c6bd 525e a0bd 87d8 a6bd af6e bf3d
00000380: d1b0 fb3c c3a0 d13d 0b95 91bd 0d0b 743d
00000390: f616 22bd 379c 85bd 8f6f 26bd 1180 77bd
000003a0: f7c2 133c 452e 833b 6a9b c0bd fa82 1abd
000003b0: 5044 813d ae93 13bc bc80 f0bd 40f8 ebbd
000003c0: 59d1 1b3e 5ffe 843b 9982 153e 3c61 fd3d
000003d0: b69e 493d 45fe 713c d04d 763c 4c02 e2bd
000003e0: fecd 67bb 0891 8a3c 4981 bd3c 5f37 dcbd
000003f0: e936 dabd 280c 29bd 1c17 f23d ee7c 42bd

bias f4 [32]
-0.0860031 0.071458526 0.15245731 -0.038537804 0.09199957 -0.03667088 -0.016422048 0.08368219
0.011091853 0.066384085 -0.105735995 0.000385708 0.06500655 0.047218036 0.012132592 -0.09489927
0.10186841 -0.016591642 -0.07447954 0.09781876 0.05020716 -0.10559617 -0.029459586 -0.108475536
0.033087417 0.085110545 -0.07707194 0.051970094 0.025320843 0.10180335 0.026455548 -0.10003081
00000000: 6522 b0bd d958 923d c51d 1c3e d1d9 1dbd
00000010: 456a bc3d 3434 16bd 8887 86bc 9161 ab3d
00000020: 9aba 353c 61f4 873d 1d8c d8bd da38 ca39
00000030: 2722 853d b367 413d c7c7 463c 8c5a c2bd
00000040: 63a0 d03d 32eb 87bc bb88 98bd 3455 c83d
00000050: 06a6 4d3d ce42 d8bd 3b55 f1bc 6c28 debd
00000060: ac86 073d 704e ae3d e5d7 9dbd 98de 543d
00000070: a86d cf3c 467e d03d 4eb9 d83c f4dc ccbd

weight f4 [1, 32]
-0.22286388 0.20478645 0.24115166 0.21116945 0.077482894 -0.06657495 0.15570877 -0.21681723
0.07577822 0.027612424 -0.17617638 -0.043250427 0.11531922 0.13080552 -0.15586579 -0.01425438
0.07156319 0.21154134 -0.15703069 0.049923025 0.08621689 0.091360964 0.111865774 0.0016888874
-0.08864102 -0.20215431 -0.017520316 0.065939724 -0.009623108 0.20434661 -0.09828995 0.11272183
00000000: 6e36 64be 8ab3 513e 76f0 763e ce3c 583e
00000010: 5aaf 9e3d 7358 88bd 1f72 1f3e 5605 5ebe
00000020: 9d31 9b3d 7333 e23c 9567 34be 5c27 31bd
00000030: 7c2c ec3d e2f1 053e 489b 1fbe 348b 69bc
00000040: b98f 923d 4b9e 583e a7cc 20be 167c 4c3d
00000050: 7b92 b03d 751b bb3d e219 e53d a85d dd3a
00000060: 6c89 b5bd 8a01 4fbe c486 8fbc 680b 873d
00000070: 3eaa 1dbc 3d40 513e 3e4c c9bd b4da e63d
