experiements/starter_team/continuous_state/actor_critic/results/random_ac/checkpoints/model_c2000.pt (torch, 14135 bytes, 5 tensors)

weight f4 [64, 8]
00000000: 5e3f a43e e380 57be 5674 43be 9346 89be
00000010: b3d3 82be b5d8 863e 308c 34be 8e0d 73bd
00000020: 33ba 84bd 1dc1 8cbe 83db d73d 9730 a7be
00000030: 4991 a6be 5211 cabd 5727 98be 6ccd 89be
00000040: 2bfd 5f3e f167 6cbd 847a 1f3e c045 523e
00000050: 94e9 fc3c 8011 a3be effe 02be 8a2d a8be
00000060: e5ac 38be 8961 8fbe 7979 17be 7e8f 903e
00000070: 0112 92be 5950 973d 0cc5 90be 8dd8 3bbe
00000080: 7b7c 853e 5584 643e 5661 4f3e 2829 803e
00000090: 2314 04bc 2d0f 8dbd e669 9eb9 b25e f03d
000000a0: f470 ac3d 60da 563e 85e1 24be d0fc 813e
000000b0: 96e2 89be 6d4f 87be 7673 d4bd ce7b 843e
000000c0: ff10 713d ade0 aa3e 9425 833d 6066 c3bd
000000d0: 88ac 76bd 756d 86be 4d62 67be 41fe 7f3c
000000e0: f3fe 8fbe 1819 5f3e cf50 0a3e 6fde aa3e
000000f0: 0066 9fbe f02d 64be 52a1 95bd 5931 a53e
00000100: 34b6 033d 6dd1 65bd b5a5 833e c55f 73be
00000110: 3ffd aa3e 478d 093e ec73 893e eef3 173d
00000120: 94c0 243e 4b4c 64be dbde 0e3e ff48 803e
00000130: 8575 a1be a95c a6bd 815b aebe b991 c1bb
00000140: f6d5 9bbe d108 79be 33e5 9e3e b709 68be
00000150: 2f56 ab3e a788 cc3c 5518 60bd 8048 4d3e
00000160: 5ba1 bfbd aefe 5c3e 09d0 c6bd 349d 26be
00000170: dfcf 623e c720 073d 10b2 b33e 6b85 1fbe
00000180: 3f21 b1bc c524 a73e 3472 15be 3408 1e3e
00000190: a95e 573e 6b60 703e ef95 01be b393 673d
000001a0: fb71 13be 00c9 f43d f560 073e 806d 863e
000001b0: 0052 513e 4eaa cd3d 4167 7f3d b7c3 033d
000001c0: 2b49 f13c 3bcf 37bd cebf 3d3e b2de ba3d
000001d0: 62fb 143e 9227 5dbd 6d46 b93c 5982 9b3d
000001e0: 14c3 223e 9209 a1be 5d96 6a3e 7103 663e
000001f0: c13e ccbd c77e 70be 2e47 903d 734c f7bd
00000200: 2551 743e 6cae f13c 109f 0b3e a346 2bbe
00000210: f514 2f3d 8e62 4e3e f730 b63e a1d1 82be
00000220: 9f28 f73d 5401 463d 312c 6dbe f490 dabd
00000230: 010d 8d3e c4db 813e 9562 653e b869 32be
00000240: 25fe c7bd 210e 0f3e 2181 a43e f2f7 61be
00000250: 5be1 b1bd 60c0 ac3e dc9c 0cbd 885e a4be
00000260: c4b3 b7bd 4e7a d43d 0fa2 e1bd bea0 1c3e
00000270: 86fc 80be 8b34 abbe ffcc f03d 42af d53d
00000280: 62bd 30be 43e9 9cbe 14ec d53d 3ca0 b1bd
00000290: c911 553e 6204 bbbd 3d4e 933e a6cb 293d
000002a0: d50b 5d3d 3ed4 7d3c f092 693e f04c a6be
000002b0: 7e77 9b3e 0192 a0be b5a6 523d fdb9 b23c
000002c0: c3a6 0dbd a88f bfbd 5778 94be b56d 9bbe
000002d0: c31f 913e ccbe bd3e cd69 fd3b 9700 603e
000002e0: 0859 05be 846b a23e 641c 623e a8de ee3d
000002f0: 0bb7 6f3e 92db 5dbe 2e4c 60bc dcea 933e
00000300: 079a c33a b3c8 8fbe 6d97 abbe d420 44be
00000310: bca0 093d 66d5 a7be 95a6 acbd 354b e03d
00000320: 2fb2 243e 2921 e4bd 87f0 0f3e ac11 7bbe
00000330: 0cc3 923d 4334 21bd 83a4 8abe 2e5e 1ebe
00000340: e04b 99be cf5f 053e 8fda 0f3e cfe8 3cbc
00000350: 7d0b 95be 73ea 92be e9c8 7dbe c233 8d3d
00000360: b405 913e 0f22 7fbe 6fa8 a9be 8383 eebd
00000370: 1aab cbbd a22a 8b3d e105 123d e093 e53d
00000380: 80e7 7b3d 3674 92be 192a a23d e89b 19be
00000390: 5d3f 23bd 35c3 93be 984b 773e 2a37 773e
000003a0: 8725 22be 5e07 6f3d 520c 92be 8c3e c93d
000003b0: c6f9 0cbe 83bb 05be c48b 93bd 46f1 f5bd
000003c0: 51cf de3d e179 383d e7f5 1f3e 745d 33be
000003d0: e0cb a7be 594d 09bd 82a0 50be 4d9a 38be
000003e0: 7a64 983e cba7 8c3d 6d62 0dbc 7420 36be
000003f0: 38a5 d9bd c63e 1f3d 0974 8fbe c9c5 a33e
0.32079595 -0.2104526 -0.19087347 -0.26811656 -0.2555214 0.2633721 -0.17631602 -0.0593391
-0.06480827 -0.27491084 0.105399154 -0.3265426 -0.3253272 -0.09866585 -0.29717514 -0.26914537
0.2187392 -0.057716314 0.1557408 0.2053442 0.030873097 -0.3184929 -0.12792562 -0.32847244
-0.18034704 -0.280041 -0.14792432 0.28234476 -0.2852936 0.07388372 -0.28275335 -0.18344326
0.26071534 0.22316106 0.20251974 0.250314 -0.008061442 -0.0688766 -0.0003021501 0.11736812
0.084199816 0.20981741 -0.16101654 0.25388193 -0.26930684 -0.26427785 -0.10373585 0.25875705
0.0588541 0.3337454 0.06403652 -0.09541011 -0.060223132 -0.26255384 -0.22596093 0.015624584
-0.28124198 0.21786916 0.13507389 0.33372828 -0.31132507 -0.22283149 -0.0730616 0.32264212
0.032156184 -0.056107927 0.25712362 -0.23767002 0.33396336 0.134328 0.26846254 0.037097864
0.16089088 -0.22294728 0.139522 0.25055692 -0.31534973 -0.08123142 -0.34054187 -0.005907264
-0.30436677 -0.2431977 0.3103424 -0.22659956 0.3346419 0.024967505 -0.054710705 0.20047188
-0.09356948 0.21581528 -0.09707648 -0.16270906 0.22149609 0.032990243 0.35096788 -0.15578239
-0.021622298 0.3264524 -0.14594346 0.15432817 0.21032204 0.2347428 -0.12654851 0.05653734
-0.14398949 0.119524 0.1322058 0.26255417 0.20441437 0.10042249 0.06235433 0.03216907
0.029453835 -0.044875365 0.18530199 0.09124507 0.1454902 -0.053992815 0.02261659 0.07593221
0.15894729 -0.31452614 0.22908922 0.2246225 -0.09972907 -0.23485862 0.070448264 -0.120751284
0.23859079 0.029502116 0.13634896 -0.16726165 0.042744596 0.20154783 0.35584232 -0.2555056
0.12068295 0.04834111 -0.23161389 -0.10672179 0.27548984 0.2536298 0.22400887 -0.17423141
-0.09765271 0.13970234 0.32129768 -0.2206724 -0.08685561 0.3374052 -0.03432928 -0.32103372
-0.089698344 0.1037489 -0.11017238 0.15295693 -0.2519266 -0.33438525 0.1175785 0.104338184
-0.17259744 -0.30646715 0.10445419 -0.086731404 0.20807566 -0.09131695 0.2877063 0.04145398
0.053966362 0.015492497 0.22809958 -0.32480574 0.30364603 -0.31361392 0.051428515 0.021817202
-0.034582864 -0.09353572 -0.28998062 -0.30357137 0.28344545 0.3705963 0.0077335597 0.21875225
-0.13022244 0.31722653 0.22081143 0.11663562 0.23409669 -0.2166579 -0.013690038 0.2889012
0.0014923223 -0.2808281 -0.33513966 -0.19153148 0.033600554 -0.32779998 -0.084302105 0.109518446
0.16083597 -0.11139137 0.14056598 -0.2451846 0.071661085 -0.03935648 -0.27078637 -0.15465614
-0.299407 0.1302483 0.14048217 -0.011530115 -0.29110327 -0.28694496 -0.24783672 0.06894638
0.28324664 -0.24915336 -0.33136317 -0.116461776 -0.099447444 0.06795241 0.035650138 0.112098455
0.061500072 -0.28604287 0.07918186 -0.1500088 -0.03985535 -0.2885987 0.2414993 0.24142137
-0.15834628 0.058356635 -0.28525025 0.09826383 -0.13767156 -0.13059811 -0.072043926 -0.1200891
0.10879386 0.045038108 0.15621148 -0.17516118 -0.32772732 -0.03352103 -0.20373729 -0.18027611
0.29764158 0.068679415 -0.008629424 -0.17785817 -0.10627216 0.038878225 -0.28018215 0.31986836

bias f4 [64]
00000000: 0eb5 8ebe 2394 f63b cbef aa3e 0f49 92be
00000010: ef47 d7bc 7a38 75be 1103 1ebe dfe3 ab3e
00000020: 42f7 a83e 2329 3dbd 5f77 93be ba5a 5a3d
00000030: f0b1 43be 74d7 9ebd 3087 9dbd 527d 9fbe
00000040: 1200 08bd 5123 ab3e 2d55 59be ada6 cabd
00000050: 9451 33bd 680b 35be 1499 093e 83bf 22bd
00000060: 65e6 ac3e ecb5 7f3e 729c 553e 6c24 86be
00000070: 28d8 833c 1a44 d03d a246 903e 79d7 2bbe
00000080: 2153 5b3e 62b5 d13c 6b10 16be ca64 bfbd
00000090: 10ff 88be 8432 adbe 8e2b 94be dd1f e63d
000000a0: 4688 8c3e 10c3 d23d ccae 91be 0ea5 84bc
000000b0: f75d 13be 999c 86be a998 b5be 1ef5 ac3d
000000c0: 1a17 dcbd 90f3 263e 6238 ae3e 5268 a2bd
000000d0: 1ad4 a63e 1550 84be 941e 1ebe 021b 8e3e
000000e0: 098e 923e dca7 e13d f4d4 bcbd 5b21 cfbc
000000f0: 02d9 48be 505c 84be 81c4 b13c 6fe8 9cbe
-0.2787251 0.0075249835 0.33386073 -0.28571364 -0.026279418 -0.23947325 -0.15430857 0.3357229
0.33001143 -0.04618181 -0.2880201 0.05330918 -0.19110847 -0.07755938 -0.076918006 -0.311503
-0.033203192 0.33425382 -0.21223898 -0.09895072 -0.04377897 -0.17680132 0.13437301 -0.03973342
0.33769527 0.24971741 0.2086046 -0.26199663 0.016094282 0.10169239 0.2817889 -0.16781415
0.2141843 0.025599185 -0.146547 -0.09345396 -0.26757097 -0.33827603 -0.2893948 0.11236546
0.27447718 0.102911115 -0.28453672 -0.016191985 -0.14391313 -0.2629135 -0.35468033 0.0844519
-0.10746594 0.16303849 0.34027392 -0.07930054 0.32583696 -0.25842348 -0.15441352 0.2775498
0.2862399 0.11018345 -0.09220305 -0.02528446 -0.19614032 -0.2585168 0.021700146 -0.30646083

weight f4 [32, 64]
00000000: cc43 993d 112c cb3d 8cee a53c ab6b 0a3d
00000010: 1204 0a3e da17 3ebd 0119 e73d ea65 e33d
00000020: 0fbf d9bd 664f 993d 4bf5 76bd 9dad 9cbc
00000030: b39f 43bc 29ef ea3d 00e0 843d 3238 2d3d
00000040: fc69 0abc 0a1e c93d 6b31 163d 6ae2 bdbd
00000050: 086e 80bd 72ac d33d dadf f0bd 6987 963d
00000060: 499b d2bc de10 1c3d 1a0c 46bd 6f9d 363c
00000070: 2919 473d b828 43bd 50b0 d33d f680 b83d
00000080: 2f61 9bbd 136f b6bd b13a ae3b f9f4 9bbd
00000090: 91b5 af3c d15f 9c3c ebb0 7e3c f55c c6bc
000000a0: 2411 7dbd c451 edbd df30 fb3c fd84 943d
000000b0: 942a 9d3c 7966 5cbd c3d2 c3bd 7c65 283e
000000c0: 28fe 973d 52d4 833d 2f3e 0c3e 48ed a3bd
000000d0: 616f 2a3d 449c c73b bcab 543d 7ca4 39bd
000000e0: d7d9 87bd 4d5f 8ebd 079b 0f3d 0e39 3038
000000f0: bb26 97bd 5a7e f63d 18dd c6bc acbe 60bd
00000100: c450 303d 0b01 723d 6a8a 8d3d 1c29 a53d
00000110: 6443 b5bd 0cf9 df3c 27a7 e73c 95c9 a6bd
00000120: 9ce5 3bbc e3bc 99bd c731 d23c 5764 77bd
00000130: 5f2d 4abd 1a70 1ebd 2432 553c a2dc 813d
00000140: c4da 78bd db37 093e c787 333c 5431 373d
00000150: ae0b 6e3c 74e3 c9bc cab6 8cbd 0fcd db3c
00000160: 5542 943c 8113 983d 8fbb 89bc b289 c73c
00000170: 82f9 bbbd c049 88bc 9667 9fbd f763 cabd
00000180: 33fc c2bc d24f e43c c9fb b23d dd36 98bd
00000190: 11d2 133d a037 d0bc 7541 583d cafa ffbd
000001a0: ef49 9ebb 2322 903d 5f99 87bd 0f10 b33d
000001b0: 9c1d d4bc cb24 603d 9ab3 89bd b530 5d3d
000001c0: 978e 413d 85d7 95bd 23e0 af3d cc27 603c
000001d0: 4101 d43d 011a 5fbd ceb1 87bd 0f7c e4bd
000001e0: 45e1 fa3d e622 b43d 1d66 1abd 3dd3 6d3d
000001f0: 7bdf 98bd 2c93 84bd 7beb 67bd 8e88 643d
00000200: 3944 b0bd 590f 0bbc b85e 8abd 21e2 a43d
00000210: b8a2 723d 26df 69bc b8ff a13d d023 61bd
00000220: ae44 11bd c160 fdbd d52d ee3d 52fc bb3d
00000230: 3bf4 74bd f996 9d3d ee8b 8fbc d338 4c3d
00000240: 3804 043e 21d2 8d3d 14d5 f0bd a75a 00bd
00000250: d91a 9b3d 8067 7b3d 4952 3cbb 9610 d8bd
00000260: 9583 d9bd c817 45bd 1bc6 713c 0ad7 d43d
00000270: 3cd7 99bd dc87 49bd 7d17 8a3d d8c5 2c3d
00000280: 0bfd 113c c636 e93d 601c 923d 0077 f73c
00000290: 4bfe e43b 458c a83d 5161 c6bd 208d 1cbd
000002a0: 6a70 a1bc cc42 82bd da41 c93d fcb4 ba3d
000002b0: f0ff 313d 4e53 c6bd 2a95 37bd def4 403d
000002c0: 63bc d43d a598 583d fecb 6e3c d785 e33d
000002d0: 3405 d3bd 3e5e 31bd 603d f8bd 83a4 eebd
000002e0: 9adc 1f3d 8ab3 383d 5edf 81bd 5d02 b23c
000002f0: 5b36 31bd 1b7d e4bd 7f1c 943c c443 71bd
00000300: 1dc5 c2bd d28b 0cbd 4fef 703b 426e 9cbd
00000310: ec9a b53d 7e64 7d3d 4626 bcbd 84e4 063e
00000320: 9771 613c ee33 22bb e328 c5bd f0b5 9bbd
00000330: 0da7 353d 4ea0 81bc 7da4 97bd 1541 793d
00000340: e314 843d d9c9 6c3d e7d9 8c3c 3143 de3d
00000350: 84b5 e8bc 471b 613c 139a 37bc a93b 23bc
00000360: 0eb3 813d f6e6 47bd e00a 26bd 3c1c a83d
00000370: 1c23 cfbd afc4 a0bd 549c a2bd b18a bd3d
00000380: 5b7c ed3c ad29 d23d 1e8a 92bd d32b 733d
00000390: 0e75 28bd 4de6 74bd 396f 26bd 1718 81bd
000003a0: 8ae9 2b3b 67dc b23a 8e40 c3bd 4c1b 1ebd
000003b0: e21e 7e3d 17a6 15bc 980a f1bd 39d3 e3bd
000003c0: d23e 1e3e 7776 cfba 4413 133e a4d7 f73d
000003d0: f722 493d 6b2d 9d3c 2484 873c 7dd7 d6bd
000003e0: 9581 00bc d690 933c f278 bb3c 3698 d4bd
000003f0: 8d38 dabd dc2a 29bd 51e6 e33d fd7c 42bd
0.07483634 0.099205144 0.02025535 0.033794086 0.13478115 -0.046409465 0.11284066 0.11103423
-0.10632145 0.07485847 -0.060292523 -0.019125754 -0.011939931 0.114713974 0.06488037 0.04228992
-0.00844812 0.098201826 0.036668222 -0.09271701 -0.06270987 0.10335626 -0.11761446 0.07350046
-0.025708811 0.038102023 -0.048351385 0.0111459335 0.04860798 -0.047646254 0.10336363 0.09008972
-0.07586896 -0.089079045 0.005317055 -0.07615084 0.021448882 0.019088658 0.01554511 -0.024214247
-0.061783925 -0.11587861 0.030662952 0.07251928 0.019185342 -0.053808663 -0.09561684 0.16444963
0.07421523 0.06436981 0.13695596 -0.08004242 0.041610125 0.0060916264 0.05192159 -0.04532288
-0.066333465 -0.06951771 0.035059955 4.2014806e-05 -0.07380434 0.120358184 -0.024275348 -0.05486934
0.043045774 0.059083026 0.06911166 0.080644816 -0.08850744 0.027340434 0.028277947 -0.081439175
-0.011468317 -0.075067304 0.025658501 -0.060398426 -0.049359675 -0.038681127 0.013012443 0.063409105
-0.060755506 0.13400213 0.010957665 0.044724777 0.014529152 -0.02464459 -0.06870802 0.026831178
0.018098036 0.07425595 -0.016813068 0.02435765 -0.09178449 -0.01663673 -0.07783429 -0.09882348
-0.023801899 0.027870093 0.087394305 -0.07432339 0.036089007 -0.025417149 0.0527968 -0.12499006
-0.004830591 0.07037761 -0.0662105 0.08743297 -0.025893025 0.05472259 -0.067237094 0.05400153
0.047255125 -0.07316498 0.085876726 0.013681363 0.10351802 -0.05446816 -0.066257104 -0.11156475
0.12249998 0.08795719 -0.03769504 0.05806278 -0.074645005 -0.06473383 -0.056621056 0.05579429
-0.086067624 -0.008487546 -0.067563474 0.08050943 0.059237212 -0.014274394 0.079101026 -0.054965794
-0.03546589 -0.1237197 0.116298355 0.09178986 -0.05980323 0.076948114 -0.017522778 0.04985888
0.12892234 0.069248445 -0.117593914 -0.031336453 0.0757348 0.061378002 -0.002873557 -0.105500385
-0.106208004 -0.048118383 0.014756705 0.10392578 -0.07511756 -0.04920183 0.06742761 0.042180866
0.008910428 0.113874 0.07134318 0.03020811 0.006988322 0.08229879 -0.096865304 -0.038220525
-0.019706924 -0.06360397 0.09827013 0.09116551 0.04345697 -0.09683858 -0.04481999 0.047108524
0.103874944 0.05287995 0.014575003 0.11109512 -0.10303727 -0.043302767 -0.12121081 -0.11652472
0.03902874 0.045093097 -0.06341432 0.021729643 -0.043264728 -0.111566745 0.018079994 -0.058902517
-0.095102526 -0.03431303 0.0036763733 -0.076382175 0.0886744 0.061863415 -0.091869876 0.1317311
0.013759992 -0.002475019 -0.09626939 -0.07603061 0.044348765 -0.01582351 -0.074044205 0.060853083
0.06449296 0.057809684 0.017193748 0.108526595 -0.028406866 0.013739414 -0.011206168 -0.009962955
0.0633298 -0.048804246 -0.040537715 0.0820851 -0.101141185 -0.078500144 -0.079399735 0.09254969
0.028989961 0.10261855 -0.0715525 0.059367966 -0.041127257 -0.059789944 -0.040633414 -0.06303423
0.002623173 0.0013646007 -0.09533797 -0.03860025 0.06204117 -0.009133837 -0.11769599 -0.11124272
0.15453652 -0.0015828152 0.14362818 0.12101677 0.04910561 0.019186696 0.016542502 -0.1049032
-0.007843395 0.0180134 0.02288482 -0.103805944 -0.106553175 -0.04130064 0.11127914 -0.04748248

bias f4 [32]
00000000: dce5 adbd 9bb7 8a3d 18a4 0f3e cf26 4fbd
00000010: 8467 bb3d 3434 16bd 8887 86bc 5ac1 b43d
00000020: 1884 213c f942 8a3d d7c6 d8bd 292b 0f3b
00000030: 2c42 7c3d 819a 273d f859 693c 8c5a c2bd
00000040: ca9f c93d 2b6d e3bc 9ded 99bd 99ef c43d
00000050: 079f 493d ce42 d8bd 6213 f7bc 6c28 debd
00000060: 1c83 0f3d de58 b43d d1ea 9cbd a1c7 4e3d
00000070: 43ec cf3c fa16 c23d 6740 e83c f4dc ccbd
-0.08491108 0.06773301 0.1402744 -0.05057412 0.091506034 -0.03667088 -0.016422048 0.088259414
0.009858154 0.06751055 -0.10584801 0.0021845794 0.061586544 0.04091883 0.014242642 -0.09489927
0.098449305 -0.027762016 -0.07516024 0.09616012 0.049223926 -0.10559617 -0.03016061 -0.108475536
0.035037145 0.088060126 -0.07661975 0.05048335 0.025381213 0.09477039 0.028351022 -0.10003081

weight f4 [1, 32]
00000000: 8279 4bbe 47e0 4b3e ec51 6a3e 5bdb 4f3e
00000010: 3e6a 9e3d 7358 88bd 1f72 1f3e 127d 54be
00000020: 46b6 963d 97d0 e93c 58d8 18be 382c 39bd
00000030: 43d1 f73d d264 e23d 8264 0fbe 348b 69bc
00000040: f0f1 893d e152 533e cfc3 20be 60d6 6e3d
00000050: 22fa 973d 751b bb3d 277f f03d a85d dd3a
00000060: 0c3c b5bd 0779 3abe 82c2 2bbc 52b0 8b3d
00000070: 53cf 00bc 36a1 413e 791b babd b4da e63d
-0.1987057 0.19909774 0.22882813 0.20298521 0.07735108 -0.06657495 0.15570877 -0.20750836
0.07358985 0.028541846 -0.14926279 -0.045208186 0.121004604 0.11054386 -0.14003184 -0.01425438
0.06735599 0.20637085 -0.15699695 0.058309913 0.07420756 0.091360964 0.117430024 0.0016888874
-0.08849344 -0.18210231 -0.010483386 0.0682074 -0.00786193 0.18909153 -0.09087271 0.11272183
