experiements/starter_team/continuous_state/actor_critic/results/random_ac/checkpoints/model_a1000.pt (torch, 14903 bytes, 6 tensors)

weight f4 [64, 8]
-0.14817041 0.03704567 0.051305465 0.16506687 0.29659864 0.04177838 0.33783334 0.0060070404
-0.358943 -0.15808545 -0.09323044 0.07774478 -0.1823663 -0.27238503 -0.13835928 0.04621018
-0.17396581 -0.2182282 0.3385161 -0.052029636 -0.09595859 0.31159002 0.016201392 -0.046852484
-0.11874659 -0.22075652 -0.06957988 -0.034475233 -0.024198826 0.20014179 0.29586357 -0.09792536
-0.043165702 0.251692 0.2901198 0.32253155 -0.1571071 -0.18753059 0.09140261 -0.28446972
-0.31080583 -0.17229535 0.27033657 0.078115284 0.026421933 -0.05495677 -0.2317227 -0.14328006
0.30701625 -0.20240273 -0.22450131 -0.029222729 -0.252534 0.009266211 -0.11248416 0.3421423
0.15613303 -0.13301519 0.15000407 0.06761002 -0.110059805 -0.31112608 -0.11151931 -0.017928213
-0.33228922 -0.15695526 0.25989714 0.11601092 0.29368445 0.23087607 -0.1769038 -0.31945693
-0.29486164 0.17961203 0.11064384 -0.15262398 -0.30229124 -0.043336984 -0.021866418 -0.34338638
0.07291922 -0.24112625 -0.26490656 -0.12624967 0.20546266 -0.35035107 0.2424437 -0.16106156
-0.051431745 0.02359395 0.053733338 0.24874346 0.1927115 -0.31991425 -0.27673775 0.0019996963
-0.31117478 0.186823 -0.025851315 0.09621037 0.12056111 -0.033903275 -0.05766657 0.27155963
0.09434191 0.005208645 -0.045698695 0.27094215 0.11189059 0.3016857 0.31857923 0.021464618
-0.02760672 -0.13428818 0.2833545 -0.026647639 -0.241764 -0.3107322 -0.3341112 -0.30515864
-0.15609047 -0.06130636 -0.05184892 0.1023678 0.22654805 -0.033243358 0.19494395 -0.06891051
-0.1840549 -0.34047854 -0.3423084 -0.23402175 0.28797364 0.05700978 0.32144007 0.23090674
-0.36039865 0.0810865 -0.06552663 0.23213024 -0.23687007 -0.1031471 -0.1299353 0.05751468
0.096625075 -0.32593146 -0.16164458 0.20843817 0.2720373 0.20846643 0.10763208 -0.0027667333
0.13408531 -0.35632816 -0.17892298 -0.065881714 0.04357835 0.18504766 -0.31118396 0.11855987
0.29160064 0.021966606 0.31202894 0.01600805 0.26193845 0.12872015 0.043921378 -0.28366485
-0.31359145 0.12771045 -0.23127025 -0.28129828 -0.32443592 -0.19585119 0.037367612 0.16576779
0.14632308 0.14580408 0.2645245 -0.0383497 -0.15959132 0.13579975 0.018795583 -0.07407189
0.31957862 -0.14655145 0.12854639 0.16644299 0.2649623 0.37580547 -0.048992626 -0.0020334986
0.29560035 0.036886536 -0.2134469 -0.19393928 0.017979758 -0.011286966 -0.28222936 -0.2605181
-0.06958523 0.13326001 0.27922064 0.18187551 0.3605594 -0.33866426 -0.28694132 -0.2735745
0.025462082 -0.111019395 -0.12817222 0.32075194 0.14747113 0.034865078 0.070620745 0.07821745
-0.31554917 -0.2342443 -0.22541846 -0.14924309 0.15382521 -0.023285624 0.18766844 0.07990715
0.325024 -0.17711422 -0.25030994 0.184561 0.2916154 0.31095308 0.23337853 -0.13778874
0.3211115 0.033703927 0.21202505 0.35369056 0.0461849 0.018490177 -0.0977618 0.10672242
0.14319749 -0.08213655 0.010722957 0.2553514 0.051305607 0.05089118 -0.15765458 0.03463728
-0.07334876 -0.04717136 0.24036029 0.16632244 -0.03632776 0.26163295 -0.24351321 -0.24811341
00000000: fcb9 17be 33bd 173d ae25 523d 4a07 293e
00000010: c7db 973e ce1f 2b3d 7ef8 ac3e b5d6 c43b
00000020: 60c7 b7be 27e1 21be 9aef bebd a838 9f3d
00000030: 3bbe 3abe 0d76 8bbe 0eae 0dbe e346 3d3d
00000040: 1824 32be 3777 5fbe fb51 ad3e 071d 55bd
00000050: f085 c4bd ba88 9f3e c8b8 843c 64e8 3fbd
00000060: 6a31 f3bd ff0d 62be e57f 8ebd e735 0dbd
00000070: 9e3c c6bc f8f1 4c3e 6e7b 973e 178d c8bd
00000080: 85ce 30bd c6dd 803e 958a 943e db22 a53e
00000090: afe0 20be 0508 40be 4b31 bb3d 04a6 91be
000000a0: f121 9fbe 316e 30be 8e69 8a3e e8fa 9f3d
000000b0: cf72 d83c 5a1a 61bd b748 6dbe 02b8 12be
000000c0: 3c31 9d3e a942 4fbe ace3 65be 8164 efbc
000000d0: 234c 81be 4ed1 173c 185e e6bd 472d af3e
000000e0: 56e1 1f3e 2235 08be ab9a 193e 1f77 8a3d
000000f0: 0967 e1bd eb4b 9fbe 3c64 e4bd 30de 92bc
00000100: d021 aabe e1b8 20be 3d11 853e 2297 ed3d
00000110: cf5d 963e c76a 6c3e 4526 35be dc8f a3be
00000120: 1bf8 96be 37ec 373e 3d99 e23d 7649 1cbe
00000130: ebc5 9abe 1f82 31bd 3421 b3bc 57d0 afbe
00000140: ac56 953d cde9 76be d5a1 87be 9847 01be
00000150: ce64 523e 3761 b3be 2943 783e 52ed 24be
00000160: 18aa 52bd 1948 c13c 7d17 5c3d 9bb6 7e3e
00000170: 2a56 453e cdcb a3be 92b0 8dbe 560d 033b
00000180: 4d52 9fbe 874e 3f3e 23c6 d3bc f109 c53d
00000190: bee8 f63d 29de 0abd c833 6cbd dd09 8b3e
000001a0: 5536 c13d 48ad aa3b 8e2e 3bbd eeb8 8a3e
000001b0: e526 e53d 8c76 9a3e d11c a33e 91d6 af3c
000001c0: 7d27 e2bc d782 09be d713 913e 264c dabc
000001d0: fb90 77be 4a18 9fbe a010 abbe c13d 9cbe
000001e0: 2ed6 1fbe 611c 7bbd 885f 54bd 36a6 d13d
000001f0: 36fc 673e 302a 08bd 639f 473e f420 8dbd
00000200: e378 3cbe 3453 aebe 0c43 afbe 66a3 6fbe
00000210: 4871 933e 1683 693d cb93 a43e d172 6c3e
00000220: 2c86 b8be ae10 a63d d332 86bd 8db3 6d3e
00000230: 118e 72be c93e d3bd c20d 05be 8394 6b3d
00000240: 5ee3 c53d 7de0 a6be 2886 25be d170 553e
00000250: 7948 8b3e 3978 553e 356e dc3d 1552 35bb
00000260: a94d 093e a570 b6be 9637 37be feec 86bd
00000270: 367f 323d 227d 3d3e 8153 9fbe 84cf f23d
00000280: ae4c 953e 50f3 b33c 42c2 9f3e 5023 833c
00000290: cc1c 863e 37cf 033e e7e6 333d 853c 91be
000002a0: 0f8f a0be 87c6 023e 1cd2 6cbe 5406 90be
000002b0: 771c a6be 378d 48be c80e 193d 08bf 293e
000002c0: b8d5 153e aa4d 153e c16f 873e 9314 1dbd
000002d0: e86b 23be 170f 0b3e 32f9 993c 01b3 97bd
000002e0: cf9f a33e 9511 16be aaa1 033e 0870 2a3e
000002f0: 23a9 873e 9369 c03e 7eac 48bd 7244 05bb
00000300: ee58 973e 5616 173d d391 5abe 0598 46be
00000310: 494a 933c f7ec 38bc 5e80 90be a162 85be
00000320: b382 8ebd 5075 083e 02f6 8e3e 933d 3a3e
00000330: 3e9b b83e 6765 adbe f9e9 92be f511 8cbe
00000340: db95 d03c 235e e3bd 943f 03be 9939 a43e
00000350: ac02 173e afce 0e3d 9ca1 903d 7830 a03d
00000360: a98f a1be bddd 6fbe 19d4 66be 2ed3 18be
00000370: 5b84 1d3e 7ec1 bebc 282c 403e 5ca6 a33d
00000380: 8c69 a63e 6e5d 35be a028 80be 8ffd 3c3e
00000390: 9d4e 953e 3e35 9f3e c8fa 6e3e 7e18 0dbe
000003a0: ba68 a43e 210d 0a3d 181d 593e ee16 b53e
000003b0: 612c 3d3d b678 973c 5737 c8bd 4991 da3d
000003c0: 5da2 123e 3537 a8bd 57af 2f3c 6bbd 823e
000003d0: d425 523d 4573 503d 3470 21be d2df 0d3d
000003e0: e037 96bd c236 41bd 0221 763e 6e50 2a3e
000003f0: 6bcc 14bd c1f4 853e 875b 79be 7111 7ebe

bias f4 [64]
-0.18619272 0.2920735 -0.253033 -0.013917242 -0.082363576 0.14724638 0.21736519 -0.120895006
0.11541921 -0.2853195 0.0947299 0.07574653 -0.3061407 0.090408 -0.1971049 0.3509018
0.24667527 -0.25749454 0.1367656 -0.275879 0.1068094 0.06523321 0.29859677 -0.106317885
0.1307319 -0.3174384 -0.24092391 -0.33959097 0.21691255 0.10625296 0.34054345 0.10053031
0.20998646 -0.1721046 0.105274655 0.1073809 -0.3321508 0.034155283 0.16889459 0.06504358
0.0072027897 0.34841543 -0.26302776 -0.12461441 -0.23160039 -0.02885517 -0.22657232 0.032933135
0.20167124 -0.1398108 0.04192121 -0.24709727 -0.30220592 -0.09010405 -0.04871388 0.015287274
0.14212117 0.02532545 -0.10132152 -0.36702096 0.15408458 -0.02615502 -0.21171547 -0.05708785
00000000: 4ea9 3ebe a88a 953e 8b8d 81be 2505 64bc
00000010: 3cae a8bd c1c7 163e fb94 5e3e cd97 f7bd
00000020: e860 ec3d 6615 92be c001 c23d ff20 9b3d
00000030: 79be 9cbe d427 b93d ded5 49be 67a9 b33e
00000040: 7198 7c3e 53d6 83be 480c 0c3e 0340 8dbe
00000050: e3be da3d fd98 853d ade1 983e 31bd d9bd
00000060: 95de 053e 4987 a2be c2b4 76be dede adbe
00000070: 531e 5e3e 279b d93d b65b ae3e d6e2 cd3d
00000080: b106 573e 303c 30be 3d9a d73d 84ea db3d
00000090: ab0f aabe 69e6 0b3d b4f2 2c3e 9235 853d
000000a0: 6105 ec3b 8263 b23e 93ab 86be d735 ffbd
000000b0: a728 6dbe ad61 ecbc 9302 68be e5e4 063d
000000c0: e882 4e3e 902a 0fbe 93b5 2b3d 1107 7dbe
000000d0: bcba 9abe 7988 b8bd 3588 47bd 7977 7a3c
000000e0: 3688 113e 5177 cf3c a881 cfbd 2cea bbbe
000000f0: 59c8 1d3e 0d43 d6bc f1cb 58be f3d4 69bd

weight f4 [32, 64]
-0.017888613 0.015053472 -0.12896378 -0.1164049 -0.002755922 -0.067470886 -0.016826298 -0.09848444
-0.0036397842 0.013804003 -0.024321571 -0.048025735 -0.055464923 0.11209761 -0.096448384 -0.05342274
-0.02671101 -0.1324634 0.09383774 0.06730858 0.12914993 -0.11249844 0.0875479 0.076813795
-0.06934337 0.10725829 0.11837649 -0.076367915 0.12489909 0.11025913 0.055393297 -0.09160739
-0.022906559 0.027266948 0.052070674 0.1304912 0.05161624 0.09198885 -0.05283264 -0.03860893
-0.0792399 -0.043253474 0.099485874 -0.06798635 -0.026935857 0.09653875 -0.04559019 -0.016346151
0.06877695 -0.11485457 0.041949544 0.08848551 -0.0057241702 0.03059522 -0.0065066214 0.03528707
-0.079446636 -0.11447654 0.028242141 -0.083805226 -0.107119456 -0.11637798 0.027538374 -0.10208182
0.13174023 0.094027005 0.019567318 0.06946606 -0.053150803 0.09266841 -0.046516348 0.10840846
0.023216585 -0.14029402 -0.09529477 -0.037425008 -0.0005933232 0.10460436 -0.0077208495 -0.007689523
-0.09983222 -0.14951172 0.12652366 0.08331047 0.06539087 0.07084131 0.02139336 0.06242618
0.064847186 0.09838327 0.059976704 -0.11710825 -0.08287911 -0.018624643 0.05215506 0.056722753
0.073024414 0.07899914 0.09398479 0.10494753 -0.13453852 -0.00036749002 -0.055114586 0.099247254
0.107600935 0.040889625 0.062428165 -0.06771566 -0.13555968 0.055525616 -0.017043628 0.07895575
-0.10761565 -0.07997493 0.105876654 0.0857035 0.10933426 -0.018726224 0.12143138 0.07467043
-0.105537586 -0.07976458 -0.113120414 -0.062124886 0.044369176 -0.14699669 0.07678071 0.050898947
-0.066934265 0.08861726 -0.05188069 -0.12256774 -0.0026311362 0.027922548 0.08441034 -0.030838214
0.08914301 -0.0006494997 0.087801434 0.050272964 -0.024553325 -0.13856384 0.008780347 -0.069895275
0.09793496 0.041865036 -0.078245476 -0.05464231 -0.055072676 0.035778467 0.09606296 -0.086393565
-0.10782065 0.086632445 0.06501119 0.09253573 0.00010118739 0.0010628658 0.01046169 0.07072057
0.08844293 0.012730253 0.060637943 -0.03129673 0.06443253 -0.04864474 0.012859322 -0.029972626
0.027557375 0.0059433263 -0.010233357 0.054682188 0.07910987 -0.009620001 0.10518252 -0.100492395
0.013373746 0.08144363 -0.016715525 0.092516944 -0.10434144 0.02557422 -0.07374849 0.06883226
-0.060186107 0.0768982 0.0011775966 -0.08493908 0.0972127 -0.0537133 0.048974436 0.10424662
0.052035734 -0.07303312 0.13694602 -0.025129799 0.064500496 -0.0606673 -0.064873725 -0.0077326526
-0.023451677 0.11988547 0.014710656 0.08523969 -0.05179103 -0.005960587 -0.026006076 -0.024851194
0.029832905 -0.0050885007 -0.1093089 -0.0118030505 -0.111706436 -0.043601044 -0.094229646 0.07274028
0.06311512 -0.033391286 -0.02276885 -0.041061558 -0.1198313 0.06676525 0.0430325 -0.121017456
0.09620588 0.09134052 -0.01521705 -0.06296598 0.12787506 0.065280996 0.053356 0.058347847
0.10293618 -0.03560203 0.10177393 0.0646061 0.076346174 0.103428215 -0.03067735 -0.09790989
-0.07516822 -0.07956593 0.022505479 0.071246326 -0.07107658 -0.10422561 -0.05478426 0.057764765
-0.12261012 0.023164054 0.1218592 0.021432707 -0.020201648 0.15453039 0.03847074 -0.055493586
00000000: 248b 92bc d6a2 763c 150f 04be b165 eebd
00000010: b39c 34bb 2d2e 8abd 4ed7 89bc 36b2 c9bd
00000020: 7289 6ebb 2f2a 623c 083e c7bc a2b6 44bd
00000030: 302f 63bd 6f93 e53d bb86 c5bd ced1 5abd
00000040: 0cd1 dabc 7ca4 07be 002e c03d 15d9 893d
00000050: e13f 043e 9565 e6bd 504c b33d 8d50 9d3d
00000060: e603 8ebd 3caa db3d 606f f23d c866 9cbd
00000070: 18cb ff3d 8acf e13d 15e4 623d a89c bbbd
00000080: 89a6 bbbc ef5e df3c 0f48 553d 7c9f 053e
00000090: 8d6b 533d a664 bc3d 0a67 58bd 6624 1ebd
000000a0: 8748 a2bd 8e2a 31bd 40bf cb3d 6d3c 8bbd
000000b0: 96a8 dcbc 1cb6 c53d c7bc 3abd 5de8 85bc
000000c0: eeda 8c3d df38 ebbd 49d3 2b3d e437 b53d
000000d0: d291 bbbb d4a2 fa3c 7f35 d5bb 2d89 103d
000000e0: ebb4 a2bd ad72 eabd 105c e73c 13a2 abbd
000000f0: 7261 dbbd 9457 eebd 2898 e13c 4610 d1bd
00000100: e9e6 063e 3b91 c03d a44b a03c 3944 8e3d
00000110: a8b4 59bd efc8 bd3d ed87 3ebd 4105 de3d
00000120: b530 be3c 3ca9 0fbe e829 c3bd f74a 19bd
00000130: 3f89 1bba d03a d63d 2eff fcbb 65f8 fbbb
00000140: d674 ccbd 9a19 19be 6b8f 013e ae9e aa3d
00000150: a6eb 853d 4015 913d 2141 af3c 98b2 7f3d
00000160: 9ace 843d 2b7d c93d 22aa 753d 73d6 efbd
00000170: 86bc a9bd b592 98bc 8ba0 553d 1e56 683d
00000180: d38d 953d 4dca a13d 197b c03d bbee d63d
00000190: 77c4 09be adab c0b9 d5bf 61bd 2542 cb3d
000001a0: e15d dc3d e17b 273d adb4 7f3d 82ae 8abd
000001b0: 28d0 0abe d46e 633d 149f 8bbc 8db3 a13d
000001c0: 9865 dcbd e5c9 a3bd dcd5 d83d 5185 af3d
000001d0: a4ea df3d bd67 99bc 04b1 f83d cfec 983d
000001e0: 1724 d8bd 9d5b a3bd adab e7bd aa76 7ebd
000001f0: 74bc 353d 4d86 16be 343f 9d3d 6a7b 503d
00000200: d514 89bd f77c b53d d980 54bd cc04 fbbd
00000210: 246f 2cbb d4bd e43c 54df ac3d 6ca0 fcbc
00000220: 9c90 b63d 3043 2aba 3dd1 b33d 06eb 4d3d
00000230: 0e24 c9bc aee3 0dbe 72db 0f3c 4125 8fbd
00000240: 2092 c83d ac7a 2b3d 2a3f a0bd 9dd0 5fbd
00000250: e393 61bd 718c 123d a8bc c43d 1cef b0bd
00000260: 13d1 dcbd 5a6c b13d 9624 853d 5f83 bd3d
00000270: 9134 d438 dc4f 8b3a 8267 2b3c f2d5 903d
00000280: 9121 b53d 8d92 503c 7e5f 783d 0031 00bd
00000290: 34f5 833d b53f 47bd e8af 523c 2789 f5bc
000002a0: 01c0 e13c 3cc0 c23b cfa9 27bc 6efa 5f3d
000002b0: 5b04 a23d 359d 1dbc ef69 d73d f5ce cdbd
000002c0: 8e1d 5b3c ebcb a63d ffee 88bc 8679 bd3d
000002d0: f7b0 d5bd 0781 d13c 7309 97bd eef7 8c3d
000002e0: b585 76bd ce7c 9d3d 9659 9a3a 8af4 adbd
000002f0: 7417 c73d 7a02 5cbd 6b99 483d 407f d53d
00000300: 6c23 553d 6392 95bd 943b 0c3e 02dd cdbc
00000310: d618 843d 467e 78bd 84dc 84bd 3162 fdbb
00000320: bb1d c0bc 8386 f53d f704 713c 2692 ae3d
00000330: d522 54bd 0751 c3bb b20a d5bc bb94 cbbc
00000340: 2364 f43c 70bd a6bb 58dd dfbd 9561 41bc
00000350: 58c6 e4bd 0297 32bd 79fb c0bd dbf8 943d
00000360: 8042 813d 4dc5 08bd bd85 babc 2a30 28bd
00000370: 1d6a f5bd 38bc 883d d942 303d 00d8 f7bd
00000380: 9707 c53d bd10 bb3d ef50 79bc 4ff4 80bd
00000390: aef1 023e 0bb2 853d d28b 5a3d 27fe 6e3d
000003a0: 34d0 d23d 6fd3 11bd da6e d03d 3450 843d
000003b0: 625b 9c3d 2cd2 d33d 114f fbbc fb84 c8bd
000003c0: ccf1 99bd 76f3 a2bd 695d b83c 98e9 913d
000003d0: 9990 91bd 3d74 d5bd 7665 60bd bf9a 6c3d
000003e0: 041b fbbd 8bc2 bd3c 5191 f93d a593 af3c
000003f0: ed7d a5bc 373d 1e3e 7f93 1d3d 3e4d 63bd

bias f4 [32]
-0.082326196 -0.0114513915 -0.1074474 -0.19223467 0.14245172 0.09103458 0.14169286 -0.032196872
0.080153555 0.03441204 0.12953566 -0.080697596 -0.06335831 0.057369955 -0.045751445 0.014553543
0.123965874 0.061535563 0.05569242 0.030042881 0.15034856 0.10240877 -0.10067204 -0.09265764
0.046496417 -0.09031765 0.08987538 -0.029902952 -0.12513135 -0.17028575 0.077226855 0.027103495
00000000: a39a a8bd 9e9e 3bbc 620d dcbd 2ad9 44be
00000010: ddde 113e 5670 ba3d ef17 113e dee0 03bd
00000020: 8c27 a43d a4f3 0c3d ffa4 043e c844 a5bd
00000030: 00c2 81bd c2fc 6a3d de65 3bbd fc71 6e3c
00000040: d2e1 fd3d b70c 7c3d bc1d 643d 7d1c f63c
00000050: f9f4 193e b0bb d13d 242d cebd 4ac3 bdbd
00000060: 0773 3e3d 76f8 b8bd 9510 b83d 09f7 f4bc
00000070: 6f22 00be 635f 2ebe 1d29 9e3d 2608 de3c

weight f4 [7, 32]
0.13526535 0.13230261 0.07214394 -0.18085398 -0.07206905 0.22190717 0.11645288 -0.10459543
0.12805781 0.13836512 0.16596067 -0.16376926 0.088370204 0.07469549 -0.14984278 -0.063354455
0.15206636 0.025584726 0.24309435 0.09911791 0.19786893 -0.15289411 0.07930981 -0.1432021
0.045912117 -0.16511314 0.21852441 -0.0649414 -0.16372514 -0.14055493 -0.14440869 0.015193569
0.07015982 0.22093086 -0.1437306 -0.25485063 0.26281723 0.15297402 -0.100799516 -0.13462916
0.06967618 0.3162147 -0.006432915 -0.13724415 -0.19628057 -0.12907559 -0.28572154 -0.04719005
0.044628408 -0.022822013 0.2727854 0.12836026 0.12381579 0.13794784 -0.10966109 -0.22356492
-0.07632973 -0.18084447 0.3687159 -0.109760694 -0.28020763 -0.004840595 0.020926131 -0.22041444
-0.09679162 -0.114388496 -0.13740684 0.13356568 0.103224985 -0.06396303 0.1476151 -0.010709822
-0.024431027 -0.121708915 0.13499723 0.123260096 0.07633098 -0.04331425 -0.17193605 -0.13274181
0.14200674 0.123007536 0.0663166 0.0135464175 0.047427375 0.07624252 0.049068585 0.074902155
0.1598113 -0.036068954 0.103409894 -0.1277441 -0.083595134 0.039735287 0.10948628 0.1363333
0.08934636 -0.07486567 -0.032682657 0.050220422 -0.0750449 -0.21188861 -0.13062099 0.015718523
0.004017479 -0.07027247 -0.1298798 -0.09547024 -0.09145493 0.095721565 -0.002364313 0.027307542
-0.098559074 -0.13557422 -0.10370509 -0.06677691 -0.18302895 -0.096794896 -0.11208055 0.0619649
0.097355865 0.18113312 -0.18312277 -0.056029692 -0.035748217 0.16581771 0.027822614 0.18500072
-0.19290699 -0.14580388 0.03405397 0.13763961 -0.20971243 -0.15373641 -0.11348179 -0.10603814
-0.17680584 -0.21951008 -0.17089255 0.13851202 0.15201543 -0.10675681 0.06428383 0.15609804
-0.11390903 -0.15494867 0.09937419 0.14480323 0.0026670452 0.006015114 0.09091412 0.031205742
-0.081902124 -0.07599603 0.10236414 -0.14346783 0.021929469 0.16147149 -0.051382754 0.089592375
-0.058192536 -0.017880427 0.11826238 0.19719476 0.009619841 -0.1952482 -0.039013207 0.2132329
0.07114263 -0.16600975 -0.07056662 0.083972104 0.10011155 0.11468801 -0.004050255 0.015182362
-0.022132542 -0.13964234 -0.14868996 -0.009237 -0.16997933 0.16305172 0.009015464 0.14223266
-0.16105688 -0.02788333 -0.19581693 0.09377652 0.14131331 0.04053352 0.10674219 0.060156256
-0.112144694 0.09231008 0.19773857 -0.12394999 -0.034658276 -0.050016586 -0.18211909 0.20239024
-0.11173649 -0.23579155 -0.059958976 -0.05405054 -0.06217358 0.11188009 -0.023288079 0.19494809
-0.21136668 -0.034582708 -0.037012752 0.0021000034 0.055676274 0.14094256 0.02136547 0.06827385
-0.06431049 0.09029925 -0.04737531 0.12275218 -0.100704044 0.1855847 0.035226427 -0.08209907
00000000: 0083 0a3e 567a 073e 34c0 933d c931 39be
00000010: f098 93bd a23b 633e d97e ee3d 2136 d6bd
00000020: 9621 033e 96af 0d3e 98f1 293e 21b3 27be
00000030: 70fb b43d f3f9 983d 6370 19be fbbf 81bd
00000040: 49b7 1b3e 0f97 d13c baed 783e 55fe ca3d
00000050: 279e 4a3e 4690 1cbe 2f6d a23d 92a3 12be
00000060: 580e 3c3d 6b13 29be ddc4 5f3e ffff 84bd
00000070: 90a7 27be a2ed 0fbe dfdf 13be 72ee 783c
00000080: f4af 8f3d b33b 623e 1d2e 13be c87b 82be
00000090: fb8f 863e 39a5 1c3e fa6f cebd 3adc 09be
000000a0: 63b2 8e3d e5e6 a13e 34cb d2bb bb89 0cbe
000000b0: c6fd 48be 642c 04be 184a 92be 5b4a 41bd
000000c0: 47cc 363d 3bf5 babc 87aa 8b3e df70 033e
000000d0: 2293 fd3d 3342 0d3e fe95 e0bd 34ee 64be
000000e0: c352 9cbd 4b2f 39be 55c8 bc3e 37ca e0bd
000000f0: 6077 8fbe db9d 9ebb 476d ab3c 53b4 61be
00000100: af3a c6bd 8444 eabd 61b4 0cbe 71c5 083e
00000110: 9f67 d33d 0dff 82bd 6a28 173e 4078 2fbc
00000120: 9423 c8bc 8642 f9bd b73c 0a3e ca6f fc3d
00000130: 6b53 9c3d 486a 31bd 0110 30be 78ed 07be
00000140: 376a 113e 60eb fb3d ffd0 873d cbf1 5d3c
00000150: 3543 423d 0a25 9c3d 24fc 483d 4d66 993d
00000160: 93a5 233e 0abd 13bd 91c8 d33d 59cf 02be
00000170: ed33 abbd 78c1 223d 583a e03d f59a 0b3e
00000180: 39fb b63d 2c53 99bd 40de 05bd eeb3 4d3d
00000190: 24b1 99bd 54f9 58be 82c1 05be 22c4 803c
000001a0: 0ea5 833b 03eb 8fbd 36ff 04be e785 c3bd
000001b0: b94c bbbd ab09 c43d 97f2 1abb 11b4 df3c
000001c0: 57d9 c9bd f8d3 0abe 5663 d4bd 55c2 88bd
000001d0: f16b 3bbe 673c c6bd 7d8a e5bd e8ce 7d3d
000001e0: 8362 c73d f67a 393e 8984 3bbe 647f 65bd
000001f0: b96c 12bd 1ecc 293e 40ec e33c d470 3d3e
00000200: 6989 45be 9d4d 15be 2d7c 0b3d 66f1 0c3e
00000210: dbbe 56be 146d 1dbe 2469 e8bd 862a d9bd
00000220: 970c 35be 40c7 60be 75fe 2ebe 18d6 0d3e
00000230: efa9 1b3e 50a3 dabd 3ea7 833d 2ad8 1f3e
00000240: 2349 e9bd ddaa 1ebe b284 cb3d 4c47 143e
00000250: 98c9 2e3b 6f1a c53b 2f31 ba3d 2fa3 ff3c
00000260: 4dbc a7bd cea3 9bbd 4aa4 d13d 3be9 12be
00000270: 6ea5 b33c c858 253e b976 52bd 357c b73d
00000280: 4c5b 6ebd f979 92bc 8c33 f23d 6ced 493e
00000290: 8a9c 1d3c 25ef 47be 50cc 1fbd ba59 5a3e
000002a0: 3ab3 913d 76fe 29be 3b85 90bd 91f9 ab3d
000002b0: 4907 cd3d 8ce1 ea3d 00b8 84bb 71bf 783c
000002c0: 4e4f b5bc 67fe 0ebe 2e42 18be c956 17bc
000002d0: 100f 2ebe 08f7 263e 99b5 133c 70a5 113e
000002e0: 18ec 24be 956b e4bc 3c84 48be e70d c03d
000002f0: 70b4 103e 7a06 263d a69b da3d 6866 763d
00000300: 1eac e5bd 110d bd3d fb7b 4a3e 7ed9 fdbd
00000310: d6f5 0dbd 31de 4cbd 6d7d 3abe 633f 4f3e
00000320: 1ad6 e4bd 5773 71be 8b97 75bd 1964 5dbd
00000330: b9a9 7ebd 6321 e53d a4c6 bebc 79a0 473e
00000340: 8270 58be 99a6 0dbd af9a 17bd 36a0 093b
00000350: ce0c 643d 3f53 103e a306 af3c 29d3 8b3d
00000360: 38b5 83bd d0ee b83d 9d0c 42bd 7f65 fb3d
00000370: ec3d cebd ea09 3e3e 9649 103d 8f23 a8bd

bias f4 [7]
0.06603234 0.40569878 -0.038308784 -0.3065797 -0.14778073 -0.03195882 0.029094957
00000000: f73b 873d c0b7 cf3e ace9 1cbd 04f8 9cbe
00000010: d553 17be 40e7 02bd 8c58 ee3c
