experiements/starter_team/continuous_state/actor_critic/results/random_ac/checkpoints/model_a3000.pt (torch, 14903 bytes, 6 tensors)

weight f4 [64, 8]
00000000: b30d ae3e 094a 8c3e ced8 473e cf5c 11be
00000010: b4ce b23e 603d 8bbe b3f6 a4be 2649 82be
00000020: 5eab 96be cf5e c8bd 9189 943e 59ab afbe
00000030: 98ac dd3c 09ce f03c 40fa aabe 1e8f ecbd
00000040: 5368 bc3d 27bc 6bbe ea20 943d b34b 373e
00000050: 3f3e a63e f397 f6bd 949e 4fbe cb5f 943d
00000060: d3de 10bd 481d 98bd 9a3f 173d bc7b 85be
00000070: fbab 51be 8836 ebbd 1ec1 8bbe f1b4 ab3d
00000080: 937e 69bd 304e 7cbd 5b04 323e 478f 223e
00000090: 00dd 36be f2a4 efbd a33b ac3e 608a 3d3e
000000a0: 6498 b5be bde4 0e3e 649b 80be eb52 38be
000000b0: 1562 013e a660 b0be d707 8dbe b0a1 233d
000000c0: 45ba 8ebe c01d 3d3e cc19 c23d c591 a43e
000000d0: 2be0 b23e 637a 583e a179 223e 20bb 563e
000000e0: dd9f a9be 52eb e3bd 8e3c af3e e581 023e
000000f0: f3af 08bd 979b 14bc e535 ad3e 3980 a53e
00000100: 9930 913e 9649 9c3d 669f 593e 93e8 a93e
00000110: 0b30 1cbe e89a 993e 5e76 6ebe 4fad 97be
00000120: 8ed2 bebe a277 3bbe 7c95 143d a115 df3d
00000130: f3a2 0e3e 758e 923e 3cf6 993e 5c97 abbe
00000140: 673b 553e 3057 053e 80ae 6e3e ebf3 813e
00000150: 6f65 6a3e b115 27bc 3f37 d03d 266a 92be
00000160: 9a06 e5b9 089e e7bd 3600 893e df28 6f3e
00000170: 94c1 31bd 0b23 babd 4c10 bd3c cd12 37be
00000180: f0da 273e 56f6 21bc cbe6 6cbe edde 803d
00000190: 6ad8 be3e b3da 143c 68bb b43e efd1 083d
000001a0: ff72 fcbc 7782 9c3e 1646 833e 1b1f 8cbc
000001b0: 408f 5abd 8ca4 aebe 68ae 11be 6ad4 c43d
000001c0: d68c 60be 3801 5cbe 7e6b 36be 9415 6abe
000001d0: 74d9 a5be d9f2 a6be 85a1 2dbe 2bf9 89be
000001e0: 5ad9 a0bd 74fb 95bd 41f3 6d3e ea28 9d3e
000001f0: dc66 5d3b 9ac5 a43e 8783 94bd 57eb 4b3e
00000200: f4b8 bebe b775 14be ded3 37be 2235 babb
00000210: 6714 ff3d 3a73 4fbe 5ecd 263e 5646 1dbd
00000220: 8aa7 2a3d 942e 90bd 732c 93be 2f9c 0f3c
00000230: 9e27 99be c2c0 aa3e b71e 123d 0258 9cbe
00000240: 6249 ac3e f64f 49be 3a41 8e3e 4ca4 e1bd
00000250: 7ba8 273e 7404 50be 9abb bdbc 8469 953e
00000260: ec8e 8a3e 251b 74bd d2b5 5abe e310 54be
00000270: 26e4 b23e 4b02 0bbe 9498 8c3e 19fe 5b3d
00000280: 09e9 96be 29db c23c c000 913d 9107 ca3d
00000290: 6355 0fbe dc22 ad3e a47b 2ebe 41ae 773e
000002a0: 57b4 32be ad0a 95be 092c cbbd 73d1 c0be
000002b0: b311 a53e 597a 85be f8ae 513e 7a91 763e
000002c0: bccd b2be 131f 0dbd d0d5 12be 39f5 f73b
000002d0: 46e0 8039 f278 babe 50d4 8bbe 829e 8fbd
000002e0: 8018 563e 7873 ca3d 3e6c 1d3e 9c67 633e
000002f0: 8647 a8be 7741 ddbd 1c2a e13d dfbd d23d
00000300: 97fc acbe 50d5 4fbd fee1 e2ba 42b7 6dbe
00000310: 3133 86bd 6ad1 8a3e 4e2f 2bbe d155 5c3e
00000320: 6278 a7bd 70ac 0cbd fc41 943d 9753 9d3c
00000330: 0f8f 643e 5040 153e 73e9 f03d 6058 8a3e
00000340: 19fc 7fbe 7e81 f73d 7a56 a9be f3d1 243d
00000350: 4b67 6f3e 052b 283e db07 59be e4de 8b3e
00000360: 0850 a93e 3ac4 ed3d 5f4c 073e c652 ddbd
00000370: 4aae 623e 90cb 653e 9757 9a3e cb19 a53e
00000380: 8e17 7dbe d163 50be 1600 2c3e 9602 1bbe
00000390: 5607 75be 8161 8bbd 1b0c 91be 6cc1 46bd
000003a0: 9e44 9c3e d7a7 54be ac0c 29be 13a0 0dbe
000003b0: 427a 99be 5cda 99be 109f 0cbe 7ff7 8c3e
000003c0: f2f6 b7be 9d8c babe 6d51 353e aba8 9a3e
000003d0: 1b67 07be ea9c 193e 50fc 41be 18b0 5ebe
000003e0: 9b67 adbe d506 373e 151c 963d 04e9 5d3e
000003f0: 01ef 4ebe 261c 2f3d 02fa 81bd eeea 613e
0.33994827 0.27400234 0.19516298 -0.1419556 0.34923327 -0.27195263 -0.32219467 -0.25446433
-0.29427618 -0.09783708 0.29011205 -0.34310415 0.027059838 0.02939512 -0.3339405 -0.11550735
0.09199586 -0.23020993 0.0723284 0.1789997 0.32469365 -0.12040701 -0.20275337 0.072448336
-0.03536875 -0.0742746 0.03692589 -0.26070964 -0.20475762 -0.114850104 -0.27295774 0.08384121
-0.057005476 -0.061598003 0.17384474 0.15874968 -0.17857742 -0.11701383 0.3363925 0.18509817
-0.35467827 0.13954444 -0.25118554 -0.1800038 0.12635072 -0.34448737 -0.27545044 0.03994912
-0.27876487 0.1846838 0.094775766 0.32142463 0.34936652 0.21140437 0.1586671 0.2096982
-0.33129779 -0.11128868 0.34225887 0.12744863 -0.033370923 -0.009070299 0.3383018 0.3232439
0.2835739 0.07631223 0.21252212 0.33185253 -0.15252702 0.30000997 -0.23287341 -0.2962441
-0.37270015 -0.18307355 0.036275372 0.10892797 0.13929348 0.2862431 0.30070674 -0.33513916
0.20823441 0.1302154 0.23308754 0.25381407 0.22890256 -0.010198043 0.10166787 -0.2859661
-0.00043683202 -0.11309439 0.26757973 0.23355435 -0.0433975 -0.09088715 0.02307906 -0.17878266
0.16392112 -0.009885391 -0.23134916 0.0629252 0.37274486 0.009085345 0.3529923 0.033403333
-0.030816553 0.30568287 0.2563941 -0.017104676 -0.05335927 -0.34109914 -0.14226687 0.09610827
-0.21928725 -0.2148484 -0.17814443 -0.22859794 -0.32392466 -0.32607153 -0.16956146 -0.26947913
-0.078539565 -0.073233515 0.23237325 0.30695277 0.0033783233 0.32182008 -0.07251649 0.19913994
-0.37250483 -0.1449803 -0.17951915 -0.0056826035 0.12455063 -0.20258799 0.16289279 -0.038397156
0.041663684 -0.07040134 -0.2874485 0.008765264 -0.29913038 0.33350188 0.035673823 -0.30535895
0.33649737 -0.19659409 0.2778414 -0.11017665 0.16372864 -0.20314199 -0.023160744 0.29182065
0.27062166 -0.0595962 -0.21358421 -0.20709567 0.34939688 -0.13575093 0.27460158 0.053709123
-0.29474667 0.023786144 0.07080221 0.098647244 -0.13997416 0.33815658 -0.17039353 0.24187566
-0.17451607 -0.29109707 -0.099205084 -0.37659797 0.32240066 -0.26069906 0.20476902 0.24078932
-0.34922588 -0.034453463 -0.14339375 0.0075670746 0.0002458116 -0.364204 -0.2731042 -0.07012655
0.20907784 0.09885305 0.15373322 0.22207493 -0.32867068 -0.10803502 0.1099436 0.10290121
-0.3378646 -0.05074054 -0.0017309783 -0.23214439 -0.06552733 0.27112895 -0.16717264 0.21517111
-0.08177258 -0.034344137 0.07239148 0.019204898 0.22320198 0.14575315 0.11763277 0.2702055
-0.24998511 0.120852455 -0.3307379 0.040239286 0.23379247 0.1642266 -0.21194403 0.2731849
0.33068871 0.11609693 0.13212727 -0.108068034 0.22136799 0.22440934 0.3014495 0.3224624
-0.24716017 -0.20350577 0.16796908 -0.15137705 -0.2392858 -0.06805707 -0.28329548 -0.048524305
0.305211 -0.20767151 -0.1650874 -0.13830595 -0.29976088 -0.30049407 -0.13732553 0.27532575
-0.35930592 -0.36435404 0.17706843 0.30206808 -0.13222925 0.15001264 -0.18943906 -0.21746862
-0.33868107 0.178737 0.07329575 0.2167092 -0.2020836 0.042751454 -0.06346513 0.22062275

bias f4 [64]
00000000: a916 be3e 725d d73d 143a 8abe add1 ccbe
00000010: a712 823e 4f74 8a3e 1189 003e 6e0b aa3e
00000020: 5987 33be 26e1 d0bc 9286 933e fa66 a6bd
00000030: b79d 7a3e 0c26 15be 0c79 943d 5c5a 8cbd
00000040: eb05 a5be 10b7 1f3e f3e3 263e 1e0e b7bd
00000050: b66a 893e 4168 09be a3f9 12bd 1be9 acbe
00000060: cfa0 b8bd c2a8 d5bd fa46 ccbe 7e10 7cbe
00000070: caf3 4fbe d7ec dc3d bab0 81bd 29a0 a5bd
00000080: 7331 33be 5d51 bcbd 0bd4 b3be 33d1 92be
00000090: f4c3 ac3e 9aa1 f83d 93c4 4c3e a203 9d3e
000000a0: 67f3 753e 81c1 a9bd 0ff4 cb3e 71a9 ccbe
000000b0: a69c 8b3e 48e0 633d 13c7 783d 3883 543e
000000c0: 49ee bbbd 19ae 36bd 5240 9fbb 1055 f43d
000000d0: 6265 69be 7f4c 9e3d 119b 21be 99c9 58be
000000e0: 8a21 86be ac35 0bbe 5530 98bd 7639 743d
000000f0: 7db0 5ebe f12e 2e3e 34bc c93d 9b7f b5be
0.37126663 0.1051587 -0.26997435 -0.4000372 0.25404856 0.2704186 0.12552287 0.33211845
-0.175321 -0.025497984 0.28813607 -0.0812511 0.24474226 -0.14565295 0.0724965 -0.06853172
-0.32231078 0.15597177 0.16297893 -0.089382395 0.26839226 -0.13418676 -0.035882603 -0.33771595
-0.09015047 -0.104325786 -0.398979 -0.24615666 -0.20307842 0.10787361 -0.06332536 -0.08087189
-0.17499332 -0.09195206 -0.35122713 -0.2867523 0.3374325 0.12140198 0.19996862 0.30666834
0.24018632 -0.08288861 0.3983464 -0.39973024 0.2726795 0.055633813 0.060736727 0.20753181
-0.09176309 -0.044599626 -0.0048599625 0.11930287 -0.2279258 0.07729434 -0.1578181 -0.21170653
-0.26197463 -0.13594693 -0.074310936 0.05962511 -0.21747012 0.17010094 0.0985035 -0.35448918

weight f4 [32, 64]
00000000: 0394 82bd 241d ebbd 0496 fb3c 3c13 d6bb
00000010: 3033 a93d 66ea f53b a054 03bd 6092 7b3d
00000020: b692 5cbc 855b e9bd 388d 2e3e 7e0e bf3d
00000030: a3ec a43d 65c8 d43d c986 29be 220a 6fbd
00000040: 0041 15bd 73b6 0ebe 684a 3c3d 149a d83d
00000050: 05b8 83bd 6314 213c dd00 3bbc 9e0b 8a3c
00000060: be49 9eb9 0c36 ae3d 0cba c5bd a442 f03d
00000070: 4ae8 0bbe 7ede 04be 43fd ce3b e211 a63c
00000080: 3288 08bd 36f5 ffbd 2ef8 1abe 9419 a23c
00000090: acdc 153e 2b3f 30bd 6099 b93d b31c c1bd
000000a0: c06a ea3b bf52 95bc ed61 d63d 7618 33be
000000b0: d5cc b6bd 9aab 863c 8856 a03c 1678 89bd
000000c0: 2b22 f43d 9f8f e6bd c8bc 003d 13b4 993d
000000d0: f3df 803d 534c b53d 277d 0b3e 0a80 4cbd
000000e0: 6605 1a3d 68ce 07be e411 c0bd f4ec 06bd
000000f0: ae43 b9bd 508a bbbc 47fb 8f3d a8f3 f4bc
00000100: ba97 2fbd 6ec1 16bd 6acd 9d3d 8f7e f4bb
00000110: 4a18 3ebd 6e26 aabd e754 2dbd 506b b13c
00000120: fcb0 d1bd 46bf 09bd 4a59 683c 3adb 56bc
00000130: 9404 89bd 9be5 ac3c 2535 b4bd d4c9 8d3d
00000140: 3aca dc3d bee0 22bd 9362 ddbd d79d be3d
00000150: 98d1 aebd aa1a 64bd 166f d5bc 6fcf f8bc
00000160: 2d47 88bd b9f8 31bd 0df8 3f3d b1c7 29bd
00000170: 3b7b d83c c33b 1abd aaaa 48bd 8cad af3c
00000180: e9e0 ba3d 071f 79bc 61fe c4bd 9b39 963d
00000190: ee12 4fbd 85ac ea3d cd31 a73d 5564 4abc
000001a0: 4c21 dcbd 9c09 4bbd 0661 abbd 6efb 88bc
000001b0: 8540 1a3d 9fb0 c3bd 34eb 04be 65da 90bc
000001c0: 9d1e ecbd 5d9b bc3d 0908 0a3e a24b ab3d
000001d0: a17e 79bd d015 d83d 72c3 113d 4915 03be
000001e0: efcd 4b3d 61c4 913c faf5 bcbb dd76 fa3d
000001f0: 406d 203d a1c4 c23d adcf bc3d 2f3b b03d
00000200: 97e6 be3d 2f6a 973d 1d18 ca3c 3416 0bbe
00000210: 4cb6 503d 7d87 9a3d 8d21 b2bc 147d 1c3e
00000220: 7cab e13c 164f 88bc b6ea 17bb b406 cabd
00000230: ff21 8b3d 4a5d 4c3d 2d57 8c3c 25cf 8cbd
00000240: 56fb 02bd bd5e e6ba 6170 a93d bbbd b73c
00000250: c16a 2e3d d84b 21be 1670 34be 62a9 c83d
00000260: c980 b6ba 6c33 c13d 9664 92bd d7eb 173e
00000270: b13d e2bd e3a2 05be 85ef a03c b1ff 93bd
00000280: 6807 9a3d 58d3 173d e32d d0bd 2e30 693d
00000290: bfbf 223e 5bfc 3cbd 59a1 803d ae00 01bd
000002a0: 1f3f 643d a6eb cbbd 5824 43bb 75a4 21be
000002b0: d8b6 8f3d dc05 693d 88ad a0bc ecaa 193e
000002c0: 81e6 163d 1785 403d 66bc 03be b01f 6c3d
000002d0: 708f ad3c 30bd a3bd f3e9 ae3b bf83 c73d
000002e0: 0fc9 49bb 1536 cabd 8fb7 da3d 76e9 c93d
000002f0: 2d31 e9bd 0bfc b3bd 1a78 07be 41f8 51bd
00000300: 8e86 f5bc f243 473c 6419 02be b983 9e3b
00000310: 99a5 073e cb1a e0bd d419 15bd d124 fa3d
00000320: b92a 73bd 3a2a 2d3d ff25 be3d 001d 3b3d
00000330: 4e3c 1d3e fc01 59bd 8a13 88bd 7f16 e83d
00000340: a8a3 11be 15ca 29bd 4b8d fa3c 64e4 c83d
00000350: 5d3d 20bd fbb7 49bd 9429 f53c b62f f8bd
00000360: fa54 fdbd c424 fd3d 78d8 853d 1fa4 9dbd
00000370: 3a7f 4e3d 4b92 b73c de6a 06be 9f8a d1bd
00000380: e891 9dbd 7e5c f13c 4385 b03d 5850 e13d
00000390: b4bb 0b3e 0c76 88bd b119 d83d 7158 e5bc
000003a0: 93fc e53c d20b 123e f9d2 973d 1e7c e6bc
000003b0: 5642 7d3d 1617 6d3d e236 af3c 6fbd 953d
000003c0: 5c2d b3bd 28ba 8cbd bb61 03bd d289 2b3d
000003d0: 0286 ac3c b172 93bd 43eb d83d b8fb f4bb
000003e0: e028 9ebd 932d 0dbe bdcc 39bc 9a81 703d
000003f0: d2d6 b6bd a23f cd3d 8b25 8ebd f563 fcbd
-0.06375887 -0.114801675 0.030711181 -0.0065330546 0.08261716 0.007504749 -0.032063127 0.06141889
-0.013462713 -0.11394409 0.17046058 0.09328936 0.08052947 0.10389785 -0.16555323 -0.058359273
-0.036438942 -0.13936786 0.045969397 0.10576263 -0.06431583 0.009831521 -0.01141378 0.016851243
-0.0003019105 0.085064024 -0.09654626 0.11731461 -0.1366283 -0.12975499 0.0063168122 0.020272199
-0.03333301 -0.12497942 -0.15133736 0.019787587 0.14634961 -0.04302899 0.09062457 -0.09429302
0.007153839 -0.018227933 0.104678966 -0.174898 -0.08925787 0.016439248 0.019572511 -0.06712358
0.119205795 -0.11257862 0.031430036 0.075050496 0.06292715 0.08852448 0.1362196 -0.049926795
0.037602805 -0.13262331 -0.09378412 -0.03294082 -0.09046112 -0.022893101 0.07030349 -0.02990134
-0.042869307 -0.036805563 0.07705195 -0.007461376 -0.046409883 -0.08308111 -0.042317297 0.021657616
-0.10238835 -0.03362968 0.014181444 -0.013113791 -0.06690326 0.021105578 -0.08799199 0.06923261
0.10780759 -0.039765112 -0.10809817 0.09307449 -0.085360706 -0.05568949 -0.026053946 -0.03037235
-0.06654201 -0.04345009 0.04686742 -0.041450206 0.026425948 -0.03765465 -0.048990883 0.021445058
0.091249295 -0.015205151 -0.096188314 0.07335206 -0.050555162 0.11458687 0.081637956 -0.012353023
-0.107485384 -0.04956971 -0.08368115 -0.016721454 0.037659187 -0.09555172 -0.12980348 -0.017682264
-0.115292765 0.09209321 0.13479628 0.08364035 -0.06091178 0.105510354 0.03558678 -0.12801088
0.04975694 0.017793836 -0.0057666274 0.122297026 0.03916669 0.0951016 0.092192985 0.086050384
0.09321325 0.073933 0.024669701 -0.13582689 0.0509551 0.075453736 -0.021744514 0.15282089
0.02754759 -0.016639274 -0.002318067 -0.0986456 0.067935936 0.049893655 0.017131412 -0.06875447
-0.031977974 -0.0017575842 0.08273388 0.022429338 0.042582277 -0.15751588 -0.17620882 0.09797932
-0.0013923879 0.09433636 -0.071480915 0.1483606 -0.11046923 -0.13050418 0.019645462 -0.07226504
0.07520944 0.037066787 -0.10165002 0.056930713 0.15893458 -0.046139102 0.062807746 -0.03149479
0.05572426 -0.09957056 -0.0029776301 -0.15785392 0.070172966 0.056890354 -0.019613996 0.15006608
0.03684092 0.047001924 -0.12864837 0.057647407 0.02118656 -0.07995069 0.0053379475 0.097419254
-0.0030790006 -0.098735966 0.10679542 0.09858982 -0.11386333 -0.08788308 -0.13229409 -0.051262144
-0.029971387 0.0121621955 -0.12704998 0.00483748 0.13246764 -0.1094261 -0.036401585 0.122140534
-0.059366915 0.0422766 0.09284591 0.045681953 0.15355036 -0.052980408 -0.06644352 0.11332416
-0.14222586 -0.041452486 0.030584952 0.09809187 -0.03912102 -0.049247723 0.029927053 -0.12118475
-0.123697236 0.12360528 0.06535429 -0.07697319 0.0504143 0.022408625 -0.13126704 -0.10231518
-0.07693845 0.029463049 0.08619168 0.110016525 0.13645822 -0.06663141 0.10551775 -0.027996274
0.028074538 0.14262322 0.07413287 -0.028135356 0.06183084 0.057883345 0.021388475 0.07311522
-0.08748886 -0.06871444 -0.032075625 0.041879483 0.021059994 -0.0719961 0.105917476 -0.0074762963
-0.0772264 -0.13786916 -0.011340317 0.058717348 -0.089276925 0.100219026 -0.069407545 -0.12323753

bias f4 [32]
00000000: 47e9 0e3e e867 8fbd 6a03 fe3d 4e20 053e
00000010: cfbb 463c a8e8 4d3e 2315 12be dadb ebbb
00000020: e4b0 c73d daf2 1d3e 19d0 07be 70dc c7bc
00000030: b492 54be 2c43 083e 9fef 1f3e 44a5 003e
00000040: 4b65 8fbd 5d20 203e b8be eabc f048 e43d
00000050: e1c9 bf3d fd50 6c3d 5614 043e 549a 18be
00000060: 43d1 2cbe 9b16 15be 6da8 44bd 1347 803d
00000070: 5e90 c53d 7a27 ae3d 025b 34be fe4f 053d
0.13956176 -0.070022404 0.12402995 0.13000605 0.012129738 0.20108283 -0.14265876 -0.007197839
0.09750536 0.15424672 -0.13262977 -0.024397105 -0.20759088 0.13306874 0.15618752 0.12563044
-0.07001742 0.15637346 -0.028655395 0.11146724 0.09364677 0.057694424 0.12898383 -0.14902622
-0.16876702 -0.14559405 -0.048012186 0.06263556 0.096466765 0.08503623 -0.17612842 0.03254699

weight f4 [7, 32]
00000000: a4bc 68bd da0d 0ebd b80c 5d3e 41dc 6c3d
00000010: e8b4 6bbe 9cff ac3c 563f 21be fddb 913b
00000020: 2aa6 383e 320d 463d b4ad 25be 6e8e 3dbe
00000030: c713 38be a8fe 383e 0c22 5ebd 548c 3f3e
00000040: 4135 c3bd 6067 763d bc96 a4bd 1fdd f1bc
00000050: 2e55 92bd cdca f13c 0157 4a3d 717c 903c
00000060: 7b3a bebd 9232 b6bd af1e 5cbe 79e2 763d
00000070: ada2 bd3d ee97 193e 48c9 a6bd 9124 473e
00000080: 691d ec3e 4db6 c0bd 1c20 cb3e 3f51 b53e
00000090: 7a91 b7be 1764 f93e 6657 8fbe 5179 d43d
000000a0: 3e50 933e d43e bc3e efb2 a0be 396c a8bd
000000b0: 6263 dbbe f4de a73e 4354 9a3e 6c34 c83e
000000c0: b402 f3bd d814 823e 67cd 2e3b 3c0e 4f3d
000000d0: 9cfe d83e e52b d23e 1e3f 503e 26dd 86be
000000e0: 063c 95be 75fe 0abe a2ea 83bd 6878 e53d
000000f0: bc51 e93d 4f2d c33e eaf2 52be 6ec7 8f3e
00000100: 1986 8b3c 0477 253e 0570 5ebd 1cde bf3d
00000110: f6b6 1f3e 939a b9bd 7493 013e fafc d63d
00000120: b788 a03c a1c8 e3bd c2db 463d 0f6f d53d
00000130: cf68 8ebd 07d3 c8bc 458c 2a3e 7039 ddbd
00000140: a430 08be 9bd5 07be 8cde 183e 498d bebd
00000150: 4c85 b03c 516f 08be 39c2 17be cca2 023e
00000160: 340d 963d aeea 513d 2a27 0cbd bd93 d1bd
00000170: 40bf e8bd 3b0f 2c3e 33f5 77bd 17ba 333c
00000180: d57a d03d ee35 7f3d a4da 50be 4d11 5d3d
00000190: d7f8 00bd a444 78be 479f 8e3d f81f 3cbc
000001a0: 2901 f6bd baa5 cd3d 18f2 7a3e aabb 073e
000001b0: c4e8 983c a69e 74be d916 3dbe 73e2 df3d
000001c0: 8dc0 4b3c 2a49 95bd 93ff 4ebe 7487 8fbb
000001d0: 1b48 babc 585d aabd 1794 2fbd 4428 5a3e
000001e0: 6e0a 35bc 62c4 ca3d f5a9 5a3d 0347 3fbd
000001f0: 0aaa 05be 0386 3dbe 8510 ebbd c8f5 3ebd
00000200: 9a6b 0cbe 733c 22bd 127d 6a3d cea8 07bc
00000210: 3aa6 413e bc90 d5bd c3a2 d93d 28c0 30be
00000220: f171 3cbd f76a 29be a23c 743c 412a df3c
00000230: 6383 73bd a00d 44be b9fb 86be ad9c 28be
00000240: 341a bebd 215f 40be 88cf edbd c2c7 343e
00000250: 75d8 4bbd fcf6 83bd fc2f c63c aeaf 873e
00000260: a1fd 6d3d 9beb 753e 3cc8 e73a 826a 9cbd
00000270: 1056 f8bd 70c1 84be 811b f43d f0bc 82bd
00000280: 18dc 56be 35a4 ef3d d8b9 13be f299 9cbd
00000290: edf4 0f3e b150 52be f198 a83d ae43 10be
000002a0: 06ef 76be 50ed 5ebe 34db df3c 2ab4 003e
000002b0: aab0 04bd f69c babc cfd9 d6bd acb1 16be
000002c0: c3cd 553c 823d e1bc 8e75 af3d 110e 01be
000002d0: d41f 14be a2b4 5abe ae9d 4f3d 7080 8cbd
000002e0: db65 5f3e 68fd 043e c803 423e 4240 0c3d
000002f0: f58a 5abe e4d6 853d faba 123d 1fa4 a63a
00000300: 1eb2 633d d366 d33d f149 21be 2b86 b3bd
00000310: 7841 603e fad9 edbd 3290 51bd b554 c23d
00000320: 7050 1d3c 75c0 9fbd c368 bcbc 6e1e 0a3d
00000330: 9ace bb3d 7403 67be 41a6 7bbe e5aa b3bd
00000340: a7f4 bd3d 437b 84bd b3ea 45be 9223 11bd
00000350: 87cf 1abe fd46 c7bd 645b 61be 78fb 8c3e
00000360: c1a6 cd3d 9b0f cd3d d7cb 843e 9418 623d
00000370: a9ad bcbb 84b1 90be 3b34 2b3e cf09 c43d
-0.056820527 -0.03468118 0.21586883 0.057827238 -0.23018229 0.021117978 -0.15746817 0.0044512735
0.18032137 0.048352428 -0.16179544 -0.18511364 -0.17976294 0.18065894 -0.05423169 0.18705875
-0.09531642 0.06015718 -0.08036563 -0.029524384 -0.07145153 0.029515648 0.04939938 0.017637463
-0.09288498 -0.08896364 -0.2149608 0.060274575 0.092595436 0.14999363 -0.0814386 0.19447543
0.46116188 -0.09409771 0.39672935 0.35413548 -0.35853177 0.48709175 -0.27996367 0.10374702
0.28772157 0.36766684 -0.31386515 -0.08223767 -0.4284926 0.32787287 0.30142412 0.39102495
-0.1186575 0.25406528 0.0026672722 0.050550684 0.42381752 0.41049114 0.20336577 -0.26340598
-0.29147357 -0.1357363 -0.06441237 0.11204606 0.11392543 0.38120505 -0.20600477 0.2808184
0.017031716 0.16158682 -0.05430605 0.09368536 0.15597138 -0.09062686 0.12653905 0.1049747
0.01959644 -0.11122251 0.04854942 0.10421573 -0.069535844 -0.024514688 0.16655071 -0.10801971
-0.13299805 -0.13265078 0.14928645 -0.09304292 0.021547936 -0.13323714 -0.14820184 0.12757415
0.07326737 0.0512492 -0.034217037 -0.10233257 -0.11364603 0.16802685 -0.060536575 0.01096966
0.10179678 0.06230729 -0.20395905 0.053971577 -0.031487312 -0.24244934 0.069639735 -0.011482231
-0.1201194 0.100413755 0.24506414 0.13255182 0.018665679 -0.23888645 -0.18465747 0.10931864
0.012436044 -0.072893456 -0.20214681 -0.004380161 -0.02273946 -0.08318585 -0.04286584 0.21304423
-0.01104985 0.09900738 0.05338474 -0.04669858 -0.13053146 -0.18508153 -0.1147776 -0.046621114
-0.13712922 -0.03960843 0.057248183 -0.008279992 0.18911067 -0.104279965 0.106267475 -0.17260802
-0.0460071 -0.1654471 0.014907034 0.027241828 -0.059451472 -0.19145823 -0.26363924 -0.16466017
-0.092823416 -0.18786289 -0.11611849 0.17654327 -0.049766976 -0.06443593 0.024192803 0.2650122
0.058103207 0.24015658 0.0017683576 -0.07637502 -0.1212579 -0.2592883 0.119193085 -0.06383693
-0.20982397 0.11701242 -0.14426363 -0.0764655 0.14058276 -0.20538594 0.08232296 -0.14088318
-0.24114618 -0.21770215 0.027326204 0.12568727 -0.032395042 -0.022779923 -0.104907624 -0.14716214
0.013049546 -0.02749515 0.08567344 -0.12603022 -0.14465266 -0.21357968 0.050687484 -0.06860435
0.21816199 0.12987292 0.18946755 0.03424097 -0.2134207 0.06535128 0.035822846 0.0012713707
0.055589788 0.103223465 -0.15750863 -0.08765825 0.21899974 -0.11613841 -0.051162906 0.09488813
0.009601697 -0.0780038 -0.022999173 0.033720426 0.091702655 -0.22559911 -0.2457514 -0.0877283
0.09275179 -0.06468823 -0.19327812 -0.035434313 -0.15118228 -0.09730337 -0.22007519 0.27535605
0.100415714 0.10012742 0.25936767 0.05519922 -0.0057580066 -0.28260434 0.16719143 0.09572183

bias f4 [7]
00000000: f3cb e53d 5ca4 383f 10e2 fdbd 37f8 3fbe
00000010: 1f67 1fbe 0857 b8bd 6960 86bd
0.11220541 0.7212579 -0.123966336 -0.1874703 -0.15566681 -0.09000975 -0.065613575
