experiements/starter_team/continuous_state/actor_critic/results/random_ac/checkpoints/model_a2000.pt (torch, 14903 bytes, 6 tensors)

weight f4 [64, 8]
0	0xbe11a55b	-0.14223234
1	0x3d445dc9	0.047941003
2	0x3d6ce99f	0.057839986
3	0x3e37223a	0.1788415
4	0x3e9c83ab	0.30569205
5	0x3d533f23	0.051573884
6	0x3eb1a08c	0.346928
7	0x3c7ef369	0.015560963
8	0xbeb9f67b	-0.36320862
9	0xbe2ab0bf	-0.16668986
10	0xbdcc24fe	-0.09967993
11	0x3d852d5c	0.06502792
12	0xbe42c84c	-0.1902172
13	0xbe8feed6	-0.28111905
14	0xbe16624c	-0.14685935
15	0x3d19b44b	0.037525456
16	0xbe3366d3	-0.17519693
17	0xbe6003cf	-0.21876453
18	0x3ead1932	0.33808285
19	0xbd56eff4	-0.05247493
20	0xbdc6514f	-0.09683477
21	0x3e9ef71b	0.31047902
22	0x3c81fca0	0.015867531
23	0xbd424c1b	-0.04743586
24	0xbdfdbdb8	-0.123897016
25	0xbe6c44a7	-0.23073064
26	0xbd9c0be1	-0.07619453
27	0xbd44a0a3	-0.048004758
28	0xbd076001	-0.03305054
29	0x3e42b1ec	0.19013184
30	0x3e92568e	0.2858166
31	0xbddbd674	-0.10734263
32	0xbd2a4385	-0.041568298
33	0x3e82b08f	0.2552533
34	0x3e9593f0	0.2921443
35	0x3ea6fe98	0.32616115
36	0xbe1e571b	-0.15462916
37	0xbe3ce093	-0.18445043
38	0x3dc147af	0.09437501
39	0xbe90120a	-0.28138763
40	0xbea091f9	-0.31361368
41	0xbe34f355	-0.17670949
42	0x3e8899a6	0.26679724
43	0x3d9357b9	0.07194466
44	0x3caf30f4	0.021385647
45	0xbd737039	-0.059433196
46	0xbe71cacb	-0.23612516
47	0xbe178da2	-0.14800122
48	0x3e9bed9b	0.30454716
49	0xbe52e61b	-0.20595591
50	0xbe680414	-0.22657806
51	0xbd0e737f	-0.034778114
52	0xbe833c6c	-0.25632036
53	0x3bb40bfe	0.0054945936
54	0xbdee2458	-0.11628026
55	0x3ead4b4a	0.33846503
56	0x3e1d46d6	0.15359053
57	0xbe0dbaf7	-0.13840853
58	0x3e142cdf	0.14470242
59	0x3d7281f4	0.059205964
60	0xbded7a17	-0.115955524
61	0xbea1d0d6	-0.31604642
62	0xbdef94be	-0.11698292
63	0xbcbf00e4	-0.023315854
64	0xbeaa0308	-0.33205438
65	0xbe1f0840	-0.15530491
66	0x3e8513db	0.2599171
67	0x3dec215a	0.11529799
68	0x3e9606b8	0.29302
69	0x3e6c0f13	0.23052625
70	0xbe35344e	-0.17695734
71	0xbea38bee	-0.31942695
72	0xbe9a5dde	-0.3014974
73	0x3e292e22	0.16521505
74	0x3dd081dd	0.101810195
75	0xbe2d3371	-0.16914155
76	0xbe9fdf99	-0.3122528
77	0xbd633161	-0.055467013
78	0xbd097343	-0.033557188
79	0xbeb52a35	-0.35383764
80	0x3d913152	0.07089485
81	0xbe7c7340	-0.2465334
82	0xbe89459d	-0.26810923
83	0xbe0892bb	-0.13337223
84	0x3e4df396	0.20112452
85	0xbeb563ee	-0.35427803
86	0x3e72d932	0.23715666
87	0xbe2943f9	-0.16529836
88	0xbd4e4e77	-0.0503678
89	0x3cdd8ebe	0.027045604
90	0x3d6729cb	0.05643634
91	0x3e819e18	0.25315928
92	0x3e480e93	0.1953681
93	0xbea244df	-0.3169317
94	0xbe8be3fc	-0.27322376
95	0x3ba2a0ce	0.004963017
96	0xbe9faf32	-0.3118835
97	0x3e41edce	0.18938372
98	0xbcbe69fd	-0.023243899
99	0x3dcc3b48	0.099722445
100	0x3df94dfe	0.12173079
101	0xbd0245a9	-0.031804714
102	0xbd617829	-0.055046234
103	0x3e8c1b31	0.27364495
104	0x3dcb2b81	0.09920407
105	0x3c7b9c6b	0.015357117
106	0xbd1e31b8	-0.038621634
107	0x3e90f092	0.2830854
108	0x3df6f78e	0.12058936
109	0x3e9ec200	0.31007385
110	0x3ea73153	0.3265482
111	0x3cf66fc9	0.0300826
112	0xbd00b37f	-0.03142118
113	0xbe1017f7	-0.14071642
114	0x3e8e6a81	0.2781563
115	0xbd120412	-0.035648413
116	0xbe7e0d89	-0.24809851
117	0xbea20d87	-0.31650946
118	0xbeadcf44	-0.33947194
119	0xbe9f1d07	-0.31076834
120	0xbe1d38d6	-0.15353712
121	0xbd66b4cb	-0.05632476
122	0xbd45b967	-0.048272517
123	0x3de23908	0.11046034
124	0x3e6cc45f	0.23121785
125	0xbce48aee	-0.027898278
126	0x3e4c9ba9	0.19981255
127	0xbd829ddf	-0.06377768
128	0xbe3dd3a3	-0.18537764
129	0xbeafa49f	-0.34305283
130	0xbeaffe70	-0.34373808
131	0xbe729911	-0.23691203
132	0x3e92a2ed	0.28639928
133	0x3d5fb351	0.05461437
134	0x3ea35e38	0.3190782
135	0x3e6a5f52	0.22887924
136	0xbebc3dae	-0.36765808
137	0x3d863c2c	0.065544456
138	0xbd9adf29	-0.07562096
139	0x3e57b12d	0.21063681
140	0xbe804309	-0.25051144
141	0xbdeff8b6	-0.1171736
142	0xbe130006	-0.14355478
143	0x3d30d35f	0.04317033
144	0x3dc917c6	0.098189875
145	0xbea51184	-0.32239926
146	0xbe233d9c	-0.15941471
147	0x3e593dba	0.21214953
148	0x3e8c718f	0.27430388
149	0x3e580b97	0.21098171
150	0x3de20c6c	0.110375255
151	0xb9608f68	-0.00021415728
152	0x3e049707	0.12948237
153	0xbebbad98	-0.3665588
154	0xbe3f1e3c	-0.18663877
155	0xbda4dd52	-0.08050026
156	0x3d081120	0.033219457
157	0x3e32b2f7	0.17451082
158	0xbea4026c	-0.32033098
159	0x3dddede8	0.10836393
160	0x3e9a90ef	0.301887
161	0x3d2d780f	0.042350825
162	0x3ea5bcd8	0.3237064
163	0x3d30034a	0.042971887
164	0x3e8ed17c	0.278942
165	0x3e160c3e	0.14653108
166	0x3d7daa95	0.061930258
167	0xbe876afc	-0.2644881
168	0xbea392a1	-0.31947806
169	0x3df11edf	0.11773466
170	0xbe72b703	-0.23702626
171	0xbe970c7a	-0.29501706
172	0xbeaa9d75	-0.33323255
173	0xbe5224cc	-0.2052185
174	0x3ce46830	0.027881712
175	0x3e1fc3fd	0.15602107
176	0x3e19df3b	0.15026562
177	0x3e1d2745	0.15347011
178	0x3e89b0a6	0.26892585
179	0xbceab283	-0.028649574
180	0xbe1bd23f	-0.15216921
181	0x3e118a8c	0.14213008
182	0x3cd165a0	0.025561154
183	0xbd896dbb	-0.067103826
184	0x3ea80852	0.32818848
185	0xbe047d39	-0.12938394
186	0x3e0ded01	0.13859941
187	0x3e403dee	0.18773624
188	0x3e8ea92a	0.27863437
189	0x3ec762b0	0.3894248
190	0xbd0aee78	-0.033918828
191	0x3c4cdd98	0.012504004
192	0x3e96d9be	0.29463
193	0x3d11c409	0.035587344
194	0xbe5bb65a	-0.2145628
195	0xbe47260f	-0.19448112
196	0x3c863514	0.016382731
197	0xbc442a9c	-0.0119730495
198	0xbe9084d0	-0.28226328
199	0xbe85beaf	-0.26122043
200	0xbd8aa4be	-0.06769703
201	0x3e086913	0.13321333
202	0x3e8e4bb2	0.27792126
203	0x3e39578e	0.18099806
204	0x3eb90157	0.36133835
205	0xbead1c00	-0.33810425
206	0xbe92ede6	-0.28697127
207	0xbe8c2a6a	-0.2737611
208	0x3cd0acfb	0.025473109
209	0xbde02d73	-0.10946169
210	0xbe0225fc	-0.12709802
211	0x3ea4c93b	0.32184777
212	0x3e17a89c	0.14810413
213	0x3d10567f	0.03523874
214	0x3d9261ef	0.071475856
215	0x3da175be	0.07883786
216	0xbea5679d	-0.32305613
217	0xbe7dcd89	-0.24785437
218	0xbe7004cb	-0.23439328
219	0xbe2d9dff	-0.16954802
220	0x3e0e7b13	0.13914137
221	0xbd175c0e	-0.036953025
222	0x3e3132cd	0.17304535
223	0x3d86e551	0.065867074
224	0x3ea7fda9	0.32810715
225	0xbe329024	-0.17437798
226	0xbe7ecdde	-0.2488322
227	0x3e40cbfb	0.18827812
228	0x3e970127	0.29493067
229	0x3ea0a249	0.31373814
230	0x3e718fd2	0.2359002
231	0xbe09f0c3	-0.1347075
232	0x3ea78cfe	0.32724756
233	0x3d381c62	0.044948943
234	0x3e5f9e0d	0.21837635
235	0x3ebc3a5f	0.36763284
236	0x3d65c8d6	0.056099735
237	0x3cebf74b	0.028804442
238	0xbdb31636	-0.08744471
239	0x3dedee2f	0.116176955
240	0x3e175912	0.14780071
241	0xbd9674c2	-0.073464885
242	0x3c8472be	0.016167995
243	0x3e88deb9	0.26732424
244	0x3d71e85f	0.059059497
245	0x3d730ec5	0.059340257
246	0xbe1854c4	-0.14876086
247	0x3d2f8c2b	0.042858284
248	0xbd88d46e	-0.06681143
249	0xbd15504c	-0.03645353
250	0x3e7b62e4	0.24549443
251	0x3e3705ee	0.17873356
252	0xbcdae598	-0.026720807
253	0x3e8aa6d5	0.27080408
254	0xbe6fdb30	-0.23423457
255	0xbe74626a	-0.23865667

bias f4 [64]
0	0xbe2baca9	-0.16765083
1	0x3e8d6f0f	0.27623793
2	0xbe824e94	-0.25450575
3	0xbd0033ba	-0.03129933
4	0xbd9e43e5	-0.077277936
5	0x3e0e5109	0.138981
6	0x3e578023	0.21044974
7	0xbe073f7e	-0.13207814
8	0x3ded2f7f	0.11581325
9	0xbe9dc95d	-0.3081769
10	0x3daf2c50	0.08553374
11	0x3da6ae3c	0.08138701
12	0xbe9ae7f1	-0.30255082
13	0x3ddd6ac0	0.108113766
14	0xbe56ff4a	-0.20995823
15	0x3eb8af13	0.3607107
16	0x3e78aa95	0.24283822
17	0xbe91bd22	-0.2846461
18	0x3e119660	0.1421752
19	0xbe973546	-0.29532832
20	0x3e10d4f0	0.14143729
21	0x3d420917	0.04737195
22	0x3e9f9380	0.3116722
23	0xbd9f9700	-0.07792473
24	0x3e03652a	0.1283156
25	0xbea2a551	-0.3176675
26	0xbe74d532	-0.23909453
27	0xbebb28a5	-0.36554447
28	0x3e642940	0.2228136
29	0x3e00a28e	0.1256201
30	0x3eb62c27	0.3558056
31	0x3df0b2e4	0.11752871
32	0x3e4ac1fb	0.1980056
33	0xbe3df1c6	-0.1854926
34	0x3df8f494	0.121560246
35	0x3dfca682	0.12336446
36	0xbeb5071c	-0.35356987
37	0x3d1d70cb	0.038437646
38	0x3e10377d	0.14083667
39	0x3d650d0a	0.05592064
40	0x3b8b0f09	0.0042437357
41	0x3ebab135	0.36463323
42	0xbe90b1de	-0.28260702
43	0xbe0bec95	-0.13664468
44	0xbe832ec5	-0.2562162
45	0xbd2bf9a0	-0.041986108
46	0xbe774893	-0.24148779
47	0x3d4c46df	0.049872275
48	0x3e4a9320	0.19782686
49	0xbe07648f	-0.13221954
50	0x3d6b3bcb	0.05743007
51	0xbe82e5bd	-0.255659
52	0xbe96714f	-0.29383323
53	0xbdb9e29f	-0.09076428
54	0xbd1d0962	-0.038339026
55	0x3c393ee0	0.0113064945
56	0x3e12b8c3	0.14328294
57	0x3b03cf5c	0.002011261
58	0xbdfd2b2f	-0.12361752
59	0xbec64c41	-0.38730052
60	0x3e1a8df6	0.15093216
61	0xbd4a7e3f	-0.049436804
62	0xbe6a41f0	-0.22876716
63	0xbd2b9616	-0.04189118

weight f4 [32, 64]
0	0xbc3dd654	-0.011586744
1	0x3c250353	0.010071593
2	0xbe09ac59	-0.13444652
3	0xbdf0cb15	-0.11757485
4	0xba0cd863	-0.00053728203
5	0xbd91b0e9	-0.07113821
6	0xbc6b5991	-0.014364616
7	0xbdd8c731	-0.10584868
8	0xbb2ca9b6	-0.0026346273
9	0xb91bf8d4	-0.00014874648
10	0xbcf24e70	-0.029578418
11	0xbd41a9a7	-0.047280934
12	0xbd6ae363	-0.05734576
13	0x3e00a3ca	0.1256248
14	0xbde3e3ad	-0.1112741
15	0xbd331e55	-0.0437301
16	0xbcbf7eba	-0.023375858
17	0xbe1112e9	-0.1416737
18	0x3dd080db	0.10180827
19	0x3d6780e8	0.05651942
20	0x3e0dda31	0.13852765
21	0xbdf89ead	-0.1213964
22	0x3dc730b2	0.09726085
23	0x3dafc161	0.08581806
24	0xbd982b13	-0.07430091
25	0x3dccf5a8	0.10007793
26	0x3df5e09c	0.120057315
27	0xbdb455f1	-0.088054545
28	0x3e0ca8d9	0.13736285
29	0x3dfb1144	0.122591525
30	0x3d877e3a	0.06615873
31	0xbdb65e54	-0.089047104
32	0xbcd76a47	-0.026295794
33	0x3c9dbf27	0.019256188
34	0x3d7bc7dc	0.061469898
35	0x3e0edbca	0.1395103
36	0x3d28a182	0.04116965
37	0x3dc482c0	0.09595251
38	0xbd729d1d	-0.059231866
39	0xbd364f12	-0.044509
40	0xbd9ee9ff	-0.07759475
41	0xbd1afeaf	-0.03784054
42	0x3dadcb5c	0.08486053
43	0xbd9ad153	-0.07559457
44	0xbd14c1a4	-0.036317483
45	0x3db634e7	0.08896809
46	0xbd7f5eb0	-0.06234616
47	0xbc162a57	-0.009165368
48	0x3d8b61f7	0.06805795
49	0xbdeca730	-0.11555326
50	0x3d4a6b88	0.049418956
51	0x3db694fa	0.08915134
52	0xbb63d108	-0.0034762044
53	0x3cf6acaa	0.03011163
54	0x39ce970a	0.00039403915
55	0x3d102465	0.03519096
56	0xbd997168	-0.07492334
57	0xbdf81c68	-0.12114793
58	0x3ca8b8c7	0.020595921
59	0xbdc6fa35	-0.09715692
60	0xbdde73b5	-0.10861913
61	0xbe01ad54	-0.12663776
62	0x3c97061b	0.018435529
63	0xbdc6ebf7	-0.097129755
64	0x3e0f0438	0.13966453
65	0x3db3835a	0.08765288
66	0x3c3a6aaa	0.01137797
67	0x3d898ade	0.0671594
68	0xbd4b9123	-0.04969896
69	0x3db355ce	0.087566
70	0xbd3554e5	-0.044270415
71	0x3dca5efe	0.098813996
72	0x3cc41488	0.023935571
73	0xbe210725	-0.15725382
74	0xbdd079dd	-0.101794936
75	0xbd14141e	-0.036151998
76	0xbb2018a1	-0.0024428742
77	0x3df8449b	0.121224605
78	0xbcd91a55	-0.026501814
79	0x3b967699	0.0045917747
80	0xbdc548d1	-0.09633029
81	0xbe24c6e9	-0.16091503
82	0x3e0a9e78	0.13537014
83	0x3d8c82a7	0.068608575
84	0x3d9df6d9	0.07713098
85	0x3d778d7f	0.060437676
86	0x3d0a5ef9	0.03378198
87	0x3d94e476	0.07270138
88	0x3d72396b	0.05913679
89	0x3db86d74	0.090052515
90	0x3d7b6847	0.061378743
91	0xbe0765a8	-0.13222373
92	0xbd8aeea5	-0.06783799
93	0xbb675f82	-0.003530473
94	0x3d85b8ab	0.06529363
95	0x3d731b2b	0.05935208
96	0x3d8e5827	0.069504075
97	0x3d8be807	0.06831365
98	0x3dd9b486	0.10630135
99	0x3dec7d42	0.115473285
100	0xbe18587d	-0.14877506
101	0x3bafe5cd	0.0053679706
102	0xbd82a591	-0.063792355
103	0x3dba453a	0.09095235
104	0x3de19e40	0.11016512
105	0x3d4119e6	0.04714384
106	0x3d37d34e	0.04487925
107	0xbda11879	-0.07865996
108	0xbe159e01	-0.14611055
109	0x3d3daa28	0.04630485
110	0xbd1e1694	-0.03859575
111	0x3db2db6e	0.08733259
112	0xbddcd300	-0.107824326
113	0xbda3bea9	-0.0799535
114	0x3dee0033	0.11621132
115	0x3db09e38	0.08623928
116	0x3de5b39a	0.11215897
117	0xbc94c04b	-0.018158099
118	0x3e053d78	0.1301173
119	0x3d9a0769	0.075209446
120	0xbdc947c1	-0.09828139
121	0xbdb2d033	-0.08731117
122	0xbdf9e842	-0.12202503
123	0xbda3a6c0	-0.079907894
124	0x3d2c17c2	0.042014845
125	0xbe234289	-0.1594335
126	0x3d83a126	0.06427221
127	0x3d6949d7	0.056955185
128	0xbd9d96f9	-0.076948114
129	0x3dbf2179	0.09332556
130	0xbd3dc1b1	-0.046327297
131	0xbdf8ffe2	-0.12158181
132	0xbbf81155	-0.0075704255
133	0x3cf3004a	0.029663224
134	0x3da9d850	0.082932115
135	0xbca9ff5f	-0.020751653
136	0x3dacb75e	0.08433412
137	0x3c94ac69	0.018148618
138	0x3dc4d181	0.09610272
139	0x3d43cd50	0.047803223
140	0xbcbdda2b	-0.02317532
141	0xbe218eed	-0.15777178
142	0x3ceb432c	0.028718553
143	0xbdad54be	-0.08463429
144	0x3dbfc995	0.093646206
145	0x3d59275d	0.053016055
146	0xbdb79bad	-0.0896524
147	0xbd1e9196	-0.03871306
148	0xbd8b8094	-0.06811634
149	0x3d4725f7	0.04862019
150	0x3da8ff52	0.082518235
151	0xbdc9ecf1	-0.09859646
152	0xbdc8f427	-0.09812193
153	0x3dc33fca	0.09533651
154	0x3d7e53d3	0.06209166
155	0x3dde6240	0.108585835
156	0xbc849dae	-0.016188469
157	0xbc865bdf	-0.01640123
158	0xbba74fbb	-0.00510594
159	0x3d858728	0.0651992
160	0x3dbf9ed2	0.093564644
161	0x3cc0d271	0.023537846
162	0x3d41027b	0.047121506
163	0xbd34f518	-0.044179052
164	0x3da0a7d0	0.07844508
165	0xbd5ec95c	-0.05439125
166	0x3ca75cb1	0.02042994
167	0xbcc1fc98	-0.023680016
168	0x3cc7231c	0.024308734
169	0xbb61893f	-0.003441408
170	0x3c262125	0.010139738
171	0x3d821230	0.06351125
172	0x3dc03f2c	0.09387049
173	0x3b30a955	0.0026956399
174	0x3e035c29	0.12828125
175	0xbde5308d	-0.11190901
176	0x3c689fe4	0.014198277
177	0x3da9ad1a	0.0828497
178	0xbcd4c112	-0.02597097
179	0x3dba5c79	0.09099669
180	0xbddacc67	-0.10683518
181	0x3cecf977	0.028927548
182	0xbda7fce2	-0.082025304
183	0x3d890044	0.06689504
184	0xbd84d982	-0.06486799
185	0x3db8514c	0.08999881
186	0x3c63cb45	0.013903444
187	0xbd881df2	-0.066463366
188	0x3dc95b63	0.09831884
189	0xbd1ef6e8	-0.038809687
190	0x3d7c5d59	0.06161246
191	0x3dc8fabc	0.09813449
192	0x3d38add8	0.045087665
193	0xbd8b3e1b	-0.06798955
194	0x3e11a790	0.14224076
195	0xbcbd90a9	-0.023140268
196	0x3d7c8ab4	0.061655715
197	0xbd6e2363	-0.058139216
198	0xbd879704	-0.06620601
199	0x392f1746	0.0001669797
200	0xbcd52f89	-0.026023643
201	0x3e09ccd4	0.13457042
202	0x3cacb63d	0.021082992
203	0x3dab14a9	0.0835355
204	0xbd4f1c95	-0.050564367
205	0xbca3d005	-0.019996652
206	0xbc2a7ab2	-0.010405229
207	0xbd114a80	-0.03547144
208	0x3cdc44b5	0.02688823
209	0x3b996901	0.004681707
210	0xbdefd8bc	-0.11711261
211	0x39c2e971	0.0003717649
212	0xbdfa7bf8	-0.122306764
213	0xbd0aee3d	-0.033918608
214	0xbdd712f3	-0.10501661
215	0x3d819dc2	0.06328918
216	0x3d8d21ee	0.06891237
217	0xbcded67d	-0.027201885
218	0xbcc3894c	-0.02386918
219	0xbce6f640	-0.028193593
220	0xbe074d63	-0.13213114
221	0x3d5b13b0	0.053485572
222	0x3d00f8aa	0.031487145
223	0xbdfee67e	-0.12446307
224	0x3dcbf6cc	0.09959182
225	0x3dccaba0	0.09993672
226	0xbcd399cf	-0.025830178
227	0xbd93a3d0	-0.07208979
228	0x3e0f81e5	0.14014395
229	0x3d77bcfd	0.060482968
230	0x3d7972af	0.060900386
231	0x3d83823c	0.064213246
232	0x3dcebc5f	0.10094523
233	0xbd25e390	-0.040500224
234	0x3dee8211	0.11645902
235	0x3d966608	0.0734368
236	0x3db1469b	0.08656045
237	0x3de4db7c	0.11174676
238	0xbc48d010	-0.012256637
239	0xbdd90a14	-0.105976254
240	0xbd9681b7	-0.0734896
241	0xbda18076	-0.0788583
242	0x3c70543d	0.0146685215
243	0x3d907d4e	0.0705515
244	0xbd9482d6	-0.072515175
245	0xbdd3be20	-0.10338998
246	0xbd7c25a4	-0.061559334
247	0x3d6874a1	0.05675185
248	0xbe01f3e6	-0.12690696
249	0x3cfea03e	0.031082269
250	0x3e05516e	0.13019344
251	0x3d14683d	0.036232222
252	0xbca45ae1	-0.020062866
253	0x3e29194e	0.16513559
254	0x3d46ac18	0.048503965
255	0xbd796db0	-0.06089562

bias f4 [32]
0	0xbd77feb5	-0.060545642
1	0x3c852844	0.016254552
2	0xbe0de7fc	-0.13858026
3	0xbe5d472a	-0.21609178
4	0x3e30c534	0.17262727
5	0x3de68f82	0.11257841
6	0x3e1901d7	0.14942108
7	0xbd6a7fa8	-0.05725065
8	0x3dd55f61	0.10418583
9	0x3d81aa68	0.063313305
10	0x3e14fa68	0.14548647
11	0xbdd73618	-0.105083644
12	0xbdc3b69b	-0.095563136
13	0x3cff4460	0.031160533
14	0xbd99db59	-0.0751254
15	0xbc477ac1	-0.012175263
16	0x3e189600	0.1490097
17	0x3d97529b	0.073888026
18	0x3d9b4643	0.07581761
19	0x3d3fd487	0.04683354
20	0x3e2dd256	0.16974768
21	0x3de55aa6	0.111989304
22	0xbdfdcc7c	-0.12392518
23	0xbdf1b2bb	-0.11801668
24	0x3d29db68	0.041469008
25	0xbded2b76	-0.11580555
26	0x3de7b922	0.11314608
27	0xbd50cf49	-0.050978933
28	0xbe1af02c	-0.15130681
29	0xbe444f90	-0.19170976
30	0x3d973674	0.07383433
31	0x3b136059	0.0022487848

weight f4 [7, 32]
0	0x3e102ba2	0.14079145
1	0x3e079a98	0.13242567
2	0x3d8c2b3f	0.06844186
3	0xbe3b6560	-0.1830039
4	0xbd927e28	-0.07152969
5	0x3e664e80	0.22490883
6	0x3df5712d	0.11984477
7	0xbdd9aa3d	-0.106281735
8	0x3e055e23	0.13024192
9	0x3e0f85a6	0.14015827
10	0x3e2abea7	0.1667429
11	0xbe26d880	-0.16293526
12	0x3db4e85f	0.08833384
13	0x3d92af80	0.0716238
14	0xbe182e1d	-0.14861341
15	0xbd7cf775	-0.06175943
16	0x3e1f4d47	0.15556823
17	0x3cf0282b	0.029316029
18	0x3e7ade97	0.24498974
19	0x3dc4e105	0.096132316
20	0x3e4b0faa	0.19830194
21	0xbe1e9424	-0.15486199
22	0x3d9bee02	0.07613756
23	0xbe15a38b	-0.14613168
24	0x3d3ff9dc	0.046869144
25	0xbe2c9d45	-0.16856869
26	0x3e61980f	0.22030662
27	0xbd9102f4	-0.070806414
28	0xbe286d5c	-0.16447967
29	0xbe135576	-0.1438807
30	0xbe11a58a	-0.14223304
31	0x3c2db486	0.010602122
32	0x3e281139	0.1641282
33	0x3ea2d9b5	0.31806722
34	0xbe6b6bde	-0.22990367
35	0xbebd286c	-0.36944902
36	0x3ebfe7fb	0.37481675
37	0x3e8ab86b	0.27093825
38	0xbd43a9ce	-0.04776936
39	0xbe737654	-0.23775607
40	0x3e1514b9	0.14558686
41	0x3ee3c417	0.44485542
42	0x3d3b2792	0.045692034
43	0xbe59edce	-0.21282122
44	0xbe867d38	-0.2626741
45	0xbe41b6a2	-0.18917325
46	0xbec818bb	-0.39081368
47	0xbe02c411	-0.12770106
48	0x3e026e0f	0.12737297
49	0x3d1bf924	0.038079396
50	0x3ecacfe4	0.39611733
51	0x3e33bcec	0.17552537
52	0x3e5a5909	0.21323027
53	0x3e20c94f	0.15701793
54	0xbe1aa15a	-0.15100613
55	0xbeac9c95	-0.33713213
56	0xbdce6f9c	-0.100798815
57	0xbe8d6336	-0.27614754
58	0x3efe7020	0.4969492
59	0xbe241835	-0.16024859
60	0xbec5579e	-0.3854341
61	0xbdc11a20	-0.09428811
62	0xbc1b3bdd	-0.009474722
63	0xbea6d3de	-0.32583517
64	0xbdd0e8ed	-0.10200677
65	0xbdf3d161	-0.1190517
66	0xbe085209	-0.13312544
67	0x3e0eb82c	0.13937443
68	0x3dc6c417	0.0970537
69	0xbd90047f	-0.070321076
70	0x3e14611f	0.14490174
71	0xbba88bb6	-0.005143608
72	0xbce9a99f	-0.028523264
73	0xbe03a48c	-0.12855738
74	0x3e083ac4	0.13303667
75	0x3e029486	0.1275197
76	0x3da3b391	0.07993234
77	0xbd2595eb	-0.040426176
78	0xbe2a101d	-0.16607709
79	0xbe03516c	-0.12824029
80	0x3e0ccc90	0.1374991
81	0x3df4ca0a	0.119525984
82	0x3d765cbd	0.060147036
83	0x3c32865c	0.010896292
84	0x3d2d40cf	0.042298134
85	0x3d9a29c7	0.075275
86	0x3d50e31a	0.05099783
87	0x3da5015a	0.080568984
88	0x3e24119a	0.1602234
89	0xbd00dcf8	-0.031460732
90	0x3dc582f9	0.09644122
91	0xbdff5f9c	-0.12469408
92	0xbda03cb8	-0.07824081
93	0x3d353ef1	0.04424948
94	0x3de43c2c	0.111442894
95	0x3e117642	0.14205268
96	0x3da9bf69	0.08288462
97	0xbda6988f	-0.08134567
98	0xbce3a2b2	-0.02778754
99	0x3d6d1f99	0.057891462
100	0xbdaa4a20	-0.083149195
101	0xbe615674	-0.22005635
102	0xbe0a5f2b	-0.13512866
103	0x3cbade8e	0.0228112
104	0xba930e5a	-0.0011219487
105	0xbda23cd4	-0.07921758
106	0xbe07af9e	-0.13250586
107	0xbdb97e42	-0.09057285
108	0xbdb0ca1c	-0.08632299
109	0x3dc9dd17	0.09856623
110	0x3ba44892	0.005013534
111	0x3d070af5	0.032969434
112	0xbdd6c7ee	-0.10487352
113	0xbe0f7170	-0.14008117
114	0xbde52257	-0.111881904
115	0xbd8da965	-0.06917075
116	0xbe415c7f	-0.1888294
117	0xbdc802d9	-0.09766168
118	0xbddec4c2	-0.10877372
119	0x3d8e63a2	0.06952597
120	0x3dc854f6	0.0978183
121	0x3e3fee1a	0.18743172
122	0xbe453e79	-0.19262113
123	0xbd5800ad	-0.05273502
124	0xbce8b569	-0.028406816
125	0x3e2ff284	0.17182356
126	0x3cef8190	0.029236585
127	0x3e450776	0.19241127
128	0xbe63e875	-0.22256644
129	0xbe2fdf23	-0.17174964
130	0x3d7bce37	0.06147596
131	0x3e309d8e	0.17247602
132	0xbe782cd4	-0.2423585
133	0xbe417c44	-0.1889506
134	0xbe04ef81	-0.12981988
135	0xbd98c765	-0.074599065
136	0xbe509492	-0.20369175
137	0xbe83b2f3	-0.25722465
138	0xbe3eca35	-0.18631823
139	0x3e240127	0.16016065
140	0x3e2dd5a1	0.16976024
141	0xbdb57e44	-0.08861974
142	0x3dc4e877	0.09614652
143	0x3e3736d6	0.17892012
144	0xbe108c2a	-0.14115968
145	0xbe3351fb	-0.17511742
146	0x3d829962	0.06376912
147	0x3e05a722	0.13052037
148	0xbcd40063	-0.02587909
149	0x3ae1646d	0.0017196067
150	0x3dd5c35a	0.10437651
151	0x3d86a2b1	0.06574
152	0xbd9b2e9f	-0.07577252
153	0xbd3f953e	-0.046773188
154	0x3d85c8d6	0.06532447
155	0xbdfd6dc3	-0.12374451
156	0x3d557d0e	0.052121215
157	0x3e42080c	0.18948382
158	0xbd385cd4	-0.045010403
159	0x3df98471	0.12183464
160	0xbd8e2798	-0.06941146
161	0xbd03afb7	-0.032149997
162	0x3e041e96	0.12902293
163	0x3e5814fe	0.21101758
164	0xbb7fb6ae	-0.0039018798
165	0xbe56f293	-0.20990972
166	0xbd3b2112	-0.045685835
167	0x3e678ca8	0.2261225
168	0x3d802d2c	0.06258616
169	0xbe3a19ff	-0.18173979
170	0xbda02c71	-0.078209765
171	0x3dc0c432	0.09412421
172	0x3de0b452	0.10971893
173	0x3dfc3096	0.123139545
174	0x3c10a327	0.008827961
175	0x3cd48350	0.02594152
176	0xbd037625	-0.032095093
177	0xbe1775a1	-0.14790966
178	0xbe288a15	-0.16458924
179	0xbc83fd6b	-0.01611205
180	0xbe391d19	-0.18077506
181	0x3e23a46e	0.15980694
182	0x3c6f02a3	0.014588031
183	0x3e1feec4	0.15618426
184	0xbe218a42	-0.15775397
185	0xbc7bb86b	-0.015363793
186	0xbe593ae9	-0.21213879
187	0x3dc6f832	0.09715308
188	0x3e1ebb87	0.15501224
189	0x3d531e39	0.051542494
190	0x3de42242	0.11139347
191	0x3d9535b7	0.07285636
192	0xbe22e710	-0.15908456
193	0x3d3e166e	0.04640811
194	0x3e76056d	0.24025507
195	0xbd8e032e	-0.069342
196	0xbdb1abf4	-0.086753756
197	0xbdda4789	-0.106581755
198	0xbe554ef7	-0.20830904
199	0x3e801c2a	0.25021487
200	0xbe14a3d5	-0.14515622
201	0xbe980e64	-0.2969848
202	0xbdae83f5	-0.085212626
203	0xbca6042a	-0.020265657
204	0xbd025ff1	-0.031829778
205	0x3e12274b	0.14272802
206	0x3cb91e13	0.022597348
207	0x3e6ba478	0.23011959
208	0xbe7f9163	-0.24957804
209	0xbd8097dc	-0.06278965
210	0xbdc5676b	-0.09638866
211	0xbc8213d3	-0.015878594
212	0x3c83e513	0.016100442
213	0x3e086955	0.13321431
214	0x3d2a70c1	0.041611437
215	0x3dfc05bc	0.12305781
216	0xbd5153d8	-0.05110535
217	0x3e0bae76	0.1364077
218	0xbddc4964	-0.10756186
219	0x3e1940b2	0.14966086
220	0xbd522931	-0.051308814
221	0x3e6a4f0f	0.22881721
222	0x3d48ef89	0.049056564
223	0xbcf70e1f	-0.0301581

bias f4 [7]
0	0x3d8b9ca5	0.06816987
1	0x3f0fb657	0.56137604
2	0xbd3e16d6	-0.046408497
3	0xbea32805	-0.3186647
4	0xbe46073d	-0.19338699
5	0xbd4f68e9	-0.05063716
6	0xbd353c3b	-0.044246893
