experiements/starter_team/continuous_state/actor_critic/results/random_ac/checkpoints/model_c4000.pt (torch, 14135 bytes, 5 tensors)

weight f4 [64, 8]
00000000: 8f73 c8bd d760 4f3d 9223 33be e334 443e
00000010: 61ca 933e 535f 4c3e 4be4 59be 0740 963d
00000020: b9b4 0cbd 188f 82be 19d2 6abe a57d b0be
00000030: fa96 50bc 61b1 483e 5ba2 3bbe 8b9b 9f3e
00000040: 17cb ae3e d3fc 9dbe 9829 87bd 80cc 563d
00000050: e5a9 2d3e 6d19 04bd e3e1 abbe 50a9 04be
00000060: 8b60 89bc 5b3f 74be 685e 8b3e fe7d 923d
00000070: 54d7 6f3e bc36 56bd 4ac1 83bc c491 4d3e
00000080: 3aef 003e c8a7 153d 700f 4f3e ddb3 aebd
00000090: fe42 17be 6ee9 b73e 694b b53e 1dfd b5bd
000000a0: 4eda a73e e7a0 1a3e 242a ba3e 4a30 a1bd
000000b0: a287 c2bd 4ceb b0be edd6 5a3e d873 3abe
000000c0: 02d3 41be a598 af3d f577 a0be 65a0 683e
000000d0: e851 493e 7a57 ff3a 6d11 11be 8efe b5bd
000000e0: a0b4 a93e 9f07 a43e 5da8 93be c3c1 083e
000000f0: fd5d 153e 626c 883d 3cb0 e1bd 2331 e1bd
00000100: cf68 163e 74e0 3ebd 7f16 ca3e 5fb1 f93c
00000110: a870 64be 7eb0 30be b659 a5bd 313f 1ebe
00000120: 5451 233c 70e2 993e ca18 803e f6d5 943e
00000130: 5eac a63e b76f 90be 3476 b33b 618f 11be
00000140: 2131 a2be 64dd 7c3e 462a 993e f4a6 943e
00000150: e668 45be b236 493e c03e 933e 1afe 3d3e
00000160: 53b9 833e 70cd 3c3e bd6f c53c ec26 883e
00000170: ecbd 1cbe 0460 723d 6b72 88be f5a4 8bbe
00000180: 105f 663e 5da2 c3bd 4535 d43d b314 70bd
00000190: 8dd6 8cbe ef5a c9bd e97d 873d 6e7b a43e
000001a0: 8dcb 873e 069d 87be 453b 29bb afda 493e
000001b0: e50d a7be a81e 213e ed02 473e 7a02 6d3e
000001c0: f829 99bd 739b a63e 7670 93be 0e7a 41be
000001d0: 8a36 7fbe 6e20 a2be 731a 733d 4649 013e
000001e0: 6d89 b4be 8206 6bbd 55aa 3cbe c1c4 703e
000001f0: a8ad 4d3d a4b6 40be 606e 303d 00fe d83d
00000200: e198 0abe fba2 6d3e adc1 863d a313 9a3e
00000210: a499 a83c f681 fd3c c045 6d3e cd0f b53e
00000220: bc59 3fbe 19fd ad3e f73d 3f3e fc13 88be
00000230: 7ab5 afbe 3c8d 1cbe 3832 91bd de2d 11bd
00000240: 1bb4 3ebe 9f1b 1f3d 0d3b 31be 9c06 873e
00000250: 5206 5b3d 2dd5 b3bd a02c 883d 60ab 173e
00000260: 0da0 223d 3c8c 763e 7d6d 3abe eb75 abbe
00000270: 879e 32be 6cb0 6c3d ce5b aebe e3ae 89be
00000280: d185 14be 2a30 9bbe 92a3 acbb f7a6 3c3e
00000290: f550 263e c2c7 173e f54d 61be 515a 983e
000002a0: 4d7d aebe dfbd 853d f238 ea3d 0c3f 903e
000002b0: 19f0 3cbe 114c d2bd 9dec 23bc 70a7 1ebe
000002c0: e854 8a3d 05a5 ef3d cafb d3bd 5938 c73d
000002d0: c9f9 a63e 0842 403e f23f b7be 11b3 00be
000002e0: d1b5 07be ce7a 1a3e 7754 87be 522a 54be
000002f0: 91a0 8ebd a0fa 51be 9dfe 993d 4ef4 8e3e
00000300: b81f 8b3e 19c2 00be a800 8fbe 523a a9bd
00000310: 8491 7abe 9c7a 43be a900 303e 5cb6 61be
00000320: 0954 c13d 678e 2abe 20e8 babd c126 4abe
00000330: 7f0a 3cbe a4cc 18bc 958f ee3d 70f3 c3bd
00000340: 30bd 9abe 6299 af3e 3c4b bc3d b4be c83d
00000350: e811 25be 14a6 543e 6d5a 923d 9eea 763d
00000360: b01c af3e 5b43 a63e c382 853e b1a3 7ebe
00000370: 6ed4 52bc 46e9 d2bd 76e7 d1bc 1395 9fbe
00000380: 6a4c 8b3e 0e18 d2bd 5938 52be f48f 80be
00000390: 4200 e93d 95b5 acbd 8da7 933c 95a4 cb3d
000003a0: 81e6 ac3e 49de 85be 6f22 583e 03a7 82bd
000003b0: 87e2 ed3d 9657 4e3d f3b9 68bc bae5 9e3e
000003c0: 6191 fd3d 72c6 b23e a5a7 14be 776c 8ebe
000003d0: 2f9e 423d b534 a43e b135 d33d 1356 d8bc
000003e0: f2d6 ccbd 18e8 b73d dd58 7e3e b442 ce3d
000003f0: b623 50bc d8b5 95be eaf9 9a3e 930e a53e
-0.09787666 0.050629463 -0.17494038 0.191608 0.2886534 0.19958238 -0.21278493 0.07336431
-0.034352038 -0.25499797 -0.22931708 -0.3447086 -0.012731308 0.19598915 -0.18323652 0.31173357
0.3413932 -0.30856952 -0.0659973 0.05244112 0.16959341 -0.03225081 -0.33570775 -0.12955213
-0.016769668 -0.23852293 0.27220464 0.07152937 0.23421985 -0.052298293 -0.016083378 0.20075136
0.12591258 0.03653696 0.20220733 -0.085304 -0.14771649 0.3592028 0.35409096 -0.08886168
0.3278374 0.15100442 0.36360276 -0.078705385 -0.09498526 -0.34554517 0.2137105 -0.18208253
-0.1892815 0.085740365 -0.3134152 0.22717436 0.19660151 0.0019481026 -0.14166804 -0.08886443
0.33145618 0.32037064 -0.28839388 0.13355164 0.14586635 0.066612974 -0.11019942 -0.109957
0.14688419 -0.046600774 0.39470288 0.030480085 -0.223086 -0.17254826 -0.08073752 -0.15453793
0.009968121 0.3005557 0.25018913 0.2906949 0.3255338 -0.28210232 0.0054767374 -0.14214851
-0.31678107 0.24693829 0.29915065 0.29033625 -0.19278297 0.19649771 0.28758812 0.18553963
0.2572733 0.18437743 0.024101133 0.26592195 -0.15306824 0.0591736 -0.26649794 -0.2727429
0.22497201 -0.09552453 0.10361723 -0.05861349 -0.2750744 -0.09831797 0.06615812 0.3212542
0.26522484 -0.26486987 -0.002582268 0.19712327 -0.32627788 0.1573435 0.1943471 0.23145476
-0.07478708 0.32540473 -0.28796738 -0.18894216 -0.24923149 -0.31665367 0.059351396 0.12625608
-0.35261098 -0.057379253 -0.18424352 0.23512556 0.05021444 -0.18819672 0.04307401 0.10595322
-0.13534881 0.23206703 0.065799095 0.30093107 0.020581074 0.03094576 0.23171139 0.35363618
-0.18686575 0.3398216 0.18675981 -0.26577747 -0.34318143 -0.15288252 -0.070896566 -0.035444133
-0.18623392 0.0388447 -0.17307682 0.2637223 0.053472824 -0.087808944 0.066491365 0.14811468
0.039703418 0.24076933 -0.18205829 -0.33488402 -0.17443286 0.057785437 -0.34054416 -0.2689124
-0.14504172 -0.30310184 -0.0052685225 0.18423067 0.1624182 0.14822295 -0.22002394 0.29756406
-0.34079972 0.06530356 0.11436643 0.281731 -0.18450965 -0.10268415 -0.0100051435 -0.1549356
0.06754476 0.11701397 -0.10350759 0.09727544 0.32612446 0.18775189 -0.35790974 -0.12568308
-0.13252951 0.15085909 -0.2643163 -0.20719269 -0.06964219 -0.20505762 0.07519267 0.27920765
0.27172637 -0.12574042 -0.27930188 -0.08263077 -0.24469572 -0.1908974 0.17187752 -0.22042221
0.094398566 -0.16655885 -0.091263056 -0.19741346 -0.18363379 -0.009326134 0.1164848 -0.095679164
-0.30222464 0.3429671 0.09194037 0.09801999 -0.16120112 0.20766479 0.071461536 0.060282342
0.34201574 0.32473263 0.26076326 -0.24867131 -0.01286803 -0.102983996 -0.025623064 -0.31168422
0.27206737 -0.10258494 -0.20529307 -0.25109828 0.11377002 -0.084330715 0.01802423 0.09943501
0.3376961 -0.26146153 0.21106885 -0.06379511 0.11615472 0.050376497 -0.01420449 0.31034642
0.123812445 0.34917027 -0.14517076 -0.27817127 0.047514137 0.32071462 0.10312975 -0.02640823
-0.10001935 0.08979815 0.24838586 0.10071316 -0.012703827 -0.29240298 0.30268794 0.32237682

bias f4 [64]
00000000: a782 f23d 9ee7 d4bd 8a97 b0be 254e 8c3d
00000010: fc3a e33d 6366 8c3e 8bdf 8e3e f99f 92be
00000020: ea76 933e 2079 9fbe 1fa1 72bd a6c9 babd
00000030: 3345 eebd d253 3ebe 8fc2 9a3e 678b 95be
00000040: 5c7d 9dbe e2bb 6ebe 7326 a83e 1fa1 7abe
00000050: ef1d a63c 0420 98bd 458d 0b3d 8c3d 633e
00000060: 1b86 1e3e ff5e 973d 7fee 1abe 0569 02be
00000070: 9474 62be 479b 993e 593e b5bd 6265 253b
00000080: 8af4 b5bd b758 b23b 14fb 413e c92a 9c3c
00000090: 576f 283e 73ff 5d3e b2a0 623e 1a27 2e3d
000000a0: dadf e2bd 74a5 e53d 6948 a83e 40c6 453e
000000b0: c7f3 39be c62e 913e fa94 c83d 11f6 a5be
000000c0: 2db6 b33e 0e7a 80be 88d1 08bd a062 b13d
000000d0: 866d 15be f145 b43e f868 87be 46eb 0cbe
000000e0: 77c0 a8be 6ace 86be 7862 ab3d 3689 3d3e
000000f0: b2a9 923e 6428 5ebe ee31 74ba bd17 7f3e
0.11841326 -0.1039574 -0.34490615 0.068508424 0.11095235 0.27421865 0.27904925 -0.28637674
0.28801662 -0.311471 -0.05923569 -0.09120493 -0.116342925 -0.18586662 0.3022656 -0.29207918
-0.30759704 -0.23313859 0.32841834 -0.24475525 0.020277945 -0.074279815 0.034070272 0.22191447
0.15480845 0.07391166 -0.15130042 -0.12735374 -0.22114784 0.3000128 -0.088497825 0.002523743
-0.08884533 0.0054427045 0.18943435 0.01906337 0.16448723 0.21679477 0.22131613 0.04251776
-0.110778525 0.11213198 0.32867745 0.19313908 -0.181594 0.28355998 0.0979404 -0.32414296
0.35099927 -0.2509312 -0.03340295 0.08661389 -0.14592561 0.3520961 -0.26447272 -0.13761625
-0.3295934 -0.26329356 0.08368391 0.18509373 0.28645092 -0.21695095 -0.00093153014 0.24911399

weight f4 [32, 64]
00000000: b936 d8bd 936c d9bc 97a3 453d 4bb1 d03d
00000010: f39a 023e 4338 b4bc 2615 bb3d a3ec e83d
00000020: 238e 06be 2845 efbd 9625 723d 8328 d6bc
00000030: b308 a3bd b6fe 2bbd adf7 6ebd 19c2 26bd
00000040: 201e 583d b986 f0bd b1fb d1bc 82c3 76bd
00000050: 0ce0 ec3b a593 f03d 4bcf cbbc fea6 69bc
00000060: 1727 6a3d e3b2 ef3c 5088 9d3d 0ff2 7f3c
00000070: 2004 973d 2fb0 bb3d 8d2a 083e a9cc d63d
00000080: f8e5 adbd 05b6 223c ea41 7c3d 0f95 bbbd
00000090: 0d29 af3d e188 753c 9a8e c23d 8c16 da3d
000000a0: 5086 f83d f241 c83d 16df 1abc 0658 86bc
000000b0: 6c4d c33d 0df3 203e 117b a53d eaaa b0bd
000000c0: 8d70 273d ccf8 163d 6ba6 8cbd b03e 993d
000000d0: c4c6 d73d e90f 96bd 7e67 803d ec1b b93d
000000e0: 995c ee3a 6be4 0d3d 6f01 c7bd 4f69 83bd
000000f0: f476 28bc 343f d3bc 616b e6bd ddfd b1bd
00000100: c137 7e3c bb95 2e3d 84c3 acbc 118b f8bc
00000110: 4453 94bd fab0 6dbd 0cf6 54bc fa14 5a3d
00000120: 91a7 c13d 45fc e6bd a958 88bd 8407 a9bd
00000130: dd25 1bbd 93a0 2abd ab0b 933d c4fd 9a3c
00000140: ed21 34bd fb11 bfbd 2acc f33c 7754 bdbd
00000150: b25c 593c 3840 4cbd aa61 5abd 9b29 9a3c
00000160: 7612 f0bd 9d67 b4bd 8b7d 09bc dd5c cdbd
00000170: 1d63 c13d 134b 423d 932f 02be 6a4c 873d
00000180: bd94 c43d 357a 0c3d 3f2a 903d ea15 ae39
00000190: 61ca 3ebd 6a3e 893d 4a36 ef3d bbc1 423d
000001a0: 6826 57bd 10ed 78bd 4b86 afbd 76a2 523d
000001b0: b4fb 523d ee0a cdbc 88c2 a9bc d626 cdbd
000001c0: 7210 cbbc d0f0 3dbc 68f3 8dbd 950b 8c3d
000001d0: 7218 cdbd 597c bc3d d041 f03d e708 973d
000001e0: 0222 713c 8075 41bd b4c8 2dbd 27cf 5d3d
000001f0: c846 513d 17d1 78bc cfd4 7e3c 09ed 003b
00000200: 20c0 a0bd 5d0c b23c f68f 87bd 3dad 3ebd
00000210: e5f6 d8bc 23c2 7abd 6344 b23c 8d65 943d
00000220: 277a d23d 9e2c 353c d7c5 283d 00fb dc3d
00000230: 3051 b338 7ff3 c1bd ee3f 6ebd 4a7b 69bd
00000240: 1935 6c3d 767b c7bd 0287 323d 75a2 8f3d
00000250: 0b91 17bd ec1f a2bd c717 9a3d 04e2 f3bd
00000260: 3b7a edbd c8e7 ec3d d188 ae3c ebba f63d
00000270: ba04 913d 2135 373d 8165 f0bd b8fb 09be
00000280: ca4f 8d3d 0867 8c3c add5 8c3d e6db 2fbd
00000290: 5207 7c3d e5a2 46bd f824 5dbd e3ec 183d
000002a0: 24b8 953d ffed 563d 35b5 7c3c eaf5 d03c
000002b0: 33dd 77bd fa3f 06bd 2aa9 86bc 8813 443d
000002c0: 8974 1e3d 101f 84bd eb86 8a3d 8274 b6bc
000002d0: 6d29 f83d 3556 c6bc b854 db3c 894b c4bb
000002e0: e9f6 ac3d 35fc db3d 6561 e7bd 148e cb3d
000002f0: 0981 073d d945 d93d 5d13 2d3d 464c a53d
00000300: 6a88 e4bd 86a8 b5bd 3a91 9dbc bb21 e93d
00000310: 60cc 08bc 734d d4bd e323 5b3c 9055 673d
00000320: 6577 d53b b4f6 043c 7ba1 c7bd 24f9 32bb
00000330: c217 e93d 1f13 c5bd 8bd2 783c e072 033d
00000340: 5cb3 193d b324 9abd 97e7 e5bd 6eab 9ebd
00000350: 3b0d cdbc deee aebc 24bf a13d 8c27 ac3d
00000360: 1417 88bd 3be2 d43c d12e a8bd 2e8a 94bd
00000370: 9696 463d 0675 fa3c 5813 09bc 795d 8dbc
00000380: a005 e8bc e19f 01be 14e2 0abd 5f0f e93b
00000390: 1b94 f53d a460 a4bd f829 803c 2490 e73d
000003a0: 9815 bf3c 9669 a73c cd00 e33d 4a26 2d3d
000003b0: 3aeb fc3c 751a 9d3d 3b91 e63d 94e1 0cbc
000003c0: 829e f43d 6e9f 82bd aab6 813c bd11 86bd
000003d0: 8229 54bd ad95 e0bc 79fd b73d 896f 30bd
000003e0: 368a 8bbd 7fb4 643d 45f7 523d d43c a13d
000003f0: d69d d13d 6181 db3d fedb ebbc 70fe 563c
-0.105573125 -0.02654103 0.048251715 0.10190066 0.12754421 -0.021999484 0.09134893 0.1137326
-0.13140158 -0.116831124 0.059117876 -0.026142364 -0.079606436 -0.04199096 -0.05834167 -0.04071245
0.052763104 -0.11744446 -0.025632711 -0.060245045 0.007228857 0.11746911 -0.024879118 -0.014261005
0.057166185 0.029260105 0.07692015 0.015621676 0.07373834 0.09164464 0.13297482 0.104882546
-0.08491129 0.009931092 0.061586298 -0.0915929 0.08552752 0.014986248 0.09499855 0.10648832
0.12134993 0.09778203 -0.009452602 -0.016399395 0.095362514 0.15717717 0.08080114 -0.08626349
0.04087882 0.036858365 -0.06867679 0.0748266 0.105359584 -0.07327253 0.062697396 0.09038529
0.0018185555 0.034641664 -0.0971707 -0.064165704 -0.010282267 -0.025786974 -0.1125095 -0.08690999
0.015516222 0.042623263 -0.021089323 -0.03033975 -0.07242444 -0.058030106 -0.012998115 0.05324266
0.09455789 -0.11278585 -0.066575356 -0.082533866 -0.037877906 -0.04165704 0.0717996 0.018919833
-0.043977667 -0.093296014 0.029760439 -0.09244626 0.013266729 -0.04986593 -0.053315796 0.018818667
-0.11722271 -0.08808825 -0.008391748 -0.10027478 0.094427325 0.047434878 -0.1271346 0.06606372
0.09598682 0.034296233 0.07039308 0.00033204193 -0.046579722 0.06701358 0.11680277 0.047548037
-0.05252686 -0.060772955 -0.08570536 0.051424466 0.051509574 -0.025029626 -0.020722643 -0.10017173
-0.024788115 -0.011593059 -0.06931192 0.068381466 -0.10014428 0.09203405 0.11731303 0.07374745
0.014717581 -0.047231197 -0.042427734 0.054152634 0.051092893 -0.01518657 0.015553667 0.0019672534
-0.07849145 0.02173441 -0.06619255 -0.04655193 -0.026484916 -0.0612203 0.021761125 0.07245932
0.10277205 0.011058001 0.0412043 0.10790062 8.5505075e-05 -0.09470271 -0.058166437 -0.057002343
0.057667825 -0.09740345 0.043585785 0.07013408 -0.037003558 -0.07916245 0.075240664 -0.119083434
-0.11595579 0.11567646 0.021305474 0.120473705 0.0708098 0.044728402 -0.1173811 -0.1347493
0.06899984 0.017138973 0.06876693 -0.04293432 0.06153042 -0.048495192 -0.053990334 0.037335288
0.07310513 0.052473065 0.0154240625 0.025507886 -0.060513686 -0.032775857 -0.016438086 0.04787019
0.038685355 -0.06451237 0.06764015 -0.022272352 0.12117276 -0.024211029 0.026773795 -0.00599045
0.08445532 0.10741464 -0.112978734 0.099392086 0.033082042 0.106090255 0.042254794 0.08071189
-0.111588314 -0.08870034 -0.019234288 0.11383387 -0.008349508 -0.10366335 0.013375255 0.056478083
0.006514477 0.008115459 -0.09747597 -0.0027309144 0.113814846 -0.09622788 0.015186916 0.032091975
0.037524566 -0.07526531 -0.11225813 -0.07747541 -0.025030723 -0.021354135 0.07897785 0.084059805
-0.06645027 0.025986781 -0.082120545 -0.07252918 0.048483454 0.03057338 -0.008366428 -0.017256485
-0.028322995 -0.12658645 -0.03390701 0.007112428 0.119911395 -0.08026245 0.015645012 0.113067895
0.023325726 0.02043609 0.11084137 0.042272843 0.030873884 0.07671062 0.11258169 -0.008598704
0.119442955 -0.06378065 0.015834171 -0.06546352 -0.051797397 -0.027415121 0.08983893 -0.04307512
-0.06813471 0.055836197 0.051505346 0.0787293 0.10235183 0.107180364 -0.028791424 0.013122186

bias f4 [32]
00000000: 3988 c63d bedf 3dbd 860a 7a3d 51c3 e53d
00000010: 743e ba3d 35d4 8f3c 8e40 d43d c6a6 93bd
00000020: 70ed f43d 7fb2 a13c 0165 163e bd96 883d
00000030: a6ba a53d 263f 15bd b57c fabb 00b1 323c
00000040: 3b8a ccbd a715 d2bd 6268 d03d 8ba6 d23d
00000050: 5a07 c9bd b07c acb8 c7d9 5d3a f22a f1bb
00000060: 680d 8b3c c09a b03d 2643 c4bd 5ac9 37bd
00000070: f767 fc3d 5178 96bc d50d c0bc 15e5 6cbd
0.09693951 -0.046355955 0.061045192 0.11218894 0.09093943 0.017557243 0.10363875 -0.07209544
0.1195935 0.019738434 0.14686967 0.06669376 0.08092241 -0.036437176 -0.007644261 0.010906458
-0.09987303 -0.10258036 0.101761594 0.10285672 -0.09815855 -8.224824e-05 0.00084629323 -0.007359856
0.016974166 0.08623266 -0.0958312 -0.04486976 0.12324517 -0.018367918 -0.023444096 -0.057835657

weight f4 [1, 32]
00000000: bc4f 993e cf12 a5bd d306 69be 9d2b a33d
00000010: 5ed3 1e3e b534 7fbd a1ab b1bd ad99 10be
00000020: b116 f83c a594 e2bd b4cc 453e b70d 90bd
00000030: ec33 48bb 4b33 96bd 317e 06be 55e7 6fbe
00000040: 88a7 193e 37c3 e7bd e349 53be 6b7b 1e3d
00000050: 1d09 10bd ab95 a1bc 2dff 6abd 41b0 f7bd
00000060: b9bf 893c 8be2 e63d 7b62 a4bd 6846 54be
00000070: 86a0 29be 4f0a 8cbe 494c 943e b8b5 68be
0.29943645 -0.08060228 -0.2275651 0.07967303 0.15510318 -0.062306125 -0.08675314 -0.14121123
0.030284258 -0.11063508 0.1931637 -0.07033866 -0.0030548526 -0.07334002 -0.13134076 -0.2342809
0.15005314 -0.11316531 -0.20633654 0.03869192 -0.03516494 -0.019724688 -0.05737226 -0.12094165
0.016815053 0.112736784 -0.08026596 -0.20729983 -0.16565141 -0.27351615 0.2896445 -0.2272557
