experiements/starter_team/continuous_state/actor_critic/results/random_ac/checkpoints/model_a0.pt (torch, 14879 bytes, 6 tensors)

weight f4 [64, 8]
0.32740715 0.25798142 0.17894907 -0.16881117 0.3302696 -0.29105604 -0.34205037 -0.27315387
-0.28746632 -0.092499964 0.29485953 -0.33979103 0.0332344 0.033863578 -0.3319812 -0.111380056
0.10330463 -0.2171736 0.08859461 0.20088771 0.3435114 -0.10432659 -0.1873223 0.08918354
-0.0024185542 -0.033205934 0.08004268 -0.21093953 -0.16140507 -0.07713185 -0.237636 0.124434724
-0.073700175 -0.08557612 0.15566838 0.13552204 -0.1990688 -0.13656512 0.3180454 0.16649823
-0.33848017 0.15914842 -0.23570892 -0.15626395 0.1482453 -0.32710004 -0.25854266 0.05840441
-0.30136538 0.160566 0.076010145 0.29389724 0.32556835 0.19037688 0.13840789 0.18935935
-0.3300306 -0.11848906 0.33462358 0.11700318 -0.03772333 -0.014306983 0.32893935 0.31897986
0.2719105 0.07076229 0.20621279 0.33039108 -0.16205281 0.29451135 -0.23456064 -0.30227908
-0.3464078 -0.14962426 0.064824104 0.14201427 0.1674985 0.3132283 0.32856113 -0.3088218
0.1998815 0.11391174 0.21834132 0.22976331 0.21278474 -0.026306842 0.08489345 -0.30347067
0.0031051305 -0.11182472 0.27143303 0.23837285 -0.039240174 -0.08729986 0.025659397 -0.17472118
0.14778773 -0.03730719 -0.2602233 0.026175845 0.34793952 -0.016645374 0.32644743 0.008540018
-0.03394711 0.30192724 0.24746518 -0.026944173 -0.059272278 -0.34853685 -0.14866365 0.0892565
-0.2038334 -0.19087261 -0.15409234 -0.19818063 -0.30004993 -0.3071022 -0.14605033 -0.24998528
-0.06392654 -0.058563363 0.25049853 0.3200774 0.019989248 0.33359158 -0.06102742 0.213376
-0.35032657 -0.10789422 -0.13722996 0.044716917 0.16512595 -0.16911094 0.20494804 -0.0018270226
0.03856008 -0.07513389 -0.29570064 -0.0029334885 -0.30706322 0.32625654 0.02830938 -0.31304774
0.3413357 -0.1893647 0.28462023 -0.104551084 0.16889963 -0.19886655 -0.018343778 0.29645413
0.26959234 -0.058028035 -0.21065815 -0.20677763 0.3501543 -0.13640706 0.2770636 0.054136515
-0.3074607 0.008062271 0.057631865 0.079477325 -0.15691954 0.32567745 -0.18606539 0.22831203
-0.15575792 -0.26748735 -0.08102389 -0.34406924 0.35062766 -0.23993562 0.22866324 0.26386362
-0.32933727 -0.0012707277 -0.107138306 0.053207815 0.036378358 -0.33571184 -0.24029043 -0.03806653
0.20593499 0.095389105 0.14851168 0.22284266 -0.3321489 -0.1092749 0.10880468 0.099646516
-0.32140526 -0.026777498 0.016657175 -0.20821859 -0.04580447 0.29125056 -0.14717558 0.23491275
-0.10736482 -0.07266778 0.036190838 -0.023502462 0.19055295 0.114366375 0.082142465 0.23942176
-0.2325207 0.14632627 -0.3004857 0.077798314 0.2638263 0.1915512 -0.18542786 0.301081
0.32791826 0.108496875 0.11661759 -0.12290117 0.21151234 0.21554878 0.2907727 0.31305054
-0.23221543 -0.18066613 0.19285172 -0.1212854 -0.21574731 -0.046467107 -0.26233777 -0.026206763
0.31159633 -0.19671199 -0.15324007 -0.120324776 -0.28809914 -0.28899863 -0.12464066 0.28789094
-0.34769934 -0.34084326 0.19794047 0.33554548 -0.10991521 0.17113523 -0.1648052 -0.19772184
-0.33084533 0.18965252 0.083264194 0.2316078 -0.19218177 0.053623226 -0.052118156 0.23081504
00000000: e9a1 a73e 2416 843e 6d3e 373e d6dc 2cbe
00000010: 1919 a93e 4c05 95be 3a21 afbe d3da 8bbe
00000020: c92e 93be 9f70 bdbd d4f7 963e 17f9 adbe
00000030: cb20 083d 89b4 0a3d 71f9 a9be 3a1b e4bd
00000040: 6191 d33d c262 5ebe 1771 b53d 82b5 4d3e
00000050: bae0 af3e 2ea9 d5bd 6bd1 3fbe dca5 b63d
00000060: 9b80 1ebb f202 08bd 6bed a33d 8800 58be
00000070: 5f47 25be 4ef7 9dbd da56 73be a2d7 fe3d
00000080: 1ef0 96bd 8842 afbd 8867 1f3e 4ac6 0a3e
00000090: b1d8 4bbe bad7 0bbe d9d6 a23e 837e 2a3e
000000a0: 464d adbe cef7 223e ae5d 71be a803 20be
000000b0: 9ecd 173e a879 a7be b45f 84be 7639 6f3d
000000c0: 904c 9abe 6a6b 243e 35ab 9b3d b379 963e
000000d0: e5b0 a63e 28f2 423e ccba 0d3e 6be7 413e
000000e0: c5f9 a8be 64aa f2bd c853 ab3e 5d9f ef3d
000000f0: c783 1abd d667 6abc bd6a a83e 5451 a33e
00000100: da37 8b3e d2eb 903d 7229 533e 0529 a93e
00000110: 2cf1 25be 31ca 963e aa30 70be 53c4 9abe
00000120: 5d5c b1be 1a37 19be 80c2 843d 306c 113e
00000130: ba84 2b3e 765f a03e 2a39 a83e e41d 9ebe
00000140: bcad 4c3e 8f4a e93d de94 5f3e 1347 6b3e
00000150: 3ee4 593e 7281 d7bc 9edc ad3d 8260 9bbe
00000160: 727f 4b3b 5c04 e5bd 45f9 8a3e 0318 743e
00000170: 4eba 20bd 45ca b2bd a833 d23c 1cea 32be
00000180: ab55 173e 6dcf 18bd fd3b 85be ba6e d63c
00000190: 2125 b23e e15b 88bc 1e24 a73e 6feb 0b3c
000001a0: 200c 0bbd 3596 9a3e 8367 7d3e 07ba dcbc
000001b0: 7dc7 72bd 6c73 b2be 493b 18be 1dcc b63d
000001c0: b4b9 50be 1c74 43be 62ca 1dbe ddef 4abe
000001d0: 25a0 99be 803c 9dbe 388e 15be 24fc 7fbe
000001e0: ebeb 82bd 23e0 6fbd 5841 803e 2fe1 a33e
000001f0: 7ec0 a33c 84cc aa3e e3f7 79bd 3d7f 5a3e
00000200: 015e b3be a5f7 dcbd 0386 0cbe 1629 373d
00000210: c716 293e 6b2b 2dbe e6dd 513e b578 efba
00000220: 2df1 1d3d ccdf 99bd 1366 97be c53f 40bb
00000230: 6437 9dbe 190b a73e 13e9 e73c cb47 a0be
00000240: 8ec3 ae3e d2e8 41be beb9 913e e11e d6bd
00000250: 06f4 2c3e aca3 4bbe b145 96bc d6c8 973e
00000260: 0208 8a3e ceae 6dbd c5b6 57be 84bd 53be
00000270: 6d47 b33e 4bae 0bbe 48db 8d3e 40be 5d3d
00000280: 7d6b 9dbe 9e17 043c 640f 6c3d 02c5 a23d
00000290: 84af 20be 32bf a63e ed87 3ebe a1ca 693e
000002a0: 017f 1fbe 1af4 88be daef a5bd d829 b0be
000002b0: 7885 b33e afb1 75be b226 6a3e 2219 873e
000002c0: e59e a8be 8c8e a6ba 546b dbbd 70f0 593d
000002d0: 7901 153d 6ce2 abbe b20e 76be a6eb 1bbd
000002e0: 9fe0 523e 5d5b c33d 7213 183e de30 643e
000002f0: 6c0f aabe 85cb dfbd fdd4 de3d 7913 cc3d
00000300: 3b8f a4be 7c5c dbbc a174 883c 4137 55be
00000310: 789d 3bbd cb1e 953e 32b5 16be f88c 703e
00000320: 16e2 dbbd d8d2 94bd d83c 143d 3c88 c0bc
00000330: 5020 433e eb38 ea3d 4f3a a83d fa2a 753e
00000340: e819 6ebe 8ed6 153e 43d9 99be b954 9f3d
00000350: 3e14 873e ff25 443e cde0 3dbe 4a27 9a3e
00000360: e7e4 a73e 9c33 de3d 34d5 ee3d 9cb3 fbbd
00000370: b196 583e d2b8 5c3e 29e0 943e 2948 a03e
00000380: e2c9 6dbe 8b00 39be ec7a 453e 7b64 f8bd
00000390: ddec 5cbe 4b54 3ebd 2351 86be 91af d6bc
000003a0: 8e89 9f3e de6e 49be f7ea 1cbe d66c f6bd
000003b0: bb81 93be a1f7 93be 9a43 ffbd 7166 933e
000003c0: a605 b2be 0283 aebe e8b0 4a3e 9ecc ab3e
000003d0: 3a1b e1bd 133e 2f3e b2c2 28be 9877 4abe
000003e0: 8f64 a9be 4534 423e 6b86 aa3d 982a 6d3e
000003f0: 4ccb 44be 07a4 5b3d d979 55bd c75a 6c3e

bias f4 [64]
0.3374595 0.11478694 -0.24112159 -0.3217587 0.21764587 0.30457953 0.08034201 0.31805062
-0.18564509 0.025064006 0.25563014 -0.075424194 0.19412456 -0.15782103 0.12000268 -0.043232135
-0.2519735 0.14291139 0.17285666 -0.088532105 0.24028598 -0.08816613 0.030032184 -0.34004647
-0.053602315 -0.16659841 -0.34776878 -0.2662617 -0.1578494 0.130726 -0.020794727 -0.063188404
-0.15341544 -0.069241054 -0.29445654 -0.24872282 0.29937494 0.15070714 0.16018891 0.33115283
0.22140104 -0.12226815 0.33527204 -0.34898606 0.29577002 0.048371084 -0.01405679 0.14197741
-0.09141017 0.020418782 0.028182162 0.083960555 -0.18684818 0.09873594 -0.16751526 -0.26122192
-0.21436553 -0.045976244 -0.111096464 0.09893871 -0.16987658 0.17482114 0.139778 -0.3045988
00000000: 7ec7 ac3e 6a15 eb3d 94e8 76be 8ebd a4be
00000010: 8fde 5e3e d9f1 9b3e 5a8a a43d 88d7 a23e
00000020: bf19 3ebe 0853 cd3c f4e1 823e 0078 9abd
00000030: 97c8 463e d69b 21be f7c3 f53d 2e14 31bd
00000040: ac02 81be 5d57 123e 5601 313e 5250 b5bd
00000050: 870d 763e 7290 b4bd 0e06 f63c 921a aebe
00000060: 1a8e 5bbd c698 2abe c00e b2be 7453 88be
00000070: 46a3 21be 09dd 053e b459 aabc ec68 81bd
00000080: f018 1dbe 41ce 8dbd 02c3 96be 32b1 7ebe
00000090: ac47 993e f952 1a3e 9008 243e dd8c a93e
000000a0: f4b6 623e b967 fabd c7a8 ab3e 4dae b2be
000000b0: 2b6f 973e c220 463d 734e 66bc 8762 113e
000000c0: 4135 bbbd 4a45 a73c 47de e63c 83f3 ab3d
000000d0: 2155 3fbe 1236 ca3d 1f89 2bbe e1be 85be
000000e0: a382 5bbe 9651 3cbd 8b86 e3bd 61a0 ca3d
000000f0: 20f4 2dbe 5004 333e f721 0f3e 60f4 9bbe

weight f4 [32, 64]
-0.088270895 -0.09238924 0.043546803 0.046431363 0.044760063 0.02684222 -0.08721445 0.009038519
-0.023425115 -0.123843774 0.120293364 0.08920052 0.044445843 0.107536145 -0.10826008 -0.0923708
0.0016415172 -0.12452387 0.018417723 0.10945898 -0.09322172 0.03706352 0.028568378 0.019537415
0.015307193 0.06904229 -0.07281442 0.082210205 -0.089770585 -0.104511656 0.022883615 0.0077610477
-0.033532046 -0.07320176 -0.11898883 0.034768473 0.09583111 -0.048434496 0.08353703 -0.10615433
-0.03454299 -0.043018002 0.07629965 -0.106356785 -0.06614484 0.023557723 -0.009583769 -0.08911572
0.11284704 -0.10389602 0.050896343 0.031325202 0.11279631 0.1186962 0.113929145 -0.077978216
0.078424565 -0.097561404 -0.12053278 -0.023926318 -0.050927512 -0.044319022 0.10215544 -0.0024181644
-0.03100603 -0.050366733 0.074747466 -0.039525706 -0.023856048 -0.09494746 -0.008224426 0.05436325
-0.09788779 -0.024020199 0.04399399 -0.009423745 -0.04351157 0.014502822 -0.12226059 0.092354484
0.088004746 -0.049450222 -0.08976614 0.092362314 -0.06728892 -0.06779346 -0.04866865 -0.034855034
-0.075376086 -0.031972494 0.034764174 -0.021029603 -0.0012904911 -0.052530587 -0.0545805 0.027790073
0.09395365 -0.048042227 -0.1123723 0.06617948 -0.022185327 0.115129694 0.084437996 -0.007150862
-0.083315745 -0.038872942 -0.06710934 -0.0580561 0.027106453 -0.10531536 -0.11135439 -0.0050626304
-0.10509187 0.08872697 0.12387147 0.107025534 -0.08789932 0.0879923 0.048941385 -0.10966777
0.027206255 -0.00069694396 0.010349772 0.11921509 0.013410176 0.110181965 0.071152635 0.06997492
0.060988713 0.111145504 0.034138385 -0.061669856 0.0027143667 0.10009842 -0.09758984 0.08399751
0.013506952 -0.032648735 -0.07205832 -0.10290595 0.013545875 0.06492428 0.09628533 -0.11884537
0.017593175 0.015350168 0.04258408 0.02274466 0.0037030524 -0.12294279 -0.1237461 0.10640996
0.022015624 0.07525217 -0.04497361 0.10179946 -0.042815592 -0.10139401 0.03984751 -0.08581241
0.07755835 0.1151794 -0.06342093 0.07982979 0.09176618 -0.046560094 0.058058932 -0.053563528
0.00039740364 -0.1221394 -0.036581665 -0.060906272 0.0933439 0.07696532 -0.057698824 0.122140594
0.016310383 0.0575806 -0.09781028 0.0039354754 0.08462169 -0.03966393 -0.027252318 0.065350406
0.05521853 -0.056122854 0.06811454 0.11109859 -0.055783186 -0.12314915 -0.09024279 -0.015634632
-0.04822819 0.036158152 -0.11791553 0.053760227 0.09850655 -0.0927853 -0.08680928 0.0758074
-0.06732525 0.031665694 0.048426878 0.04225637 0.11854558 -0.045481227 -0.015600641 0.08203164
-0.11052295 -0.030465731 0.007688759 0.100374855 -0.065554835 -0.025665548 0.06432063 -0.117617466
-0.108439766 0.10872231 0.08387187 -0.10634837 0.09366474 0.043978233 -0.1187222 -0.11353413
-0.07501082 0.07855458 0.113823175 0.12369611 0.09397508 -0.06785565 0.09968163 -0.040639054
-0.007841699 0.12322638 0.04960509 0.033217102 0.08108483 0.06762766 -0.006278386 0.05386082
-0.09870604 -0.058111727 -0.013911156 0.0073429015 0.064620964 -0.047065426 0.086485624 -0.032292683
-0.038764358 -0.10792384 -0.036088243 0.06810725 -0.050158612 0.08207845 -0.04263232 -0.10188525
00000000: 5fc7 b4bd 9236 bdbd 225e 323d d02e 3e3d
00000010: 5456 373d 37e4 db3c 7d9d b2bd 4c16 143c
00000020: 07e6 bfbc cea1 fdbd 5e5c f63d c3ae b63d
00000030: d80c 363d e93b dc3d 76b7 ddbd e72c bdbd
00000040: 2d28 d73a 5f06 ffbd c4e0 963c 082c e03d
00000050: 07eb bebd ebcf 173d 3b08 ea3c ee0c a03c
00000060: 05cb 7a3c 0b66 8d3d ba1f 95bd d35d a83d
00000070: a4d9 b7bd 350a d6bd 6b76 bb3c 6350 fe3b
00000080: e658 09bd ceea 95bd 6ab0 f3bd 6369 0e3d
00000090: 1a43 c43d 4063 46bd 7615 ab3d 7167 d9bd
000000a0: f37c 0dbd a533 30bd fe42 9c3d 96d1 d9bd
000000b0: f276 87bd 20fc c03c 3e05 1dbc 4d82 b6bd
000000c0: 591c e73d 70c7 d4bd af78 503d db4e 003d
000000d0: c001 e73d fe16 f33d af53 e93d 0bb3 9fbd
000000e0: 0f9d a03d 46ce c7bd e4d9 f6bd 2001 c4bc
000000f0: 5e99 50bd dd87 35bd df36 d13d 117a 1ebb
00000100: 5c00 febc 594d 4ebd 3315 993d b5e5 21bd
00000110: c26d c3bc d073 c2bd bebf 06bc 00ac 5e3d
00000120: 6579 c8bd 02c6 c4bc 0b33 343d 0d66 1abc
00000130: 3039 32bd 3f9d 6d3c c363 fabd 5924 bd3d
00000140: d53b b43d 518c 4abd 4fd7 b7bd 7428 bd3d
00000150: c6ce 89bd 4cd7 8abd c758 47bd 27c4 0ebd
00000160: c75e 9abd 97f5 02bd e164 0e3d 4646 acbc
00000170: b225 a9ba 502a 57bd cd8f 5fbd 02a8 e33c
00000180: c56a c03d edc7 44bd 7323 e6bd 1b89 873d
00000190: 01be b5bc 1ec9 eb3d d4ed ac3d c751 eabb
000001a0: 72a1 aabd 3c39 1fbd 9f70 89bd 3ccc 6dbd
000001b0: 5a0e de3c 94af d7bd c50d e4bd 6ce4 a5bb
000001c0: 683a d7bd 7cb6 b53d 53b0 fd3d 3430 db3d
000001d0: 8f04 b4bd 4f35 b43d c376 483d 7f99 e0bd
000001e0: a7df de3c 1eb3 36ba 1792 293c 0b27 f43d
000001f0: 5bb6 5b3c 15a7 e13d 79b8 913d 034f 8f3d
00000200: 4dcf 793d 41a0 e33d b1d4 0b3d 8899 7cbd
00000210: 84e3 313b 6700 cd3d 2fdd c7bd e306 ac3d
00000220: 434c 5d3c aeba 05bd 5093 93bd 5bc0 d2bd
00000230: 85ef 5d3c 05f7 843d 3e31 c53d 3465 f3bd
00000240: 901f 903c 457f 7b3c a56c 2e3d 0253 ba3c
00000250: e9ae 723b 6ec9 fbbd 986e fdbd 77ed d93d
00000260: 1c5a b43c cf1d 9a3d 4036 38bd 3c7c d03d
00000270: 675f 2fbd aaa7 cfbd 2537 233d 6bbe afbd
00000280: ead6 9e3d 2de3 eb3d d5e2 81bd cd7d a33d
00000290: e8ef bb3d ccb5 3ebd 34cf 6d3d 6e65 5bbd
000002a0: 9d5a d039 3924 fabd a8d6 15bd db78 79bd
000002b0: 162b bf3d fe9f 9d3d 9a55 6cbd d924 fa3d
000002c0: 5a9d 853c a3d9 6b3d c250 c8bd 29f5 803b
000002d0: 234e ad3d a576 22bd 4140 dfbc 6fd6 853d
000002e0: d32c 623d 14e1 65bd a37f 8b3d a887 e33d
000002f0: e97c 64bd 9f35 fcbd 36d1 b8bd 3314 80bc
00000300: ec8a 45bd 921a 143d b37d f1bd af33 5c3d
00000310: cdbd c93d 3806 bebd 10c9 b1bd e940 9b3d
00000320: d2e1 89bd e3b3 013d 435b 463d 0415 2d3d
00000330: 06c8 f23d 864a 3abd d599 7fbc 3400 a83d
00000340: db59 e2bd 4593 f9bc fcf1 fb3b 5591 cd3d
00000350: 9d41 86bd 8e40 d2bc 89ba 833d 6de1 f0bd
00000360: ab15 debd cda9 de3d 04c5 ab3d 2dcd d9bd
00000370: 4dd3 bf3d 8522 343d a024 f3bd 9584 e8bd
00000380: 469f 99bd 39e1 a03d 201c e93d 6354 fd3d
00000390: 0276 c03d e7f7 8abd e225 cc3d 2375 26bd
000003a0: 787a 00bc 1d5e fc3d b52e 4b3d a80e 083d
000003b0: ce0f a63d 5f80 8a3d ebba cdbb 2a9d 5c3d
000003c0: 6426 cabd 9006 6ebd 9eeb 63bc b99c f03b
000003d0: ff57 843d adc7 40bd 601f b13d 5545 04bd
000003e0: 60c7 1ebd 2d07 ddbd 44d1 13bd d07b 8b3d
000003f0: 1e73 4dbd bf18 a83d 3a9f 2ebd 37a9 d0bd

bias f4 [32]
0.056190915 -0.02009166 0.004405166 0.055158906 0.102015354 0.09289638 -0.08724095 -0.06351923
0.012890874 0.061453756 -0.067141645 0.031418625 -0.11608275 0.026749434 0.05217505 0.02301829
-0.04837899 0.07149705 -0.046498984 0.09411262 -0.004064638 -0.04610466 0.07935848 -0.07009159
-0.09620378 -0.075711265 -0.0040783295 0.012108573 0.03572225 -0.0235136 -0.10581456 -0.041211195
00000000: 7228 663d 4497 a4bc 3659 903b 4eee 613d
00000010: 6ded d03d 7540 be3d 62ab b2bd 5f16 82bd
00000020: 3f34 533c efb6 7b3d 8f81 89bd d1b0 003d
00000030: cbbc edbd a121 db3c 81b5 553d da90 bc3c
00000040: 0c29 46bd 0c6d 923d b875 3ebd 1ebe c03d
00000050: a830 85bb 3dd8 3cbd b386 a23d 2e8c 8fbd
00000060: 7d06 c5bd 820e 9bbd 82a3 85bb 0963 463c
00000070: 7e51 123d 989f c0bc 4eb5 d8bd 12cd 28bd

weight f4 [7, 32]
-0.113983504 -0.03947294 0.15865251 0.007910535 -0.14819288 -0.043965876 -0.08800098 0.005772081
0.12075625 0.0050771316 -0.0920784 -0.16621463 -0.14598028 0.116885334 -0.11373398 0.14206584
-0.07249778 0.028420893 -0.103573166 -0.014171641 -0.13072209 -0.030681267 0.015374209 0.077433735
-0.038756717 -0.058527444 -0.15574037 0.095697425 0.0618633 0.069946654 -0.058995996 0.14616494
0.17013547 -0.022152213 0.10309763 0.11083225 -0.018543508 0.11056077 -0.00066788116 0.042461656
0.005883939 0.091745414 -0.0030873152 0.05025283 -0.15717167 -0.004451661 0.014082238 0.10487042
0.03512 0.046005424 -0.10817034 0.061484702 0.15798162 0.12374479 0.017477648 0.03614226
-0.015036826 0.07376315 0.16737816 0.07746464 -0.0629948 0.038903855 -0.03940462 0.09794911
0.017504117 0.1593479 -0.04877619 0.09363145 0.15695055 -0.0888749 0.13003883 0.103953525
0.021057725 -0.11033155 0.051704124 0.10205095 -0.07358249 -0.023871334 0.16739497 -0.105094254
-0.13057007 -0.12752981 0.14654815 -0.09158627 0.0237355 -0.13287373 -0.14679605 0.12857938
0.072812706 0.048488475 -0.03049029 -0.09407267 -0.11010344 0.16883835 -0.061748732 0.009750067
0.1606201 0.061855193 -0.14851283 0.10283592 -0.105367444 -0.1619004 0.0068135313 -0.0076325233
-0.06317164 0.15268902 0.16968407 0.11321565 -0.028243681 -0.17239673 -0.12686953 0.16026537
-0.023120148 -0.03872344 -0.17252764 -0.013159055 0.028751062 -0.029029548 -0.008689984 0.14783303
-0.06754164 0.06278432 0.0023457957 -0.06265933 -0.10125838 -0.11298052 -0.13868283 -0.012424264
-0.040753257 -0.051505014 0.1501435 0.07243956 0.0709353 0.0056301695 -0.00075507694 -0.15390718
0.0429865 -0.079909146 -0.09298712 -0.022460125 -0.1279396 -0.08477108 -0.16425732 -0.07729238
-0.14021741 -0.12887746 -0.07381803 0.16879381 0.03395278 0.03204268 0.080609486 0.16627233
-0.026199574 0.17602319 -0.08870235 -0.08889582 -0.061236463 -0.14614317 0.057104334 0.014823844
-0.12576249 0.1019063 -0.052265014 -0.0014283332 0.033079874 -0.10308774 0.0044188984 -0.13673918
-0.15594025 -0.1383036 -0.06320068 0.09341565 -0.10267054 0.07167226 -0.024093248 -0.06634559
-0.034136876 0.028086357 0.11670198 -0.13917485 -0.06267247 -0.13022089 0.10754497 -0.15345354
0.13394645 0.07191416 0.12449746 0.03279393 -0.16331673 0.1665509 -0.008180177 0.0548584
0.16404463 0.06576209 -0.05253028 0.0009930757 0.09559997 0.030966787 -0.15567373 0.12917674
0.11839437 0.023088207 -0.13284737 -0.014196339 -0.023680022 -0.09777196 -0.1377365 0.02136406
0.043863215 0.021248976 -0.15944532 -0.033504587 -0.04545253 0.015281721 -0.14901756 0.16381054
-0.0046849097 0.021269163 0.17111042 0.07602502 0.05895369 -0.14751747 0.10935702 0.16167666
00000000: 2f70 e9bd 61ae 21bd ce75 223e 309b 013c
00000010: e0bf 17be 9015 34bd dc39 b4bd ba23 bd3b
00000020: 0e4f f73d 115e a63b 9a93 bcbd 2b34 2abe
00000030: db7b 15be 9461 ef3d 5ced e8bd b579 113e
00000040: b779 94bd efd2 e83c 2b1e d4bd 2c30 68bc
00000050: 03dc 05be 4857 fbbc 1be4 7b3c 9495 9e3d
00000060: 5dbf 1ebd 79ba 6fbd 677a 1fbe 03fd c33d
00000070: 5f64 7d3d 3140 8f3d c9a5 71bd 43ac 153e
00000080: fe37 2e3e 8f78 b5bc da24 d33d 05fc e23d
00000090: 8ee8 97bc af6d e23d bf14 2fba 46ec 2d3d
000000a0: 0fce c03b 05e5 bb3d 8e54 4abb e9d5 4d3d
000000b0: 9cf1 20be 3ddf 91bb 30b9 663c 4ec6 d63d
000000c0: fdd9 0f3d 2f70 3c3d 6988 ddbd 62d7 7b3d
000000d0: efc5 213e e96d fd3d 492d 8f3c e809 143d
000000e0: 055d 76bc 2211 973d 2e65 2b3e c8a5 9e3d
000000f0: 6b03 81bd a659 1f3d bd66 21bd 8b99 c83d
00000100: cb64 8f3c 192c 233e 8bc9 47bd d8c1 bf3d
00000110: a5b7 203e 0b04 b6bd e628 053e 96e5 d43d
00000120: 4081 ac3c 82f5 e1bd b4c7 533d 1700 d13d
00000130: 6bb2 96bd d18d c3bc 9669 2b3e a83b d7bd
00000140: 29b4 05be 2d97 02be b810 163e 9591 bbbd
00000150: f470 c23c 0d10 08be b451 16be 50aa 033e
00000160: d41e 953d da9b 463d c6c6 f9bc 2ca9 c0bd
00000170: ea7d e1bd f6e3 2c3e 3dec 7cbd bfbe 1f3c
00000180: 9879 243e df5b 7d3d bf13 18be a49b d23d
00000190: e3ca d7bd 38c9 25be 0b44 df3b 3f1a fabb
000001a0: 2260 81bd 835a 1c3e a9c1 2d3e 9bdd e73d
000001b0: 4b5f e7bc c588 30be 16ea 01be 9b1c 243e
000001c0: 7766 bdbc 789c 1ebd 16ab 30be 1499 57bc
000001d0: 5987 eb3c 60cf edbc 6f60 0ebc 8b61 173e
000001e0: 4553 8abd 1195 803d ecbb 193b 8953 80bd
000001f0: 8e60 cfbd 5562 e7bd df02 0ebe 248f 4bbc
00000200: e3ec 26bd ecf6 52bd 38bf 193e 315b 943d
00000210: 8746 913d 497d b83b 5bf0 45ba d899 1dbe
00000220: 9d12 303d 68a7 a3bd 0870 bebd 4cfe b7bc
00000230: 9902 03be 769c adbd 1233 28be 784b 9ebd
00000240: 2795 0fbe 74f8 03be e82d 97bd 49d8 2c3e
00000250: 1212 0b3d 2f3f 033d 9616 a53d 4b43 2a3e
00000260: 7da0 d6bc 6c3f 343e 94a9 b5bd 030f b6bd
00000270: 16d3 7abd 8ea6 15be 3ce6 693d b5df 723c
00000280: e2c7 00be 40b4 d03d d713 56bd e936 bbba
00000290: c37e 073d aa1f d3bd 68cc 903b 5b05 0cbe
000002a0: cdae 1fbe 759f 0dbe 5c6f 81bd b450 bf3d
000002b0: ef44 d2bd e8c8 923d 345f c5bc 32e0 87bd
000002c0: 1cd3 0bbd 5c15 e63c 7301 ef3d da83 0ebe
000002d0: 6d5a 80bd a058 05be 8a40 dc3d ed22 1dbe
000002e0: 4229 093e bb47 933d 86f8 fe3d ee52 063d
000002f0: 803c 27be 528c 2a3e 2606 06bc 34b3 603d
00000300: 51fb 273e 46ae 863d fe29 57bd 172a 823a
00000310: ebc9 c33d 0fae fd3c ef68 1fbe e846 043e
00000320: bf78 f23d 7b23 bd3c 2409 08be c397 68bc
00000330: 9bfc c1bc aa3c c8bd cc0a 0dbe ae03 af3c
00000340: eaa9 333d 5512 ae3c a245 23be 1b3c 09bd
00000350: 6f2c 3abd 2f60 7a3c 0f98 18be f3bd 273e
00000360: df83 99bb ab3c ae3c 9237 2f3e 01b3 9b3d
00000370: 6d79 713d d20e 17be 93f6 df3d 918e 253e

bias f4 [7]
-0.06701936 0.14808476 -0.14039923 -0.011048781 0.04796944 0.09685629 0.13628916
00000000: 7241 89bd 88a3 173e d1c4 0fbe f205 35bc
00000010: 9b7b 443d 975c c63d 638f 0b3e
