experiements/starter_team/continuous_state/DQN/results/heuristics_dqn/checkpoints/model_5000.pt (torch, 24111 bytes, 6 tensors)

weight f4 [64, 8]
000000 f1 dd df 3c eb 13 8b be 00 d9 85 3d 06 5a ce bd
       0.02732751 -0.27163634 0.0653553 -0.10075764
000010 1e ec 42 be 15 e7 06 be 7b ff c7 bd b7 d7 bd 3c
       -0.19035384 -0.13174088 -0.09765526 0.02317415
000020 1e dc 81 be d0 36 fc bd 67 5d 29 3c 43 c1 90 3e
       -0.2536325 -0.12315142 0.01033721 0.28272447
000030 78 3f a2 be 03 33 8e be ed d7 80 be d0 eb 85 be
       -0.31689048 -0.27773294 -0.25164738 -0.26156473
000040 55 8d d1 bf d6 c4 6a bf b9 c0 15 c0 b7 66 63 3e
       -1.6371256 -0.917066 -2.3398879 0.22207151
000050 9d f8 98 3f b6 b0 f2 be b4 c2 8b be 21 5b 22 40
       1.1950871 -0.47400445 -0.27296984 2.536812
000060 29 7c 2c bf 27 65 12 bf 64 f4 b2 be 04 a9 e4 bd
       -0.67376953 -0.57185596 -0.3495208 -0.1116505
000070 59 3f 49 3d ea ee e9 3d 44 a1 bd be a5 e6 0c bf
       0.04913268 0.11422522 -0.37037098 -0.55039436
000080 38 9d 25 c0 cf fd da bf a4 0a 5a c0 00 1a 97 3e
       -2.5877209 -1.7108706 -3.4068995 0.29512024
000090 86 99 07 40 a9 a4 b4 be 03 c8 a5 3e 91 34 7e 40
       2.1187453 -0.35281876 0.3237916 3.9719584
0000a0 e6 ad 1d c0 a4 4c f2 c0 95 b0 62 c0 b2 f2 1a c0
       -2.463739 -7.5718555 -3.5420277 -2.421063
0000b0 63 e1 0a c0 46 ba 97 3f 69 68 00 c0 2f 46 9a be
       -2.1700065 1.1853721 -2.0063727 -0.3013167
0000c0 32 d9 ae be 53 0d ca bd 14 37 13 3e 12 16 8c 3c
       -0.34150082 -0.09865823 0.1437648 0.017100368
0000d0 d4 40 8f be ef a7 29 be 2e 5a 8e be 77 6d 83 3d
       -0.27979147 -0.16567968 -0.27803177 0.06417363
0000e0 94 a7 ec be f7 0c 0f be f5 07 81 3f e0 1c cb bf
       -0.46221602 -0.1396979 1.0080553 -1.5868187
0000f0 e1 54 dc bf b6 34 ce bf d9 ea 99 be aa 00 e2 bf
       -1.7213403 -1.6109836 -0.30061987 -1.7656453
000100 7a 2e c9 be b9 e1 0f bf c1 ef 24 be 1f 2f 63 3e
       -0.3929327 -0.562038 -0.16107084 0.22185944
000110 c6 82 29 3e 08 d0 1e bd 46 67 ac 3d 71 79 80 be
       0.16553792 -0.038772613 0.08418135 -0.25092652
000120 45 4f 69 3d 85 e1 61 3d b3 88 24 3d cb aa e0 bc
       0.056960363 0.055146713 0.04016943 -0.02742519
000130 ca be df bd ad 60 98 be e4 ec 63 be 73 c2 85 3c
       -0.10925062 -0.29761258 -0.22258335 0.016328072
000140 3b 81 83 bf 51 5a d3 bf c3 9a 63 be 2d d2 2f bf
       -1.0273813 -1.6511937 -0.22227006 -0.6868008
000150 de 52 db bd 86 46 80 3e 1e b5 92 be 54 73 84 bf
       -0.10709165 0.25053805 -0.28653806 -1.0347695
000160 d2 6f a9 bd 34 a5 a5 be 4d 95 d7 3d 7f 41 a5 3d
       -0.08273281 -0.32352602 0.10526524 0.08069133
000170 29 45 e1 be 88 91 d0 be 1e 06 79 be b4 f2 17 3d
       -0.43998078 -0.40736032 -0.2431874 0.037096694
000180 df 27 44 bf e4 93 88 bf 2a ee 7b be 4b e9 05 bf
       -0.7662334 -1.0670133 -0.24602571 -0.523091
000190 ed 16 d2 bb 10 f8 38 3c f6 7e 78 be fc fd d3 be
       -0.0064114244 0.011289611 -0.24267182 -0.41404712
0001a0 28 e2 9f bf c5 f6 82 bf 0f 89 e3 bf 12 97 9a be
       -1.2490892 -1.0231558 -1.7776202 -0.30193383
0001b0 c9 62 e3 3e 82 34 f5 be be 47 95 3d 6e a4 9d 3f
       0.44411305 -0.47891623 0.07289074 1.2315805
0001c0 02 e9 b3 be f3 54 0c 3e 71 06 f8 3b ac 09 65 be
       -0.35138708 0.1370428 0.0075691273 -0.22366971
0001d0 04 49 72 be 18 19 b9 3e ff 33 ac 3d c6 d2 e2 3e
       -0.23660666 0.36151958 0.08408355 0.44301432
0001e0 24 54 39 c0 bb c4 77 c0 69 4a 67 c0 1c 13 d6 bf
       -2.8957605 -3.8713825 -3.6139166 -1.6724582
0001f0 e3 d6 fb bf 1a 41 cb 3d e4 17 9e bf cf 3f d8 3f
       -1.9674953 0.099245265 -1.2351041 1.6894473
000200 d1 66 24 bf 86 ba f3 bf 1f b0 89 bf e8 94 e0 be
       -0.64219385 -1.9041297 -1.0756873 -0.43863606
000210 55 2d fb be 61 13 0a 3f 8f 82 34 bf 23 7c 94 3c
       -0.49058023 0.5393582 -0.70511717 0.0181256
000220 86 f5 9b bf 60 45 43 3e 99 88 b5 3d 74 3e 40 bf
       -1.2184303 0.19069433 0.088639446 -0.75095296
000230 a7 eb 3e bf c6 57 a1 be e1 90 b6 be 3b f3 42 bf
       -0.74578327 -0.31512278 -0.3565741 -0.7615239
000240 b7 dd 4e 3e af 2c 10 be d5 c1 3e 3d 91 75 39 bf
       0.20201765 -0.14079545 0.04657157 -0.7244502
000250 a2 63 a4 be 1c 86 64 be 2f aa b6 3d 15 87 af 3e
       -0.32107264 -0.22316784 0.08919179 0.34282747
000260 b6 3a f5 be 4f 49 f4 bf 1c 8f 42 bf db a5 90 bf
       -0.47896355 -1.9084872 -0.7599962 -1.1300615
000270 39 89 83 bf 98 0a 24 bf bf aa 38 be d1 fb ce 3e
       -1.0276252 -0.64078665 -0.18033884 0.40426496
000280 01 55 68 3e d0 92 aa be 37 20 95 be 1c 84 43 3e
       0.22688676 -0.33315134 -0.2912614 0.19093364
000290 0e b8 32 be 78 73 9c be ab 7b 23 be f7 47 62 3e
       -0.17453024 -0.30556846 -0.15965144 0.22097765
0002a0 8c f6 e0 bf d3 40 1b c0 cb db ab be 8c f3 81 bf
       -1.757524 -2.4258316 -0.33566126 -1.015245
0002b0 fb fe 0e be 81 ae ee 3e ab b5 0f be c3 6d 8a bf
       -0.13964455 0.4661751 -0.14034145 -1.0814747
0002c0 73 76 a8 bf dc 0c 08 3f a4 71 bb 3e 8d 42 7b 3f
       -1.3161148 0.5314462 0.36610138 0.98148423
0002d0 c4 ee 2b bf d3 d4 f8 bf bf 2e 30 bf d5 ab d7 bf
       -0.671612 -1.9439949 -0.6882133 -1.6849314
0002e0 0c 2d 42 3b a0 95 07 bf e7 d3 c0 bd d7 aa ac be
       0.00296289 -0.52962685 -0.09415417 -0.3372409
0002f0 0f 28 01 be 37 9c 7c be 1f 92 a9 3d e3 2a ae be
       -0.12612937 -0.24668966 0.082798235 -0.34017095
000300 c8 00 0f bf 8b db bf bd 0f 31 ab 3d 6e 4c 26 bf
       -0.5586057 -0.093680464 0.083589666 -0.6496037
000310 da cb 6e be 0c c4 bf be 4d 12 0e bf a1 95 6c bf
       -0.2331995 -0.3745426 -0.55496675 -0.92415816
000320 03 c8 0b c0 a1 3e d4 3f e1 6b 26 3d a9 d0 de 3e
       -2.1840827 1.6581613 0.040630225 0.4351857
000330 03 31 b0 c0 77 93 8d c0 c3 53 e9 bf c0 1d cc c0
       -5.505983 -4.424251 -1.8228687 -6.3786316
000340 07 ad b6 bf a6 98 d0 bf 47 fe e9 be 42 c3 2f bf
       -1.4271554 -1.6296585 -0.4570181 -0.68657315
000350 67 a5 33 be f2 a1 83 3e 77 bd dc be d5 bf 30 bf
       -0.17543565 0.25709492 -0.431133 -0.6904271
000360 97 21 08 be 98 a7 95 be 11 0d a1 be ce fd 9c bc
       -0.13294064 -0.29229426 -0.3145528 -0.019163992
000370 73 21 75 be ae 01 f8 be b5 e6 90 3d 8a 4e 25 3e
       -0.23938541 -0.48438781 0.07075254 0.16143242
000380 6c 24 2d be 48 b4 73 3e 84 da d1 bd 39 6d 8e be
       -0.16908425 0.2379924 -0.10246757 -0.27817705
000390 70 6a ab be c3 7d c5 3c 14 04 b2 be 4c db bd be
       -0.33479643 0.02410782 -0.34768736 -0.37081373
0003a0 ea ef a7 be 57 ab cf 3c ed 60 8f 3d 77 57 99 bd
       -0.32800227 0.025350256 0.07000909 -0.07487386
0003b0 8d 7c 7c be 22 0f 1d be a1 5e 16 3d 01 c0 b2 3d
       -0.24656887 -0.15337804 0.03671134 0.08728028
0003c0 f6 41 2f bf b2 a4 88 bf ab 43 56 be b7 59 be be
       -0.68460023 -1.0675261 -0.20924251 -0.37177822
0003d0 ea 4f b2 bd 78 a3 2b be 02 93 78 bd b9 0f a8 be
       -0.08706649 -0.16761577 -0.060687073 -0.32824495
0003e0 3b ad 7c c1 d4 67 f6 c0 ab 4a de c0 fe 3e d5 c0
       -15.792293 -7.7001743 -6.9466147 -6.6639395
0003f0 c1 b9 a4 c1 2b 6a d1 c0 d8 1f a7 c0 6c 18 02 c1
       -20.5907 -6.54421 -5.222637 -8.130962

bias f4 [64]
000000 f1 49 9f bd 0d 2f d6 3b 6c f5 54 bf 79 29 a5 be
       -0.07777775 0.0065363706 -0.83186984 -0.32258204
000010 7b 12 e3 bf 71 38 40 c1 00 e9 88 be 1f 60 08 3f
       -1.7740015 -12.01378 -0.26740265 0.5327167
000020 e4 c7 b3 be bf 1e 36 be d0 ab cb be 99 07 04 3d
       -0.35113442 -0.17785166 -0.3977952 0.03223381
000030 44 2a b1 be c0 41 69 bf d8 26 9a be ec 1f f6 c0
       -0.3460256 -0.9111595 -0.3010776 -7.6913967
000040 c8 f0 2c c0 3d a1 96 3e 6e 77 9c bd 5d 40 02 c0
       -2.7021961 0.2941989 -0.07639967 -2.0351784
000050 5a 98 97 be 78 1b 0c bf 17 ce 8a be 63 be 8f be
       -0.29608423 -0.54729414 -0.2711036 -0.2807494
000060 2e ca 72 be 25 ad de bf cf fd ff be 50 38 d1 be
       -0.23709938 -1.739659 -0.49998328 -0.40863276
000070 43 44 5f be 37 06 b6 3c b6 48 fe bd 54 97 1c c1
       -0.21803384 0.02221976 -0.12416212 -9.786945
000080 44 b4 3c be 8b 6f 69 3b 7e b4 88 be 76 08 7c be
       -0.18428141 0.0035619463 -0.26700205 -0.24612603
000090 6b 63 37 be 98 b7 8a bf 11 fd c6 be 6d 63 15 c0
       -0.17909019 -1.0837278 -0.3886495 -2.3341935
0000a0 fc 1c b7 bf 6f 3a 93 be e1 64 29 be e1 51 b5 bf
       -1.430572 -0.2875552 -0.16542388 -1.4165612
0000b0 3b 36 b2 be cc 5e 1f bf 26 a1 94 bf 0e f3 0a 44
       -0.34807 -0.62254024 -1.1611679 555.7977
0000c0 1a e3 ec be e5 54 37 c0 22 fc 72 c0 ce a1 07 bf
       -0.46267015 -2.8645566 -3.796639 -0.5298127
0000d0 42 89 fe be 64 7f b2 be 9c 8d f0 c0 19 ad 14 c0
       -0.49714094 -0.34862816 -7.5172863 -2.323065
0000e0 31 87 fd be 73 4a b8 bf 31 d3 20 bf cc 4c ea bf
       -0.49517205 -1.439772 -0.6282225 -1.8304687
0000f0 16 ba 7a be f7 48 86 bf 05 98 25 c1 77 e1 12 be
       -0.24485049 -1.0491017 -10.349614 -0.1434382

weight f4 [64, 64]
000000 fc 17 23 bd 6a 08 4c bd 6b 76 17 be 24 e4 d3 ba
       -0.039817795 -0.04981271 -0.14791267 -0.0016166014
000010 58 c6 3b be 1a 08 0f c0 0c 1e db bd ca ca ad be
       -0.18337381 -2.2348695 -0.1069909 -0.33943778
000020 3c 8d 79 3d 44 78 a6 bc a0 c7 e5 3d e1 15 bb bd
       0.060925707 -0.020321019 0.11219716 -0.091350324
000030 dc 22 65 3d 80 01 0c 3e ca 09 99 bd 32 28 14 3f
       0.055941448 0.13672447 -0.0747257 0.57873833
000040 b0 fa fc be f2 47 7a be 27 a9 13 3c 5e 4d 80 3e
       -0.4941001 -0.24441507 0.009012497 0.25059026
000050 52 4d 9b 3d 39 9f ce 3e 14 02 3a bf f3 e9 47 bd
       0.07583107 0.40355852 -0.7265942 -0.048807096
000060 87 87 e7 bd 6a ad dc be 8b 84 8c 3e 9f 73 d7 bc
       -0.11305147 -0.43101054 0.27444872 -0.02630025
000070 c5 1b 0c 3c d0 e4 bb 3d 26 56 4c 3e cb e4 93 b9
       0.008551543 0.09174502 0.19954738 -0.0002820849
000080 c0 5f 56 3d e5 aa ca bd 93 bc 2d 3d e0 48 b3 bd
       0.052337408 -0.09895877 0.042416167 -0.08754134
000090 d9 6a fa bd 30 c3 ad bd cf e3 50 3d e5 ed a4 bc
       -0.12227411 -0.08484495 0.050998505 -0.020132968
0000a0 26 1f 20 bd e6 34 8b 3e 3b b7 92 3e 66 9f f4 3c
       -0.039092205 0.27188796 0.2865542 0.029861163
0000b0 e0 14 28 3d 92 c1 35 3e 3b 64 35 be a7 43 6b c2
       0.041035533 0.17749622 -0.17714016 -58.816067
0000c0 7b 06 d5 3d 27 7d b8 be e9 83 98 be 85 bb 52 bd
       0.10401627 -0.36032984 -0.2978814 -0.051448364
0000d0 76 95 13 3e d7 45 a9 3d 76 6c ea bf bc 47 32 be
       0.14412484 0.08265274 -1.831435 -0.17410177
0000e0 f4 46 fb bd f7 82 46 be df 77 91 3d d5 dc 2e be
       -0.122693926 -0.19385897 0.07102942 -0.17076428
0000f0 15 c8 f6 bd ec 37 b8 bb c5 87 f9 bf 80 55 50 be
       -0.12049881 -0.005621901 -1.9494559 -0.20345116
000100 e4 04 f1 3d 38 f5 01 3d f5 99 c5 3c 48 dd 96 3d
       0.11768511 0.031728 0.024121264 0.07366425
000110 dc 15 1e bc 80 93 b0 3c d8 c9 30 bd e8 9a 3e bd
       -0.009648766 0.021554708 -0.043161243 -0.04653445
000120 be 22 bd 3d 70 4b d8 bd 08 c8 e7 bc e0 a8 f0 bb
       0.09235142 -0.105612636 -0.028293625 -0.00734435
000130 2c 6a af 3d a5 67 ce 3b b4 c4 26 bd ec a3 b7 3c
       0.085651726 0.0062989765 -0.040714934 0.022417031
000140 c2 0e bc bc f4 91 fd bd e0 c6 49 bc 2a d1 c3 bd
       -0.022956256 -0.12381354 -0.012315482 -0.09561379
000150 00 16 5f 3c c0 8c 43 bc d0 7c 2f bc 10 e5 ff bc
       0.013616085 -0.011935413 -0.01071091 -0.031237155
000160 40 89 b3 3b b2 62 97 bd 44 68 12 3d 40 5e 40 3c
       0.005479008 -0.073918715 0.035743967 0.011741221
000170 20 de c4 bc d0 91 12 3d c0 92 91 3d 94 4c 97 bb
       -0.024031699 0.03578359 0.071080685 -0.004617283
000180 68 79 d3 3c 0e a1 f1 3d 2c 4b b8 3d e0 9e cb 3b
       0.025814727 0.11798297 0.08998713 0.0062140077
000190 f8 f0 a9 bc 98 95 80 3c 32 8a a8 bd d7 d9 f4 3d
       -0.020744786 0.015696332 -0.08229484 0.11955612
0001a0 08 6c 0e 3d ea 75 dd bd 38 7b c6 3d 38 68 1f 3d
       0.034770995 -0.10813506 0.09691471 0.03891775
0001b0 9b 94 8a bd f0 51 51 3c fd c2 a5 bd 23 86 9f bd
       -0.067666255 0.012775883 -0.08093832 -0.077892564
0001c0 82 17 97 bd ee 8e a5 3d 80 5e d8 bc 64 c1 ff 3d
       -0.07377531 0.08083902 -0.026412249 0.12488058
0001d0 d8 c6 ac bd 50 e2 bc bc c6 83 d1 bd d7 03 ed 3b
       -0.08436364 -0.023057133 -0.10230212 0.0072331238
0001e0 00 a7 bd ba 18 94 e6 3d bc a3 11 bd 0e 70 ca 3d
       -0.0014469326 0.112587154 -0.03555654 0.09884654
0001f0 7c b2 8d bd 31 dd d7 bd 3a 8b bf bd f4 b2 51 bd
       -0.06918809 -0.10540236 -0.09352727 -0.051196054
000200 f0 63 2d 3c 0c 5f 96 bd b3 87 a6 bd 7c c2 5b bd
       0.010582909 -0.073423475 -0.08131351 -0.05365227
000210 32 0e c0 bd 40 3c 0e 3f 10 de b0 3c f8 44 c3 3e
       -0.093777075 0.55560684 0.021590263 0.38138556
000220 f8 5c c7 bd 7f cb 94 3d c8 ba b5 3d d0 d5 fc 3c
       -0.09734529 0.07265376 0.08873516 0.030863672
000230 11 9b ae 3d f2 9c ba bd 59 84 c5 3d ff df 9d 3e
       0.0852567 -0.09111966 0.09644384 0.30834958
000240 0d 72 8a 3d 63 94 af 3d 2e 4e 8b 3c 80 5a 9e 3e
       0.06760035 0.085732244 0.017005052 0.3092842
000250 e8 44 9d 3d 41 95 c3 3d 5e 90 71 be 43 1a 3d bd
       0.076791584 0.09549952 -0.23590228 -0.046167623
000260 f7 6d 10 bd d4 52 4c be 91 ce 00 3d 6b e2 0c 3e
       -0.03526112 -0.19953471 0.031446997 0.13758247
000270 fb 7f c1 bd a7 af cb bd e1 46 53 3a b9 65 e7 bc
       -0.094482385 -0.099456124 0.0008059573 -0.028246747
000280 94 71 50 3d 43 be cb bd 8d 1c 0e 3e 9a 2d d4 3d
       0.050889567 -0.09948399 0.13878079 0.1036026
000290 8c b5 ef bc bf 7f 60 3d cc e0 11 bd 43 08 e2 bc
       -0.029261373 0.05480933 -0.035614774 -0.02759183
0002a0 96 58 8a 3e 44 40 9e 3c 59 61 8b 3d 69 bb 3b 3e
       0.2702071 0.019317754 0.06805677 0.1833321
0002b0 25 a6 93 3d d3 13 4a 3d 12 8c 16 be 03 ef 4d bf
       0.07209424 0.049335312 -0.1470187 -0.8044283
0002c0 5b 45 f9 3d 04 a8 08 3c b3 02 aa bc 86 4c 31 3c
       0.12171432 0.008340839 -0.02075324 0.010821467
0002d0 5d f9 5b bd 95 5c 9f 3d 2f 15 38 3f bb cd 21 3c
       -0.05370461 0.077813305 0.71907324 0.00987571
0002e0 37 05 84 3e c8 7d d2 3e 39 a2 da 3c 02 ab eb 3d
       0.2578523 0.41111588 0.026688682 0.115072265
0002f0 29 60 bc 3d c6 a1 be bd c2 19 09 3f 01 3c 48 be
       0.091980286 -0.093081996 0.5355493 -0.1955414
000300 38 69 bf bd c2 3e 48 3d f4 49 08 be a7 25 4f bc
       -0.09346241 0.048887976 -0.13309461 -0.012643254
000310 be 50 cc bd 72 d8 b0 bf d6 aa 9d 3d 28 a6 9a be
       -0.09976338 -1.3816054 0.076986 -0.30204892
000320 6d 0b 83 bd 25 4a af 3d 84 05 9b 3e 95 7c 4e bd
       -0.06398664 0.08559064 0.30277646 -0.05041178
000330 cc 09 37 3e f5 47 04 3e 4e d9 87 ba a8 a1 2f 3f
       0.17874831 0.12918074 -0.0010364444 0.6860604
000340 0d 0a 99 be 07 56 1f be b0 1d ca 3d e4 98 c4 3e
       -0.2989048 -0.1556016 0.09868944 0.38397896
000350 bd 10 1e 3c a9 6b f1 3e 83 62 06 bf 15 43 e7 bd
       0.009647545 0.4715245 -0.52494067 -0.11292092
000360 61 cb 7a bd 62 3b 01 bf d8 ce 99 3e cb c3 4b bd
       -0.061229113 -0.50481236 0.30040622 -0.04974727
000370 df 46 88 bd 35 5f 30 bd c7 2c d1 3d 89 88 19 bd
       -0.066541426 -0.043059547 0.10213619 -0.037483726
000380 a2 b2 cc 3d 09 cd 20 3d df 02 e2 3d c8 b2 87 bd
       0.09995009 0.039258037 0.11035704 -0.06625897
000390 85 a4 b7 bd 03 47 2f be fa 09 f1 3d ae d9 86 bd
       -0.089669265 -0.17116933 0.11769481 -0.06584488
0003a0 97 e0 f1 3b e2 92 69 3e 49 25 56 3e 0b 02 41 bd
       0.0073815095 0.22809938 0.2091266 -0.04712109
0003b0 7c 69 ed 3d 44 15 04 3e c3 d9 1b be 1e 80 76 c2
       0.11592385 0.12898737 -0.15219788 -61.625114
0003c0 62 58 c1 bd ae 6b b1 bd 9a 7f c1 be 2a da 9f 3b
       -0.09440686 -0.086631164 -0.37792665 0.004878302
0003d0 1a fd 5b bc 84 8e 35 3e 0e 33 8f bf 4f e8 b9 3d
       -0.013427043 0.17730147 -1.1187456 0.090775125
0003e0 fe 9b 80 bd 50 b4 25 be bc 5e d3 3d 5a 2a 07 be
       -0.06279753 -0.16182065 0.103208035 -0.1319975
0003f0 61 94 27 bd 6b 2a 97 bd 55 5e a6 bf 61 57 a2 be
       -0.04091299 -0.073811375 -1.2997538 -0.3170729

bias f4 [64]
000000 9e 72 e8 bf 19 85 dd bd 74 85 ee 3d 24 51 c4 bf
       -1.8159978 -0.10816402 0.11646548 -1.5337262
000010 01 f2 02 3f d1 cd 81 3d e4 59 ad be bb fc ee 3c
       0.5115052 0.063380845 -0.33857644 0.029173246
000020 31 4a 80 3f 4d b3 76 3b ca 13 03 3d d3 00 d4 bf
       1.0022641 0.0037643493 0.032001294 -1.6562752
000030 b1 ff 10 be a3 9b 10 3f 1c 4b 73 be f3 28 5d bd
       -0.14160039 0.5648748 -0.2375912 -0.05399413
000040 c4 47 cf bf f7 85 b9 bf 24 04 73 3e f5 cb 73 3d
       -1.6193776 -1.4494008 0.23732048 0.05952068
000050 97 a4 02 bc 8b ce 39 c0 9d bf d6 bd e5 37 d0 be
       -0.007973812 -2.9032314 -0.10485766 -0.40667644
000060 9a e0 50 3c 82 03 e2 3d 0b 6c 3f 3d 58 a4 df 3d
       0.012748862 0.11035825 0.046733897 0.10920018
000070 6f 58 c1 bd fd 1e 0a be 80 49 49 3e da 4c 3a bd
       -0.094406955 -0.13488384 0.19656944 -0.045483448
000080 64 16 8d be 96 19 0a 40 0e b7 de bd 3e f2 58 3e
       -0.27556145 2.1578116 -0.10874759 0.21186158
000090 06 34 fd bd 05 ae e1 bc 26 c5 0c be c5 6f ab bd
       -0.12363438 -0.0275488 -0.13747081 -0.08370928
0000a0 70 c6 b9 bd 91 95 1c 3e a6 a2 c8 3f 96 bc f2 bd
       -0.09071052 0.1529143 1.5674636 -0.11852376
0000b0 2a c3 09 3e 84 3f 46 be b9 2b 48 be ed 94 aa bd
       0.13453355 -0.19360167 -0.19547929 -0.083291866
0000c0 c5 95 c2 bd 24 5f 14 3c 1d 0b 6c be ad fb 2b be
       -0.095012225 0.009055886 -0.23051114 -0.16795225
0000d0 07 d1 fb bd d5 c1 1c be 41 c3 90 3e d0 da dd bd
       -0.12295728 -0.15308316 0.28273967 -0.10832751
0000e0 bc 9c 2b 3d fd ea 26 c0 7e 66 be bc d8 b9 51 3e
       0.04189752 -2.6080925 -0.023242231 0.2048105
0000f0 15 d4 a0 3d e9 19 e9 3e d3 5e 3f 3f 3c c0 72 bd
       0.078529514 0.4552758 0.74754065 -0.05926536

weight f4 [7, 64]
000000 c8 2e 92 40 3c 03 9a 3d 6a a6 62 be a5 3a 6a 40
       4.5682106 0.07520148 -0.22133794 3.6598294
000010 b1 cc b4 be 33 d7 b3 be d1 df 0c 3f 6e da b2 3d
       -0.35312417 -0.3512512 0.55029017 0.087330684
000020 5c 65 eb be c9 fe 09 bf 42 7a f3 be 54 0b 97 40
       -0.4597577 -0.53904396 -0.47554213 4.720133
000030 cc d1 db 3c de ea 74 3d b8 67 7f bf 4c 34 ae bf
       0.026833437 0.0597943 -0.9976764 -1.360971
000040 b7 fa 92 40 ac 5b 79 40 48 1f 84 bf 24 0e 8a be
       4.593105 3.8962202 -1.0322046 -0.26963913
000050 e8 b6 56 3c ef 36 00 41 20 12 83 bd 0f d5 a9 3f
       0.013105132 8.0134115 -0.063999414 1.3268145
000060 27 b9 6e bd f4 e8 01 3e a0 d6 93 be 85 89 eb be
       -0.058282044 0.12686521 -0.28874683 -0.46003357
000070 25 8e 92 3d 1c 71 e9 bd 94 3f 60 bf 03 e1 62 3d
       0.07156018 -0.11398527 -0.8759701 0.05539037
000080 18 35 2d bf 65 8a 88 c0 71 ec 61 3d 66 87 16 bf
       -0.6765914 -4.266894 0.05515713 -0.5880035
000090 dc 69 09 3e 40 31 f2 3c 5f ea 00 bf bd 68 72 bf
       0.13419288 0.0295645 -0.5035762 -0.9469107
0000a0 e7 44 e4 bd 48 34 62 bf 09 f7 c9 bf 5f 78 40 3e
       -0.111459546 -0.88361025 -1.5778514 0.18795918
0000b0 f3 51 79 3d 90 8c 05 bf 92 65 52 bf a2 4f ad 3a
       0.06086917 -0.52167606 -0.82186234 0.0013222585
0000c0 09 80 04 be 74 73 71 be e2 55 7e 3f a6 cf 17 3e
       -0.12939467 -0.23579198 0.99349797 0.14825305
0000d0 91 7a 58 be 2e 70 82 bf 5a 88 c6 bf c0 64 39 bd
       -0.21140505 -1.0190485 -1.5510361 -0.0452621
0000e0 7d 22 c9 3c bf 53 e6 40 30 ea f4 be 43 e8 65 bf
       0.024552578 7.197723 -0.4783492 -0.8980753
0000f0 1e 59 d5 3c 2a 5b 11 be 42 bd 61 bf b7 9f 6f bd
       0.026043471 -0.14194933 -0.8817941 -0.058501925
000100 24 c9 8d 40 28 dc 9f bb e3 aa 80 be 73 db 63 40
       4.4308033 -0.0048785396 -0.25130376 3.560269
000110 25 ae 39 be c4 ce 8e be 01 2d 10 3f 74 2c a1 3d
       -0.18132837 -0.27892125 0.5631867 0.07869807
000120 fe 8d 16 bf a2 8e 1e bf 7b b3 0c bf a2 5b 8f 40
       -0.5881041 -0.6193639 -0.54961365 4.4799356
000130 36 8d ad bd b7 50 ee 3d d6 98 81 bf a7 24 b2 bf
       -0.084741995 0.11636489 -1.0124767 -1.3917435
000140 f1 47 94 40 bc ce 79 40 ab c0 82 bf 0d bc a5 be
       4.633782 3.903243 -1.0215048 -0.32370034
000150 b8 1e c9 bd 95 3f 01 41 8f d9 88 bd 84 3b ad 3f
       -0.09820312 8.078023 -0.06682121 1.3533788
000160 73 8e 6d be 56 f5 d8 bd 00 f1 e2 be 18 0b e2 be
       -0.23198871 -0.10593669 -0.44324493 -0.4414909
000170 bd 8c ce 3c fa 74 ca bd 6d c1 55 bf 06 b6 81 3c
       0.025213594 -0.09885593 -0.8349827 0.015833866
000180 32 38 30 bf 0b 2a 87 c0 fc e1 11 be a6 06 13 bf
       -0.6883575 -4.223882 -0.14246362 -0.5743202
000190 00 b0 16 3e 75 b1 97 3c 88 cd 1f bf 04 8b 6a bf
       0.14715576 0.018517235 -0.6242299 -0.9161837
0001a0 2e f8 51 bd 7e 59 52 bf a3 15 bd bf 62 4b 11 3e
       -0.051262073 -0.82167804 -1.4772228 0.14188913
0001b0 2d 33 c3 3d 52 69 19 bf 23 ba 2a bf 05 40 b2 bd
       0.095312454 -0.5992633 -0.6669027 -0.08703617
0001c0 07 1b 73 3c 8e 7d 26 be 37 a9 84 3f 24 ba b0 3d
       0.014837987 -0.16258833 1.036414 0.086292535
0001d0 4f dc 2a be 12 39 80 bf 5f a6 bf bf 3c 06 45 bd
       -0.16685604 -1.0017416 -1.4972647 -0.04810165
0001e0 dc c5 22 be 3a a3 e3 40 e2 a0 f2 be 8c d6 56 bf
       -0.1589579 7.113675 -0.4738837 -0.8392112
0001f0 1a 7c bf bd 94 2f fe bd f1 36 44 bf 81 b2 16 3d
       -0.09349842 -0.124114186 -0.76646334 0.03679133
000200 73 7e 8f 40 e8 db 39 bc 33 fb 85 be d3 2f 69 40
       4.4841857 -0.011343934 -0.26168212 3.643544
000210 4f 33 6f be 2d 64 6d be 9d 29 00 3f af 1b ce 3d
       -0.23359416 -0.23182745 0.50063497 0.10063874
000220 ba 74 04 bf 71 47 f7 be d9 4a 04 bf 3b 21 90 40
       -0.5174061 -0.48296693 -0.5167671 4.5040565
000230 73 49 58 bd c1 ae 6b 3d 6f e0 7b bf d1 53 a1 bf
       -0.05280442 0.057539705 -0.98389333 -1.2603704
000240 c7 40 97 40 4c c8 78 40 2d f3 89 bf 77 2e 69 be
       4.7266574 3.8872252 -1.0777336 -0.22771631
000250 78 72 93 bd 6d ed fc 40 00 63 81 3d dc ca be 3f
       -0.071995676 7.9039826 0.06317711 1.4905658
000260 be 13 d9 bd 88 ea 2c bd 0c ac 85 be 2f 58 e3 be
       -0.10599469 -0.042215854 -0.26107824 -0.44403216
000270 19 e0 7d bd f9 8f db 3d d3 26 76 bf 3f 9a 98 bd
       -0.061981294 0.1072082 -0.9615299 -0.07451295
000280 93 65 2c bf 15 c4 87 c0 cf 78 1a 3d 8f 38 39 bf
       -0.6734249 -4.242686 0.03771287 -0.72351927
000290 7e c8 c3 3d a9 7c 84 bd 0d 1c 1a bf 81 4b 77 bf
       0.09559725 -0.064690895 -0.6019905 -0.96599585
0002a0 29 e2 ec bd 9c d3 3f bf 63 ca bf bf ba b4 69 3e
       -0.11566574 -0.74932265 -1.4983639 0.22822848
0002b0 3b 4a d6 3c 28 d9 1c bf 1b 32 3f bf b4 93 35 be
       0.026158443 -0.61268854 -0.7468583 -0.17732126
0002c0 f7 c5 1f be 09 48 89 bd 35 44 82 3f fd 8b 71 3e
       -0.15602861 -0.06703193 1.0177065 0.23588558
0002d0 11 78 1f bd 73 ee 83 bf 71 9d ba bf a0 3e df 3d
       -0.038932864 -1.0307144 -1.4579297 0.10900617
0002e0 0a d9 e2 bd 54 9b e1 40 76 e4 d5 be 53 83 63 bf
       -0.11076553 7.050211 -0.41775864 -0.8887226
0002f0 24 2d f8 bd ae 32 b5 be 73 08 50 bf ed 2d 31 be
       -0.12117985 -0.35390228 -0.8126289 -0.17302676
000300 dc d6 92 40 7b 6d ae 3c 63 ac 68 be ea 8e 6d 40
       4.588728 0.021292439 -0.2272201 3.7118478
000310 75 47 65 be 4d 4c d0 be aa e1 32 3f fe 49 e2 bb
       -0.2239054 -0.40683213 0.69875586 -0.006905793
000320 aa af eb be f8 0b 14 bf 87 4a 22 bf f7 91 8f 40
       -0.4603246 -0.5783076 -0.6339497 4.486568
000330 75 23 a7 bc e6 80 b5 3b ec e2 7a bf a6 1c a5 bf
       -0.02040265 0.0055390475 -0.98002505 -1.2899368
000340 e1 39 92 40 4e 09 72 40 bf 03 84 bf a6 2d 7b be
       4.5695653 3.781818 -1.0313643 -0.24529132
000350 d2 4e f0 bd a8 3e ff 40 2d 0a e0 bd d8 2d b7 3f
       -0.11733784 7.9763985 -0.10939441 1.4310865
000360 c2 0f 2d be b2 1e 3b 3d 38 ed 9f be eb 8d b9 be
       -0.16900542 0.04568357 -0.3123567 -0.36241087
000370 59 d8 9d bd b2 1a be bd 89 87 6d bf 5a 2e b3 3b
       -0.07707281 -0.092824355 -0.92784935 0.005468172
000380 72 c3 2e bf 5c 70 89 c0 43 0b b9 bd 64 82 1a bf
       -0.68266976 -4.2949657 -0.09035351 -0.6035521
000390 67 75 02 3e f3 4d 34 be 93 72 00 bf 0e 50 58 bf
       0.12740098 -0.1760786 -0.50174826 -0.84497154
0003a0 00 b1 bb bd 09 c1 50 bf 95 21 ce bf b8 1a 91 3e
       -0.091646194 -0.8154455 -1.6103998 0.28340697
0003b0 20 f5 db bd 24 17 3d bf 24 6b 4b bf 04 8b 65 3b
       -0.10740113 -0.73863435 -0.7946036 0.0035025487
0003c0 4f c0 2d bc c4 5b 84 be 8a b7 72 3f 7d 65 a0 3e
       -0.010604932 -0.25851262 0.9481131 0.3132743
0003d0 28 04 c4 bd 89 1d 85 bf 02 80 c0 bf 2f 8b 05 3d
       -0.09571105 -1.0399638 -1.5039065 0.03260344
0003e0 b0 b8 13 be 29 c5 ea 40 cb 7a e7 be 48 8b 59 bf
       -0.14425921 7.3365674 -0.4521087 -0.8497815
0003f0 27 3e 32 3d 32 b4 0c be 9e b9 5c bf 97 f5 8f bd
       0.043516304 -0.13740614 -0.8622073 -0.070292644

bias f4 [7]
000000 69 88 44 42 69 88 44 42 69 88 44 42 69 88 44 42
       49.133213 49.133213 49.133213 49.133213
000010 69 88 44 42 69 88 44 42 69 88 44 42
       49.133213 49.133213 49.133213
