experiements/starter_team/continuous_state/DQN/results/heuristics_dqn/checkpoints/model_1000.pt (torch, 9839 bytes, 6 tensors)

weight f4 [32, 8]
0.24962541 -0.3487681 -0.068700925 0.120431416 -0.24668436 0.11437858 0.22941427 0.29180995
0.31950685 0.34476492 -0.15975206 0.16248263 0.25472593 -0.24038796 0.13995612 0.19607235
0.19809698 -0.06025853 0.14355044 -0.016624235 -0.09945729 0.04652759 -0.018904421 0.32169276
-0.026253061 0.34001055 -0.11154867 0.3369941 0.23700391 -0.2024056 0.13786808 0.056219976
0.2208121 0.31739962 -0.20388845 -0.0024914688 -0.22490789 0.3433698 0.18698032 0.31000578
-0.04305149 0.1554761 -0.18674901 -0.27952266 0.04196115 0.15913853 -0.34525797 0.13510619
0.07162954 -0.1856803 -0.23504677 0.160793 -0.08746988 -0.3351114 -0.253768 -0.18743256
-0.138568 0.03126171 0.030680124 -0.21034467 0.13442513 -0.10204443 0.33010903 0.32929522
-0.05749677 0.2886421 0.056677606 0.30360737 0.21876347 -0.30089664 0.20335475 -0.25481007
0.0039689266 -0.1507401 -0.2809133 0.042355053 -0.0502755 -0.055848535 -0.036367968 0.26850146
-0.012489418 0.019537592 -0.20921417 -0.023582848 0.101558775 -0.0881291 -0.13873279 -0.2283112
0.33209866 -0.03752612 -0.2429579 -0.2241967 0.15600193 -0.20889866 -0.005223807 0.17519778
0.09784825 -0.022670073 -0.01299813 0.082721405 0.041275334 -0.18395126 -0.20295452 -0.20912002
0.11706261 -0.18968302 -0.11648019 0.013539296 0.24382563 -0.22930662 0.09141677 0.29770565
0.11874217 0.17476746 0.0021917624 0.06265799 0.078094825 -0.08370402 0.22340207 0.052257624
0.32071888 0.21087514 0.3488993 0.08960032 0.07391933 0.31746596 -0.18741126 0.25750992
-0.3067366 -0.2804706 -0.029346345 0.2312973 -0.1990739 -0.025743842 0.23345974 -0.14257465
-0.06209516 -0.076957576 -0.1904667 -0.30404487 0.23716722 -0.3478547 -0.20312938 0.031518675
0.19260216 0.17040345 0.04698817 0.22096527 0.013073573 -0.248349 0.06889303 0.10377414
0.21589571 0.33109197 0.31041056 -0.06917225 -0.048364352 -0.122292615 0.18786912 0.085461035
-0.20682588 -0.34772864 0.06712206 0.16385329 -0.24970882 0.19575436 -0.18198954 -0.27774942
0.18360111 0.21098009 -0.3407093 -0.23465629 -0.33869532 -0.21707144 -0.27675194 0.32439834
0.34343684 -0.01230924 0.3116087 0.03591889 -0.3435932 -0.20833212 -0.24237096 -0.26095572
0.1827167 -0.26431325 -0.03724462 -0.13669509 -0.33727944 -0.2452673 0.26395425 -0.3377599
-0.12949252 -0.15654528 0.2180556 -0.04483135 -0.19696338 0.020679815 -0.079662934 0.18744208
-0.028369844 0.29393446 0.04259605 -0.017511299 -0.20554478 -0.14655222 -0.25696242 -0.12586415
-0.2036676 -0.15041763 -0.14252219 -0.34877282 0.22294128 -0.020839889 0.07826699 -0.3171388
-0.21467572 -0.2778159 -0.30424434 0.33873197 -0.15558724 0.089246035 0.15794127 0.021949742
-0.11379796 0.29399663 -0.036663625 0.10063559 0.05565972 -0.13511369 0.0886612 0.32496876
-0.14950801 0.04218061 -0.31983465 0.060213685 -0.0034293626 -0.021090072 -0.26426107 0.2634498
-0.17405519 -0.29126343 -0.1433161 -0.16040066 0.071480215 0.056792837 0.04260368 0.31838807
-0.29094297 0.017369853 0.33964413 0.3497568 0.13126539 0.23543094 -0.008451496 -0.1276725
00000000: ce9d 7f3e bb91 b2be 12b3 8cbd bfa4 f63d
00000010: d39a 7cbe 513f ea3d 93eb 6a3e 1d68 953e
00000020: 6796 a33e 0785 b03e 0b96 23be d961 263e
00000030: 706b 823e 4328 76be a850 0f3e 31c7 483e
00000040: efd9 4a3e a6d1 76bd e3fe 123e 8c2f 88bc
00000050: 43b0 cbbd b793 3e3d 72dd 9abc eab4 a43e
00000060: a910 d7bc dd15 ae3e a173 e4bd 7e8a ac3e
00000070: 27b1 723e 6a43 4fbe 4a2d 0d3e eb46 663d
00000080: 911c 623e 3482 a23e 22c8 50be e947 23bb
00000090: 414e 66be 2bce af3e c577 3f3e 14b9 9e3e
000000a0: c256 30bd 2035 1f3e 223b 3fbe 981d 8fbe
000000b0: 74df 2b3d 36f5 223e a7c5 b0be 4759 0a3e
000000c0: 82b2 923d fa22 3ebe 1ab0 70be eca6 243e
000000d0: 6923 b3bd b993 abbe e1ed 81be 52ee 3fbe
000000e0: c5e4 0dbe 470c 003d e254 fb3c 9864 57be
000000f0: bea6 093e acfc d0bd 0d04 a93e 6299 a83e
00000100: bc81 6bbd e6c8 933e c726 683d 6d72 9b3e
00000110: 8803 603e 200f 9abe 3a3c 503e 7776 82be
00000120: c50d 823b 9d5b 1abe ded3 8fbe 7e7c 2d3d
00000130: afed 4dbd 6fc1 64bd 94f6 14bd 0679 893e
00000140: 6aa0 4cbc 4d0d a03c 3d3c 56be d130 c1bc
00000150: 0cfe cf3d 087d b4bd f80f 0ebe 69ca 69be
00000160: d608 aa3e fdb4 19bd f5c9 78be d293 65be
00000170: f8be 1f3e 88e9 55be 782c abbb 0c67 333e
00000180: aa64 c83d 97b6 b9bc 1cf6 54bc d769 a93d
00000190: 5310 293d b85d 3cbe 4fd3 4fbe 8f23 56be
000001a0: 86be ef3d 443c 42be 2a8d eebd ecd3 5d3c
000001b0: 6dad 793e 5bcf 6abe b738 bb3d e06c 983e
000001c0: 182f f33d 3ef6 323e aca3 0f3b d552 803d
000001d0: 2ef0 9f3d 036d abbd 83c3 643e 170c 563d
000001e0: 4435 a43e a7ef 573e eea2 b23e 5f80 b73d
000001f0: 0563 973d e68a a23e bde8 3fbe 57d8 833e
00000200: 940c 9dbe d899 8fbe bf67 f0bc 33d9 6c3e
00000210: 07da 4bbe c0e4 d2bc 1210 6f3e 17ff 11be
00000220: 7f57 7ebd ef9b 9dbd b409 43be c5ab 9bbe
00000230: f7db 723e 031a b2be 2601 50be ba19 013d
00000240: 8039 453e 3e7e 2e3e ab76 403d b844 623e
00000250: 8a32 563c 334f 7ebe ca17 8d3d 8987 d43d
00000260: c413 5d3e e384 a93e 22ee 9e3e 2eaa 8dbd
00000270: b319 46bd 8d74 fabd c360 403e 3206 af3d
00000280: 2aca 53be 7d09 b2be 4a77 893d 28c9 273e
00000290: abb3 7fbe d573 483e 775b 3abe 2c35 8ebe
000002a0: ee01 3c3e 2a0b 583e 7371 aebe bd49 70be
000002b0: 7969 adbe fa47 5ebe 6eb2 8dbe 8a17 a63e
000002c0: f4d6 af3e b2ac 49bc 2d8b 9f3e b01f 133d
000002d0: 73eb afbe 0455 55be 1830 78be fd9b 85be
000002e0: 161a 3b3e 1154 87be d18d 18bd ccf9 0bbe
000002f0: e4af acbe 5a27 7bbe 0325 873e deee acbe
00000300: b099 04be 684d 20be f849 5f3e 14a1 37bd
00000310: c5b0 49be b768 a93c 5226 a3bd d1f0 3f3e
00000320: e067 e8bc 947e 963e 3279 2e3d db73 8fbc
00000330: 557a 52be c911 16be 9490 83be 88e2 00be
00000340: 3d8e 50be 1407 1abe 56f1 11be 5a92 b2be
00000350: b84a 643e 6ab8 aabc 724a a03d 0460 a2be
00000360: f4d3 5bbe e33d 8ebe eac5 9bbe 476e ad3e
00000370: 4352 1fbe a0c6 b63d 5bbb 213e f2cf b33c
00000380: e80e e9bd ba86 963e 992c 16bd 081a ce3d
00000390: 72fb 633d 3e5b 0abe 0194 b53d 4e62 a63e
000003a0: a118 19be 93c5 2c3d 5ec1 a3be a0a2 763d
000003b0: 28bf 60bb 16c5 acbc 3a4d 87be e4e2 863e
000003c0: 863b 32be 7b20 95be 75c1 12be 1240 24be
000003d0: 3864 923d 9b9f 683d 3281 2e3d c303 a33e
000003e0: 7af6 94be 394b 8e3c d6e5 ad3e 5313 b33e
000003f0: 6f6a 063e cf14 713e 2578 0abc 94bc 02be

bias f4 [32]
-0.043679222 -0.15582937 0.061725155 -0.2083111 0.19643137 0.039069623 0.19324069 -0.32324874
0.18787783 -0.2668542 0.33818445 0.05843003 0.3501831 0.10977775 -0.034911036 0.34564605
0.049366012 0.18598801 0.08185984 -0.035064407 -0.31297356 -0.21780096 0.26453334 0.23564944
0.25816208 -0.22171041 0.21084285 -0.24724087 0.25526926 0.12895536 0.098156214 0.010187736
00000000: fce8 32bd bc91 1fbe 84d3 7c3d 814f 55be
00000010: 4e25 493e 7807 203d e3e0 453e dc80 a5be
00000020: 0c63 403e 1da1 88be 8326 ad3e 5454 6f3d
00000030: 334b b33e 28d3 e03d e0fe 0ebd 85f8 b03e
00000040: 0434 4a3d a473 3e3e 22a6 a73d b29f 0fbd
00000050: 123e a0be 3707 5fbe ea70 873e 164e 713e
00000060: d22d 843e 0e08 63be 30e7 573e b62c 7dbe
00000070: a7b2 823e e00c 043e 2006 c93d 76ea 263c

weight f4 [32, 32]
-0.04986303 0.05566543 0.14347011 0.025900375 0.117877506 0.12362722 0.027583783 0.09286234
-0.16054004 0.039906785 -0.1409478 0.0942861 -0.15567398 0.02390409 0.026975395 0.054645054
-0.16546614 -0.017254518 0.13987747 -0.097644955 0.025419923 0.086589895 -0.0013499003 0.15256067
0.14535256 0.037895937 -0.023547592 -0.109757684 0.10974879 0.15613182 0.123834416 0.0001794402
-0.17084163 -0.024569547 0.07530756 0.010676744 -0.1149318 -0.04117172 -0.09252691 -0.0054392614
0.07930627 0.16704665 0.046322946 0.1168664 -0.07278145 -0.06415142 0.08310111 0.10272426
0.06143158 0.05392274 0.107233 -0.17220315 -0.070344545 0.089427374 -0.17387185 -0.012789988
-0.12370222 -0.15612629 -0.071588546 -0.13943923 0.058047336 -0.08819557 0.001603835 -0.004563513
0.03849299 0.12533969 -0.14510408 0.10545472 -0.09415218 0.13673002 -0.069212265 0.06038048
0.0045687603 -0.11937275 -0.08267635 0.00868655 -0.014465114 0.14745928 0.12516257 0.15215181
-0.12365358 0.038960483 0.14903119 -0.05017595 0.08394855 0.1611999 0.13270827 -0.038097925
0.05352772 0.12551677 -0.12590313 0.072383754 -0.04938239 -0.0629683 0.07777118 -0.11516451
-0.16749534 0.104159676 -0.17141148 -0.0071251355 -0.14217909 -0.022832908 0.13956285 0.007567572
-0.14703494 -0.17573637 0.09388714 -0.014735486 0.12568204 -0.066549174 0.17344968 0.15113313
0.019802444 0.07923045 -0.06177885 -0.13423677 0.17107561 -0.023474025 0.09435659 -0.15968703
-0.13639604 -0.014257963 0.11147864 -0.0022006975 -0.16475375 -0.12934922 -0.075205736 0.009923665
-0.16232024 0.108271144 -0.0051969592 -0.09885421 0.054185864 -0.080750346 -0.01165276 0.08516264
-0.061838362 -0.108833574 -0.09351724 0.11120779 -0.14792155 -0.110054694 0.013824061 -0.03148692
0.11216279 -0.1620135 0.016798427 -0.04434017 -0.021553455 0.08874621 -0.086132266 -0.10280101
0.14942124 0.09730107 -0.021166315 0.12629916 -0.16144085 0.0047759754 -0.07401648 0.11476909
0.13053218 -0.13201153 0.15092967 -0.107716024 -0.0680672 -0.15295635 -0.091455184 -0.013881107
0.06611365 -0.036765497 -0.15551999 0.031421423 -0.05374838 0.061226558 0.031169321 -0.008939241
0.14792363 -0.15461063 -0.09795138 0.14176984 -0.07830899 -0.07082601 0.13133718 0.07286318
-0.08785586 -0.041810073 0.115844175 -0.15668724 -0.0402027 -0.1684205 -0.042744786 0.15196154
-0.14818326 0.15177818 0.03007989 0.024104731 -0.1644242 -0.05412239 -0.021945147 0.08915466
-0.14519282 0.055978116 0.1273019 -0.014819949 -0.01608587 -0.103037916 -0.034301907 -0.06793935
-0.17229621 0.17307115 -0.04601441 0.1492123 -0.06068476 -0.17192438 0.078843184 0.102025844
0.041535445 0.1203388 0.08440149 -0.041766115 -0.16611905 1.1358576e-05 0.14887665 -0.1343692
-0.08431241 -0.034837026 0.028630754 0.10736153 0.1303889 -0.16103609 0.16734564 -0.10104043
-0.09228761 0.03157372 -0.09204745 0.16441365 0.0070553613 -0.07164119 -0.04097502 -0.037210144
0.012129673 -0.0751532 -0.07422119 0.082565255 0.1536155 -0.11239854 0.041194055 0.04826455
-0.02797891 -0.07915532 0.012016467 0.082697004 -0.14446221 -0.10232228 0.15061678 0.09306829
00000000: 2d3d 4cbd 6f01 643d d4e9 123e 062d d43c
00000010: c369 f13d 4530 fd3d 63f7 e13c 9c2e be3d
00000020: 9c64 24be 4c75 233d 9f54 10be 1219 c13d
00000030: 0069 1fbe 83d2 c33c 81fb dc3c 7ed3 5f3d
00000040: f56f 29be 5959 8dbc 0a3c 0f3e 14fa c7bd
00000050: 713d d03c 0b56 b13d 23ef b0ba dd38 1c3e
00000060: 4dd7 143e c538 1b3d e1e6 c0bc a3c8 e0bd
00000070: f9c3 e03d 05e1 1f3e e69c fd3d 1d28 3c39
00000080: 1cf1 2ebe 1346 c9bc da3a 9a3d 83ed 2e3c
00000090: 5d61 ebbd ada3 28bd c07e bdbd d53b b2bb
000000a0: 536b a23d 470e 2b3e 21bd 3d3d a757 ef3d
000000b0: 710e 95bd d261 83bd ea30 aa3d 1961 d23d
000000c0: ae9f 7b3d 17de 5c3d fa9c db3d 0656 30be
000000d0: cd10 90bd b325 b73d 760b 32be 198d 51bc
000000e0: 9757 fdbd 92df 1fbe 049d 92bd 28c9 0ebe
000000f0: 0bc3 6d3d e19f b4bd c637 d23a 8689 95bb
00000100: d3aa 1d3d 0c59 003e 2a96 14be a5f8 d73d
00000110: dcd2 c0bd f402 0c3e 29bf 8dbd 8651 773d
00000120: 8ab5 953b b379 f4bd 3852 a9bd 0852 0e3c
00000130: 16ff 6cbc 91ff 163e 9e2a 003e afcd 1b3e
00000140: 173e fdbd 0795 1f3d a29b 183e 4c85 4dbd
00000150: 38ed ab3d 9611 253e ade4 073e 920c 1cbd
00000160: e23f 5b3d 7887 003e c0ec 00be ef3d 943d
00000170: 3045 4abd 86f5 80bd 7f46 9f3d 5fdb ebbd
00000180: e683 2bbe ab51 d53d 7e86 2fbe f879 e9bb
00000190: 6597 11be 140c bbbc 90e9 0e3e 65f9 f73b
000001a0: 5490 16be 3cf4 33be e747 c03d 1c6d 71bc
000001b0: cbb2 003e ef4a 88bd cb9c 313e a5c2 1a3e
000001c0: bc38 a23c 9343 a23d d20b 7dbd 5d75 09be
000001d0: 722e 2f3e 994c c0bc 073e c13d ff84 23be
000001e0: 67ab 0bbe 3b9a 69bc ea4e e43d 9439 10bb
000001f0: 35b5 28be 1f74 04be 7705 9abd de96 223c
00000200: 4737 26be 43bd dd3d 414b aabb 1374 cabd
00000210: fff1 5d3d 7060 a5bd 38eb 3ebc c069 ae3d
00000220: 394a 7dbd 23e4 debd f785 bfbd e9c0 e33d
00000230: bf78 17be 5b64 e1bd 507e 623c 6ef8 00bd
00000240: 9bb5 e53d dee6 25be db9c 893c 0a9e 35bd
00000250: df90 b0bc 93c0 b53d 1d66 b0bd 5689 d2bd
00000260: e201 193e c945 c73d fb64 adbc 9154 013e
00000270: c050 25be c97f 9c3b f495 97bd 0f0c eb3d
00000280: 3aaa 053e 082e 07be 4f8d 1a3e 389a dcbd
00000290: d166 8bbd 97a0 1cbe db4c bbbd 956d 63bc
000002a0: 9866 873d 6b97 16bd a240 1fbe c0b3 003d
000002b0: 4327 5cbd b3c8 7a3d ce56 ff3c e575 12bc
000002c0: 4b79 173e 4052 1ebe bc9a c8bd 1d2c 113e
000002d0: 7760 a0bd 3a0d 91bd 417d 063e 4a39 953d
000002e0: c6ed b3bd 0a41 2bbd b63f ed3d 9f72 20be
000002f0: 96ab 24bd 6c76 2cbe 2815 2fbd ce9b 1b3e
00000300: 5abd 17be bd6b 1b3e 1a6a f63c 4977 c53c
00000310: d15e 28be 70af 5dbd 4fc6 b3bc b896 b63d
00000320: 6dad 14be 4f49 653d 6e5b 023e 5fcf 72bc
00000330: 84c6 83bc 8b05 d3bd 2880 0cbd c923 8bbd
00000340: 6b6e 30be 9039 313e 9b79 3cbd 1ccb 183e
00000350: 9590 78bd f20c 30be 8978 a13d edf2 d03d
00000360: 1221 2a3d 3074 f63d b0da ac3d f212 2bbd
00000370: 1d1b 2abe b690 3e37 1f73 183e 1498 09be
00000380: fcab acbd 45b1 0ebd 0b8b ea3c 5de0 db3d
00000390: ab84 053e a5e6 24be a85c 2b3e 49ee cebd
000003a0: 4901 bdbd 7253 013d 6083 bcbd 0d5c 283e
000003b0: a930 e73b 9eb8 92bd 6cd5 27bd aa69 18bd
000003c0: 89bb 463c ece9 99bd 4701 98bd f917 a93d
000003d0: 624d 1d3e 3531 e6bd 19bb 283d 0cb1 453d
000003e0: 0734 e5bc 2f1c a2bd b7e0 443c 0c5d a93d
000003f0: e7ed 13be 588e d1bd 493b 1a3e 969a be3d

bias f4 [32]
-0.08586725 -0.1572654 0.05254949 -0.1444442 -0.1605293 0.03082848 0.03916264 0.14343685
0.14631753 0.00083478156 -0.07135126 -0.14659248 0.09613586 -0.000828038 0.108271964 0.13041168
0.08031958 -0.095431484 0.118074626 0.08053649 0.050563026 0.13068281 0.12442382 0.10060191
0.1176257 -0.037300024 -0.0059661604 -0.03231264 0.17023534 0.003603977 -0.004040492 0.100972846
00000000: 2bdb afbd 2e0a 21be 223e 573d 2ee9 13be
00000010: cb61 24be 028c fc3c 0169 203d 1ce1 123e
00000020: 43d4 153e 3ed5 5a3a 9c20 92bd 571c 16be
00000030: e1e2 c43d b110 59ba b1bd dd3d a48a 053e
00000040: 987e a43d 9571 c3bd 1cd1 f13d 51f0 a43d
00000050: 2d1b 4f3d b7d1 053e ead1 fe3d 6008 ce3d
00000060: bee5 f03d e9c7 18bd c87f c3bb 425a 04bd
00000070: 2c52 2e3e b330 6c3b 1a66 84bb daca ce3d

weight f4 [7, 32]
0.17507748 0.16937152 -0.010574581 0.020432603 0.015977954 -0.044455208 0.025364732 0.0030989312
0.07373161 -0.16344489 -0.11610363 0.14931905 -0.09843399 0.06533929 0.018618306 0.02431047
0.09254232 0.09147942 -0.061284445 0.16825593 0.07955388 0.16090876 0.05425629 -0.11931029
-0.09576904 0.08274889 -0.16653445 -0.1673047 0.16917881 0.15232249 -0.085612535 0.067411266
-0.12996438 0.075049356 -0.09046705 -0.08866318 0.14846727 -0.08601306 0.05222911 0.061559245
0.027933309 0.08300402 0.06678668 -0.019768242 0.010038409 -0.03343893 -0.13499421 0.16748683
0.11440618 -0.119276166 -0.042500395 0.019862019 0.06959806 -0.12090925 0.08420831 -0.102652185
0.09551138 0.095267616 -0.1719377 0.028986052 -0.024484538 -0.02265136 -0.09849754 0.16738133
0.14160079 0.062493637 0.12848158 0.07233855 -0.097053275 -0.16843186 0.068571106 -0.046914037
0.0077546407 -0.098905526 -0.12615946 0.0043153944 -0.031192545 -0.16522911 0.04042812 -0.08746638
-0.1470006 0.056989703 -0.13746017 0.15068883 0.14264007 -0.14227201 0.17530546 -0.05750029
0.045237035 -0.018505774 0.12202815 -0.039656937 0.080389634 0.13197583 -0.018575022 -0.05627523
0.022309843 -0.12304132 -0.0042424174 -0.038505383 0.10297906 -0.019624773 0.037626598 0.14729626
0.046460114 -0.04772608 0.043481637 -0.15559514 0.099931166 -0.12947254 0.15054952 -0.12954615
-0.16856249 0.16323967 -0.15313278 -0.013077071 0.01476893 -0.008812885 0.1260993 -0.1428854
-0.10269 -0.090709224 0.054368548 -0.08636782 0.07969543 -0.07346377 -0.07574132 0.13020656
-0.09301152 0.0450605 -0.1479915 0.14426105 0.11130266 0.038677216 0.041379437 0.04462477
-0.09200861 0.15468486 0.1483756 0.14484386 -0.04412535 0.11350494 0.15067387 0.07926701
-0.112993866 0.14478245 0.038182367 -0.14446393 -0.02793396 -0.027684242 0.16194661 -0.038409393
0.019268485 0.15817437 0.12253971 -0.0011457831 0.15020902 0.17274743 -0.010122071 0.026642477
-0.084563434 -0.14083853 0.03916597 0.05812942 -0.12768683 0.051407795 0.115783945 -0.011762152
-0.05576005 -0.019301612 0.10965204 0.10678776 0.02244933 -0.057543535 -0.05379832 0.011406728
0.07222781 0.014178053 0.16927114 -0.09669825 0.1415176 -0.11940149 0.12125711 -0.13394578
0.09448548 -0.060694285 -0.11055822 0.10138237 -0.0951778 0.14076036 0.103432246 -0.021010436
0.14849599 -0.08109909 0.07505877 0.14404823 0.17107514 -0.17429096 0.1110686 0.1273796
0.09267489 0.05038917 0.069635674 -0.0691316 0.08407154 -0.13191843 0.056835342 -0.14576192
0.125517 0.13529888 0.15481313 -0.1322389 0.07533117 0.091555595 -0.123798735 -0.16071238
-0.15527761 0.13270405 -0.078996025 -0.12934625 -0.101326205 0.09766864 0.17642398 -0.07334426
00000000: 8347 333e ba6f 2d3e 0241 2dbc 4662 a73c
00000010: 33e4 823c aa16 36bd b3c9 cf3c 7017 4b3b
00000020: 9900 973d 195e 27be bdc7 edbd 18e7 183e
00000030: c297 c9bd 9bd0 853d 6b85 983c c026 c73c
00000040: d486 bd3d 9059 bb3d 6605 7bbd 484b 2c3e
00000050: 25ed a23d 44c5 243e d83b 5e3d f458 f4bd
00000060: 8f22 c4bd 4078 a93d 0288 2abe ec51 2bbe
00000070: 363d 2d3e 6dfa 1b3e a055 afbd eb0e 8a3d
00000080: 6215 05be 7ab3 993d ca46 b9bd 0b95 b5bd
00000090: ce07 183e 9d27 b0bd 31ee 553d 8c25 7c3d
000000a0: 65d4 e43c 03fe a93d 74c7 883d 02f1 a1bc
000000b0: 2478 243c 42f7 08bd ec3b 0abe ab81 2b3e
000000c0: ca4d ea3d 1047 f4bd e514 2ebd acb5 a23c
000000d0: 6d89 8e3d 459f f7bd 6875 ac3d 4f3b d2bd
000000e0: 789b c33d ab1b c33d 7010 30be 2874 ed3c
000000f0: cc93 c8bc 588f b9bc 14b9 c9bd 0366 2b3e
00000100: ccff 103e 54f9 7f3d ad90 033e 3c26 943d
00000110: dec3 c6bd 6779 2cbe 026f 8c3d ef28 40bd
00000120: a41a fe3b fb8e cabd f22f 01be 2768 8d3b
00000130: 8287 ffbc d231 29be f597 253d 9321 b3bd
00000140: 5387 16be 096e 693d 5cc2 0cbe 2c4e 1a3e
00000150: 3d10 123e c1af 11be 4683 333e 6d85 6bbd
00000160: 784a 393d 6c99 97bc e5e9 f93d 506f 22bd
00000170: 52a3 a43d ac24 073e a52a 98bc db80 66bd
00000180: 22c3 b63c 16fd fbbd fa03 8bbb d2b7 1dbd
00000190: afe6 d23d 22c4 a0bc 591e 1a3d d5d4 163e
000001a0: f64c 3e3d 6c7c 43bd cd19 323d 5554 1fbe
000001b0: b6a8 cc3d 7394 04be a729 1a3e bfa7 04be
000001c0: a59b 2cbe 4d28 273e d7ce 1cbe 3641 56bc
000001d0: 62f9 713c eb63 10bc 2d20 013e 8d50 12be
000001e0: 224f d2bd c2c5 b9bd 8eb1 5e3d 9de1 b0bd
000001f0: 5c37 a33d 2c74 96bd 441e 9bbd de54 053e
00000200: d37c bebd 5c91 383d 158b 17be 2bb9 133e
00000210: a6f2 e33d 006c 1e3d 7c7d 293d 76c8 363d
00000220: 036f bcbd b565 1e3e c6ef 173e f351 143e
00000230: c8bc 34bd 4775 e83d 404a 1a3e be56 a23d
00000240: 5469 e7bd da41 143e 1d65 1c3d 5aee 13be
00000250: c3d5 e4bc 10ca e2bc 55d5 253e 2b53 1dbd
00000260: f1d8 9d3c 76f8 213e 19f6 fa3d 1a2e 96ba
00000270: 65d0 193e b4e4 303e 0bd7 25bc 5341 da3c
00000280: 982f adbd fa37 10be 7f6c 203d 1d19 6e3d
00000290: 56c0 02be fb90 523d 2220 ed3d 0bb6 40bc
000002a0: a664 64bd 6a1e 9ebc 4091 e03d 8bb3 da3d
000002b0: a8e7 b73c c5b2 6bbd a15b 5cbd 49e3 3a3c
000002c0: 2dec 933d 104b 683c 6a55 2d3e bb09 c6bd
000002d0: fde9 103e c588 f4bd a655 f83d 1529 09be
000002e0: 9a81 c13d 929a 78bd 596c e2bd 8fa1 cf3d
000002f0: 94ec c2bd 7c23 103e 49d4 d33d 141e acbc
00000300: 550f 183e 4817 a6bd 6ab8 993d 6181 133e
00000310: 522e 2f3e 5479 32be ef77 e33d cc6f 023e
00000320: 55cc bd3d e064 4e3d 269d 8e3d de94 8dbd
00000330: b32d ac3d a015 07be 2dcc 683d 9d42 15be
00000340: 8787 003e ca8b 0a3e 5587 1e3e a269 07be
00000350: 3a47 9a3d 8081 bb3d 318a fdbd c991 24be
00000360: 1801 1fbe 92e3 073e abc8 a1bd 5873 04be
00000370: 1d84 cfbd 7f06 c83d 7da8 343e 8435 96bd

bias f4 [7]
-0.037294354 -0.015140412 -0.06918011 -0.04881448 -0.007540324 0.073489584 0.048187166
00000000: f7c1 18bd 7e0f 78bc 4dae 8dbd b1f1 47bd
00000010: d214 f7bb b581 963d e85f 453d
