experiements/starter_team/continuous_state/DQN/results/heuristics_dqn/checkpoints/model_final.pt (torch, 9847 bytes, 6 tensors)

weight f4 [32, 8]
00000000: 860e 8b3e ae3b bebd 6d82 05be 1bce 82be
00000010: e186 683e a5d3 a3be 90a4 34be dcfc 88be
00000020: 9d4a 54be 9c8b 00be 6412 893e 37b8 58be
00000030: d477 b4be 17f9 503d 156b f43c 56a3 8ebe
00000040: d7d7 81be 8e66 393e dc35 973e 1bc4 0a3e
00000050: e799 233e 6ce7 afbe 9d07 3dbe 98e7 dcbd
00000060: 9cef 9dbe 6da5 fbbd d926 aabe bad2 2d3e
00000070: 843c 17be 8307 4a3d c19c 98be c225 b6bd
00000080: 9050 ac3e 73bc efbd 8307 f43d 1897 90be
00000090: d06d 91bd ee77 3c3e 9a04 623e 63ac 4fbe
000000a0: 75c7 5d3d 7cd5 cd3d f45c a43e 9fb4 483e
000000b0: 5295 09be 0e45 ab3e 1124 23be c789 78bd
000000c0: 2730 813e 576d aebe 2f11 aa3d 499a 19be
000000d0: 02ce a93c 5f5b 2fbe 963b 52be dde1 b33d
000000e0: f770 9b3d 3a0e 60be c9bf 103e 5c1b 3d3e
000000f0: be6e 3f3b b825 dbbd 2224 83be bbfa 7bbe
00000100: 3b68 243e ffd3 83bc b87c bdbd 283f b23e
00000110: b13d 42bc 998c e43d 501b 76be 176d 1a3e
00000120: 578b 363e 6375 ff3c 9085 843e 76df 5c3e
00000130: 727c a83e 1c34 86bc 2f17 8e3e d3bf af3e
00000140: 3f4a 463e 4953 243e e5da fcbd 4d4a 0d3e
00000150: 1c75 8b3e a23e c03a cb08 b43e c9b3 1bbe
00000160: 10ed 8cbe b139 e8bd 788f 19bd a2ed 743c
00000170: 6d41 64be eb11 9c3e f2c7 f63d 2f76 70be
00000180: 76f9 3e3e a79b 67bd 3465 ca3d 4f9e 06be
00000190: d81d 7e3e f439 8b3e 1edb da3d 06fb 8d3e
000001a0: 554d 5a3e f198 573e da3d acbc c3a3 74be
000001b0: baf3 98bd c90b 4dbe cbe6 b33d a936 d4bd
000001c0: 2d7a b43e cd2c 763d 1c92 493e 70d5 993e
000001d0: 990a 873e c0fa 8bbe 4e05 2a3e d835 9b3e
000001e0: ad03 89bd 9482 a3be b463 90be 0884 52be
000001f0: 2934 883e e675 573e 4f4c ab3e 50b2 b33d
00000200: eef4 aabe eb5a 073e 8fe8 313e 03a8 05bc
00000210: 51c7 a1be f13c 18bd ce22 2c3e d629 643e
00000220: 8540 6c3e 9417 8fbd d40a 963e c18b 723b
00000230: bcb4 1d3e 4d04 d0bc 01c7 b03e 6333 8e3e
00000240: 1961 1f3e 4be2 7dbe b046 b3be 67d3 8ebe
00000250: 4c00 b7bd 7430 94bd 407a 6abd 69a6 95be
00000260: fdf7 953e 6f9c 423e dab4 ff3c e487 4dbe
00000270: 1b4c c9bd 4306 12bd ae86 5b3d 9338 a33e
00000280: 286d f9bd 83ba 7abd 981c a5be 91eb 653e
00000290: 7993 9b3e 79bf 003e 1997 1ebe 1f91 44bd
000002a0: 9e5e 853e 6662 f83c 042a f23d a9a2 67be
000002b0: 6c35 00be cd4f 12bd 7f87 e4bd 3145 de3d
000002c0: 8175 633e cd3c 613e 6ed2 24be c19d 873e
000002d0: b8b6 803e 6599 83bc a2f3 523e 71ff 093e
000002e0: 36b9 e93d cde9 80bd 443d 52be e75e f13d
000002f0: 1e70 9c3e fca9 283e 746b 36bd e495 3abe
00000300: 3a36 4abc 7da1 823e b36f 72be cb51 9fbe
00000310: 327b af3e 6127 a43e f49c 183e 9ff0 b8bd
00000320: b7cd 96be 2d71 a4be 79e4 8fbe dc1e 04be
00000330: 015d 5b3c 1226 533c 4b8b b6bd 3070 703e
00000340: eec0 6ebe 2193 7b3e 14e0 2ebd 4da4 af3d
00000350: 3a00 5a3e be20 a93d 8c85 2a3d 1dcc 8a3c
00000360: 9763 97be 23ec 99be 8c6f 4e3e b119 8cbc
00000370: edfa a73e dc3e 043d 067c 693e 26b3 85be
00000380: 572f 9b3e 39b9 713e 028d 533e bf12 a53e
00000390: 232c 44bc a7e0 803d a197 833b 286a 993e
000003a0: b63a 26be 99a2 4dbe 6f20 a7be a9ab e1bd
000003b0: 1b68 81bd 9877 833e ec5a af3e 4ac2 a2be
000003c0: 108a 9e3e 54e8 f03d 3ec1 523e a5ca b43e
000003d0: fe96 b2be 2e37 de3c 199a b43e b8b5 843e
000003e0: 4eb2 ebbd a744 62be 98da 2dbe f146 483e
000003f0: aed7 173e 695c 953e 2794 843e a42c ef3c
0.27159518 -0.09288727 -0.13038035 -0.2554787 0.22707702 -0.3199741 -0.176409 -0.26755416
-0.20731588 -0.12553257 0.26771843 -0.21164022 -0.35247672 0.0510188 0.029836217 -0.2785899
-0.25359985 0.18105528 0.2953328 0.13551371 0.15976678 -0.34356248 -0.18459935 -0.107863605
-0.3084687 -0.12287412 -0.33232763 0.16974917 -0.14769179 0.04932357 -0.29807094 -0.088939205
0.33655214 -0.11705866 0.11915495 -0.28240275 -0.07101023 0.18405125 0.22072068 -0.20280604
0.054145295 0.100504845 0.32102168 0.19600151 -0.13435867 0.33451122 -0.15931727 -0.06067827
0.2523205 -0.34067795 0.08304059 -0.15000261 0.020728115 -0.17124699 -0.20530543 0.087833144
0.07589906 -0.21880427 0.1413566 0.18467468 0.0029210295 -0.10700554 -0.25613505 -0.24607365
0.16055386 -0.016092299 -0.09252304 0.3481381 -0.011855529 0.111596294 -0.24033856 0.15080677
0.17826591 0.031183904 0.2588315 0.21569619 0.32907444 -0.01638227 0.27752063 0.34326038
0.1936426 0.16047396 -0.12346438 0.13797875 0.27237785 0.0014667104 0.35162959 -0.15205301
-0.27524614 -0.11339129 -0.037490338 0.014949234 -0.22290583 0.3048242 0.12049855 -0.23482583
0.1864985 -0.056544926 0.09882584 -0.13146327 0.24816072 0.27192652 0.106863245 0.27730578
0.21318562 0.21054436 -0.021025587 -0.23890595 -0.07468362 -0.20024027 0.08784255 -0.10361988
0.35249463 0.06010132 0.19684643 0.30045652 0.26375273 -0.27339745 0.16603586 0.30314517
-0.06690154 -0.3193556 -0.28201067 -0.20558178 0.26602295 0.21041068 0.33456656 0.08774245
-0.33389992 0.13218276 0.1737387 -0.008157733 -0.3159738 -0.037167493 0.16810152 0.22281584
0.23071487 -0.06986919 0.29305136 0.003700957 0.15400976 -0.025392676 0.34526828 0.2777358
0.15564384 -0.24793355 -0.35014868 -0.27895662 -0.089356035 -0.07235804 -0.057245493 -0.29228523
0.29290763 0.19004987 0.031214166 -0.2007137 -0.09828969 -0.035650503 0.053595237 0.318791
-0.12179023 -0.061213028 -0.32248378 0.22453143 0.3038595 0.12573041 -0.15487327 -0.04798996
0.2604875 0.030320358 0.1182442 -0.22620644 -0.12520379 -0.035720635 -0.11158656 0.10853041
0.22212793 0.2199585 -0.16095898 0.26487544 0.25139403 -0.016064355 0.20600751 0.1347635
0.11412279 -0.06294594 -0.20531183 0.11785679 0.3055429 0.16471094 -0.04453607 -0.18221241
-0.01234203 0.2551383 -0.23675422 -0.3111709 0.34273678 0.32061294 0.14903623 -0.0903027
-0.29453823 -0.32117596 -0.28103998 -0.12902397 0.013388873 0.012887495 -0.08913287 0.23480296
-0.23315784 0.24567844 -0.042694166 0.0857626 0.21289149 0.08258198 0.041631266 0.016943032
-0.2956817 -0.3006297 0.2015974 -0.017102094 0.3280863 0.03228651 0.22801217 -0.26113242
0.30309555 0.23605813 0.20659259 0.32240865 -0.011973414 0.06292849 0.0040158783 0.29963803
-0.16233334 -0.20081557 -0.32641932 -0.1101907 -0.06318685 0.2567718 0.34249055 -0.31788856
0.30964708 0.11763063 0.20581529 0.35310856 -0.34880823 0.027125921 0.35273817 0.2591989
-0.11508618 -0.22096501 -0.16977918 0.19558312 0.14828369 0.29172066 0.2589428 0.029196091

bias f4 [32]
00000000: 6118 a53e 3fbc 613e f1a9 b33e bdba 993e
00000010: 181d 86be ec8b 9b3d 730c e6bd cbba 4bbe
00000020: 9644 07be 9981 83be ce0d 453e 8ab7 24be
00000030: b500 ca3d cdb6 6fbe 7975 103e 50fa 103e
00000040: 84d5 1bbe 6003 b13e 8236 3a3e 8677 b1be
00000050: b3a5 36bd f276 3abe 43db 963e a471 73be
00000060: 2f52 1fbd 9adf d63d e15c 603e 54cb 023e
00000070: 712f a33e 8ed2 febd c05c 66be d20e 043d
0.32245162 0.22044466 0.35090593 0.30025283 -0.26194072 0.07595047 -0.11232843 -0.19895475
-0.13209757 -0.25684813 0.19243547 -0.1608564 0.09863416 -0.23409577 0.14107312 0.14157987
-0.15218168 0.34572887 0.18184856 -0.34661502 -0.044591617 -0.18209437 0.29464158 -0.23773819
-0.038896736 0.10491867 0.2191043 0.12772876 0.31872132 -0.12442504 -0.22496319 0.032240696

weight f4 [32, 32]
00000000: 00cd f73d d3a3 14be 99c2 df3d c520 083e
00000010: 564e 263e 925b 5f3c fbf0 23be 656b ac3d
00000020: 2801 773d da55 0b3e 70e3 1d3d eff0 333d
00000030: bb6a 01be e1dd c1bb d76b 8e3c f872 9ebd
00000040: 63cb 0cbe 72f1 2e3d 1e29 233e 2052 2a3d
00000050: 2ddb e03d 7678 30be 9f40 8b3d d6a7 203e
00000060: dcc0 98bc 5d87 4f3d 6817 273e b57f 593b
00000070: 1d7b a2bc 3fe1 21be f7e3 c83c 922e 3fbd
00000080: c44c cebd 0707 7c3d cd5f 2fbe 72e4 12bd
00000090: e843 c5bd 4e7a 293c 0465 b9bd 1791 bd3c
000000a0: ed97 e6bd 5397 413d 2204 283d cd34 72bd
000000b0: 5fae 0abe 28e7 0b3e 2793 2ebe f6e4 d63d
000000c0: e5da 163e 9287 9fbd 971d ebbc 8b2a ef3d
000000d0: 779e 0ebe 47cb 113e 4368 2c3e dd7a 1fbd
000000e0: a583 a2bc 0a15 6f3b ff44 fdbd 8b16 5abd
000000f0: e535 223e c0a5 63bd 17c3 a33d 929a 103e
00000100: 1179 31be dbe4 3e3c af2b ecbd 7803 e13d
00000110: 34fb dc3d 54f7 92bd 7fe3 f33d 20f5 bdbd
00000120: 7b91 d4bc 34c9 1f3e 7bf6 40ba f978 97bd
00000130: 7c4e f9bd 6c8a 16be fbd7 0ebe 1425 6cbd
00000140: 11b0 073e bd61 e33a a34d 893d 2de1 043e
00000150: 999b 95bd 3957 453d 3e30 1c3e 6467 b7bd
00000160: 091c aebc 1339 9cbc e59a 25bd f905 8ebd
00000170: feca 6ebd cd9f 79bd 1a56 09bd 98f7 68bd
00000180: 4187 873d 4b1d dc3d 8b3f b0bd 4540 083e
00000190: 9982 163e 907f 4bbd 0e16 133d 6f83 34be
000001a0: 1238 8bbd 0368 14be 505b f5bd 14e8 173e
000001b0: 25bc 04be db95 febb 48bc 033e cd2b 323e
000001c0: 8fa3 233e e6bc 2ebe 6c44 f03d 96e3 c4bd
000001d0: d1d4 e33b 643b b23d 88d4 133e 01a9 bcbd
000001e0: c831 c0bd 2325 a6bd d318 d73d fbd6 8d3d
000001f0: 762e f63d c889 c73d 4d43 36bd 1ab9 a93c
00000200: 2fd2 7dbd 75d4 26be 5d43 d03d 72c4 2d3e
00000210: 6064 723d 5de5 2bbe 64a6 f83d 7d3c 33be
00000220: 9bb2 a3bd 5c02 e0bd 0dbd a2bc be3f 04bc
00000230: 8103 4cbd 2708 1d3e 387f d1bc 6404 0b3e
00000240: 10a4 58bd a293 253e 1419 fb3d fbda a2bd
00000250: 129c 243e 2e11 243e 26f3 0a3e 8b0f 55bd
00000260: d01f 053e 2174 e6bd dbc1 be3d 0d47 14be
00000270: 2d21 2b3d eca8 113e b99f a33c 61ff 783d
00000280: b06a b2bd cbf7 e43d c0f3 dbbc fddc ab3d
00000290: 7ef8 ddbd 3921 b53d 43d2 b1bd 8904 ed3d
000002a0: 1222 03be e02c fb3d 0c26 043e a0e5 823d
000002b0: c977 043e 74b3 cebc cac7 df3d c303 30bd
000002c0: 2a6a 323e c8a2 bfbd 4d48 2ebe 7452 c03d
000002d0: a106 31be 7408 953d 40a3 173e 8051 14be
000002e0: afd8 2f3e bf83 18be 4441 163e 5ed9 1abe
000002f0: 9ccf 103e cbd5 5a3d 0759 2bbe 962c edbd
00000300: 9deb d83d f97a b9bd 4fc9 c73d 8f88 0bbc
00000310: 48cf e53d d345 9abd 76b8 4b3d 0b75 ef3d
00000320: 0a9b 133e f169 fd3d 1aaf 33be 1276 003e
00000330: 7f36 0abd 6bef a9bd bf1e 403d 1bdb 2a3d
00000340: 55af d03b f4d0 d8bd 2252 96bd 5a49 e1bc
00000350: 1690 2c3e 3574 6c3d f3c3 15be 5e11 ecbd
00000360: ed4e 8abd 82ee 30be 7dee 153e 2a77 e03c
00000370: cd61 243e a0be b23d 9f2d 843c 6e37 1e3c
00000380: e9f8 293e e245 3b3d c136 42bd ccd0 933d
00000390: adfb 99bd cda3 003e d3a7 c63b bf50 c9bd
000003a0: 8d47 f83d 5a94 283e 6a56 033e 7fb5 073e
000003b0: 857f 29bc 1f22 b0bd 0e52 0a3e b224 8cbc
000003c0: 0926 273d 00f0 8abc 5612 34be 7208 da3d
000003d0: 18b8 ae3d 3d37 c93d d628 97bd 9b91 9a3d
000003e0: d2e1 e13c 5029 953d 6ac1 d33d 0692 32be
000003f0: 4c49 82bc 33cf f53b 771b d33a 3cb0 44bd
0.120996475 -0.14515619 0.109257884 0.1329375 0.1624082 0.013632672 -0.16009896 0.084189214
0.060303837 0.13606969 0.03854698 0.043930944 -0.1263837 -0.0059163426 0.017385406 -0.07736772
-0.13749461 0.04271073 0.15933654 0.041582227 0.109793045 -0.17233452 0.06799435 0.15689024
-0.01864665 0.0506662 0.16317523 0.0033187692 -0.019834096 -0.15808581 0.024522765 -0.046675272
-0.10073236 0.06153014 -0.17126389 -0.035862394 -0.09632093 0.010344101 -0.0905247 0.023140473
-0.11259446 0.047263455 0.041019566 -0.059132386 -0.1354308 0.13662398 -0.17048322 0.104928896
0.14731939 -0.0778953 -0.028700633 0.11678036 -0.13927637 0.142377 0.16836648 -0.03893553
-0.019838164 0.0036481046 -0.123666756 -0.053244155 0.15840872 -0.055577993 0.07996195 0.14121464
-0.1733134 0.011651243 -0.115317695 0.1098699 0.10790101 -0.0717608 0.11908626 -0.092752695
-0.025948277 0.15604097 -0.0007360947 -0.073961206 -0.12173173 -0.14701241 -0.13949578 -0.057652548
0.13250758 0.0017347854 0.06704261 0.12976523 -0.073050685 0.048178885 0.15252778 -0.08955267
-0.021253603 -0.019070184 -0.040430922 -0.06934733 -0.058299057 -0.060943414 -0.03352938 -0.05687675
0.066175945 0.10747775 -0.0860587 0.13305767 0.14698257 -0.0496822 0.035909705 -0.17628263
-0.06797804 -0.14492802 -0.11980307 0.14834625 -0.12962396 -0.007769329 0.12864792 0.17399521
0.15980361 -0.17064247 0.117318004 -0.09613721 0.00695286 0.08702734 0.14436543 -0.092119224
-0.09384495 -0.08112552 0.10502782 0.0692577 0.120205805 0.097430766 -0.044497777 0.020718146
-0.061968025 -0.16291983 0.101690985 0.16969469 0.059177756 -0.16786714 0.121411115 -0.17503543
-0.07993051 -0.1093795 -0.019865537 -0.008071838 -0.04980803 0.15335141 -0.025573358 0.13575894
-0.052890837 0.16169599 0.12260643 -0.079519235 0.16075161 0.16022179 0.13569316 -0.052016776
0.13000417 -0.112526186 0.09314319 -0.14480229 0.041779686 0.14224595 0.019973623 0.060790423
-0.08711755 0.11180075 -0.026849627 0.083917595 -0.10838412 0.08844227 -0.08682682 0.11573131
-0.12805966 0.122644186 0.12905139 0.06391454 0.1293632 -0.025232054 0.109267786 -0.042972337
0.17423311 -0.0935722 -0.17019768 0.09390727 -0.17287685 0.07277003 0.14808369 -0.14484215
0.17172502 -0.14894007 0.14673334 -0.15121982 0.14141697 0.053426545 -0.1673318 -0.1158077
0.10591815 -0.09056658 0.097551934 -0.008516445 0.112211764 -0.07532849 0.049736463 0.11692246
0.14414611 0.12373722 -0.17547265 0.1254504 -0.033743378 -0.082976185 0.04690432 0.04171286
0.0063685575 -0.1058673 -0.07339884 -0.027500797 0.1685184 0.05772801 -0.1462553 -0.1152675
-0.06753335 -0.17278484 0.14641757 0.027400572 0.16052933 0.08727765 0.016135035 0.00965677
0.16598858 0.045720942 -0.0474155 0.07217559 -0.075187065 0.12562485 0.0060624867 -0.09829854
0.12123022 0.16462842 0.12825933 0.13252829 -0.010345344 -0.08600258 0.13507864 -0.017107341
0.040807758 -0.016960144 -0.1758512 0.10646142 0.08531207 0.09824989 -0.07380836 0.07547303
0.0275735 0.0728327 0.10339625 -0.17438516 -0.015904091 0.0075015067 0.0016106208 -0.048019633

bias f4 [32]
00000000: d8a3 0cbd 16f1 abbc c641 27be 66ae 123e
00000010: b734 24be 5c24 193e 63f8 333e 3060 573d
00000020: 9cbe 0b3e 2835 0ebe 17fb 7cbd dcaf e5bd
00000030: 3000 8dbd 70c9 46bd 62af 853d bd43 503d
00000040: aa84 43bd e088 0abe 936b a3bd 6588 283e
00000050: 6eae 0e3e baab 223e 3a5c 1f3e 6305 fbbd
00000060: 5a4e 713c b0e9 cc3d f7b8 043d 33b4 dbbc
00000070: b106 10be ad63 03be 58dd 8bbd 3830 563d
-0.03433594 -0.020988982 -0.16333684 0.1432434 -0.16035734 0.14955276 0.17575221 0.052581966
0.1364693 -0.13887465 -0.061762895 -0.11215183 -0.068848014 -0.04853195 0.06527592 0.05084585
-0.04773394 -0.13528776 -0.079795025 0.1645828 0.13933727 0.15885821 0.15562525 -0.12256887
0.014728153 0.1000551 0.03240296 -0.026819324 -0.14065053 -0.12830992 -0.06829327 0.05229208

weight f4 [7, 32]
00000000: ba30 0abc 0b96 053e 1fb3 aebd 11fe 30be
00000010: b5d1 233c 6f02 2bbe 8270 db3d e5df 163e
00000020: 28f6 26be bfc4 213d 8aba 92bd cd5c 1a3e
00000030: 0277 2fbe 5630 06be 4e3f e6bd 5c94 b5bd
00000040: d3a0 e9bd cb76 63bd eb63 ef3d 92b9 9c3d
00000050: 6836 213e bc4d 16be 50eb d43d 1baf 03be
00000060: 72bd d5bd 6dff 32be f0fc 8c3d 83ef 0fbe
00000070: 0a2f 8ebd 5813 073e a430 dabd 12a4 46bd
00000080: 6fd8 0bbe 9c5d a13d 121c 83bd d04f 2abe
00000090: 930f 4b3c 24c9 88bd f404 b0bc f4a7 08be
000000a0: 1642 6d3d f53b fbbc ec86 2ebe 23a6 0d3e
000000b0: 0932 053d 8e8e f9bd c8d7 34bc 7d25 95bd
000000c0: 2f04 4d3d ef27 22be 52ca f23d 20c1 c43d
000000d0: d649 21be c4db f03d 69a8 fdbd 4d45 383d
000000e0: 685a a7bd 727d 233e 6f59 203e 4dee 2abe
000000f0: 2302 21be 58cc 12be 0500 313c e6f9 aa3d
00000100: 538a 53bd b182 0bbe 52d5 f13a b5aa 4dbd
00000110: 97c8 9bbd ca50 fa3d 41a1 65bd 3456 d23d
00000120: a1b0 18be 6564 fdbd 7d27 63bd 0405 1bbe
00000130: 3f65 cf3c 5f6e 2dbd c27b 693d c99c 66bd
00000140: 69fc d1bd 9631 cebd a2e7 33bb 9724 a53c
00000150: bb10 86bd 88f0 b03d 4c12 bfbd 216e 02be
00000160: f654 a0bd 0885 053e 35f5 e03d a13f 9ebd
00000170: 70b8 ebbd dedf f8bd 4d42 1e3c cb08 963d
00000180: 62a5 94bd 6429 1c3e e59c 283e 58d3 fb3d
00000190: 8299 253e 1782 0a3d a9bb 37bd eadc ea3d
000001a0: d5b1 8c3d a09f de3d 4a8b f23d 3532 84bd
000001b0: 2c35 77bd 9a5b 1d3e b2f3 d1bd b0ac 2dbd
000001c0: bd3f 22be 3c23 e33d 3d6b 393d 0f00 aebd
000001d0: 284e 11be 73b1 d93d c9ea 413c ee73 1abe
000001e0: b765 18be 0955 a33c 3ad6 363d 90be 07bd
000001f0: 633e 5ebd ce2c 05be 1a1d 78bc a2fa 553d
00000200: f2d1 fc3d 6fde dabc 9bc6 12be 4526 d73c
00000210: c5a8 30be dc4e 003e 40e0 fd3d 085a 96bd
00000220: 1ccc 10be e3f1 c8bd e66b 0d3e b693 193d
00000230: 2aeb babd 21d3 2e3e 0fc6 bfbd 8aa5 a4bd
00000240: 2d26 dc3d cdbf 1bbe 94f7 e73d be1b af3d
00000250: f281 583c 60ac 833d fa34 8b3d ce50 143d
00000260: 994f 41bd d821 c1bd caac 93bd 3bfe 2b3e
00000270: 67b8 413c b4ec 633d 319c f43d 1512 a3bd
00000280: 5836 7f3d c869 32be 4208 233e c428 1c3d
00000290: 8021 84bd d0a7 963c e533 e5bd f9cf 0bbe
000002a0: c18e f33d 126c 993d 73ed 3abd bd59 013e
000002b0: 3fb0 9ebd 9747 9f3d 0bc8 c03d 9a68 0d3e
000002c0: 8a92 93bd 7720 c9bc 6e6b 9dbd da5c 74bc
000002d0: 0c5a 04be 73c3 4ebd 6e8d 81bc d236 073e
000002e0: 250c 10be 35de 21be eff5 ac3d c7c5 85bd
000002f0: cd32 0e3e aa73 ab3d 3a3d a33d bce0 f33d
00000300: d21f 2bbe f8dd 303d 07ec d7bd 6002 cabd
00000310: 8c50 0cbe a9e5 31be fe67 2dbe 788b 023e
00000320: ac86 cabd 8d11 203e 9ae1 2ebe aa72 10be
00000330: ee8c 323e 8bd0 2bbe bcc5 98bd fe7d a33d
00000340: 8e4f 6f3c e502 8f3d 0cb3 d8bc f47a 08be
00000350: 7fb6 c23d b42c 91bd 234e 173d 415d e93d
00000360: 7cc6 143e 8820 49bd 6508 8b3d 70d4 643c
00000370: 724c dfbd 8c27 193d bebb ed3d e965 83bd
-0.008434469 0.13045518 -0.085302584 -0.17284419 0.0099987285 -0.16700147 0.107148185 0.14733846
-0.16304839 0.039494272 -0.07164486 0.15074463 -0.17135242 -0.13104376 -0.11242543 -0.08866188
-0.11407628 -0.05553321 0.1168898 0.07652582 0.1574341 -0.14678091 0.10396445 -0.12859766
-0.104365245 -0.1748025 0.068841815 -0.1405621 -0.06942566 0.13190973 -0.10653809 -0.048496313
-0.13656782 0.07879183 -0.06401838 -0.16632009 0.01239385 -0.066789895 -0.021486737 -0.13345319
0.057924353 -0.030668238 -0.17043656 0.13832907 0.03251842 -0.12185393 -0.011037774 -0.07282541
0.050052818 -0.15835546 0.11854996 0.09607148 -0.15750822 0.11760667 -0.12385637 0.044987965
-0.081715405 0.15965822 0.15659116 -0.16692467 -0.15723471 -0.14335763 0.010803227 0.083484456
-0.051645588 -0.13624074 0.0018450415 -0.050211627 -0.07606619 0.122224405 -0.056061987 0.10270348
-0.14911129 -0.12372664 -0.05545758 -0.15138632 0.025316833 -0.042341586 0.05700279 -0.056301866
-0.102532215 -0.100680515 -0.0027451296 0.020159049 -0.0654616 0.08639628 -0.09329662 -0.12737323
-0.07828705 0.13039029 0.109842695 -0.0772698 -0.11509788 -0.12152074 0.009659362 0.07325896
-0.07258107 0.15250164 0.164661 0.1229617 0.1617184 0.03381547 -0.0448567 0.11467917
0.06869856 0.1087029 0.118429735 -0.06454889 -0.060353443 0.15366974 -0.10251559 -0.042401016
-0.15844627 0.11090705 0.045268286 -0.08496105 -0.1418997 0.10629549 0.011835762 -0.15083286
-0.14882551 0.019938009 0.044637896 -0.03314072 -0.054258715 -0.13005373 -0.015143657 0.052240975
0.123447314 -0.026717393 -0.14333574 0.026263366 -0.1725188 0.12530082 0.12396288 -0.07341391
-0.14140362 -0.09811761 0.13810691 0.037494384 -0.09126885 0.17072727 -0.093639486 -0.080393866
0.10749469 -0.15209885 0.11326519 0.08550213 0.013214575 0.06429362 0.06797214 0.036209874
-0.04719505 -0.09430283 -0.07210691 0.167962 0.01182375 0.05564566 0.11943854 -0.07962433
0.062307686 -0.17423165 0.15921119 0.038124815 -0.06451702 0.018390566 -0.11191539 -0.13653554
0.118924625 0.07491316 -0.045636605 0.12631889 -0.0774846 0.077773266 0.09413155 0.13809434
-0.072056845 -0.024551613 -0.07686506 -0.014914716 -0.12924975 -0.050479364 -0.01581451 0.13204506
-0.14067133 -0.15807422 0.084453456 -0.06531864 0.13886566 0.083716705 0.079706624 0.11908099
-0.16711357 0.043180436 -0.105430655 -0.09863734 -0.13702601 -0.17372765 -0.16934201 0.12748516
-0.09888968 0.15631695 -0.17078248 -0.14106241 0.17436573 -0.16778772 -0.0745959 0.079830155
0.01460637 0.06982974 -0.026452564 -0.13328153 0.095074646 -0.070886046 0.03693975 0.1139474
0.14528841 -0.04910329 0.067887105 0.013966665 -0.10903253 0.03739123 0.116080746 -0.06415922

bias f4 [7]
00000000: dd60 a23d 3ddf bf3d 9f8a c0bd 68d3 1abe
00000010: eb77 adbd 55c3 0f3e 5480 483d
0.079286315 0.09368751 -0.0940144 -0.15119708 -0.08470138 0.14039357 0.04895051
