experiements/starter_team/continuous_state/results/random_dqn/checkpoints/model_1000.pt (torch, 5487 bytes, 6 tensors)

weight f4 [16, 8]
0	0xbd00f589	-0.03148416
1	0x3d741c1c	0.05959712
2	0x3e263c67	0.16233979
3	0x3e46f0bc	0.1942777
4	0xbe6ec43b	-0.23317043
5	0x3e82ae29	0.255235
6	0xbe3b4e29	-0.18291534
7	0x3ea538cf	0.32269904
8	0xbe12583d	-0.14291473
9	0xbe7219cc	-0.23642653
10	0xbe95aa3b	-0.29231438
11	0x3d19ee38	0.0375807
12	0xbe8373fb	-0.25674424
13	0x3e5f7b53	0.21824388
14	0xbe59d851	-0.21273924
15	0x3d0cce01	0.034376148
16	0x3eb3b0ce	0.3509583
17	0xbe2d8064	-0.16943508
18	0x3e5370e7	0.20648538
19	0x3e9e3036	0.30896157
20	0x3a593c88	0.0008286913
21	0x3e76bead	0.24096175
22	0x3e068e46	0.1314021
23	0x3dcafcb9	0.09911484
24	0xbe4731f2	-0.19452646
25	0x3ca27548	0.019831315
26	0xbea19484	-0.3155862
27	0x3e0e3e33	0.13890915
28	0xbe6d3cd3	-0.23167734
29	0x3e09b2e3	0.13447146
30	0x3d731116	0.059342466
31	0x3eaa927a	0.33314878
32	0x3e76fe68	0.24120486
33	0x3d47dc4d	0.04879408
34	0x3d95460a	0.072887495
35	0xbe1a107e	-0.15045354
36	0xbd554351	-0.05206615
37	0xbe5cba68	-0.21555483
38	0xbe8975c5	-0.26847664
39	0x3ea65884	0.32489407
40	0xbe418b89	-0.18900885
41	0xbea64d3a	-0.32480794
42	0x3e8d7737	0.27630016
43	0xbd237798	-0.039908975
44	0xbe710125	-0.23535593
45	0x3ea639e9	0.32466057
46	0x3eb1fa42	0.34761244
47	0x3e55322b	0.20819919
48	0xbdbd0532	-0.092295066
49	0xbe02d70a	-0.12777343
50	0xbe83b03e	-0.257204
51	0xbdb28329	-0.08716423
52	0x3c870e40	0.016486287
53	0xbe066d6b	-0.13127677
54	0x3e9965b9	0.2996042
55	0xbd93040c	-0.07178506
56	0x3e4d4dee	0.20049259
57	0xbe0cd294	-0.13752204
58	0x3e30075f	0.17190312
59	0x3cb2584b	0.021770617
60	0x3e806143	0.25074205
61	0xbe9938b7	-0.29926082
62	0xbcf7218d	-0.030167365
63	0x3eb325b1	0.34989694
64	0xbe9c1e1b	-0.3049172
65	0x3e3cc805	0.18435676
66	0x3e5408aa	0.2070643
67	0xbe2d6e2c	-0.16936558
68	0xbe4a72c0	-0.19770336
69	0x3dc63146	0.09677367
70	0x3daa6af1	0.08321179
71	0xbe670557	-0.2256063
72	0x3dc1bf19	0.09460277
73	0xbdad6d72	-0.08468141
74	0x3e9e8b66	0.30965728
75	0xbe137137	-0.14398657
76	0xbe6c8045	-0.23095806
77	0xbe5007c8	-0.20315468
78	0xbe75241a	-0.23939553
79	0x3dd11ba1	0.10210348
80	0xbe30604b	-0.17224233
81	0xbe9a759d	-0.30167857
82	0xbea9c85e	-0.3316068
83	0xbde6f11c	-0.11276457
84	0xbd9ef88f	-0.077622525
85	0x3da02a40	0.078205585
86	0x3e9f6667	0.31132814
87	0xbe2e5fb5	-0.17028697
88	0x3b453fe9	0.0030097908
89	0xbe07d2d9	-0.13264026
90	0x3e4dda78	0.2010287
91	0xbe902a50	-0.28157282
92	0x3e9c4339	0.30520037
93	0x3ea59d00	0.32346344
94	0x3da71987	0.08159166
95	0xbe8a0264	-0.2695495
96	0xbe0b4fa9	-0.13604607
97	0x3e9a5f20	0.301507
98	0xbde9c1b2	-0.114138976
99	0xbe2e93cf	-0.17048572
100	0x3eb102f3	0.34572563
101	0xbcaff133	-0.021477317
102	0xbe05a3fe	-0.1305084
103	0x3dbe1bb5	0.092826284
104	0xbe83c939	-0.25739458
105	0xbd43c891	-0.047798697
106	0xbd7e9e79	-0.06216285
107	0xbe9cb703	-0.30608377
108	0x3d8ac807	0.067764334
109	0xbea385e6	-0.31938094
110	0xbdf393b4	-0.118934065
111	0x3e82d5ef	0.25553843
112	0x3d982218	0.07428378
113	0x3e55e407	0.20887767
114	0xbe6db3e0	-0.23213148
115	0xbdea761e	-0.1144831
116	0x3e8c1570	0.27360106
117	0x3ce9e545	0.028551707
118	0xbe94a607	-0.2903292
119	0x3e9695cf	0.2941117
120	0xbd582f59	-0.05277953
121	0x3e8db5a5	0.27677646
122	0x3c2a968f	0.0104118725
123	0x3dc448f9	0.09584231
124	0xbe89e21e	-0.26930326
125	0x3e6708be	0.22561929
126	0xbd5d3790	-0.054008067
127	0xbe2b7ae1	-0.16746093

bias f4 [16]
0	0xbde65893	-0.11247363
1	0xbdac50fd	-0.08413885
2	0x3e303873	0.17209034
3	0x3e9e1f74	0.30883372
4	0x3ea7aa38	0.32747054
5	0xbeb4a38d	-0.3528103
6	0x3cfb9486	0.03071047
7	0x3e3f3a54	0.18674594
8	0xbe626755	-0.2210973
9	0x3de5d441	0.11222125
10	0xbd14e18a	-0.036347903
11	0x3cd8cfe7	0.026466323
12	0xbe15614e	-0.145879
13	0xbd9f093e	-0.07765435
14	0x3d94cb0c	0.072652906
15	0x3e73f529	0.2382399

weight f4 [16, 16]
0	0x3bd3e9c0	0.006467074
1	0x3e3cc11a	0.18433037
2	0x3dd87f94	0.105712086
3	0xbe332390	-0.17494035
4	0xbe0dd2b8	-0.13849914
5	0xbdf953b0	-0.12174165
6	0xbe0cbbc8	-0.13743508
7	0x3e1c9988	0.15292943
8	0xbd10d188	-0.035356075
9	0x3e5217a4	0.2051683
10	0x3e76c672	0.24099138
11	0xbdd2f2d4	-0.10300222
12	0xbd888bd4	-0.06667295
13	0xbe01ff4a	-0.12695041
14	0x3de6a838	0.11262554
15	0xbd17cac8	-0.03705862
16	0x3da63d60	0.08117175
17	0x3e35e088	0.17761433
18	0x3e62754e	0.2211506
19	0xbe31e9c0	-0.17374325
20	0xbe580ae8	-0.2109791
21	0x3e6e14f2	0.23250178
22	0x3cc0af20	0.023521006
23	0xbe413fcc	-0.18871993
24	0x3e7ad7c8	0.24496377
25	0x3e3dac98	0.1852287
26	0x3dcb92d0	0.09940112
27	0x3d3fe2f0	0.046847284
28	0x3e085070	0.13311934
29	0xbcef7d20	-0.029234469
30	0x3d8671f8	0.065647066
31	0xbe014aba	-0.12626162
32	0xbe4abf12	-0.1979945
33	0x3d2a3ff0	0.04156488
34	0xbc28f1e0	-0.010311574
35	0x3a8a6100	0.0010557473
36	0x3e179a92	0.14805058
37	0x3e488d98	0.19585264
38	0x3e03f176	0.12885079
39	0x3dd7451c	0.105112284
40	0xbe6fa6d0	-0.23403478
41	0x3e5d2686	0.21596727
42	0xbe0d4cda	-0.13798848
43	0xbd25c748	-0.040473253
44	0xbc9b6620	-0.018969595
45	0xbe7c0868	-0.24612582
46	0xbe7a3ea2	-0.24437955
47	0x3d3045c0	0.04303527
48	0xbe55ebc2	-0.20890716
49	0x3e3d9624	0.18514305
50	0x3da69ae4	0.08135012
51	0xbe1e144c	-0.1543743
52	0x3e3c3786	0.18380556
53	0x3d8c7248	0.06857735
54	0x3e01dff4	0.12683088
55	0x3c2d3ae0	0.010573119
56	0x3e7413fe	0.23835751
57	0xbdb93130	-0.09042585
58	0x3e38b22a	0.18036714
59	0x3dcf7624	0.101299554
60	0xbe14297e	-0.14468953
61	0xbe798dfe	-0.24370572
62	0xbd464a88	-0.048410922
63	0xbe12eb8c	-0.14347667
64	0x3e29a740	0.16567707
65	0xbd905824	-0.070480615
66	0xbc22ed40	-0.00994426
67	0xbe1d6be6	-0.15373191
68	0xbe741f9c	-0.23840183
69	0xbd77f088	-0.060532123
70	0xbe65d1fc	-0.22443384
71	0x3e0b0cd0	0.13579106
72	0xbdd740cc	-0.10510406
73	0xbe22db0e	-0.15903875
74	0xbe759d9e	-0.23985907
75	0xbe4a26dc	-0.19741386
76	0xbd806d44	-0.06270841
77	0x3e7c0a8a	0.24613395
78	0x3e03993a	0.1285142
79	0xbde0f16c	-0.109835476
80	0xbe08eed0	-0.1337235
81	0xbe316f82	-0.17327693
82	0x3dc61854	0.09672609
83	0x3c89d9c0	0.016827464
84	0x3e0072c6	0.12543783
85	0xbe382006	-0.17980966
86	0x3e26ec1a	0.16301003
87	0x3deb06e0	0.11475921
88	0xbe6eff9a	-0.23339692
89	0x3c13cee0	0.009021491
90	0xbe17b0b8	-0.14813507
91	0xbe56b41c	-0.20967144
92	0xbcf5a090	-0.029983789
93	0xbda228d4	-0.079179436
94	0xbdba24cc	-0.0908905
95	0x3d1bfb18	0.03808126
96	0x3df9cb0c	0.12196931
97	0xbe57f3e2	-0.21089128
98	0x3d41ce70	0.047316015
99	0x3e55db02	0.20884326
100	0x3df59878	0.11991972
101	0x3e52dae0	0.20591307
102	0xbdd01f74	-0.10162249
103	0xbdce6b14	-0.10079017
104	0xbdc5aa10	-0.096515775
105	0xbdf35554	-0.118815094
106	0xbe00a1c8	-0.12561715
107	0x3e7fd340	0.24982929
108	0xbe19b5ea	-0.15010801
109	0x3d447d68	0.04797116
110	0x3e636eea	0.22210279
111	0xbe34a16e	-0.17639706
112	0x3e40b8ee	0.18820545
113	0x3e3e1044	0.18560892
114	0x3bffe700	0.00780952
115	0x3ddcf554	0.1078898
116	0x3d834a8c	0.06410703
117	0xbdc52a14	-0.096271664
118	0xbe01abfc	-0.12663263
119	0x3de86dc4	0.11349061
120	0xbd6000d0	-0.054688275
121	0x3dbcbe84	0.092160255
122	0xbe640c1c	-0.22270244
123	0x3cf9b4b0	0.030481666
124	0x3d8ba9e0	0.068195105
125	0x3c500b20	0.012697965
126	0x3e6a25e2	0.22866014
127	0x3d25a6b8	0.0404422
128	0x3dfe7948	0.12425476
129	0x3d5f3140	0.054490328
130	0xbe5c0278	-0.21485317
131	0x3e1dabae	0.15397522
132	0xbe295d94	-0.16539603
133	0xbdab3be0	-0.083610296
134	0xbe05511a	-0.13019219
135	0xbdd36574	-0.10322085
136	0xbe3d12c4	-0.1846419
137	0xbd7055f8	-0.058675736
138	0x3da1300c	0.07870492
139	0x3e70f2ea	0.23530164
140	0x3cf2aa40	0.029622197
141	0x3d04ea68	0.03245011
142	0xbe73e306	-0.23817071
143	0xbe5897a0	-0.2115159
144	0xbe583462	-0.21113732
145	0xbde6a2d0	-0.11261523
146	0xbda9d628	-0.082928
147	0x3dc57360	0.09641147
148	0x3e7dcc22	0.24784902
149	0x3e7bfdac	0.24608487
150	0x3e3c8c1c	0.18412822
151	0x3d9eec8c	0.077599615
152	0x3dffdf98	0.12493819
153	0xbe1d36e4	-0.1535297
154	0xbd8286d8	-0.06373376
155	0xbde28f00	-0.11062431
156	0x3e308dca	0.17241588
157	0x3e5b237c	0.21400255
158	0xbc8953c0	-0.016763568
159	0x3e0d0638	0.13771904
160	0xbe40d816	-0.1883243
161	0xbe7ead78	-0.2487086
162	0xbd2a9628	-0.041647106
163	0x3e6af420	0.22944689
164	0xbe1c222e	-0.15247414
165	0x3d29aa18	0.04142198
166	0x3d9146b0	0.07093561
167	0x3e200b20	0.15629244
168	0xbe060ea2	-0.1309152
169	0x3e0faeb6	0.1403149
170	0xbe2edc42	-0.17076209
171	0xbb9b07c0	-0.0047311485
172	0x3e6dcfac	0.23223752
173	0x3d976708	0.073926985
174	0x3e33fe5c	0.17577499
175	0xbe2c3b8a	-0.16819587
176	0x3e1b3bb8	0.151595
177	0xbdb447a4	-0.08802727
178	0xbdbf7278	-0.09348005
179	0xbd9e6b88	-0.07735354
180	0xbe3b0a3c	-0.18265623
181	0xbdf66d6c	-0.12032589
182	0xbe07404e	-0.13208124
183	0x3d2081e0	0.03918636
184	0x3c5adb80	0.013357997
185	0x3e1f3638	0.15548027
186	0x3cf15fa0	0.029464543
187	0xbd7a8a80	-0.06116724
188	0xbd815644	-0.06315282
189	0x3e63050a	0.22169891
190	0xbe31f676	-0.17379174
191	0x3d22f490	0.039784014
192	0xbe7b418e	-0.24536726
193	0xbe42738a	-0.18989387
194	0x3c67c6e0	0.014146537
195	0x3d5605a8	0.052251488
196	0xbe1f0800	-0.15530396
197	0xbe25058a	-0.16115394
198	0xbd1d9108	-0.03846839
199	0x3dd7df10	0.10540593
200	0x3d6205c8	0.055181295
201	0xbe1c5714	-0.15267593
202	0x3c4ebb20	0.012617856
203	0xbe6ddf46	-0.23229703
204	0xbd4de9b8	-0.05027172
205	0xb6aa0000	-5.066395e-06
206	0xbd4bb128	-0.049729496
207	0x3d2ed8a0	0.04268706
208	0xbe126f64	-0.14300305
209	0xbe649c38	-0.22325218
210	0x3d99c5cc	0.0750843
211	0xbe3c1f02	-0.18371204
212	0x3d982990	0.074298024
213	0x3d5e0e28	0.05421272
214	0xbe38a55e	-0.18031833
215	0xbd9118c8	-0.07084805
216	0xbc04f880	-0.008115888
217	0x3e757b6a	0.2397286
218	0xbd82988c	-0.06376752
219	0xbdc35c24	-0.09539059
220	0x3d55e8d8	0.05222401
221	0xbd67b9f0	-0.05657381
222	0x3e2e0bbc	0.16996664
223	0xbe203bae	-0.15647766
224	0xbe707588	-0.23482335
225	0xbe0dd85a	-0.13852063
226	0x3cfbdbb0	0.030744404
227	0x3ddc7be8	0.10765821
228	0xbe2042da	-0.15650502
229	0x3e4b5e54	0.19860202
230	0xbe1ee022	-0.15515187
231	0xbe2463e0	-0.16053724
232	0xbe3cf392	-0.1845229
233	0x3a5bea00	0.0008389056
234	0x3b392b00	0.002825439
235	0x3e4c50f4	0.19952756
236	0x3e62d48e	0.22151396
237	0x3d93a640	0.07209444
238	0xbdf20e0c	-0.118190855
239	0x3e6427c4	0.22280794
240	0x3d366860	0.044533134
241	0x3d419d50	0.047269166
242	0xbd99f448	-0.07517296
243	0xbd8a6a6c	-0.067585796
244	0xbe5630fc	-0.20917124
245	0xbd2518a0	-0.040306687
246	0x3c4dedc0	0.012568891
247	0xbdaaddfc	-0.083431214
248	0x3e4d6790	0.20059037
249	0xbdd40854	-0.10353151
250	0x3e7713ba	0.24128619
251	0xbe6c0bd8	-0.23051393
252	0x3e1730d2	0.14764717
253	0x3d7b06c0	0.061285734
254	0x3e022a9a	0.12711564
255	0xbe1adf30	-0.15124202

bias f4 [16]
0	0xbdfca4dc	-0.12336132
1	0xbdcb8d08	-0.09939009
2	0x3e526770	0.20547271
3	0x3e6c78ba	0.23092929
4	0xbd84ee7c	-0.064908
5	0xbde1170c	-0.10990724
6	0xbd16ab48	-0.03678444
7	0x3e2e659a	0.17030945
8	0x3dc8f4cc	0.09812316
9	0x3db1c994	0.08681026
10	0x3d9f0dd8	0.07766312
11	0x3d4284d8	0.04748997
12	0xbe32c88a	-0.17459312
13	0x3e4722ea	0.19446912
14	0x3e0d2bbc	0.13786215
15	0x3de48b90	0.11159432

weight f4 [7, 16]
0	0xbd806c54	-0.06270662
1	0x3e577d06	0.21043786
2	0xbe4d3ad4	-0.20041972
3	0xbe6569d0	-0.22403646
4	0xbddbaf68	-0.107268155
5	0x3e320234	0.17383653
6	0x3d1c8290	0.03821045
7	0x3ddce07c	0.107850045
8	0x3e01a0b8	0.12658966
9	0x3db38b74	0.08766833
10	0xbe25b6f2	-0.1618307
11	0x3e74e75e	0.23916385
12	0xbc42ee40	-0.011897624
13	0x3d36f5e0	0.04466808
14	0x3e71a414	0.23597747
15	0x3bcbdf00	0.006221652
16	0xbe721b8e	-0.23643324
17	0x3e178a9e	0.14798972
18	0xbe1da1ba	-0.15393725
19	0xbd1744c8	-0.03693083
20	0xbc970bd0	-0.01843825
21	0xbe5164f8	-0.20448673
22	0x3c9238e0	0.017849386
23	0xbdd68f70	-0.10476577
24	0xbe7f0974	-0.2490595
25	0x3e06f72c	0.13180226
26	0x3b450980	0.0030065477
27	0xbe352756	-0.17690787
28	0xbe1cb26e	-0.1530244
29	0x3e3ff37a	0.18745223
30	0xbd076f50	-0.03306514
31	0x3ded9568	0.116007626
32	0xbddff6c0	-0.10935736
33	0x3dd00334	0.10156861
34	0xbbf547c0	-0.00748536
35	0x3e5f47a4	0.21804672
36	0xbd977af8	-0.07396501
37	0xbe610792	-0.21975544
38	0x3e7bdc4e	0.24595758
39	0xbe67591e	-0.2259259
40	0xbe1d4f38	-0.15362251
41	0xbd9c9fb0	-0.076476455
42	0xbe1c23da	-0.15248051
43	0xbe1f610c	-0.15564364
44	0xbe33bd86	-0.17552766
45	0xbe7d5edc	-0.24743217
46	0xbdee720c	-0.116428465
47	0x3db5d284	0.08878043
48	0x3e06a0ac	0.13147229
49	0xbe7e3de0	-0.24828291
50	0x3e5cba42	0.21555427
51	0x3e663d4a	0.22484317
52	0x3e3d6bde	0.1849818
53	0xbe2bf9b0	-0.16794467
54	0xbda4a930	-0.080400825
55	0xbce48070	-0.027893275
56	0xbdf4ebec	-0.11959061
57	0xbdae87a8	-0.08521968
58	0xbca46490	-0.020067483
59	0x3e0a65cc	0.13515395
60	0xbe02322c	-0.12714452
61	0xbe210692	-0.15725163
62	0x3e52b0f6	0.20575318
63	0xbe5846c2	-0.21120742
64	0xbe1774a2	-0.14790586
65	0xbcc61000	-0.024177551
66	0x3cc413c0	0.023935199
67	0x3e6ad038	0.22930992
68	0x3d12dcd8	0.035855144
69	0xbe3788b8	-0.17923248
70	0xbe4579e8	-0.19284785
71	0xbe3d5238	-0.18488395
72	0x3db13998	0.08653563
73	0x3e7c51b6	0.24640545
74	0x3d3c5608	0.045980483
75	0x3d992a0c	0.07478723
76	0x3e7d22e0	0.24720335
77	0xbdad4924	-0.08461216
78	0x3e16a0fe	0.14709851
79	0xbe1cd718	-0.15316427
80	0xbe7014cc	-0.23445433
81	0x3d78cec0	0.060744047
82	0x3dfd255c	0.12360641
83	0x3d079390	0.03309971
84	0x3e4fb14a	0.20282474
85	0x3e62666a	0.2210938
86	0xbe6d193a	-0.23154154
87	0xb9e45800	-0.00043553114
88	0x3e0afce2	0.1357303
89	0xbe7c5e40	-0.24645329
90	0x3e234c28	0.1594702
91	0x3ad85f00	0.0016507804
92	0xbe57dcf8	-0.21080387
93	0xbe32d618	-0.17464483
94	0xbe3b01fa	-0.18262473
95	0x3dbcfe08	0.0922814
96	0x3d181c58	0.037136406
97	0x3e3d85ba	0.18508044
98	0xbe45de8a	-0.19323173
99	0xbd6678c0	-0.0562675
100	0xbdd47d74	-0.10375491
101	0x3e3917c8	0.18075478
102	0xbd4f0460	-0.05054128
103	0x3e04753a	0.12935343
104	0x3e054d9e	0.1301789
105	0x3e4f8674	0.20266134
106	0xbe0c10f0	-0.13678336
107	0x3ddb4d50	0.107081056
108	0xbe048312	-0.12940624
109	0xbd4f16d8	-0.050558895
110	0x3d724bf0	0.05915445
111	0xbe1e7c66	-0.15477142

bias f4 [7]
0	0x3e7e5956	0.24838766
1	0x3d464cb0	0.04841298
2	0xbe4ddf74	-0.20104772
3	0x3ca6d720	0.020366251
4	0xbe541cd6	-0.20714125
5	0x3d9d7570	0.07688415
6	0x3d156a98	0.03647861
