experiements/starter_team/continuous_state/results/random_dqn/checkpoints/model_134779.pt (torch, 24575 bytes, 6 tensors)

weight f4 [64, 9]
000000 ec d6 59 3d 72 21 6c 3e e7 b8 c3 3c af 1d a0 3c
       0.05318348 0.23059633 0.02389188 0.019545404
000010 6b d2 21 3e 63 85 75 bd 05 8b df 3d 22 11 8b 3e
       0.15802924 -0.05994166 0.10915188 0.2716151
000020 60 34 b2 bd 49 86 ae 3c f4 24 3e be 58 f6 a3 be
       -0.08701396 0.021304267 -0.18568784 -0.32023883
000030 f3 38 ec 3c 78 33 0b be 2a 2e 4b be 18 1e 33 3e
       0.02883575 -0.13593853 -0.19841829 0.17491949
000040 ab 6f 84 3d ca 75 98 3e 56 28 87 be af 41 a8 be
       0.064666115 0.29777366 -0.2639796 -0.32862613
000050 98 bc a1 3e 18 b4 57 3e c5 ff 80 bc 8e c2 59 be
       0.31589198 0.21064794 -0.01574696 -0.21265623
000060 d8 1f 89 be 7e 4e 3b be 78 3e 6d be 0d 87 02 be
       -0.26782107 -0.18291661 -0.23168361 -0.1274683
000070 96 e9 f8 3d 29 83 d9 bd 20 17 9c 3d 9f dc 77 bc
       0.12153928 -0.1062072 0.07621598 -0.015128284
000080 cf fb 3a 3d 42 f0 51 bc 43 15 1a 3e f8 61 1f 3e
       0.0456503 -0.01281363 0.15047173 0.15564716
000090 5d cd 7c 3e 20 17 00 bd 95 5c 84 3e 71 bd 7e bc
       0.24687715 -0.031272054 0.25851884 -0.015548096
0000a0 df 15 88 bd f2 c8 11 be 2f b9 82 be c3 55 dc bd
       -0.066447966 -0.14236811 -0.2553191 -0.10758545
0000b0 d6 ee aa 3c 4c 36 3c be 20 a9 81 bd 34 b4 8c 3e
       0.020865839 -0.18380088 -0.06331086 0.27481234
0000c0 87 84 10 3d 95 71 82 3e be ed 73 be e0 99 9f 3e
       0.035282638 0.2547728 -0.2382116 0.31172085
0000d0 ae 45 47 bc 2b a7 31 be 80 0f 33 be 32 29 cd bd
       -0.012162609 -0.17348926 -0.17486382 -0.10017623
0000e0 6f f9 90 bd fa 9c 96 3e a0 6b 7c bd 8a da d2 3c
       -0.07078826 0.2941664 -0.061626077 0.025738973
0000f0 9a 69 64 3e ef 36 e7 bd c6 25 8c be 43 28 05 3e
       0.22305909 -0.112897746 -0.2737257 0.1300364
000100 9a b1 65 3e e7 5c 5f bd aa d8 94 3e 71 68 b5 bc
       0.22431031 -0.054531958 0.29071552 -0.022144528
000110 af 05 ba 3d ca 06 20 3e 10 7a 0a bd 80 ac 1e bd
       0.09083115 0.1562759 -0.033807814 -0.038738728
000120 ed 1d a0 be 86 6f 06 3e 62 b5 91 3e 07 68 aa be
       -0.31272832 0.1312848 0.28458697 -0.33282492
000130 9e 5f a5 3d d0 e2 30 3e cb 45 4e 3e 6f 64 50 3e
       0.08074878 0.17274022 0.20143811 0.20350812
000140 b3 69 49 3e 48 57 42 be c0 60 eb 3d ff c8 97 3e
       0.19669227 -0.18978608 0.11493063 0.29645535
000150 13 39 12 be ae f8 18 be ce e4 02 be c0 c3 18 be
       -0.14279585 -0.14938614 -0.12782595 -0.14918423
000160 c0 d5 c9 3d e8 f4 88 3e e6 79 fc bd 5f 1b a8 3e
       0.09855223 0.2674935 -0.12327938 0.32833382
000170 91 26 52 be 87 e4 87 be a8 a3 4b be 65 3d 14 be
       -0.20522524 -0.2654154 -0.19886649 -0.14476545
000180 be f4 79 bc 73 8c 22 3e fe 07 4e 3e 40 bb 94 bd
       -0.015256105 0.1587389 0.20120236 -0.072622776
000190 19 15 a6 3e 54 3b 85 3c 22 cf 48 3e dc 02 a2 3d
       0.3243797 0.016263641 0.19610265 0.07910702
0001a0 2d 66 24 be 71 5b 9b be 47 09 7e be e4 9c 93 3e
       -0.16054602 -0.30343202 -0.24808227 0.28830636
0001b0 50 d1 b6 bd 35 fb ee bd fc a1 8b 3e 78 21 74 be
       -0.08926642 -0.11669008 0.27272022 -0.23840892
0001c0 44 ce e0 bc ca d3 a6 3e 75 29 70 3e e9 7a 3c 3e
       -0.027442105 0.32583457 0.23453315 0.18406262
0001d0 c7 38 9e 3e d8 ba ba bd 38 3f 8b 3e e8 d8 a6 be
       0.30902693 -0.09117669 0.2719667 -0.3258736
0001e0 a3 ae d4 3d 9c 5b 67 bc f6 83 13 3e 80 31 83 be
       0.10384872 -0.0141209625 0.14405808 -0.25623703
0001f0 f6 74 66 3d 2b ec c4 bd a1 b2 55 3e 88 14 46 be
       0.056263886 -0.09615358 0.20868923 -0.1934377
000200 0a 0d 9e b9 09 5c 90 be 54 7e 2c 3e 05 4b 84 3c
       -0.00030145823 -0.28195217 0.16845065 0.016149053
000210 5a 55 01 bd 11 ea 01 3e 28 ca 8d 3e 47 eb a4 3e
       -0.03157554 0.12686945 0.27693295 0.32210752
000220 2c 6e 97 3e 85 e6 c3 bd 5c 76 9e be 98 a4 0e 3d
       0.29576242 -0.095654525 -0.30949676 0.034824938
000230 e3 bc ed bc 06 e5 60 3a 07 4c 46 be eb d7 8c bc
       -0.029020732 0.0008579049 -0.1936494 -0.017192801
000240 36 25 b9 bd de c1 3e be 6b 7d 1b be 3b 24 f7 3d
       -0.090403005 -0.18628642 -0.15184562 0.12067457
000250 1e 29 9e be 0b f6 78 be 2b 7f 8c be ec f0 99 3e
       -0.30890745 -0.24312608 -0.2744077 0.3006662
000260 ae eb 79 be a5 de 2d be a5 cc 20 3e fb 21 95 3e
       -0.24406311 -0.16979463 0.15703066 0.29127488
000270 e5 c1 da bd f0 14 40 be 86 ae 4e 3d 91 54 19 3e
       -0.10681514 -0.18757987 0.050459407 0.14973666
000280 52 e1 45 3d 76 d0 89 be d6 c4 a1 be c0 f1 86 bd
       0.048310585 -0.26916856 -0.31595486 -0.06589079
000290 23 61 36 be 56 30 85 bd 66 8b 12 be 6b 8b 91 bd
       -0.17810492 -0.0650336 -0.14310989 -0.0710667
0002a0 90 8f 43 be 28 23 3f be fa 4e 91 3e 61 cd 68 3e
       -0.19097733 -0.18665755 0.28380567 0.22734596
0002b0 03 40 dd 3c a0 36 d3 bd 51 dd 0b be a9 3e 35 be
       0.027008062 -0.10313153 -0.13658644 -0.17699684
0002c0 c5 70 cb 3d 70 09 19 3e 3b 6e 12 be 02 a9 9d be
       0.099336185 0.14945006 -0.14299862 -0.30793005
0002d0 3d e8 3d bc 93 1d 92 3e bb be a4 be 7d d6 de 3d
       -0.011591014 0.28538188 -0.32176766 0.10880754
0002e0 f0 6c a1 3e bd 11 9b be 96 5b 9f be f4 be 09 be
       0.31528425 -0.3028697 -0.31124562 -0.13451749
0002f0 00 7e 8f bc 46 5e a0 3e 5f 8e 85 3d d8 5b 34 bd
       -0.017516136 0.31321925 0.06521296 -0.0440329
000300 ed ba 3d 3b 98 d8 79 3e 35 f3 b8 3b c7 38 10 be
       0.0028950528 0.2439903 0.005644227 -0.14084159
000310 2d 97 5b 3e c4 34 86 be 9a 09 64 be f0 12 87 3e
       0.21444388 -0.26212132 -0.22269288 0.26381636
000320 d5 0a 91 3e ee ca a2 be bb e7 68 be 5a 1c 65 3e
       0.28328577 -0.31795448 -0.22744648 0.22374097
000330 95 97 d7 bd 0d b7 86 3e 56 60 9d bd 4a be d4 bd
       -0.10526959 0.26311532 -0.0768439 -0.10387857
000340 34 44 1d 3d b6 d0 37 be de 46 70 be 19 5f 15 bd
       0.03839512 -0.1795071 -0.23464534 -0.036467645
000350 5d fb a7 3e 16 14 bf 3d f3 cc 1b bd 1b bb 83 3d
       0.32808962 0.09330003 -0.03803725 0.06432172
000360 36 db 87 be d9 34 18 3c ed c0 4c 3e fa 99 95 bd
       -0.26534432 0.009289944 0.1999547 -0.07304759
000370 02 4f 1e 3e e6 82 4b 3e af 29 c9 3d 71 6c 31 be
       0.15459827 0.19874153 0.09822404 -0.17326523
000380 c3 88 7b 3e 33 1a 05 3e 4b 98 7c 3e 6d 18 96 be
       0.24563889 0.12998275 0.2466747 -0.2931551
000390 2d b0 1f bd 47 a3 df 3d a1 40 1e be 47 f3 21 be
       -0.038986374 0.109198146 -0.15454341 -0.15815459
0003a0 4b 19 5f be be d3 0e be 4e 94 c2 bd ec 7b 77 3d
       -0.21786992 -0.1394796 -0.09500943 0.060420915
0003b0 da 7f 0e bc 0b cf 0b 3d 8f 5f 1b 3e c1 f9 a8 3d
       -0.008697474 0.034133 0.15173171 0.08250762
0003c0 ff ac 58 be 01 4a 7b be 36 e5 1f 3e 61 e6 81 3e
       -0.21159743 -0.24539949 0.15614781 0.25371078
0003d0 34 99 83 bd 38 05 7f 3d 24 b7 8b be 63 06 61 3e
       -0.064257056 0.062260836 -0.27288163 0.21975093
0003e0 30 8c 4d 3e ca 17 03 3e 5d 13 7b be 63 ef 40 3e
       0.20073009 0.12802044 -0.24519105 0.18841319
0003f0 eb 23 d8 bd 18 db 9a be 80 83 03 3c 50 8b ff 3d
       -0.10553726 -0.3024528 0.0080269575 0.124777436

bias f4 [64]
000000 a1 9d 85 be f3 26 fa 3c 3d b8 18 3e ab 21 a4 3e
       -0.26096824 0.03053615 0.14914031 0.32056937
000010 46 5c 2f be 81 5b 8c be b7 39 75 be 01 b5 95 be
       -0.17125043 -0.27413562 -0.23947798 -0.29239658
000020 cc 44 35 be 2c 16 9b be 56 3a 8b 3d 5c 8a 26 3d
       -0.17702025 -0.30290353 0.06798236 0.040659294
000030 b7 0b 72 3e 7e d7 6a be 65 38 8c be e6 ff 5f 3d
       0.23637281 -0.22933766 -0.27386776 0.054687403
000040 b6 47 1f 3e 1b 84 89 3d 66 f3 4e be 05 75 dd bd
       0.155547 0.0671465 -0.20210037 -0.10813335
000050 c0 f4 3f 3d 06 ac 45 3e 2c 58 2f be 2b e8 d4 3d
       0.04686427 0.19303903 -0.17123479 0.10395845
000060 f8 55 6e 3e b8 d2 9d 3e f6 73 8c 3e 61 83 5e 3e
       0.23274982 0.30824828 0.2743222 0.21729805
000070 bb a1 e1 bd f4 83 a9 be 23 5b 62 3d b0 4f 53 3e
       -0.11017176 -0.33108485 0.055262696 0.20635867
000080 6e 35 39 be 9b ec fc bd 40 32 3c be ba 38 a6 3e
       -0.18086788 -0.123498164 -0.18378544 0.32465154
000090 fb 8d e7 bd 89 df 2f 3d 72 8d 0a 3e 7c 41 86 bd
       -0.113063775 0.04293779 0.1353052 -0.06555459
0000a0 9e 6b 59 3e f1 88 c4 bd 3a 34 3b 3e 9d ef b7 3b
       0.21232459 -0.09596432 0.18281642 0.005613281
0000b0 6e 7e 20 3e d4 35 5d 3d 7a d0 05 bd 55 67 25 3d
       0.15673229 0.054006413 -0.032669522 0.04038175
0000c0 12 ac 75 bd 5c 38 99 3e d7 46 c5 bd a6 c7 43 bd
       -0.059978552 0.2992581 -0.09632652 -0.04779782
0000d0 46 9e e0 bd d7 09 97 be cf 5f 85 3e a3 83 8a 3e
       -0.10967688 -0.29499695 0.2604966 0.27053556
0000e0 51 21 b3 bd fb 1b 5f bd c8 97 64 be ab 3c 21 3d
       -0.08746589 -0.054470044 -0.22323525 0.039364498
0000f0 e3 f7 9a 3e 95 d7 0d be 8b d4 ce 3d 34 ed eb 3d
       0.30267248 -0.1385177 0.10099133 0.11519852

weight f4 [64, 64]
000000 f5 96 6a bd 2e 90 8c 3d 00 1c fc bd df fc 29 bd
       -0.05727287 0.068634376 -0.12310028 -0.041500922
000010 d9 52 ee bd bf 4e e4 bd 28 79 d0 bc 16 14 fc 39
       -0.11636896 -0.11147832 -0.025448397 0.0004808015
000020 fd 07 78 3d 6c 6f b0 bd 58 99 35 3d 96 ad 26 3d
       0.060554493 -0.08615002 0.044335693 0.04069289
000030 cd dc 84 bc 4e 5e e2 3d 53 a2 ec bd d8 a4 94 bd
       -0.016218567 0.110531434 -0.115543984 -0.07258004
000040 8c 83 21 bd d4 70 b6 bb 64 fd 22 bd 5b cf ec 3d
       -0.039432094 -0.0055676494 -0.039792433 0.115629874
000050 95 4a 3d 3d e1 96 07 3d 54 bc 42 3b 20 65 85 bd
       0.046213705 0.033102874 0.0029714303 -0.06513429
000060 55 92 f9 3d 10 67 cf 3d 97 b7 0c 3c 61 00 db 3d
       0.12186114 0.101270795 0.008588693 0.10693432
000070 6e d0 df bd 54 bb 92 bd a5 55 ad bd 43 49 ec bd
       -0.10928427 -0.07164636 -0.08463601 -0.11537411
000080 84 88 01 3d 08 98 14 bd ee 1e 95 bd 8d 0d d1 bd
       0.031624332 -0.0362778 -0.0728129 -0.10207663
000090 4a 5c 98 bd 7c c0 b4 bd 50 39 c4 bd c9 b1 a7 bc
       -0.07439478 -0.08825776 -0.09581244 -0.020470517
0000a0 6a b5 b2 3d 98 eb e5 3d b6 f4 ea bd c4 75 f8 3d
       0.08726008 0.112265766 -0.11472456 0.12131837
0000b0 10 f4 8f 3b 0b b4 9b bd 26 b2 bf bd b3 2a bb 3c
       0.004393108 -0.076027 -0.09360151 0.022847509
0000c0 7c 41 d2 bc f8 4f 54 bd 64 db 99 3d 8b 80 a2 3d
       -0.025665991 -0.051834077 0.075125486 0.07934674
0000d0 ed 3e 20 bc c8 a8 95 3c b5 b8 d6 3d af e1 9e 3c
       -0.009780628 0.018268958 0.10484449 0.019394724
0000e0 e4 19 c9 3d 7b 00 1d bd 50 0e 0f 3c 1a 6e 8f bd
       0.09819391 -0.038330536 0.00873144 -0.07003422
0000f0 12 84 50 3d 5e 0d a5 bc 30 ca 9c bd b4 59 1e 3d
       0.050907202 -0.020147976 -0.07655752 0.038659766
000100 ce 3e df bd 8c eb d5 bd d8 33 99 3c 0e d7 b0 3d
       -0.10900651 -0.104453176 0.018701479 0.086347684
000110 ca bb a4 bd c0 cc 55 bc a8 38 e9 bc 04 73 5e bd
       -0.080436304 -0.0130493045 -0.028469399 -0.054308906
000120 62 33 ae bd 52 5a bd 3d 10 42 cf bd 3a 8d 9c bd
       -0.08505894 0.09245743 -0.10120022 -0.07644124
000130 fa e3 cf bd 58 d9 b5 bd 5e 62 8d bd 4a 28 fb bd
       -0.10150905 -0.08879346 -0.06903528 -0.12263544
000140 b0 f2 0a 3c 42 af ee 3d a0 b7 82 bc 48 2f 27 bd
       0.008480713 0.116545215 -0.0159567 -0.040816575
000150 1e 69 8a 3d 92 41 d0 bd e8 38 3a 3d 10 21 27 3d
       0.06758331 -0.101687565 0.045464426 0.040803015
000160 38 82 de 3d 50 e0 2a 3c 50 50 2b 3c 2a 08 e4 bd
       0.10864681 0.010429457 0.01045616 -0.1113437
000170 a0 17 8e bd 54 bd 64 3d 84 6b b4 bd 9c 24 99 bd
       -0.069381 0.05584462 -0.088095695 -0.07477686
000180 5a 52 ec 3d e0 73 a1 3b 0a a4 95 3d c8 fc ac 3c
       0.11539145 0.0049271435 0.073066786 0.02111663
000190 4c 8b d7 3d aa 64 c8 bd 00 08 0f b9 da 17 c6 3d
       0.10524616 -0.09784825 -0.00013640523 0.09672518
0001a0 44 84 57 3d 80 d8 4e bc f2 ef f1 bd a4 8d 17 bd
       0.052616373 -0.01262486 -0.11813344 -0.037000313
0001b0 00 99 6e bd d0 d7 59 3c 02 a1 97 bd 82 43 c9 bd
       -0.05825138 0.013296083 -0.07403757 -0.09827329
0001c0 3c 01 10 3d 86 0e d8 3d 10 ab 2f bc a4 c3 f2 bd
       0.035157427 0.10549645 -0.010721937 -0.11853722
0001d0 30 1f 60 3c 88 a0 e0 bc 80 b5 1e 3d ca 17 9c 3d
       0.013679311 -0.027420297 0.03874731 0.07621725
0001e0 10 e4 d5 3c 4a 03 d2 bd 9e c2 a6 bd b0 18 18 3d
       0.026109725 -0.102545336 -0.08142589 0.03713292
0001f0 f4 55 7e 3d 98 eb b6 3c 80 d7 49 bd c0 5a 3c 3c
       0.06209369 0.022329137 -0.049277782 0.011496246
000200 d9 ec 3b bc 60 28 2e bd 7f d6 fb bc ca d3 a9 bd
       -0.011470043 -0.042518973 -0.030741928 -0.08292349
000210 73 6c d2 bc da 4b d8 3d 62 37 72 3d 89 39 95 3d
       -0.025686478 0.105613425 0.05913485 0.072863646
000220 4d e9 c9 bd 12 7a d6 3d 20 87 d3 bd cb 06 03 bd
       -0.09858952 0.10472502 -0.103285074 -0.0319889
000230 3e 17 95 bd c9 7d 11 3d 52 66 49 3d 27 2b 9b bd
       -0.07279824 0.03552035 0.049169846 -0.0757659
000240 4a a6 fb 3d 0d 25 da bc 00 6b fc 3c 33 a8 c5 bd
       0.122875765 -0.026628995 0.03081274 -0.09651222
000250 24 08 3d 3c 1e 29 d9 bd c0 3a 3e 3d 52 87 3d 3d
       0.011537585 -0.106035456 0.046442747 0.04627163
000260 df a4 d8 3d be a0 f4 bc ba 8d a4 3d 51 a4 b2 bd
       0.10578322 -0.029861804 0.08034845 -0.08722747
000270 5c a4 20 3d 44 36 66 bd d1 fb 8b 3d b9 8b 2a 3d
       0.039219245 -0.056204095 0.068351395 0.041637156
000280 18 d7 60 bd 30 45 ca bc 36 b1 85 bd e9 36 71 bc
       -0.05489263 -0.024691194 -0.06527941 -0.014722564
000290 c2 6e 3f 3d f5 86 0d ba ea a5 c9 3c f2 36 b3 3d
       0.046736486 -0.00053988333 0.024615247 0.08750714
0002a0 08 66 4e bd 3c 66 87 bd 3c 3d 91 3d aa 5d cf 3d
       -0.050390273 -0.066112965 0.07091758 0.10125287
0002b0 7f 8d 00 3e 9b 45 df 3d 89 16 2a 3c b2 19 ed bd
       0.12553976 0.10901948 0.010381349 -0.115771666
0002c0 84 35 e9 3d 94 1f 89 bd ab 25 c9 bb 21 1a b0 3d
       0.113871604 -0.06695476 -0.0061385236 0.08598734
0002d0 af 6f ab 3d b0 4c c6 bc cf 59 d6 3d b8 19 2b 3c
       0.08370911 -0.02420649 0.104663484 0.010443144
0002e0 6d 4c 82 bb 28 f7 db 3d fc b6 b2 bd c0 fa 67 bc
       -0.003976396 0.10740501 -0.08726308 -0.014158905
0002f0 cb d8 bf bc b0 3f e0 3d cb 7a a6 bd 42 97 d3 3d
       -0.023418805 0.109496474 -0.0812889 0.103315845
000300 fd cb f6 bd d9 88 39 bc 9a 6f a7 3d d1 a7 2d 3d
       -0.120506264 -0.011324131 0.08175583 0.04239637
000310 a5 ca ea 3c 18 09 ff 3c 14 6d c1 3d 12 c1 c0 3d
       0.028661082 0.031132266 0.09444633 0.09411825
000320 f6 e0 dd bd 96 8d f5 bd 34 1a df bd d0 ee 92 3d
       -0.108339235 -0.11989896 -0.1089367 0.07174456
000330 6f 33 49 3d 5e 4e fe bd 93 4a 0c bd 24 52 a0 bd
       0.049121317 -0.12417291 -0.034250807 -0.07828167
000340 6a 72 f2 3d c9 8d 43 bc 20 4d 3b bc 11 d6 49 3c
       0.11838229 -0.01193566 -0.011431962 0.012319104
000350 81 d9 5d 3d e1 be ea ba a0 ec a6 3d b7 1b a3 3d
       0.054162506 -0.001790967 0.081506014 0.079642706
000360 2e 5d 50 bd fd 6e be 3d 6c fe 83 3a 8b a2 35 bd
       -0.050870113 0.09298513 0.001007033 -0.044344466
000370 50 14 44 bc d2 89 a1 bd 25 d7 a7 bc 27 a2 22 bc
       -0.0119677335 -0.07887615 -0.020488331 -0.009926355
000380 48 bd 91 3d a8 61 72 3d c0 c5 b6 3c 39 06 f7 3d
       0.07116181 0.059175164 0.022311091 0.12061734
000390 e5 f9 01 bd cc f2 c3 3d a8 f7 ee bd 80 1e b1 bd
       -0.03173246 0.09567794 -0.116683304 -0.086483955
0003a0 b8 87 a0 bc 3a 91 de bd 81 2e 73 3d 16 a7 d1 3c
       -0.019595966 -0.108675435 0.05937052 0.025592368
0003b0 58 1b c0 bd 6d 2e 30 bd ee 07 01 bd 8f 1b b6 3c
       -0.093802154 -0.043013025 -0.031501703 0.022229938
0003c0 b1 20 87 3d 7a 12 e7 bd 3a e5 84 3d c8 d8 7c 3d
       0.06598032 -0.11282821 0.06489034 0.061730176
0003d0 ed f0 00 3e 3a 84 93 3d b9 a7 ab 3d 45 d3 3c bd
       0.12591906 0.072029546 0.083816 -0.04609992
0003e0 b0 04 f8 bd 1e 18 34 3d a4 17 e0 3d 80 c5 1a bb
       -0.12110269 0.043968312 0.10942009 -0.0023616254
0003f0 64 a4 f4 3d c2 34 3f 3d a5 cc 8b 3d f0 cd 81 3d
       0.119454175 0.046681173 0.06826142 0.063381076

bias f4 [64]
000000 ce 48 0c bd 28 d6 97 bd 8b 5b e9 bd 6d b4 cc bc
       -0.03424912 -0.07413894 -0.113944136 -0.024988377
000010 18 b5 f2 bd 66 b9 50 bd 0a d3 c7 bd c7 48 a1 bd
       -0.11850947 -0.05095806 -0.097570494 -0.07875209
000020 a6 4c 20 bd e2 8b c6 bd e2 a0 8d 3c 8f 00 d7 ba
       -0.039135598 -0.09694649 0.017288629 -0.0016403365
000030 59 48 bb bd 1c 29 01 bd 46 90 a8 bd ac f8 a3 bd
       -0.091446586 -0.031533346 -0.08230643 -0.08006415
000040 1f ee 30 3c b8 3d 0b bd cd 8d ab b8 23 44 93 3c
       0.01079896 -0.033994406 -8.180328e-05 0.017976826
000050 b8 04 25 3d ee 0f 45 bd 6a 85 e1 3d 90 82 75 bd
       0.040287703 -0.048110895 0.11011775 -0.059938967
000060 7a 65 cd bd bb 8f d4 bd ce 78 b9 3d 96 f8 d0 bd
       -0.10029121 -0.10378977 0.09056245 -0.10203664
000070 5f 00 07 3c 7d cd ca bd 1c 9d 17 bd 21 fa 0f 3d
       0.008239835 -0.09902475 -0.037015066 0.03515065
000080 81 b7 8d 3d ba 8f 71 3d 48 58 8a bd 54 fa 4b bc
       0.06919766 0.05897496 -0.067551196 -0.01244982
000090 ed f7 6d bd ac 09 c1 3d 8f 4f 9b 3d 72 09 93 3d
       -0.05809777 0.09425673 0.07583534 0.07179536
0000a0 03 c2 f6 3d 07 d0 a0 3d 80 b7 f8 bb 00 6a ee bc
       0.120487235 0.07852178 -0.0075902343 -0.02910328
0000b0 74 e5 e6 3d 22 c7 2d 3d 89 af 55 bc ec 6f 96 3d
       0.112742335 0.042426236 -0.013042339 0.07345566
0000c0 5e a4 da 3d e1 3a c9 bd 32 e0 b2 3d 66 fc db bd
       0.10675882 -0.098256834 0.08734168 -0.107415006
0000d0 2d 19 b8 3d 40 75 7d 3c 73 7e 24 bd 29 45 24 3d
       0.08989177 0.015469849 -0.040159654 0.04010502
0000e0 02 1f 70 3d 6c 78 44 3d e0 42 98 bd 99 aa 62 bd
       0.05862332 0.047966406 -0.074346304 -0.055338476
0000f0 90 22 d8 3d f8 0e 2c bd cb 51 e2 bc b0 ad 6e 3c
       0.10553467 -0.042006463 -0.027626893 0.0145677775

weight f4 [7, 64]
000000 15 de 9c bc 0e 40 87 3d ac c1 80 3d f4 c1 b7 bc
       -0.019148866 0.06604014 0.0628694 -0.022431351
000010 74 ab 6d 3d d8 05 ad 3c 34 64 2c 3d cd 0f 75 bd
       0.05802484 0.02112095 0.04208775 -0.059829522
000020 5b 77 59 bd 1c 63 6d bd f5 c6 52 bd 5e 4c 7f bd
       -0.053092342 -0.057955846 -0.05145927 -0.06232869
000030 00 60 44 bc 98 e4 ad 3c 84 c3 ab 3d 42 26 4b 3d
       -0.011985779 0.021227166 0.08386901 0.049597032
000040 c4 f4 14 bd 90 86 9f 3d b1 3a 13 3d f0 d6 95 3d
       -0.03636624 0.07789338 0.035944644 0.07316387
000050 2d 0c 8f 3d a9 41 9e 3d d5 2e c1 bd d0 a2 e5 3d
       0.06984744 0.077273674 -0.094327606 0.11212695
000060 54 dd 9e 3d d7 d6 f6 bc 7f 24 6b 3d 9c 12 56 bd
       0.07757059 -0.03013174 0.057407852 -0.05226384
000070 7e 1e d1 3b 96 2a e5 bd 78 7d 5b bd cc c9 46 3d
       0.006381809 -0.11189763 -0.053586453 0.048532292
000080 4a 5e 8d bd 1a 31 39 3b 4a 0e 87 bd d0 73 64 bd
       -0.0690275 0.0028258027 -0.06594522 -0.05577451
000090 a1 0a d8 3d b0 c0 fc 3d e2 99 fd 3c 54 97 c9 bb
       0.10548902 0.1234144 0.030957166 -0.006152073
0000a0 8b ad ea bc 5f 1c 90 3d 5a 99 96 3d 30 0e d9 bd
       -0.028647205 0.07036661 0.07353468 -0.10598409
0000b0 09 cc cc bd cd f9 b3 bc bd f8 a0 3d 80 10 f8 3b
       -0.09999854 -0.0219697 0.07859943 0.0075703263
0000c0 7e f7 76 3d 3b 2e 44 bc 88 2a be bd d0 30 2d 3d
       0.06029462 -0.011973913 -0.09285456 0.04228288
0000d0 cf 1c 92 bc 16 53 39 3d 3c 48 47 bd e2 38 d5 3d
       -0.017836003 0.045245253 -0.048652872 0.1041124
0000e0 c5 4d ea 3c 00 4b cf 3d 7c e9 5f 3d c8 e6 cb 3c
       0.028601537 0.10121727 0.054666027 0.024890319
0000f0 fc 21 e5 bd 6c 4f 72 bd 82 d1 93 3c 9c 58 1d 3c
       -0.11188123 -0.059157774 0.018044237 0.009603646
000100 13 84 4b 3d c0 ef 5e 3d 00 79 c3 bd f0 39 8d bd
       0.049686503 0.054427862 -0.09544563 -0.06895816
000110 b4 92 50 bd fb 69 58 3c 56 56 fb bd 8f 88 2b 3c
       -0.050921157 0.013208861 -0.12272327 0.01046957
000120 0b 49 bd bd d0 f4 bf 3d 8e be ff bc d4 59 bb bd
       -0.092424475 0.09372866 -0.031218793 -0.09147993
000130 a4 14 87 bd 22 2b 93 bd 8c d5 50 bd b3 3c 58 3c
       -0.06595734 -0.07185961 -0.050984904 0.013198066
000140 fa 97 1c 3d 45 25 9a 3d 6e 79 c7 bd 88 9a d4 bd
       0.038230874 0.0752664 -0.09739958 -0.10381037
000150 ab 79 f4 3d 86 d7 62 bc a7 9f cf bd f0 2b b2 3d
       0.11937269 -0.01384533 -0.10137873 0.08699787
000160 08 db b2 3d fe da fd bd 85 3d de 3c 5c 19 ab 3d
       0.08733183 -0.12395285 0.027128944 0.08354446
000170 e4 02 a1 bd f3 f4 d9 3c 96 fc 92 3d 06 51 30 3d
       -0.078618795 0.026606059 0.07177083 0.04304602
000180 a8 d7 aa bd 81 33 f5 3c 33 15 d5 3c b5 e2 63 bd
       -0.083419144 0.029931786 0.026011085 -0.055636127
000190 90 9e 17 39 28 1c 5a bc 14 07 a4 bd 76 72 0d bd
       0.00014459551 -0.013312377 -0.080091625 -0.034532987
0001a0 da 53 25 bd 64 71 5c bc 30 2c 35 3c ee 1b d8 3d
       -0.04036317 -0.013454769 0.011057898 0.10552202
0001b0 d0 e7 5a 3d 35 d4 be 3c ae 50 cf 3d e0 c4 68 3d
       0.05344373 0.023294548 0.1012281 0.05682838
0001c0 35 9d 66 3d 5d 46 74 3a 5e 0f f0 bd 00 0e 24 3d
       0.056302268 0.0009318346 -0.11721681 0.040052414
0001d0 04 c5 6e bd cd 51 13 3d f0 9a 93 3d 43 56 3e bc
       -0.058293357 0.035966683 0.07207286 -0.011617246
0001e0 75 cf 81 3d f0 a0 85 3d 10 a8 41 bd 3f e1 d2 bd
       0.063383974 0.06524837 -0.047279418 -0.102968685
0001f0 d5 0d fb 3d d0 6d c9 3d 14 d9 b0 3d 8e fc df 3d
       0.122584976 0.09835398 0.08635154 0.10936843
000200 f5 01 e6 3d d6 7e fb 3d 5b c7 fe 3d 76 7d 7e 3d
       0.11230842 0.122800514 0.12440368 0.062131368
000210 bc db 01 3d 91 0a cb bd a2 0c d5 3d c8 99 e1 bc
       0.031703696 -0.09914125 0.104028 -0.027539149
000220 92 fd a8 3d 16 de bb 3d 2a 19 8a 3d e9 f1 85 3d
       0.0825149 0.09173219 0.06743081 0.06540281
000230 bc 16 cc 3d 3c 89 47 bd e4 6b c7 bd 91 68 80 bc
       0.09965274 -0.04871486 -0.097373754 -0.015674861
000240 c0 68 e5 bd f8 46 8d 3d cc dc 47 3c cd 89 8b 3c
       -0.1120162 0.06898302 0.012198638 0.017033482
000250 9e df d1 3c 4e 49 6a bd 46 80 a0 3c 4c 79 37 bd
       0.025619324 -0.057198815 0.019592416 -0.044793412
000260 90 4a c3 bd 9a 04 9b bd 16 22 19 3d c4 c3 e8 3d
       -0.09535706 -0.07569237 0.037386023 0.11365464
000270 a1 f5 91 3c 55 17 cf bd f2 fa b7 bd 70 a4 1b bd
       0.01781732 -0.10111872 -0.08983411 -0.037998617
000280 92 cb eb 3c 8d d6 75 bd 92 8a 83 3d 72 a0 b9 bd
       0.028783593 -0.060019065 0.064229146 -0.09063806
000290 21 50 9f 3d 94 34 07 bd 51 5b d9 3d ce e0 6e 3d
       0.07778955 -0.033009127 0.1061312 0.05831986
0002a0 d2 f1 db bd 2b fc 9d 3c a0 d1 51 bd 8c 75 e1 bd
       -0.10739483 0.019285282 -0.051225305 -0.110087484
0002b0 b6 ef 96 bd 0e 6f 83 bc 66 ba f4 3c 92 8e af 3d
       -0.0736994 -0.016044166 0.029874038 0.08572115
0002c0 6a 63 71 bd 7d eb 2e bd 7f b1 a1 bd ee 4c 91 bd
       -0.0589327 -0.042705048 -0.07895183 -0.07094751
0002d0 f0 29 5b 39 56 45 3b bd 7c 96 38 3d 5c 46 b6 3b
       0.0002090109 -0.04572042 0.045065388 0.0055625867
0002e0 65 cc c0 3d f6 e5 74 3d 03 20 e4 3c bc 88 62 3d
       0.09413985 0.05978962 0.027847296 0.05530618
0002f0 c1 e6 26 bc 40 80 68 bb 73 4f 35 3d ee 76 a9 3b
       -0.010186852 -0.0035476834 0.04426522 0.005171648
000300 7c 69 db bc 04 41 40 bd df 01 d4 bb e7 b4 bb bd
       -0.026783697 -0.046937004 -0.0064699496 -0.09165364
000310 80 e0 3f bc 13 5c 40 3d 9e 64 d6 bd 74 0c 30 3d
       -0.01171124 0.04696281 -0.1046841 0.042980626
000320 f6 8d 81 bd 9e 65 d6 bd 57 ff e3 bc 41 9a a9 3d
       -0.06325905 -0.10468601 -0.027831716 0.08281375
000330 04 e3 6e bd f6 1e e0 bd 22 89 ac 3d 87 50 d0 3d
       -0.058321968 -0.10943405 0.084245935 0.10171609
000340 c1 42 a1 bd 0f 6f 31 3c 5e 31 d8 bd cf 89 71 bd
       -0.078740604 0.010829701 -0.10556291 -0.058969315
000350 db 2b 3a bd 8c 55 dc 3d f9 25 88 bd 80 36 5c 3c
       -0.04545198 0.10758504 -0.06647868 0.013440728
000360 00 13 68 bc 98 83 b0 3d 0b 8b 63 3d 2c 05 de bd
       -0.014164686 0.086188495 0.055552524 -0.1084083
000370 d5 50 21 bc f0 36 e7 bb 38 26 d3 3c 92 5e e1 3d
       -0.009845932 -0.0070561096 0.02577506 0.11004366
000380 b4 e7 77 bd 71 03 b0 3d 10 d4 84 3d 4d ee 0a 3d
       -0.060523704 0.085944064 0.0648576 0.033918668
000390 62 89 43 3d df 43 da bd ee a6 86 bd df 54 c1 3d
       0.04773844 -0.10657477 -0.06574808 0.09440016
0003a0 0b 6b 0e 3d c6 36 ed 3d 40 19 e1 bc 10 f6 8c 3d
       0.034770053 0.11582713 -0.02747786 0.0688287
0003b0 c9 fd 5a bd c3 87 b3 3c 91 46 88 bd 1c 9a a8 3d
       -0.053464685 0.021915322 -0.066540845 0.08232519
0003c0 6d 80 9c bd b3 36 47 3b c8 3e 9d 3d 66 ea 9a bd
       -0.07641683 0.0030397594 0.0767799 -0.07564239
0003d0 e0 41 c3 bd 03 43 ff 3b 93 99 73 bd 46 d2 7e 3c
       -0.09534049 0.007789971 -0.05947263 0.015553063
0003e0 b9 a7 ff bd e1 4e d9 3d b3 75 ed 3c 2d 39 ec 3d
       -0.124831624 0.10610748 0.028986787 0.11534343
0003f0 7c e7 bd 3c 38 c5 5c 3d 31 2a 10 bd c1 7c a9 bd
       0.02318167 0.05389902 -0.035196487 -0.08275748

bias f4 [7]
000000 65 aa 36 3c 1f 20 42 3d 26 0a 1a 3d ab 21 d6 3b
       0.011149024 0.047393914 0.037607335 0.0065347753
000010 dd 22 7d bc 91 c7 c5 3d 5d 52 0f 3c
       -0.015450207 0.09657205 0.008747664
