experiements/starter_team/continuous_state/results/random_dqn/checkpoints/model_0.pt (torch, 24151 bytes, 6 tensors)

weight f4 [64, 9]
00000000: d8d2 79bd f6e6 51bd bc4c 593e 7b08 683d
00000010: 73d9 e2bd a5e5 893e 9db0 983d c268 9e3e
00000020: cec6 63be 6720 57bd ab72 913e 31eb c13e
00000030: 738c 453e c7c3 ad3d 90c6 383e 9fdd aebd
00000040: 7d31 483e 6684 a73e 87de 643d 0068 5dbe
00000050: 83bd c4bd e042 a4be 96ce 173e 2e07 dcbd
00000060: d8ff 503e 6767 9a3c d862 97be 4b04 48be
00000070: 5046 61be ea5c 97be 1b57 b83d 80f2 2b3d
00000080: 2b4d 21be ab97 8f3c 9613 ebbd 3bbf 82be
00000090: 3025 d8bd 5693 8a3b 9833 3fbe 9645 12be
000000a0: 8b06 5e3d 8062 4d3e 56b5 32be 6073 b43d
000000b0: 96b3 833e c865 a1be 364b 19be 43e3 90be
000000c0: 8615 be3d bb93 013e 504b d9bd 2615 5bbe
000000d0: 101a ffbd 6b72 073d fb8b e63d 609c 603e
000000e0: 0e18 02be 66ce 55be a6b6 d0bd e340 873e
000000f0: 6304 06be 0273 90be 066b 85be 3408 c33d
00000100: c562 203c 6937 843e e473 023e 9a25 873e
00000110: 39c1 853e 7cc2 bdbe 34b1 ba3b cbbf c33d
00000120: ed46 853d 3e93 b43d e43f 4dbe af02 d33d
00000130: 1e06 6ebd a5ad cc3d 8ba4 813d 547e dfbc
00000140: 9679 37bd c512 533d 81d1 8abd 90b7 453e
00000150: 3d1c 87be 69a2 af3c 887a 023e 09db 8b3e
00000160: f37c 23be 60ef 27be fb0d 323e c4c7 a43e
00000170: 62b4 70be 10dc 803e 140c 743e 9018 a33e
00000180: d6d7 9dbe 2760 9dbe de09 a0be b8b3 9fbd
00000190: 4cca 86be 26ce 4e3e 6da9 97be 9944 00bd
000001a0: f824 0ebd 765d 1c3e 8c4f 803e 12d0 81be
000001b0: fdf4 7dbe 75e5 6f3e 3a24 a93d 68d8 9f3e
000001c0: eb9f 7b3b 8722 23bc 7862 b13e 10cd 9fbd
000001d0: b07d d7bd 30fc e13d 78ea a7be 0ad1 94be
000001e0: abc7 c83d 60e8 c2bd fc53 84be b804 a83e
000001f0: 4012 6a3d eba2 36bd 8a53 b23c 4430 013c
00000200: ba9d 283e 8d61 343e 1aa5 9cbe d59d 013e
00000210: 4a03 bbbe 1d7f 773c b757 80be f594 9b3e
00000220: 0256 96be ea0d 6b3e 842d 86be 4e1e 14be
00000230: a1c6 a7bb 38c5 5b3e 5a8c e03d 20e6 323e
00000240: 1032 cd3d eb4f b53d d6a4 293c 1b8a 44be
00000250: 06c4 a0bd 5ea2 4abe 8648 69be b31c 70be
00000260: c607 b1bd 34c3 a63d ce25 6c3b 1cad ff3d
00000270: 6273 0cbe 8875 673e 216c 973c e592 3bbd
00000280: 087b 6dbe fa9d 8c3e b938 f73d 081d 98be
00000290: bb50 793e 502a 523d 2572 a7be e737 28be
000002a0: 94c5 b6be e5ef 343e 8bc8 473e 7636 27be
000002b0: 0e9b 44be 7e5d 503e f636 003e 0032 e2bd
000002c0: f81b 863e 7016 8abe 5ce2 8ebe 3b79 57be
000002d0: b28f 1e3d ec6a 193e 08ef b6be 66e5 183d
000002e0: b3da 18be a8d3 babd d270 67be 2273 483e
000002f0: ab46 e13c 4ded 8d3d dbc2 c0bb c35d 72bc
00000300: f086 bdbd fb61 a5be 4f74 293d af8e 593e
00000310: 9164 f53d b6d4 60bd 67bf 983e cf06 933e
00000320: 68ff 8ebe a34e 5fbe 9666 873d 145d 9f3e
00000330: 82fc 8cbe 141c 1bbe 233b 8dbe 4fec 223e
00000340: 1077 3d3d 1512 92be c00c 9d3d 492a 673e
00000350: 8646 c13d 1175 993e f6e5 d1bd 58ef 21be
00000360: 2648 70be 10f4 90bd c0c7 e83d 639a 7cbe
00000370: 3897 073e cea0 3ebe c0d1 863e fee1 72be
00000380: 6b0e 96bc 0b29 36be 6b47 083e 46df 3ebe
00000390: a6f1 05be eeb9 433e b689 aebd 76ea 593e
000003a0: a662 a1bd 2e40 213e ff54 943d 7318 833e
000003b0: 75d2 af3c 9f02 e23d c5f1 8a3d 25d6 953d
000003c0: 069d f8bd cb6f 873e 3b50 903e fc2d 243e
000003d0: d930 073e fb85 523e 4d9b 6cbe fd21 b2be
000003e0: eef1 053e 5a62 a5be ea41 0ebc 48ee 5ebe
000003f0: 4a73 58be d87f 9e3e 14b8 5e3e 8e1a 1cbe
-0.060992092 -0.051245652 0.21220678 0.056648713 -0.110766314 0.26933017 0.07455561 0.309393
-0.22243807 -0.052521136 0.28407797 0.3787475 0.19291858 0.08484607 0.18044496 -0.085383646
0.19550128 0.327182 0.05587628 -0.21621704 -0.09606459 -0.32082272 0.148249 -0.10743557
0.20410097 0.018848134 -0.295676 -0.19532888 -0.21999478 -0.29563075 0.09000989 0.041979313
-0.15752093 0.017528376 -0.11478345 -0.25536522 -0.10553968 0.0042289896 -0.18672025 -0.14284357
0.05420546 0.20057106 -0.17451987 0.088110685 0.2572295 -0.31522965 -0.14970097 -0.28298387
0.09281449 0.12654011 -0.10610068 -0.21394786 -0.12456143 0.0330681 0.11257168 0.21934652
-0.12704489 -0.20879516 -0.101910874 0.26416692 -0.13087611 -0.28212744 -0.26058215 0.09523049
0.0097891735 0.25823525 0.12739521 0.26395875 0.2612398 -0.37062442 0.005697394 0.09558066
0.06507669 0.08817147 -0.20043904 0.10303246 -0.058111303 0.099940576 0.06330212 -0.027281918
-0.044793688 0.051531572 -0.06778241 0.19308305 -0.26388732 0.021439748 0.12742054 0.27315548
-0.15965633 -0.16399908 0.17388146 0.3218366 -0.2350631 0.25167894 0.23832732 0.31854677
-0.30828732 -0.3073742 -0.31257528 -0.077979505 -0.26326215 0.20195827 -0.2962145 -0.03131542
-0.034703225 0.15270028 0.2506069 -0.25354058 -0.24800487 0.23427375 0.08258863 0.31219792
0.003839488 -0.009956962 0.34645438 -0.078027844 -0.1052202 0.11034429 -0.32796073 -0.29065734
0.09803709 -0.09516978 -0.25845325 0.328161 0.05714631 -0.044588964 0.02176835 0.007885043
0.16466418 0.17615338 -0.30594712 0.12657864 -0.36525947 0.01510599 -0.2506692 0.30387083
-0.29362494 0.22954527 -0.262066 -0.14464685 -0.005120114 0.21461952 0.1096427 0.17470598
0.10019314 0.08853134 0.010354241 -0.19193308 -0.078498885 -0.197885 -0.22781572 -0.23448448
-0.08644061 0.08142701 0.0036033276 0.1248419 -0.1371589 0.22603428 0.018484177 -0.045794386
-0.23191464 0.27464277 0.12071366 -0.2970965 0.24347202 0.051309884 -0.32704273 -0.16427575
-0.35697615 0.17669638 0.19510095 -0.16329369 -0.19199774 0.20348164 0.12520966 -0.11044693
0.26193213 -0.26970243 -0.27907073 -0.2104234 0.038711257 0.14982194 -0.3572924 0.037328146
-0.14927177 -0.091224015 -0.22601631 0.1957517 0.027499517 0.06930027 -0.0058826036 -0.014792862
-0.09254253 -0.32301316 0.041370686 0.21245836 0.11982072 -0.054890357 0.29833528 0.28716132
-0.27929235 -0.21807341 0.066113636 0.311257 -0.27536398 -0.1514743 -0.2758418 0.15910457
0.046256125 -0.2852942 0.076684475 0.22574724 0.094372794 0.29972127 -0.1024894 -0.15813959
-0.23465022 -0.07077801 0.11366224 -0.24668269 0.13241279 -0.1861603 0.26331902 -0.23719022
-0.018317422 -0.17789094 0.13308494 -0.1863986 -0.13080463 0.19113895 -0.0852236 0.21280846
-0.07880144 0.15747139 0.07242774 0.2560459 0.021462658 0.11035656 0.06784395 0.073162355
-0.12139325 0.2645248 0.2818621 0.16033167 0.13202228 0.20558922 -0.23106118 -0.34791556
0.1308057 -0.323016 -0.008682707 -0.21770585 -0.2113773 0.30956912 0.21749908 -0.15244505

bias f4 [64]
00000000: e5b9 99bd 3317 b43e 0a06 77bc 20bd f63d
00000010: 9b55 95be 2f1d 84be 8b64 63be 9a50 76be
00000020: 1898 b8be a04f 0ebe 7dbf 2cbe 3bed 1d3e
00000030: 3885 983e 004c c63d 9b6a fc3d 4e7d 58be
00000040: 8efd 43be 32f1 a23d 6f19 bdbd 1b2b 46be
00000050: 7887 7c3e e2cf 4dbe f79e 203d 7d8a 6cbd
00000060: e0ef 1cbd b01e 31be e309 4c3e b33b a1be
00000070: 9dc1 dbbd 5ea0 123e 4342 a03e 566d 5c3e
00000080: 78b5 703e df8b 7e3e c3ea 0abe 70e9 443e
00000090: e36b 0ebe 38ba b83d 5cf3 a5be 6baf 313b
000000a0: 701f 97be 8f19 613e bfee 58bd 4b82 38be
000000b0: fe00 47be acdf 0bbe 590a b03d 2be6 033e
000000c0: f63a 53bd 1425 653e 3f7c 8fbe 7d6b 2d3e
000000d0: 4e28 083e e391 633e 58f4 74be 5402 02be
000000e0: 56b1 1ebd e454 863e 2042 5abd 3006 92bd
000000f0: eab3 84be 8bc4 f83d 74d6 a33e 4910 c43d
-0.0750616 0.3517395 -0.015077123 0.120477915 -0.29166874 -0.25803515 -0.22206323 -0.24054185
-0.36053538 -0.13897562 -0.16869922 0.15422527 0.29789138 0.096824646 0.12325021 -0.2114155
-0.19139692 0.079561606 -0.09233367 -0.19352381 0.24661052 -0.20098832 0.0392141 -0.05774926
-0.0383147 -0.17296863 0.19925646 -0.3149086 -0.10730288 0.14318988 0.31300554 0.21526083
0.23506725 0.24858044 -0.13566117 0.19229674 -0.13908343 0.090198934 -0.3241223 0.0027112614
-0.29516172 0.21982406 -0.05296206 -0.18018453 -0.19433972 -0.13659543 0.08595724 0.12880771
-0.0515699 0.22377425 -0.2802448 0.16935535 0.13296625 0.2222362 -0.23921335 -0.126962
-0.03874334 0.2623664 -0.053285718 -0.071300864 -0.25918514 0.121468626 0.31999552 0.09573419

weight f4 [64, 64]
00000000: c51a 073d 2177 50bd bf4b 203d 3213 ffbd
00000010: b235 f8bd 6655 debd fea3 c13d faf4 bcbd
00000020: 01af dabd c76e 5b3c 5494 efbc b8e8 49bd
00000030: c684 a83d 940d a23d 1fc9 9ebd ee53 92bd
00000040: 98c4 923c 6cf1 95bc 67cf 23bd e859 a43d
00000050: 0ff0 f23c 8d7b dabd 619b 05be 743d 49bc
00000060: 30c0 80bc dc20 963d ea74 423d 01c8 183e
00000070: 026b f1bc e077 e6bd fabd e83d c2ff df3d
00000080: 08ae 3bbd 7e41 b8b9 c000 023d 0ace 8cbd
00000090: be61 c13d 6f9d f0bd 94a8 44bd 2384 0a3d
000000a0: da15 be3d b852 a83d f42b 24bd 44b9 b8bd
000000b0: 9c65 4f3d f158 953d 94a3 87bd d11b 403d
000000c0: 000d 23bb 6bb3 ffbd 0028 af39 c1e0 bebd
000000d0: dec5 803d c0cd 5c3b 72f1 20bb 69b4 c93d
000000e0: 602f 2d3c b82a 0f3e 524b dbbd 8050 92bc
000000f0: 103f 653c b8c9 f73c 6cde 8fbd 693d 893a
00000100: 305f a33d 6003 debd 1c3f bd3d 8cdd 20bd
00000110: 1858 d53c c0d7 09bd 8e3b c73d a804 90bc
00000120: 147b 4cbd c6a5 ffbd ba4a 8abd 2ee4 c3bd
00000130: 1e06 83bd b035 45bd 58b4 62bd 667b 96bd
00000140: 44dc 95bd 9642 b8bd 8c90 813d c091 253d
00000150: 5ce8 bebd 10db 59bc a890 88bc 148d 7fbd
00000160: de56 91bd 8cc5 0ebd 52ae dcbd 7890 623d
00000170: c898 43bd e44b 3fbd 2c26 b2bd 00b0 bc3a
00000180: f6d0 b5bd 50f1 90bc b4e4 113d 90b8 aa3d
00000190: e881 d7bc d886 b8bc 8631 c23d bcb8 31bd
000001a0: 1072 4c3c 320b 97bd 90bd 653d ce52 c23d
000001b0: c4ac 86bd c49a 87bd 602f d13d 907e cc3c
000001c0: 2491 56bd ce56 96bd 20a6 9a3d 14e6 13bd
000001d0: b680 a03d 60f5 853d 08c8 adbd 78d3 ccbc
000001e0: 006b bc3c dc9f 2abd d847 84bc 6672 cfbd
000001f0: 6c9f 29bd c020 4f3b b405 053d 4257 eb3d
00000200: ecb6 c03d 66c2 44bd b13a 983d 00e2 febb
00000210: d079 c7bd c830 c3bd 3016 f43c 1620 c8bd
00000220: cf69 a53d 513c 1a3d 0ba7 d8bc 031d 9fbd
00000230: 1e40 e1bd 383a debd 6706 c2bb ed0f ad3d
00000240: c036 55bd 86a2 06be f788 e33d 10a8 c7bc
00000250: 5f96 99bd 8922 6fbd b691 e0bd 3aaf 263d
00000260: 0cff 7d3d 049e 6a3d 880b c9bc 764b 043d
00000270: 91aa 45bd 4cac 9c3d c8b0 70bd d0f3 83bc
00000280: bcb3 b13d ca32 ff3c 66bc e83d 10ec 88bc
00000290: 70ec 093d 0913 62bd cc83 75bd 0278 89bc
000002a0: 34e3 4ebd 5723 dc3d 66a1 043d 00bb 513a
000002b0: 00ab f83d 891f 963d 87b4 25bd 5da7 4e3d
000002c0: c2d7 c93d e268 f53d e860 94bc 057c 54bd
000002d0: 9054 143c 4014 c83b 46b4 df3c 0db2 543d
000002e0: 702e 34bc 3fb4 40bd 1438 4a3d 4854 e4bd
000002f0: f4b1 b7bd 3cbc 013d 2e08 c13d efa4 5f3c
00000300: be38 35bd 6d2f c23d 9b14 9fbd 2887 323d
00000310: c81a 06bd a089 5e3d e018 df3b 7612 833a
00000320: bb47 99bd a321 9a3c 5c3a 60bd d74b 803d
00000330: 6e76 fdbc 4473 90bd d534 a7bd 1acf 99bd
00000340: 588e 413d 1b25 8d3d 223f ca3d de08 e63d
00000350: b99a fdbc 1894 f93c 56e2 413c 91cc d3bd
00000360: f09f 51bd dc16 013d f925 54bc 5a72 903d
00000370: 9253 a23d 1047 2c3c 285e ebbc 4036 593d
00000380: 4eac e1bd 8abe 07bd e01f 9b3d ea87 cdbd
00000390: 0caa f5bd b83b 85bd 4005 f6bb f64b 8dbc
000003a0: b084 54bc dfa6 68bd 24b2 74bd faa4 eb3d
000003b0: d03a 6abd 5874 93bc d1e9 37bc 11f5 af3c
000003c0: 84b4 fabd 4c05 be3d 7085 4a3d 3be3 583d
000003d0: 566e b63d a852 2d3d a934 f2bc 7d62 133d
000003e0: dcdd 443d 8c19 3d3d 76b1 e23d 04c9 16bd
000003f0: c050 74bb 4212 a53d d866 99bd 1c68 b63c
0.032984514 -0.05089486 0.039134737 -0.12454833 -0.121196166 -0.10856132 0.09455107 -0.09226413
-0.106779106 0.013393111 -0.029245533 -0.049294204 0.082284495 0.07912746 -0.077532046 -0.071449146
0.017916009 -0.018303595 -0.039992716 0.08024961 0.029655484 -0.10668097 -0.13047554 -0.012282718
-0.015716642 0.07330486 0.04747478 0.14920045 -0.02946997 -0.11253333 0.1136436 0.10937454
-0.045820266 -0.0003514401 0.031738997 -0.06875236 0.09442471 -0.11748778 -0.04801233 0.03381742
0.092815116 0.08218902 -0.04008098 -0.090197116 0.05063401 0.07292355 -0.06622997 0.046901528
-0.0024879575 -0.12485393 0.00033408403 -0.09320212 0.0628774 0.0033691972 -0.0024557975 0.09848864
0.010570377 0.1398114 -0.107077256 -0.017860651 0.013992086 0.030247554 -0.070248455 0.0010470572
0.0797714 -0.108404875 0.09240553 -0.039273784 0.026042983 -0.03365302 0.09728156 -0.017580345
-0.049922064 -0.12482791 -0.06752534 -0.09565006 -0.06397651 -0.048146904 -0.05534777 -0.07347755
-0.07317403 -0.08997075 0.06326398 0.0404222 -0.09321663 -0.0132968575 -0.01667054 -0.062390402
-0.07096647 -0.034856364 -0.107754365 0.055313557 -0.047753125 -0.046703234 -0.08698687 0.0014395714
-0.08877747 -0.017693192 0.0356185 0.08335984 -0.026307061 -0.022525236 0.09482102 -0.043389067
0.0124783665 -0.07375182 0.056088984 0.0948845 -0.06575921 -0.06621316 0.10214114 0.024962693
-0.05238451 -0.073407754 0.07551217 -0.03610809 0.0783705 0.06540942 -0.084854186 -0.02500318
0.02300024 -0.04165636 -0.016147539 -0.10129242 -0.041411802 0.0031605214 0.032476142 0.114912525
0.094098896 -0.048036955 0.074330695 -0.007778406 -0.09740031 -0.09530789 0.029795736 -0.09771745
0.08076822 0.03765518 -0.02644684 -0.077692054 -0.109985575 -0.10850948 -0.0059211734 0.08450303
-0.052054167 -0.13147935 0.11110108 -0.02437213 -0.07499384 -0.058382545 -0.10965292 0.040694453
0.06201081 0.0572796 -0.024541631 0.032298528 -0.048258368 0.076500505 -0.05876234 -0.01610747
0.0867686 0.031152148 0.11364059 -0.016714126 0.03367275 -0.055193935 -0.059940144 -0.016780857
-0.050509647 0.10748928 0.032380484 0.00080005825 0.12141991 0.073302336 -0.040455367 0.05045258
0.09855606 0.119828954 -0.018112615 -0.051876087 0.009053364 0.0061059296 0.02730764 0.051927615
-0.0109974 -0.047046896 0.049369887 -0.11148888 -0.08969489 0.031673655 0.09425388 0.013650163
-0.044243567 0.09481702 -0.07767602 0.043585926 -0.032740384 0.05433047 0.0068083853 0.0010000009
-0.074843846 0.018814867 -0.054743156 0.06264465 -0.03094026 -0.07053235 -0.08164374 -0.075102046
0.04725489 0.06891843 0.09875323 0.1123216 -0.030957567 0.030466124 0.011833748 -0.10341752
-0.05117792 0.03151594 -0.0129485065 0.07053061 0.07926096 0.0105149895 -0.02873142 0.053030252
-0.11019193 -0.033140697 0.07574439 -0.10035689 -0.119953245 -0.06505531 -0.00750795 -0.017248135
-0.012971088 -0.056799766 -0.0597402 0.11506076 -0.057184994 -0.017999813 -0.01122518 0.021479161
-0.12241462 0.09278354 0.049443662 0.05295108 0.08907764 0.042315155 -0.029566126 0.035982598
0.048063144 0.04616694 0.11069004 -0.036812797 -0.0037279576 0.08060123 -0.07490319 0.02226644

bias f4 [64]
00000000: 3316 5b3d 8043 1fbb 5437 09be ae8c ccbc
00000010: fbd6 e4bd 1ec9 143d cc12 d73d 526d d0bd
00000020: d462 f8bd 5430 3e3d 4429 07bc 229d 25bd
00000030: da95 c73d d45f acbd 43d5 bcbb 209a e8bd
00000040: 086b a3bb c828 be3d 3787 25bc e8cd babd
00000050: e0f4 1c3d 1018 6dbd fbe5 10be 5235 9bbd
00000060: bd3e 0dbe d4c3 a1bd 8a6d 99bd 30b6 003e
00000070: 4061 d3bd ad79 eb3c 6c3e f63d 9c9e 783d
00000080: a1a9 093d 7a13 923d ca8b 01bd e743 5abc
00000090: c805 b13c 6cdc 9d3d 2a74 163d 961d 7c3d
000000a0: 8abf 8f3d 2b2e 903c 72f0 bfbd 3edc bb3d
000000b0: f5b4 8c3d 4047 aebb f864 debd f0ab 2bbc
000000c0: fa41 e5bd 7cf0 ce3d 24b1 dbbd 40bd 413c
000000d0: b97f 003c 304f 46bd 2000 4d3d 886f a93d
000000e0: fc04 68bd 8c67 abbd 74f1 953d 0a2d ec3d
000000f0: ea4b b2bd baa3 1ebe c86d a13d fb7f 53bd
0.053487968 -0.0024301708 -0.13400012 -0.024969425 -0.11173817 0.036324613 0.10501632 -0.10177101
-0.12128225 0.046432808 -0.008249585 -0.040433057 0.09745379 -0.08416715 -0.0057627275 -0.11357522
-0.0049871244 0.09285122 -0.0101030385 -0.09121305 0.03831947 -0.057884276 -0.1415023 -0.075785294
-0.13793464 -0.078986794 -0.07491596 0.12569499 -0.10321283 0.028744543 0.12023625 0.060698137
0.033609036 0.07132621 -0.031627454 -0.013321853 0.021609202 0.07708058 0.036731876 0.061551653
0.07018955 0.01760014 -0.09372033 0.09172867 0.06870452 -0.0053185523 -0.10859102 -0.010478005
-0.11194225 0.101044625 -0.10727146 0.011824906 0.007842951 -0.048415363 0.050048947 0.08273226
-0.05664538 -0.083693594 0.07321444 0.11532028 -0.08705886 -0.15492144 0.07882267 -0.051635724

weight f4 [7, 64]
00000000: 40a1 c93c f0be a63d f1a3 113d 4cd1 2bbd
00000010: 1ba2 f03a 71c8 66bd d8be 923d 405f 463b
00000020: e0b7 303c 9c22 c53d 4599 773c 33ec dc3d
00000030: 5010 643d 72cf 8b3d 9c7c b53d 6faa 583d
00000040: 94a5 583d d4a3 833c fecb 463d d04a e93d
00000050: e85c aa3d ec06 a33d 56a4 4d3d a019 2cbc
00000060: 84ae a6bb 2049 863d 345f 34bd 6c3e f03c
00000070: e012 62bd cca7 0d3b f896 f53d 5483 31bd
00000080: f8e9 f43d b62b da3d b91d 823d 3cd1 2bbd
00000090: 1273 be3d d8ce a4bd 3bb6 15bd 719d 9fbd
000000a0: d68d c8bc d0c4 7cbb f650 b63d 806e 8abb
000000b0: 76ba f4bb f0ca 083d 9806 0c3d 2cfd 343d
000000c0: de69 86bd ae7b 983d 50ab 37bc a87f 54bd
000000d0: dc7e 7cbd 9843 09bd 5530 b13d e2a5 c7bd
000000e0: d3a8 f03d 0d4b 8a3c 3ed8 b2bd 607f 483c
000000f0: 884e 863c e640 9cbc 48e5 c83c 67ab 963d
00000100: db81 a2bd 20e0 623d a264 7fbd 2a21 9c3d
00000110: 1616 953d ebf5 e53d 281e b73c b858 f4bc
00000120: 30cf 91bc 4044 d53d 2f54 b0bc e9ad 3e3d
00000130: 5844 f3bc 7c44 0abd 1a8e 89bd 7bf5 d3bc
00000140: d082 8f3d 7c9a 19bd 0ed9 463c e094 dabc
00000150: 5841 d5bd 7262 e2bd 047d 2e3c 809a 103c
00000160: a539 303d f80f f93a bee4 863d e686 163d
00000170: 301a cf3c 6336 953d d4e6 c7bd ec2a 313d
00000180: e3b2 d43d cc94 cb3d 4518 143e 8e8f 7d3d
00000190: 3086 9b3d a42b 033d 153c 43bc 370e 0ebd
000001a0: 1bc3 163d f4ab cf3d dcfa f1bd 188b 0f3d
000001b0: f936 833d 9860 f33c a04a 8f3b a860 83bd
000001c0: 98cf 643d 4c65 633d f84b 103d 9036 413d
000001d0: 711b 17bd 3ecb fabd f84b 9fbd ee42 fa3d
000001e0: c229 b13d 11ab dbbd f836 c8bd d809 213d
000001f0: 4c5b 113d 3298 a93d ba25 95bd 4d8f a73d
00000200: dbf9 8abd 2428 c6bd dcea b0bd bfbb b03d
00000210: 55d1 f6bc 3f33 debc 3a46 a53d 14c3 693d
00000220: 404f 5b3c 0ca5 4d3d 2d64 5dbd ddb3 143c
00000230: 4e9a fbbd c09a 9a3d f39e 963c 71e3 28bb
00000240: 14c9 f9bd 52ea 063d 2ad6 d13d 946b ca3d
00000250: fc29 693d e6e4 d6bd e211 f1bd b47b 633d
00000260: 2265 933d 5407 093b dc4f 27bd 8783 053e
00000270: f246 e93d ef69 bf3d 9213 943d 6000 03bc
00000280: cf33 3bbd 18c8 893d 2616 b1bc e240 67bd
00000290: 0292 cbbd 30a8 5a3c 84b7 de3c 8312 bc3d
000002a0: 0778 d3bd 13e3 dbbd 220e d9bd c0fd 523d
000002b0: 773b 103e d033 073d 6c14 e9bd e047 a2bc
000002c0: 306c d0bc 6c9d 9e3d 10e0 ebbc 2084 813c
000002d0: 82a1 2ebe 5877 b13d 17b0 6cbc 1406 f5bd
000002e0: ccd6 2c3d e491 acbc c0eb 5e3c 7a84 86bd
000002f0: c887 b8bd 6a29 09bc 46ea c8bd 1521 cfbd
00000300: 1714 173d 20f4 c5bb 97b8 43bc c227 be3c
00000310: 8416 b8bc 944e 0b3c c849 94bd a297 f03d
00000320: b49d fc3d 2816 1a3d 7bd4 92bd 844c 273d
00000330: f6b1 a33d 2030 96bb 1590 85bb ad6d c73c
00000340: c8d8 703d 74a5 cebd 26dd 36bd 26d9 843d
00000350: 4e22 863d a4a5 b53d ecfc 3c3d 0412 a43d
00000360: 6426 68bd df94 653d 403f 643d 783d 9cbd
00000370: e82f 13bd 5a28 ebbd 2862 fa3c 7ae8 bd3d
00000380: 8f6d b33c 8892 ebbc 9a47 b83d 2978 3d3d
00000390: c419 dd3d 389a fd3c e1dc 3d3d b31e 6a3d
000003a0: e16e a73d 94cf 953c e2c2 9b3d f400 0c3d
000003b0: 92c5 103d 8090 ef3c 6e7f 9f3d c076 73bd
000003c0: bcdf d53d 74ab 04bd 40e1 8dbc 30f6 6f3c
000003d0: 2334 0b3d 78e0 e23d 6b27 54bd 52f3 f73d
000003e0: 8ddd eabc f5ef dabd 28ce fdbc 143a 6fbd
000003f0: 8c98 8b3d fab0 92bc 98df 90bc 1dd6 ce3d
0.024613023 0.08141887 0.035556737 -0.041947648 0.0018358858 -0.0563435 0.07165307 0.0030269176
0.010786027 0.09625742 0.015112226 0.10787239 0.05567962 0.068266764 0.08861658 0.052896913
0.052892283 0.01606933 0.048534386 0.113912225 0.08318502 0.079603046 0.05020555 -0.010504156
-0.005086722 0.06556916 -0.044036105 0.02932664 -0.05519378 0.0021614907 0.11991686 -0.043338135
0.119586885 0.106528684 0.063533254 -0.04194759 0.09299292 -0.08047265 -0.03655074 -0.077937014
-0.024481695 -0.0038569458 0.08902161 -0.0042245984 -0.007468517 0.03339666 0.034185976 0.044186756
-0.06563161 0.07445465 -0.011210278 -0.051879555 -0.06164442 -0.033511728 0.08651797 -0.097484365
0.11750951 0.01688149 -0.08732651 0.0122374 0.016394868 -0.019073915 0.024523392 0.07356911
-0.07934924 0.055389524 -0.06235183 0.07623513 0.07279603 0.11228546 0.022353247 -0.02982746
-0.01779899 0.10413408 -0.021524517 0.046552572 -0.029695675 -0.033756718 -0.06716557 -0.02587389
0.070073724 -0.037500843 0.012136711 -0.026682317 -0.10412854 -0.11053933 0.010649923 0.008825898
0.043023724 0.0019001951 0.06586598 0.036749743 0.025281042 0.07285764 -0.09760824 0.043253824
0.103856824 0.0994049 0.14462383 0.061904483 0.075939536 0.03202404 -0.01191618 -0.034681525
0.03680716 0.10140219 -0.11815426 0.03504476 0.064069696 0.029709145 0.0043729097 -0.0641492
0.05586204 0.055516526 0.0352287 0.047171175 -0.036891405 -0.122457966 -0.07778162 0.12219797
0.08650543 -0.10725988 -0.097761095 0.03931603 0.035487458 0.08280982 -0.072825864 0.08181629
-0.067859374 -0.09675625 -0.08638546 0.0862956 -0.030129114 -0.027124045 0.08070035 0.057070807
0.013385594 0.05020623 -0.054050613 0.009076086 -0.12285291 0.075490475 0.01838634 -0.0025770331
-0.12196556 0.03293831 0.10245927 0.098838 0.056924805 -0.10492878 -0.11770989 0.055537894
0.07197024 0.002090891 -0.040847644 0.13038455 0.11390485 0.09346377 0.07230295 -0.007995695
-0.045703705 0.06727618 -0.021617007 -0.05645836 -0.09939958 0.013345763 0.027187116 0.09183218
-0.10325628 -0.1073667 -0.10598399 0.051511526 0.14085184 0.033008397 -0.11380848 -0.019809663
-0.025442213 0.077448696 -0.028793365 0.015810072 -0.17053798 0.08665341 -0.01444628 -0.1196405
0.042197034 -0.02106566 0.013606012 -0.06568237 -0.09010273 -0.00837169 -0.09810309 -0.10113732
0.036884394 -0.006041065 -0.011945865 0.023212317 -0.022471674 0.008502621 -0.07240635 0.11747672
0.12334767 0.037618786 -0.07169434 0.040844455 0.07992928 -0.0045833737 -0.004076014 0.02434429
0.05880049 -0.100901514 -0.044644497 0.0648673 0.06549512 0.08869484 0.046139643 0.08011249
-0.056677237 0.056050178 0.055724382 -0.07628912 -0.03593436 -0.11482306 0.030564383 0.09272857
0.021902828 -0.028756395 0.08998032 0.04625717 0.1079593 0.030957326 0.046353225 0.057158183
0.08175445 0.018287458 0.0760553 0.034180596 0.035344668 0.029243708 0.07787977 -0.05943942
0.104430646 -0.032390073 -0.017319322 0.014646098 0.03398527 0.1107797 -0.051795404 0.121069565
-0.028670097 -0.106902994 -0.030982092 -0.058404997 0.068162054 -0.017906655 -0.017684743 0.100994326

bias f4 [7]
00000000: c101 cebc eda4 72bd 0335 c63d 6458 063d
00000010: 5c71 903d 841d d93c e39a cf3c
-0.02514732 -0.059239317 0.0967808 0.03279914 0.070528716 0.026503332 0.02534241
