experiements/starter_team/continuous_state/DQN/results/final_modals/max_damage_final.pt (torch, 9847 bytes, 6 tensors)

weight f4 [32, 8]
0	0xbd9a25af	-0.07526719
1	0xbe6a8b33	-0.22904663
2	0xbe1156a5	-0.14193209
3	0x3e203486	0.15645036
4	0x3cafdfb3	0.021468973
5	0xbb8f3503	-0.004370333
6	0x3e6b52c5	0.22980793
7	0x3cd327c0	0.02577579
8	0x3bfa29f4	0.0076343957
9	0x3df251dc	0.1183202
10	0xbcfa9c54	-0.030592121
11	0xbe062477	-0.13099848
12	0xbd75c843	-0.060005438
13	0xbe348064	-0.17627102
14	0x3e2669e7	0.16251336
15	0x3d5244b9	0.05133507
16	0xbe139cd3	-0.14415292
17	0xbea96592	-0.33085304
18	0xbdd59530	-0.10428846
19	0x3e4e5740	0.2015047
20	0xbd9a1150	-0.07522833
21	0x3ea193e0	0.31558132
22	0xbe73e74e	-0.23818704
23	0x3e5f4ed8	0.2180742
24	0x3e79153b	0.24324505
25	0xbe846797	-0.25860283
26	0x3d669eb0	0.05630368
27	0x3e98dc0a	0.29855376
28	0xbea41287	-0.32045385
29	0x3e3b54e0	0.18294096
30	0x3ea03f2a	0.3129819
31	0xbeb3f7e7	-0.35150072
32	0x3d9ec189	0.07751758
33	0xbe87fb41	-0.2655888
34	0x3e273aee	0.16331074
35	0x3e157b07	0.14597712
36	0xbd867c74	-0.06566706
37	0xbe2331bf	-0.15936945
38	0xbdc0aba8	-0.09407741
39	0x3ea71fa5	0.3264133
40	0xbdd18b82	-0.10231687
41	0xbe9273da	-0.28604013
42	0x3e0eb389	0.13935675
43	0x3daf414e	0.08557378
44	0xbdbae67d	-0.091259934
45	0x3d8e1a42	0.06938602
46	0x3df41394	0.11917797
47	0xbdfae123	-0.12249973
48	0x3d85fb68	0.065420926
49	0xbe96f691	-0.2948499
50	0x3db1a54f	0.08674108
51	0xbe63a6c2	-0.22231582
52	0x3e2c7a36	0.16843495
53	0x3c0f2ed3	0.008739191
54	0x3e13bf46	0.14428434
55	0xbe2756ed	-0.16341753
56	0x3eb165e3	0.34648046
57	0xbdafa53b	-0.08576437
58	0x3e9e8b25	0.30965534
59	0xbe964986	-0.2935297
60	0x3dd2848a	0.10279186
61	0xbe57ee29	-0.21086945
62	0x3e778d79	0.24175061
63	0xbe37eee7	-0.17962228
64	0xbaaa4eca	-0.0012993452
65	0xbe3d78f6	-0.18503174
66	0x3e925735	0.2858216
67	0x3eaeb052	0.34118897
68	0xbea38009	-0.3193362
69	0x3e192c71	0.1495836
70	0x3e22a612	0.15883663
71	0xbe944159	-0.28956106
72	0xbd9b3bee	-0.0757979
73	0x3d9e1df4	0.07720557
74	0x3d75ca62	0.06000746
75	0xbe804dc7	-0.2505934
76	0xbe196e4a	-0.14983478
77	0xbde22b95	-0.11043469
78	0xbd005ac4	-0.03133656
79	0xbe03bf9a	-0.12866059
80	0xbe986f0c	-0.29772222
81	0xbe644c3e	-0.22294709
82	0xbeaa55cd	-0.33268586
83	0xbe9f28d1	-0.31085828
84	0x3e7f3c80	0.24925423
85	0x3e55e517	0.20888172
86	0xbcd52522	-0.026018683
87	0xbe990c58	-0.2989223
88	0xbe04d96d	-0.12973566
89	0x3e825253	0.25453433
90	0xbe37e77d	-0.179594
91	0xbd9fa5fa	-0.077953294
92	0x3e52a095	0.2056907
93	0xbd896ca4	-0.06710175
94	0xbd85c52e	-0.0653175
95	0xbe02cc69	-0.12773289
96	0x3ea90ccf	0.33017585
97	0xbe3991f4	-0.18122083
98	0xbc0c959d	-0.008580592
99	0xbd87f73e	-0.066389546
100	0x3e900058	0.28125262
101	0x3d6779ab	0.056512516
102	0xbe441188	-0.19147313
103	0xbd5d14f5	-0.053975064
104	0x3e83d688	0.25749612
105	0xbe937796	-0.28802174
106	0xbe1c646e	-0.15272686
107	0x3e6c1881	0.23056222
108	0xbe8ed4a7	-0.27896616
109	0x3e960d5e	0.29307073
110	0x3e4c63d9	0.19959964
111	0x3e946fd1	0.2899156
112	0x3e985b23	0.29757032
113	0x3e707ba2	0.23484662
114	0xbe095af9	-0.1341361
115	0xbc8233f4	-0.015893914
116	0x3e991bb2	0.29903942
117	0xbe869e94	-0.2629286
118	0x3d36b8b4	0.04460974
119	0x3e066aad	0.13126631
120	0xbdc20098	-0.094727695
121	0x3e803d1e	0.2504663
122	0x3e53ad32	0.20671538
123	0xbdadd9f1	-0.08488835
124	0xbda3a775	-0.07990924
125	0xbe76153a	-0.24031535
126	0xbd616ce2	-0.05503548
127	0xbe92ae59	-0.28648642
128	0xbea5f855	-0.32416025
129	0xbdfc7c36	-0.12328379
130	0x3dcb3b42	0.09923412
131	0x3e2a469d	0.166285
132	0x3ea29d55	0.3176066
133	0xbcf7a6aa	-0.030230839
134	0x3e80ecd2	0.2518068
135	0x3eb2c570	0.34916258
136	0xbe688864	-0.22708279
137	0x3e80854f	0.25101706
138	0x3e177af1	0.14792992
139	0xbe9d0a17	-0.3067176
140	0x3e1df78c	0.15426463
141	0xbe899200	-0.26869202
142	0xbcc15716	-0.023601096
143	0xbe9a95ed	-0.3019251
144	0x3eabe625	0.33574024
145	0xbe6f0341	-0.23341085
146	0xbe55c610	-0.20876336
147	0xbd074a66	-0.033029936
148	0x3e074aa2	0.13212064
149	0xbd803133	-0.06259384
150	0x3d1ecf3c	0.038771853
151	0x3e0c2943	0.13687615
152	0xbeabb603	-0.335373
153	0x3ea0ab16	0.31380528
154	0xbe303aed	-0.17209978
155	0xbdc00d88	-0.09377581
156	0xbe0fcb87	-0.14042483
157	0xbe6393a7	-0.22224294
158	0x3e887627	0.26652643
159	0xbcbd2b5b	-0.023091963
160	0xbeb0defc	-0.34545124
161	0xbeae96ce	-0.3409943
162	0xbe33997f	-0.17539023
163	0x3e85260b	0.26005587
164	0x3eb10594	0.34574568
165	0xbc13b620	-0.00901559
166	0x3e14f716	0.14547381
167	0x3e699561	0.2281089
168	0x3e921cbc	0.28537548
169	0x3bfdc405	0.0077443146
170	0x3e7835b2	0.24239233
171	0x3e82d963	0.25556478
172	0xbea5566f	-0.32292506
173	0xbe7bb841	-0.24582006
174	0x3e5e552e	0.21712181
175	0x3eaf20f2	0.34204823
176	0xbe8b89c9	-0.2725356
177	0x3d004f52	0.031325646
178	0x3d0121ba	0.031526305
179	0xbdcf153b	-0.10111471
180	0xbe7f4085	-0.24926956
181	0xbdec1c0a	-0.115287855
182	0x3d47e96d	0.048806597
183	0xbdde7771	-0.108626254
184	0x3d1b893a	0.037972666
185	0x3d97e57b	0.07416817
186	0x3e2c73d6	0.16841063
187	0xbe66ad10	-0.22526956
188	0x3e4cfff9	0.20019521
189	0xbe15f753	-0.14645128
190	0xbd2fd83b	-0.042930823
191	0xbcbdc581	-0.023165466
192	0xbd7bb76f	-0.061454233
193	0x3e30b2bf	0.17255686
194	0xbe4d518e	-0.20050642
195	0x3e25a8dc	0.16177696
196	0xbe898e55	-0.26866403
197	0x3e249f22	0.1607633
198	0xbe49f562	-0.19722512
199	0xbe6980cc	-0.22803038
200	0xbe0b3245	-0.13593395
201	0xbe871ef8	-0.26390815
202	0xbd9df003	-0.07711794
203	0xbe0b5d01	-0.13609697
204	0x3dbeedac	0.09322676
205	0xbe8656e8	-0.2623818
206	0xbe9e3d05	-0.3090593
207	0xbd70d8c0	-0.05880046
208	0x3dd6826b	0.10474094
209	0x3dcc024f	0.09961378
210	0xbe24c6e0	-0.1609149
211	0xbea2dc0f	-0.31808516
212	0xbe5ec588	-0.2175504
213	0x3d2ee841	0.042701963
214	0x3d38495e	0.044991843
215	0xbe30d037	-0.17266928
216	0xbe84fb65	-0.2597305
217	0x3e500db6	0.2031773
218	0x3e17f6ed	0.14840288
219	0xbdba5944	-0.09099057
220	0x3e9e6b41	0.30941203
221	0x3e92ac5a	0.2864712
222	0x3ea649a4	0.32478058
223	0x3ea90473	0.33011207
224	0xbe74b376	-0.23896584
225	0xbe36443b	-0.17799465
226	0xbb8a56bc	-0.0042217653
227	0x3e887128	0.2664883
228	0x3db3afaf	0.08773743
229	0xbc5e7b81	-0.01357925
230	0xbe1bd792	-0.15218952
231	0xbe744604	-0.23854834
232	0xbc4b4a5a	-0.0124078635
233	0x3e9345bf	0.2876415
234	0x3d7ea306	0.06216719
235	0x3e5a05f3	0.21291332
236	0xbe8fdc8a	-0.28097945
237	0x3e58fa52	0.2118924
238	0x3d11fa32	0.035638995
239	0x3d302fa5	0.043014187
240	0x3d160b69	0.036631975
241	0xbe5da820	-0.21646166
242	0xbea9e386	-0.331814
243	0xbc8e921d	-0.017403657
244	0x3ddd357c	0.10801217
245	0x3df752c8	0.12076336
246	0xbdb713a2	-0.089392915
247	0x3e3ed070	0.186342
248	0x3d86d1e2	0.06583001
249	0x3e91aa6d	0.28450337
250	0xbbc25644	-0.005930694
251	0x3e05ac47	0.13054
252	0xbcce946d	-0.02521726
253	0x3e6472ae	0.22309372
254	0xbe8acddb	-0.2711018
255	0x3e31f08f	0.17376922

bias f4 [32]
0	0xbe31a9a9	-0.17349876
1	0xbde53c67	-0.111931615
2	0x3eae2100	0.34009552
3	0xbe5d3d35	-0.2160538
4	0x3ea964d7	0.33084747
5	0x3c4be672	0.012445079
6	0x3e91f99f	0.28510758
7	0x3e9fd398	0.3121612
8	0xbbdb383c	-0.0066900533
9	0x3e9b0b61	0.3028212
10	0x3ccf310d	0.025291944
11	0xbe0e34bb	-0.13887303
12	0xbe3f7504	-0.18696982
13	0x3e0b133f	0.1358156
14	0xbe32412e	-0.17407677
15	0x3ddd860d	0.10816584
16	0xbdb40c28	-0.08791381
17	0xbd0aa29e	-0.03384649
18	0xbbbff024	-0.0058574844
19	0x3e097501	0.1342354
20	0xbe2f906d	-0.17144938
21	0xbea6bf7c	-0.32567966
22	0xbe5d739c	-0.21626133
23	0x3e89818b	0.26856646
24	0xbe820dbb	-0.254011
25	0xbe64198a	-0.22275367
26	0xbead70ff	-0.33875272
27	0x3eb0955c	0.34488952
28	0x3d800200	0.062503815
29	0xbeb23f1d	-0.34813777
30	0xbe6f0e8b	-0.23345391
31	0x3e16d7e5	0.14730795

weight f4 [32, 32]
0	0xbd3028b5	-0.04300757
1	0xbd2f7810	-0.04283911
2	0xbdc979fb	-0.09837719
3	0xbdd7e517	-0.10541742
4	0xbe05d36c	-0.13068932
5	0x3ddd032c	0.107916206
6	0xbe1aa0c9	-0.15100397
7	0x3db514d1	0.08841861
8	0xbdc21de5	-0.09478358
9	0xbced29f4	-0.028950669
10	0xbe1674f9	-0.14693059
11	0x3e2a63c8	0.16639626
12	0xbd923d42	-0.0714059
13	0x3ce4c136	0.027924161
14	0x3d669d4b	0.05630235
15	0xbd4e5387	-0.050372627
16	0x3da7a9b4	0.08186665
17	0xbe25a652	-0.16176727
18	0x3e1caaa6	0.15299472
19	0xbdf0a3e5	-0.117500104
20	0x3e0989b1	0.13431431
21	0x3db3ddad	0.08782516
22	0x3c0fea35	0.008783867
23	0xbdf170b9	-0.11789078
24	0x3ae64c71	0.0017570389
25	0xbd8c6a97	-0.06856268
26	0xbd96fa86	-0.07372002
27	0xbe0421b8	-0.12903488
28	0x3d2d22c7	0.042269494
29	0xbd835b45	-0.06413893
30	0x3a210853	0.0006142903
31	0xbcd6ac62	-0.026205245
32	0x3df0140d	0.117225744
33	0x3c817df6	0.015807133
34	0x3e1bb2a7	0.15204869
35	0x3ce94bdf	0.028478561
36	0xbdbd3665	-0.092388906
37	0xbda1e817	-0.07905596
38	0x3e102c4b	0.14079396
39	0x3d7a5215	0.061113436
40	0xbd8496ba	-0.06474061
41	0x3deb4dcc	0.11489448
42	0x3c423234	0.01185279
43	0x3db2d798	0.087325275
44	0xbe0fe80c	-0.14053363
45	0xbdf37b9e	-0.118888125
46	0xbd954875	-0.07289211
47	0xbe153de4	-0.1457439
48	0xbcd84e5f	-0.026404558
49	0xbcfd183d	-0.030895347
50	0xbde815df	-0.113322966
51	0xbdc313cd	-0.09525261
52	0x3ddaf4da	0.10691233
53	0x3d72eba2	0.05930675
54	0x3d33fd44	0.043942705
55	0x3e284ba0	0.16435099
56	0x3e13268b	0.14370172
57	0x3dd5ced6	0.104398414
58	0x3cea44bb	0.028597226
59	0x3d2265d6	0.0396479
60	0xbdd20154	-0.102541596
61	0x3da59ef9	0.08086962
62	0xbd868ba0	-0.065696
63	0xbe2b55ca	-0.16731945
64	0x3d0a36bd	0.03374361
65	0x3dd1e19e	0.10248111
66	0xbe34b1b1	-0.17645909
67	0x3d2ec053	0.042663883
68	0xbd915891	-0.07096971
69	0xbd87bd6a	-0.06627925
70	0xbdc2ebf0	-0.09517658
71	0xbe259f0d	-0.16173954
72	0x3d173f4f	0.03692561
73	0x3daa599e	0.08317874
74	0xbcf4a6bf	-0.029864667
75	0xbdb1e147	-0.08685546
76	0xbcd6d9f2	-0.026226971
77	0xbe18d47c	-0.14924806
78	0xbd5e1de1	-0.054227713
79	0xbd97348f	-0.07383072
80	0x3d75aba5	0.059978146
81	0x3d8fd863	0.07023694
82	0x3d03fedd	0.03222548
83	0x3e043aeb	0.129131
84	0x3c964c82	0.018347029
85	0xbd1e7f3f	-0.03869557
86	0x3dd144ff	0.10218238
87	0xbe03ba59	-0.12864055
88	0xbddb1cfb	-0.10698887
89	0x3d51f45b	0.051258426
90	0x3c346442	0.011010231
91	0xbdd8dd16	-0.10589044
92	0xbb91a618	-0.0044448487
93	0xbd22e610	-0.039770186
94	0xbe01be8d	-0.12670346
95	0x3de91310	0.11380589
96	0xbda19433	-0.07889595
97	0x3e1af051	0.15130736
98	0x3da4909d	0.08035395
99	0x3ddbb450	0.10727751
100	0xbdcb5709	-0.0992871
101	0xbc2df9d4	-0.010618646
102	0xbdf5eb2a	-0.120077446
103	0xbd2934be	-0.041310064
104	0xbdfcc9b7	-0.123431616
105	0x3e026243	0.12732796
106	0xbe280b89	-0.1641065
107	0xbe0fa6d0	-0.14028478
108	0xbe1ab385	-0.15107544
109	0xbd070f6c	-0.03297369
110	0xbce93e9d	-0.02847224
111	0x3d80034e	0.0625063
112	0x3ad41ef9	0.0016183547
113	0x3e10fa84	0.14158064
114	0xbcaf0fcf	-0.021369843
115	0xbdfaeb4b	-0.1225191
116	0xbdea71b5	-0.11447469
117	0xbc58895f	-0.013216346
118	0x3d2ed650	0.042684853
119	0x3d8b6d9f	0.06808018
120	0xbcf6cbba	-0.030126441
121	0xbe03dc0e	-0.12876913
122	0x3c8be08d	0.017074848
123	0x3dffbe44	0.12487462
124	0xbdf00e08	-0.11721426
125	0x3d548537	0.051884856
126	0x3e055196	0.13019404
127	0xbdfe240b	-0.124092184
128	0xbdba75d4	-0.09104505
129	0x3ce3fcd0	0.027830511
130	0xbe2414ad	-0.16023512
131	0xbda6a1b5	-0.08136312
132	0xbdd169a7	-0.1022523
133	0xbe246178	-0.16052806
134	0xbe03d67b	-0.12874787
135	0x3e0bd482	0.13655284
136	0x3def8b75	0.11696521
137	0xbdb1c9d0	-0.08681071
138	0xbe0df484	-0.13862807
139	0x3e1c166a	0.15242925
140	0x3e10db61	0.14146186
141	0x3dc85765	0.09782294
142	0xbe09876a	-0.13430563
143	0xbdb1574e	-0.0865923
144	0xbd8d7e65	-0.069088735
145	0x3cfe6ee0	0.031058729
146	0xbd2f75b8	-0.042836875
147	0x3e2af2bc	0.16694158
148	0x3db074be	0.08616017
149	0x3db1b069	0.08676226
150	0xbce9ccca	-0.028540034
151	0x3e030ab0	0.12797046
152	0xbda4a680	-0.0803957
153	0x3de16c1c	0.11006948
154	0x3db81ebe	0.089902386
155	0xbe143f7a	-0.1447734
156	0xbe0d03dc	-0.13771003
157	0x3cf5a515	0.029985944
158	0xbde6ed13	-0.11275687
159	0xbe169794	-0.1470626
160	0xbe0920aa	-0.13391367
161	0x3d2313ea	0.039813913
162	0x3daef7c4	0.08543351
163	0xbdfc7f29	-0.123289414
164	0x3e0da7c8	0.13833535
165	0xbd4cb6d8	-0.04997906
166	0x3e1f222d	0.15540381
167	0xbda5ca24	-0.08095196
168	0x3c8d6811	0.017261537
169	0xba8c9a90	-0.0010727216
170	0x3da601d9	0.08105821
171	0x3da52688	0.0806399
172	0x3e230677	0.15920435
173	0xbd0953e4	-0.03352727
174	0x3d95b1da	0.07309313
175	0xbbe2d88f	-0.0069227885
176	0xbd6fc7f6	-0.058540307
177	0xbe1712f8	-0.1475333
178	0x3d54b5c9	0.051931176
179	0x3d80890c	0.062761396
180	0xbc72149b	-0.014775421
181	0x3d387c48	0.0450404
182	0x3d893565	0.06699637
183	0x3d8e39d8	0.069446266
184	0x3df9c10f	0.12195026
185	0xbdb003a9	-0.08594448
186	0xbdccddd2	-0.10003246
187	0xbd7181e7	-0.058961775
188	0xbcce774e	-0.025203373
189	0xbd8a16ad	-0.06742606
190	0x3d06aa3d	0.032877196
191	0xbe2853fe	-0.1643829
192	0x3dee1700	0.11625481
193	0xbe1a43f6	-0.15064988
194	0x3e30edb7	0.17278181
195	0xbdbbef42	-0.09176494
196	0x3c373719	0.01118257
197	0x3da26fb1	0.0793146
198	0x3cc5addd	0.024130756
199	0x3df92110	0.12164509
200	0xbe1aac06	-0.15104684
201	0x3e28b71a	0.16476098
202	0x3e00325b	0.12519209
203	0x3e18d855	0.14926274
204	0xbe1aab91	-0.1510451
205	0xbda724c7	-0.081613116
206	0xbe1dfce1	-0.15428497
207	0x3ce1ba7d	0.027554745
208	0xbe12c78c	-0.14333934
209	0xbe0e914e	-0.13922617
210	0xbe145353	-0.1448491
211	0x3dda1436	0.10648386
212	0xbcba6de8	-0.022757486
213	0xbcb3d556	-0.021952312
214	0xbdcec9cb	-0.10097083
215	0xbdace00e	-0.084411725
216	0xbdbf4a3d	-0.09340332
217	0x3e1d237a	0.15345564
218	0xbdb651b3	-0.08902302
219	0x3df3b777	0.119002275
220	0x3dbc0599	0.09180755
221	0xbe0d9f5f	-0.13830326
222	0x3de2cae1	0.11073852
223	0xbe087f16	-0.1332973
224	0x3e03282e	0.12808296
225	0xbe32b377	-0.17451273
226	0x3a8fe78e	0.0010979043
227	0xbdf7580b	-0.1207734
228	0xbe18673d	-0.14883132
229	0xbdaac66c	-0.08338627
230	0x3e017e33	0.12645797
231	0x3d073fed	0.03301995
232	0xbe18904b	-0.14898793
233	0xbe117ca9	-0.1420771
234	0xbd9c3ffe	-0.07629393
235	0x3e2d9f7e	0.16955373
236	0xbccaa56b	-0.02473708
237	0xbe121560	-0.14265966
238	0x3d78bfa6	0.060729645
239	0x3dab756c	0.08372006
240	0x3e270869	0.16311802
241	0x3e0502e9	0.12989391
242	0x3e0e8439	0.13917626
243	0xbd06c8d8	-0.032906383
244	0xbd4cc551	-0.049992863
245	0xbcb44fcc	-0.022010706
246	0xbbb94502	-0.0056539783
247	0x3dea4168	0.114382565
248	0x3d92e815	0.071731724
249	0x3d75f9cd	0.06005268
250	0xbd951e5a	-0.0728118
251	0xbcfc8994	-0.030827321
252	0x3d823323	0.0635741
253	0x3e21a108	0.15784085
254	0xbc1491f3	-0.009068
255	0xbd74f903	-0.05980779

bias f4 [32]
0	0x3dd85196	0.10562436
1	0x3d963a69	0.073353596
2	0xbdbad5f3	-0.09122839
3	0x3e127d41	0.14305593
4	0x3ddb7fbe	0.10717724
5	0x3daa9c38	0.083305776
6	0xbdaa1334	-0.08304444
7	0xbd9865d8	-0.074413
8	0x3dbd148d	0.092324354
9	0xbe0ff798	-0.14059293
10	0xbdaa68cf	-0.08320772
11	0xbd2cdcf9	-0.042202923
12	0xbdab4345	-0.0836244
13	0xbd518393	-0.05115087
14	0xbe338c89	-0.17534079
15	0xbc342e41	-0.010997356
16	0x3e080ce0	0.13286161
17	0x3e2a20dc	0.16614097
18	0xbdc3ee22	-0.095669046
19	0x3a89385b	0.0010469066
20	0x3aa6d540	0.0012728348
21	0x3cb9d696	0.02268533
22	0x3e20f2c6	0.1571761
23	0xbd9aafc8	-0.07553059
24	0x3e147b59	0.14500178
25	0xbcf433f9	-0.029809939
26	0xbde1708a	-0.11007793
27	0xbe1b843a	-0.15187159
28	0xbe309472	-0.17244127
29	0x3de6a6f9	0.11262316
30	0x3dfe74a7	0.124245934
31	0x3c2c3b4a	0.0105121825

weight f4 [7, 32]
0	0xbdeb2b75	-0.11482898
1	0x3e2bdbde	0.16783091
2	0xbe21af58	-0.15789545
3	0xbd87cb3a	-0.06630559
4	0x3d1a1d5b	0.03762565
5	0xbe0d4fcb	-0.1379997
6	0x3d3cf439	0.046131346
7	0x3cbc3ce2	0.02297825
8	0x3e066616	0.1312488
9	0x3d256533	0.040379714
10	0xbc3f362c	-0.01167063
11	0x3db2f49e	0.08738063
12	0x3d34044b	0.043949407
13	0x3ce17f23	0.027526444
14	0xbd87e591	-0.06635583
15	0x3db254e7	0.087076
16	0xbd562e95	-0.052290518
17	0xbe1442a3	-0.14478545
18	0x3cbe81fe	0.023255344
19	0x3c8de347	0.017320288
20	0x3e27104f	0.16314815
21	0x3c22ea4e	0.009943558
22	0x3d9b6ddf	0.075893156
23	0x3c2fac9c	0.010722306
24	0xbdd43b88	-0.10362917
25	0xbdc3d9b1	-0.09563006
26	0x3b81c62d	0.003960392
27	0xbe19521f	-0.14972733
28	0xbafaf4e5	-0.0019146471
29	0x3cfcd8bb	0.030865064
30	0x3dbae927	0.091265015
31	0x3ce15187	0.027504696
32	0x3e170fbf	0.147521
33	0x3d08ae8f	0.033369597
34	0xbe0c3ca1	-0.13695003
35	0xbe046f2b	-0.12933032
36	0xbe2f49cb	-0.17117994
37	0xbd9ae5b0	-0.07563341
38	0x3e009ce7	0.12559853
39	0x3dbaf338	0.091284215
40	0xbcd586e4	-0.026065297
41	0xbd2d5764	-0.04231967
42	0xbdeba939	-0.11506886
43	0x3e1d2f88	0.15350163
44	0x3cb09950	0.02155748
45	0xbe262b38	-0.16227424
46	0x3e11d5c7	0.14241706
47	0x3e0e2376	0.13880715
48	0x3d8e10c1	0.06936789
49	0x3e2fede4	0.17180592
50	0xbe087277	-0.13324915
51	0xbe1efb8a	-0.15525642
52	0xbdb5495a	-0.08851881
53	0xbc672257	-0.014107308
54	0x3d0945d6	0.033513866
55	0xbe286df5	-0.16448195
56	0x3ddbd8c3	0.107347034
57	0x3da8b32a	0.08237298
58	0xbde3282c	-0.110916466
59	0x3dcad1f7	0.09903329
60	0xbd86811b	-0.06567594
61	0x3d175223	0.036943566
62	0x3dbc83fe	0.09204863
63	0xbdb97181	-0.09054852
64	0x3d91d18c	0.07120046
65	0x3daa37f1	0.08311451
66	0xbe07d653	-0.13265352
67	0xbdb99bd1	-0.09062923
68	0x3ddeea36	0.10884516
69	0xbe3399d1	-0.17539145
70	0xbd2935a6	-0.04131093
71	0x3d2abf21	0.04168618
72	0xbcaee5d3	-0.021349823
73	0xbdd22a49	-0.102619715
74	0x3e0fcca1	0.14042903
75	0x3e20a673	0.15688495
76	0x3e24d700	0.16097641
77	0x3dbd6f4e	0.09249745
78	0xbe06f6d0	-0.13180089
79	0xbb01a085	-0.0019779515
80	0x3d6e661f	0.05820286
81	0x3dd5c6ed	0.10438333
82	0x3d96c5fd	0.07361982
83	0xbd944849	-0.0724035
84	0xbe277566	-0.16353378
85	0xbe08fea4	-0.13378388
86	0xbdc912ad	-0.09818015
87	0x3df29a51	0.1184584
88	0xbd9d25a0	-0.07673192
89	0x3e01caaf	0.12674974
90	0x3e2dfb37	0.16990362
91	0x3e22bc72	0.15892199
92	0xbd84afe5	-0.06478862
93	0xbd252fd6	-0.040328823
94	0xbdc66ef0	-0.096891284
95	0xbe080765	-0.13284071
96	0x3dcd2a7d	0.100178696
97	0xbd196b79	-0.03745601
98	0xbe0240e1	-0.12720062
99	0x3d68ae7f	0.056807037
100	0xbdc108da	-0.094255164
101	0xbdb408fa	-0.08790775
102	0x3c19d3c0	0.009388864
103	0xbd51dfc9	-0.05123881
104	0x3d461ab1	0.0483653
105	0x3e2ce5c6	0.16884527
106	0xbda06ca1	-0.07833219
107	0x3e2dd792	0.16976765
108	0x3d9a95b7	0.07548087
109	0x3c450ca5	0.0120269405
110	0xbcbcbb3c	-0.023038499
111	0xbde6d96c	-0.11271939
112	0x3da051b7	0.07828086
113	0xbd48165a	-0.04884944
114	0x3df5cc1e	0.12001823
115	0xbe169fac	-0.14709347
116	0xbe3340af	-0.17505144
117	0xbdd48bc1	-0.103782184
118	0x3c070060	0.0082398355
119	0xbca99346	-0.020700108
120	0xbd77bcf0	-0.06048292
121	0xbd3fe2d7	-0.04684719
122	0xbe0290fb	-0.12750618
123	0x3d86f877	0.0659036
124	0xbde036aa	-0.10947926
125	0xbd46c964	-0.048531905
126	0xbdfa24c8	-0.12214047
127	0xbcb20891	-0.0217326
128	0x3d80d546	0.06290679
129	0x3baf0dc6	0.005342218
130	0x3e16565a	0.14681378
131	0x3b06a227	0.0020543428
132	0x3c79aba5	0.015238677
133	0x3ce14993	0.027500903
134	0xbdf6cd51	-0.1205088
135	0x3de328df	0.1109178
136	0x3d5274a7	0.05138078
137	0x3d8555fd	0.065105416
138	0xbe0e608b	-0.13904016
139	0x3c87d728	0.016582087
140	0x3d42a8e3	0.047524344
141	0x3d362b97	0.044475164
142	0x3de73dc6	0.11291079
143	0xbe2d92ac	-0.16950482
144	0x3d352969	0.044228945
145	0x3e0865f7	0.13320147
146	0xbe232c74	-0.15934926
147	0x3d62f6a7	0.055411007
148	0xbe10004f	-0.14062618
149	0x3d376345	0.044772405
150	0x3b04dac6	0.0020272
151	0x3da8dee5	0.08245639
152	0x3e19b836	0.15011677
153	0x3e108295	0.14112313
154	0xbd09da49	-0.03365544
155	0x3e0bd091	0.1365378
156	0x3dcf3803	0.10118105
157	0x3dac1663	0.084027074
158	0xbe11cd73	-0.14238529
159	0x3e31a515	0.1734813
160	0x3b7b2b57	0.0038325393
161	0xbd943263	-0.07236173
162	0x3dec1a4e	0.11528455
163	0x3c59058e	0.013245953
164	0xbdd9e257	-0.10638874
165	0xbd824b7c	-0.06362054
166	0x3e075c9e	0.13218924
167	0x3deaf71f	0.11472916
168	0x3e25a1ff	0.16175078
169	0x3d67f3c7	0.05662897
170	0x3dc5f088	0.09665018
171	0xbdaf07b9	-0.08546395
172	0xbdf00ce2	-0.11721207
173	0x3df80f29	0.121122666
174	0x3e15862a	0.14601961
175	0xbe17a80a	-0.14810196
176	0xbe137173	-0.14398746
177	0x3d531618	0.051534742
178	0x3d29ec0f	0.04148489
179	0xbe014aef	-0.12626241
180	0xbe030db2	-0.12798193
181	0xbe13ff29	-0.14452805
182	0x3dba43fa	0.09094997
183	0xbdadcd1d	-0.08486388
184	0x3e2336d0	0.15938878
185	0xbd896074	-0.0670785
186	0x3d3c8d57	0.04603323
187	0x3e0c1394	0.13679343
188	0xbe31cd9f	-0.17363594
189	0x3d80eece	0.062955484
190	0x3dd36999	0.103228755
191	0x3d18fe78	0.037352055
192	0x3e1cdd24	0.15318733
193	0x3d241abd	0.040064562
194	0x3dd6f507	0.10495954
195	0xbde9b2b4	-0.11411038
196	0x3e1b8faa	0.15191522
197	0xbde78b42	-0.11305858
198	0x3dbef35a	0.093237594
199	0x3e035f7a	0.1282939
200	0x3a11e28d	0.000556507
201	0xbc11a8a8	-0.008890308
202	0x3d210294	0.0393091
203	0x3d3aaa52	0.045572586
204	0xbd10177c	-0.035178646
205	0x3e119d1f	0.14220093
206	0xbd4597d5	-0.0482405
207	0xbd0fc904	-0.035103813
208	0x3defdcbe	0.11712025
209	0xbde9c6a2	-0.11414839
210	0x3dcc44bc	0.099740475
211	0x3d9436c3	0.072370075
212	0xbdabe6f2	-0.08393659
213	0x3e118f32	0.14214781
214	0x3e13a3d1	0.1441796
215	0xbdc029ea	-0.093829945
216	0xbd6c342b	-0.05766694
217	0x3ceb7e60	0.028746784
218	0xbde5cebe	-0.112210736
219	0x3d8e999a	0.06962891
220	0x3b38ea53	0.002821584
221	0x3d107ea8	0.03527704
222	0x3d330d94	0.04371412
223	0x3e20b913	0.156956

bias f4 [7]
0	0x3def614c	0.1168848
1	0x3dd8f74b	0.105940424
2	0xbd94cdd5	-0.07265822
3	0xbd4f8083	-0.050659668
4	0x3d9829c0	0.07429838
5	0x3c423ec1	0.011855782
6	0x3ca7ae60	0.02046889
