experiements/starter_team/continuous_state/DQN/results/random_dqn/checkpoints/model_3000.pt (torch, 9839 bytes, 6 tensors)

weight f4 [32, 8]
0	0xbeadbf0c	-0.3393482
1	0x3e3b5467	0.18293916
2	0x3d3d97da	0.046287395
3	0x3d644bf7	0.05573651
4	0xbe38ffb7	-0.18066297
5	0xbea39441	-0.31949046
6	0xbaee34e3	-0.001817372
7	0x3e783169	0.24237598
8	0xbe3ec41c	-0.18629497
9	0xbd988374	-0.07446948
10	0x3e5219d8	0.20517671
11	0x3e6bb83d	0.230195
12	0xbe7b2724	-0.2452665
13	0xbe08a054	-0.1334241
14	0x3e95527c	0.29164493
15	0x3ca126a4	0.019671746
16	0x3e517c5f	0.204576
17	0x3e9d9afa	0.307823
18	0xbe1756b3	-0.14779167
19	0xbe514cb2	-0.20439413
20	0xbd2330cc	-0.03984146
21	0xbe4e931a	-0.20173302
22	0x3eae8bf3	0.34091148
23	0xbe22b519	-0.15889396
24	0xbb8b132e	-0.0042442298
25	0x3d72707c	0.059189305
26	0xbead073b	-0.3379458
27	0xbe96f2c3	-0.29482087
28	0xbe5f54cc	-0.21809691
29	0xbe3a80a2	-0.18213132
30	0x3e605364	0.21906811
31	0xbc8a55f1	-0.016886683
32	0xbdf2fb6e	-0.11864363
33	0x3e7f4d15	0.24931748
34	0x3e6d2397	0.23158108
35	0xbeae4707	-0.34038565
36	0x3c91fe21	0.017821373
37	0x3c86e34b	0.016465804
38	0x3d065c5e	0.032802932
39	0x3e9c7439	0.3055742
40	0xbe2572d5	-0.16157086
41	0xbc6432b0	-0.0139281005
42	0x3ddea20b	0.10870751
43	0xbead5341	-0.3385258
44	0x3e33cc44	0.1755839
45	0xbcf47b9c	-0.029844098
46	0xbe2f429c	-0.17115253
47	0xbd277dc3	-0.04089142
48	0x3e9b2396	0.30300587
49	0xbde0b8cb	-0.109727465
50	0x3e4e9abc	0.20176214
51	0x3e429c86	0.19005021
52	0x3dc59b75	0.09648792
53	0xbe5c393c	-0.21506208
54	0x3e272cbe	0.16325662
55	0x3c86d0e9	0.016457038
56	0x3dd978ae	0.10618721
57	0xbe628e2e	-0.2212455
58	0x3c769e34	0.015052367
59	0xbe5aa53f	-0.21352099
60	0xbe96c037	-0.29443523
61	0xbc2a683f	-0.010400831
62	0x3de00e8e	0.10940276
63	0x3d28b642	0.04118944
64	0xbe80c2a1	-0.2514849
65	0x3dbc6d69	0.09200556
66	0x3eb454fc	0.35221088
67	0xbe45565c	-0.19271225
68	0x3db10772	0.08643998
69	0xbe0ed804	-0.13949591
70	0x3df1482a	0.11781342
71	0x3eb4e7d9	0.35333136
72	0xbe38ab64	-0.1803413
73	0x3df1bb77	0.11803334
74	0x3c20567d	0.009786245
75	0xbe893be2	-0.268035
76	0xbe1a93e2	-0.15095475
77	0x3e1dc4a3	0.15407042
78	0xbe58cf5d	-0.21172853
79	0x3e1b9cd1	0.1519654
80	0x3e4a1dfc	0.19738
81	0xbe64818d	-0.22315045
82	0xbdb42a0e	-0.08797084
83	0xbe8a49b3	-0.27009353
84	0x3d8a66a0	0.067578554
85	0x3daee5ea	0.085399464
86	0x3e4caa80	0.19986916
87	0xbd92289f	-0.07136654
88	0x3e286951	0.16446425
89	0x3e8a3605	0.2699434
90	0x3ea72d9b	0.32651982
91	0xbe4637af	-0.19357179
92	0x3cafe9b0	0.021473736
93	0x3d1b73e1	0.037952308
94	0x3e0ec79f	0.13943337
95	0x3da8719a	0.08224793
96	0x3d68422d	0.056703735
97	0xba8c86c4	-0.0010721316
98	0xbe0b4719	-0.1360134
99	0xbc2bef74	-0.010494102
100	0x3c80a4ca	0.015703578
101	0xbeb1071f	-0.34575745
102	0x3e977b8f	0.29586455
103	0x3eaaff9c	0.3339814
104	0xbea20186	-0.31641787
105	0x3e5ef07a	0.21771422
106	0x3e05a65e	0.13051745
107	0xbdcf3951	-0.10118354
108	0xbe1453b3	-0.14485054
109	0x3e9f036b	0.31057295
110	0x3e38c35e	0.18043277
111	0xbe6d7f37	-0.2319306
112	0x3e091d5b	0.13390104
113	0x3e6407cf	0.22268604
114	0x3d96c6dc	0.07362148
115	0x3e8ee6cf	0.27910468
116	0x3e183888	0.14865315
117	0xbe9f8ac5	-0.3116056
118	0x3e7d3d0a	0.24730316
119	0x3df492f2	0.1194209
120	0x3e4d033e	0.20020768
121	0x3e47afb3	0.19500618
122	0xbe9f6158	-0.31128955
123	0x3d20aebe	0.039229147
124	0x3e8e8d13	0.27842006
125	0xbe1d875f	-0.15383671
126	0x3d8c5128	0.06851417
127	0xbd9c39b7	-0.07628196
128	0x3e227419	0.158646
129	0x3eaaa5ca	0.33329612
130	0x3e193805	0.14962776
131	0x3e8c054c	0.2734779
132	0xbe975b4a	-0.29561836
133	0xbeb4fb29	-0.3534787
134	0xbe88ee7e	-0.26744455
135	0x3e1b1dec	0.15148133
136	0xbd046e74	-0.0323319
137	0x3df6d518	0.12052363
138	0xbe27a6f3	-0.1637228
139	0xbdb710c8	-0.08938748
140	0xbdddd518	-0.1083166
141	0xbd9aaf65	-0.07552985
142	0xbe9926fa	-0.2991255
143	0x3dc19567	0.09452324
144	0xbe70320a	-0.23456588
145	0xbe9968a9	-0.29962662
146	0xbeb2564f	-0.34831473
147	0x3d5e9fb3	0.05435152
148	0x3c577c3a	0.0131521765
149	0x3c80a4b4	0.015703537
150	0x3e426172	0.18982485
151	0x3e569af8	0.20957553
152	0xbd77cd33	-0.060498428
153	0xbdea6137	-0.114443235
154	0x3d4f0b7c	0.05054806
155	0x3dbef0a8	0.09323245
156	0x3ea48e05	0.32139602
157	0x3ea60a56	0.3242976
158	0x3d1ac22d	0.037782837
159	0x3d96d65f	0.07365107
160	0xbdedf688	-0.11619288
161	0x3e7ddfd1	0.2479241
162	0xbeb248d3	-0.34821185
163	0x3e6ed3e0	0.23323011
164	0x3e232663	0.15932612
165	0xbe780115	-0.24219163
166	0xbc2f7dda	-0.010711158
167	0xbdfbda70	-0.12297523
168	0x3e9b11f1	0.30287126
169	0x3e90e4c8	0.28299546
170	0xbdd83665	-0.1055725
171	0x3eafb8f8	0.34320807
172	0x3d9f25a3	0.077708505
173	0xbe9c34e0	-0.3050909
174	0xbccf825e	-0.025330719
175	0xbe778894	-0.24173194
176	0xbea304f9	-0.3183973
177	0x3e363f1a	0.17797509
178	0x3eb17312	0.34658104
179	0xbdfd3584	-0.12363723
180	0xbc3b3593	-0.011426347
181	0xbe95a7cd	-0.29229584
182	0xbe82eaab	-0.25569662
183	0x3e187d93	0.14891653
184	0xbea872b8	-0.32900023
185	0x3aac11ec	0.00131279
186	0x3b8870f4	0.0041638557
187	0x3e843b7c	0.25826633
188	0x3e372e95	0.17888863
189	0x3d905d72	0.07049073
190	0xbe97e093	-0.29663524
191	0xbe68a82b	-0.22720401
192	0xbe58f7ca	-0.21188274
193	0x3e583284	0.2111302
194	0x3e8da04c	0.2766136
195	0xbe989c43	-0.29806718
196	0xba03ff38	-0.0005035284
197	0xbe181af7	-0.14854036
198	0x3e882a79	0.26594904
199	0x3d99dd95	0.075129665
200	0xbdcba77e	-0.09944056
201	0xbe4e1dbe	-0.20128533
202	0x3d84cad8	0.06484002
203	0x3dadb6bd	0.0848212
204	0xbe6c9c37	-0.23106466
205	0xbea207c6	-0.31646556
206	0xbdd568c5	-0.10420374
207	0xbc862c82	-0.016378645
208	0xbe3ed279	-0.18634976
209	0xbe8743d7	-0.26418945
210	0x3e8369be	0.25666612
211	0x3e81df7b	0.25365815
212	0xbe80b0f3	-0.25135002
213	0xbea8e0fd	-0.32984152
214	0x3d946a65	0.07246856
215	0xbe1d4a70	-0.15360427
216	0xbe8e027e	-0.27736276
217	0x3e866ceb	0.26254973
218	0xbe0934f4	-0.13399106
219	0x3d3a984a	0.04555539
220	0x3dbb3e5f	0.09142756
221	0x3e1d92d7	0.15388046
222	0x3d895071	0.06704796
223	0xbbffd43b	-0.0078072823
224	0x3dde4b61	0.10854221
225	0x3e7f28d0	0.24917912
226	0x3df8726b	0.121311985
227	0xbe2e5a0f	-0.17026542
228	0xbe6f5076	-0.23370537
229	0xbe3c1fe2	-0.18371537
230	0xbeaa6606	-0.33280963
231	0xbe4eac29	-0.20182861
232	0x3ba4116f	0.005006961
233	0xbbe8aa14	-0.007100353
234	0xbdbf7d3d	-0.09350059
235	0x3eb11717	0.3458793
236	0xbad84c1e	-0.0016502177
237	0x3e827077	0.2547643
238	0xbde135b5	-0.10996572
239	0xbb3bcf05	-0.0028657329
240	0xbcfba91e	-0.03072029
241	0xbe62552e	-0.22102806
242	0x3e2a0705	0.1660424
243	0xbd2b32b3	-0.041796397
244	0xbea84a36	-0.32869118
245	0xbc5177cc	-0.012784909
246	0xbe7a70b0	-0.2445705
247	0x3eabd9b7	0.3356454
248	0x3e084f03	0.1331139
249	0x3dae90c6	0.08523707
250	0xbdd84b1a	-0.105611995
251	0xbe949ac6	-0.29024333
252	0xbe692b9c	-0.22770542
253	0xbe37a475	-0.17933829
254	0xbe9b520b	-0.3033603
255	0xbdbf82ce	-0.09351121

bias f4 [32]
0	0xbdf3c922	-0.119035974
1	0x3ea482df	0.32131097
2	0xbd1df518	-0.038563818
3	0xbe5f5fd0	-0.21813893
4	0x3e89bf86	0.26903933
5	0xbd88087a	-0.06642242
6	0xbea4abe2	-0.32162386
7	0x3e23d2e4	0.15998417
8	0xbe715f33	-0.23571472
9	0x3e018f5a	0.1265234
10	0xbd431107	-0.04762366
11	0x3d8cef32	0.068815604
12	0x3dce7f91	0.10082925
13	0xbe75275c	-0.23940796
14	0x3e21b0d1	0.15790106
15	0xbe2985b2	-0.16554907
16	0x3e3f67df	0.18691967
17	0x3e7457de	0.23861644
18	0xbe59352a	-0.21211687
19	0x3bbff2f9	0.005857822
20	0x3e278659	0.16359843
21	0xbb80c825	-0.003930109
22	0x3c75aac8	0.014994331
23	0xbe497f46	-0.19677457
24	0xbd5ff81b	-0.05467997
25	0xbd8b5e7c	-0.06805131
26	0x3ea39569	0.31949928
27	0x3e4b4de6	0.19853935
28	0x3e406fa7	0.18792592
29	0x3e8e27fb	0.27764878
30	0xbd5f581f	-0.0545274
31	0xbe83b44b	-0.2572349

weight f4 [32, 32]
0	0x3db1026e	0.086430416
1	0x3da7616f	0.08172881
2	0xbd2282ac	-0.0396754
3	0xbe1f78e7	-0.15573464
4	0x3e13a812	0.14419582
5	0x3dbebbb6	0.09313147
6	0x3d568239	0.052370284
7	0x3e2f403f	0.17114352
8	0x3d453602	0.04814721
9	0xbd2fc578	-0.04291293
10	0x3c2647ea	0.010148982
11	0x3cfa6e8b	0.03057029
12	0x3e2a81b8	0.16651046
13	0xbe06d970	-0.13168883
14	0xbe1ebaf6	-0.15501007
15	0x3dd79c61	0.10527874
16	0x3dcd60fb	0.10028263
17	0x3df9a72c	0.12190089
18	0xbe122db5	-0.14275248
19	0xbdc9c8ca	-0.098527506
20	0xbc53c30c	-0.012924921
21	0x3d863c87	0.065545134
22	0xbb331ed0	-0.0027331598
23	0xbccb0990	-0.024784833
24	0x3d9f6242	0.07782413
25	0x3d91f002	0.07125856
26	0x3cd79921	0.026318135
27	0x3dacf8d4	0.08445898
28	0x3dabad29	0.08382637
29	0xbe11600c	-0.14196795
30	0x3e208ade	0.15677974
31	0x3dbd7c33	0.09252205
32	0x3d466003	0.048431408
33	0x3d82b48f	0.06382095
34	0x3d6289f0	0.05530733
35	0xbe2bb9af	-0.16770051
36	0xbd7d5c3b	-0.061855536
37	0x3dea6e70	0.114468455
38	0x3dde02a0	0.108403444
39	0xbb6bf279	-0.003600268
40	0x3db5717b	0.08859535
41	0xbda8671b	-0.08222791
42	0x3df6e619	0.120556064
43	0xbe2082a0	-0.1567483
44	0xbe265269	-0.16242374
45	0x3e26f5d0	0.16304708
46	0x3d0a9de3	0.03384198
47	0xbe116ed6	-0.14202437
48	0xbdc725e7	-0.09724026
49	0xbe202604	-0.15639502
50	0x3e069220	0.1314168
51	0xbd44cb42	-0.048045404
52	0x3dd2bea8	0.10290271
53	0xbe2cebe1	-0.16886856
54	0xbdbca5c7	-0.09211307
55	0xbd4c4da9	-0.04987875
56	0xbe241959	-0.16025294
57	0xbcc72d1e	-0.024313506
58	0x3df7b1c7	0.12094455
59	0xbe118446	-0.14210615
60	0xbd93c168	-0.07214624
61	0x3d74c23c	0.05975555
62	0x3dbe2d79	0.09286017
63	0x3c082d6d	0.008311612
64	0xba81db36	-0.0009907249
65	0x3c80a9b2	0.015705917
66	0xbcb0fa52	-0.021603737
67	0xbe1b1ab7	-0.1514691
68	0xbd0d56be	-0.034506552
69	0xbda82c81	-0.082116134
70	0xbd82b25f	-0.06381678
71	0x3dfe5fed	0.1242064
72	0xbe236f72	-0.15960482
73	0xbe0c0802	-0.1367493
74	0x3dc55b9b	0.09636613
75	0x3e1fe7b7	0.15615736
76	0xbe210f4d	-0.15728493
77	0x3dab22bf	0.08356237
78	0x3e2ad52c	0.16682881
79	0xbdb0fa33	-0.08641472
80	0x3db873b2	0.09006442
81	0x3dcdb118	0.100435436
82	0xbce4b3c7	-0.027917756
83	0xbe0a7780	-0.13522148
84	0xbd114385	-0.035464782
85	0xbdda5f99	-0.10662765
86	0x3cb379fc	0.021908753
87	0x3e0e8bf6	0.13920578
88	0xbd1de27d	-0.038546074
89	0xbdbce891	-0.09224046
90	0x3de13848	0.10997063
91	0xbac319c8	-0.0014885003
92	0xbe2d3a14	-0.16916686
93	0xbe2dd13b	-0.16974346
94	0x3d02dc5b	0.03194843
95	0xbb9ccefb	-0.004785416
96	0x3da8b5ba	0.082377866
97	0xbe0462dc	-0.12928337
98	0xbe0c6642	-0.13710883
99	0xbe13aa3a	-0.14420405
100	0xbe1ff5da	-0.15621129
101	0x3de52ce4	0.11190203
102	0x3d88e5b4	0.066844374
103	0xbe27c97d	-0.16385455
104	0xbd2aa7e2	-0.04166401
105	0xbc84333c	-0.016137712
106	0x3e2e7c36	0.1703957
107	0xbd508591	-0.05090863
108	0x3dbb154b	0.09134921
109	0xbca234c2	-0.019800548
110	0xbdbeb028	-0.09310943
111	0x3e1764b4	0.14784509
112	0xbd87c1ab	-0.06628736
113	0x3c67b100	0.014141321
114	0xbccebaec	-0.025235616
115	0x3c7e7d5f	0.0155328205
116	0x3c63e7d2	0.013910251
117	0xbda53d42	-0.080683246
118	0xbe118a13	-0.14212827
119	0xbd6e190c	-0.058129355
120	0xbdf1683a	-0.11787458
121	0xbd9214c1	-0.07132865
122	0x3dfedadd	0.124440886
123	0x3d696c94	0.056988314
124	0xbe17a935	-0.14810641
125	0x3dc6b29c	0.09702036
126	0xbe26656c	-0.16249627
127	0x3decc97b	0.11561867
128	0x3e12c364	0.14332348
129	0xbd9059f1	-0.07048405
130	0x3da8ac37	0.082359724
131	0xbde23e44	-0.110470325
132	0xbe239fb9	-0.15978898
133	0xbdbcbe4f	-0.09215986
134	0xbe195dd7	-0.14977203
135	0xbdd767ff	-0.105178826
136	0x3c4ae4cb	0.01238365
137	0x3e2a84f9	0.16652288
138	0xbe02ea57	-0.12784706
139	0xbd31c74b	-0.04340295
140	0x3dddc726	0.10829
141	0x3d686e9d	0.056746114
142	0x3d75d2fa	0.060015656
143	0x3c7f38d8	0.015577517
144	0x3dffa04d	0.12481747
145	0xbd8af0cc	-0.067842096
146	0x3e33d5c3	0.17562012
147	0xbd94d2d6	-0.07266776
148	0xbde6a318	-0.112615764
149	0x3dce14ed	0.10062585
150	0xbd26c6b5	-0.040716846
151	0x3dd5cd86	0.10439591
152	0xbd423bb4	-0.04742022
153	0x3b76a8a2	0.0037637134
154	0xbde6d363	-0.112707876
155	0x3debea69	0.115193196
156	0xbe23fe14	-0.16014892
157	0x3d278e56	0.040907227
158	0xbdf97240	-0.121799946
159	0x3d144d2e	0.036206417
160	0xbd2b672e	-0.041846447
161	0xbddc687b	-0.107621156
162	0x3e334c7e	0.17509648
163	0xbe06203d	-0.13098235
164	0xbdc7b9be	-0.097522244
165	0x3d5b68c8	0.053566724
166	0x3df578ec	0.11985955
167	0xbe15fed2	-0.14647987
168	0xbdaa6bf8	-0.08321375
169	0x3d12a7ca	0.035804547
170	0x3c9c1f88	0.019058004
171	0x3e1a1ef9	0.15050878
172	0x3d033069	0.03202859
173	0x3d1cc8ed	0.038277555
174	0xbd7ceb45	-0.061747808
175	0x3d87d2f0	0.0663203
176	0x3db132e6	0.08652286
177	0xbe10e726	-0.14150676
178	0xbe2b81b1	-0.16748692
179	0x3de3d5bf	0.11124753
180	0x3c41c6a2	0.011827143
181	0x3df8bf6b	0.12145885
182	0x3ca1b6f0	0.019740552
183	0xbe341c58	-0.17588937
184	0x3d8a2b7e	0.06746577
185	0xbcfc60f7	-0.030807955
186	0xbca4b6fd	-0.020106787
187	0xbdfae91d	-0.12251494
188	0x3db9f1dd	0.09079335
189	0x3da80351	0.082037576
190	0x3c15dd7e	0.009147046
191	0x3d8ef7a0	0.069808245
192	0x3cc0efe5	0.02355189
193	0xbe124d8d	-0.14287396
194	0xbde3efa8	-0.11129695
195	0xbe33739e	-0.17524573
196	0xbdfbde73	-0.12298288
197	0x3d677688	0.056509525
198	0x3e1b4fa4	0.15167099
199	0xbe05faf0	-0.13084006
200	0x3d0d8e5c	0.034559593
201	0xbd186d06	-0.037213348
202	0xbc90c0e7	-0.017670108
203	0xbcab0e5f	-0.020880876
204	0x3cd5dd3f	0.026106475
205	0x3e109703	0.14120106
206	0x3c19e1cd	0.009392214
207	0xbe2eff0f	-0.17089485
208	0x3d2746a7	0.040838864
209	0x3de29841	0.110641964
210	0x3db1a913	0.086748265
211	0x3e286aa3	0.16446929
212	0x3d70dafb	0.058802586
213	0x3e15368b	0.14571588
214	0x3db6f149	0.0893274
215	0x3e0f54e1	0.13997222
216	0xbdd13910	-0.10215962
217	0x3e081f4f	0.13293193
218	0xbd0b1328	-0.033953816
219	0x3ba8cb79	0.005151209
220	0x3e2639a4	0.16232926
221	0x3d584d28	0.052807957
222	0xbd12e8ef	-0.035866674
223	0xbdcabc3f	-0.09899186
224	0x3dfbd8ae	0.12297188
225	0x3dc824e1	0.09772659
226	0xbdf74008	-0.1207276
227	0x3d90eefa	0.07076831
228	0x3d47b16f	0.0487532
229	0x3da718f1	0.08159054
230	0xbdc01abf	-0.093801014
231	0x3c9582e5	0.018250892
232	0xbe20d4b0	-0.15706134
233	0xbd115ad5	-0.035487015
234	0xbc836b9c	-0.016042523
235	0xbda92ada	-0.082601264
236	0xbe19b7ab	-0.1501147
237	0xbda0eeea	-0.07858069
238	0xbd169edd	-0.036772598
239	0x3d63a0c8	0.055573255
240	0x3ceb1992	0.028698716
241	0x3dcefb7a	0.10106559
242	0xbdff39fb	-0.12462231
243	0xbe30455c	-0.17213959
244	0x3de49516	0.111612484
245	0xbdeeb20c	-0.116550535
246	0xbe2a45f8	-0.16628253
247	0xbd40480b	-0.046943706
248	0x3e2c6305	0.16834648
249	0x3cec42bb	0.028840413
250	0xbd69e967	-0.057107355
251	0x3d19f172	0.037583776
252	0xbe15a371	-0.14613129
253	0xbdb01c0e	-0.08599101
254	0x3dbbc8ad	0.09169135
255	0x3a1eeaae	0.00060621917

bias f4 [32]
0	0x3dfe619e	0.12420963
1	0x3d2a0ad7	0.041514244
2	0x3dbe3c69	0.09288866
3	0x3dd03c51	0.101677544
4	0xbd001bdb	-0.031276565
5	0xbb005d05	-0.0019586694
6	0xbd0d4b9b	-0.03449593
7	0xbdb78a79	-0.089619584
8	0xbdaf5ec3	-0.08562996
9	0x3d84823b	0.06470152
10	0x3c6d6aec	0.014490824
11	0xbe03034d	-0.12794228
12	0xbdf0caf0	-0.11757457
13	0xbdc5a1d5	-0.09650008
14	0x3d2308ef	0.03980344
15	0xbded1c30	-0.11577642
16	0x3b6cebbb	0.0036151248
17	0xbc31249d	-0.010811952
18	0xbdf14082	-0.11779882
19	0x3d98afde	0.07455419
20	0x3dcf46dc	0.10120937
21	0x3d85474b	0.06507739
22	0x3d41d7ef	0.04732507
23	0xbc0c81e7	-0.008575893
24	0xbdc8e569	-0.098093815
25	0x3d90ff43	0.07079937
26	0xbe1404b2	-0.14454916
27	0x3e0bacdc	0.1364016
28	0xbe2a7f19	-0.16650046
29	0xbdc431f3	-0.095798396
30	0xbcacac13	-0.021078145
31	0xbd2b162c	-0.04176919

weight f4 [7, 32]
0	0xbce2fc7d	-0.027708286
1	0x3e2e3951	0.17014052
2	0xbc109f95	-0.00882711
3	0x3e008564	0.12550884
4	0xbcdfa47e	-0.027300116
5	0xbd99d9fe	-0.07512282
6	0xbdbda0d3	-0.092591904
7	0x3e08c1da	0.13355199
8	0x3d071b0b	0.032984775
9	0x3d9e343c	0.07724807
10	0xbda1cd93	-0.07900538
11	0xbdd2f74a	-0.10301073
12	0xbd503a48	-0.05083683
13	0xbd89c3a3	-0.06726768
14	0x3df1ac5a	0.118004516
15	0xbde1e2dc	-0.11029598
16	0xbe1e21cf	-0.15442584
17	0xbb3f9492	-0.0029232842
18	0xbdc2efc3	-0.09518387
19	0xbe0bb091	-0.13641573
20	0xbdc64a66	-0.09682159
21	0x3d47ab17	0.04874715
22	0x3de27944	0.11058286
23	0xbde9cc94	-0.11415973
24	0x3db631ae	0.088961944
25	0xbc4e8002	-0.012603762
26	0xbdc39e46	-0.09551673
27	0x3db94a31	0.09047354
28	0x3c596723	0.013269219
29	0xbdc956c8	-0.09831005
30	0xbda07c9e	-0.07836269
31	0x3dfdeca2	0.1239865
32	0xbd02f6f6	-0.0319738
33	0x3d7e1836	0.062034808
34	0x3cf0a330	0.029374689
35	0x3e0164c4	0.12636095
36	0xbdfbd05f	-0.12295603
37	0x3e2b0457	0.16700874
38	0xbb8b3a3f	-0.004248887
39	0xbd84f1db	-0.06491443
40	0x3e1a82f1	0.15089013
41	0x3da4d1e7	0.08047848
42	0x3dc72a6e	0.0972489
43	0x3e001f83	0.12512021
44	0x3dbd6cc3	0.0924926
45	0x3dab5d48	0.08367401
46	0x3e1bbabb	0.15207951
47	0x3bad4be1	0.0052885865
48	0x3dbd50e6	0.09243946
49	0xbc8be717	-0.017077966
50	0xbe11b44a	-0.14228931
51	0x3dfd3919	0.12364406
52	0x3d8762af	0.06610619
53	0x3d37cb70	0.044871747
54	0x3c8296fe	0.01594114
55	0x3d54bf33	0.051940154
56	0xbe2532bb	-0.16132633
57	0xbdf67b0f	-0.1203519
58	0xbe053515	-0.1300853
59	0x3e26a90e	0.16275427
60	0x3cfc25e0	0.030779779
61	0x3c61834a	0.013764212
62	0x3bbbaaf5	0.005727167
63	0x3e176979	0.14786328
64	0x3d8328b0	0.06404245
65	0x3d640ae9	0.055674467
66	0xbdcbf7ec	-0.09959397
67	0x3dd0d441	0.10196734
68	0xbd33e462	-0.043918975
69	0x3e277063	0.16351466
70	0x3cf97013	0.030448949
71	0xbcd8620a	-0.026413936
72	0x3b88e436	0.0041775955
73	0x3dca8553	0.09888711
74	0x3d1ea35a	0.038730003
75	0x3e1d38df	0.15353726
76	0x3d23238a	0.039828815
77	0xbd8ad4f7	-0.06778901
78	0x3dd345a0	0.10316014
79	0x3d968f2d	0.07351527
80	0x3d9483f9	0.07251734
81	0xbd905821	-0.07048059
82	0x3dae35be	0.08506344
83	0xbd36be57	-0.044615116
84	0x3dc7f18c	0.09762868
85	0x3e1220b3	0.14270286
86	0x3e183772	0.148649
87	0x3d30a0d4	0.043122128
88	0x3dfa02a4	0.12207535
89	0xbe199c49	-0.15001024
90	0x3dc32f0f	0.0953046
91	0x3e09c0c9	0.13452448
92	0xbdbf9334	-0.09354249
93	0xbdd87e77	-0.10570996
94	0x3b688cbc	0.0035484275
95	0x3d3ba91f	0.045815583
96	0x3caac053	0.02084366
97	0x3cc3b481	0.023889782
98	0x3d3665d7	0.044530716
99	0xbd572623	-0.052526604
100	0xbb98a2b8	-0.0046580695
101	0xbe32942c	-0.17439336
102	0xbdc0fedb	-0.0942361
103	0xbe0ebfa3	-0.13940291
104	0xbe1402ff	-0.14454268
105	0x3e29fb8a	0.16599861
106	0xbca049fb	-0.019566527
107	0xbd98d0e7	-0.0746172
108	0x3e2a87c6	0.16653356
109	0xbce3680e	-0.027759578
110	0xbd54c1b7	-0.051942553
111	0x3e1c3b1e	0.15256926
112	0x3d86fb1d	0.06590865
113	0xbe04f9e3	-0.12985949
114	0x3e135916	0.14389452
115	0xbda09e0f	-0.07842647
116	0xbd403cd2	-0.046933003
117	0x3dfbe2bf	0.12299108
118	0xbe133cc2	-0.14378646
119	0x3dc4c630	0.09608114
120	0xbc191cb2	-0.00934522
121	0xbbb42280	-0.005497277
122	0x3dcc3e6d	0.09972844
123	0x3d91f6ea	0.07127173
124	0xbe2d4439	-0.16920556
125	0xbe039473	-0.12849598
126	0x3d67e93d	0.056618918
127	0x3e21c0a2	0.1579614
128	0xbe074cb1	-0.13212849
129	0x3b84e617	0.004055749
130	0xbe114f1c	-0.14190334
131	0xbe0361be	-0.12830254
132	0xbddd46b6	-0.10804503
133	0xbced7e30	-0.028990835
134	0x3cf4ce85	0.029883632
135	0x3e1cce3e	0.1531305
136	0x3e0b1857	0.13583504
137	0xbd5b7775	-0.05358072
138	0xbe26672e	-0.16250297
139	0xbd04cd19	-0.03242216
140	0xbd9da073	-0.07696619
141	0x3c50ccf1	0.012744174
142	0x3cf486cb	0.02984943
143	0x3d5c9006	0.05384829
144	0x3d6dc7cb	0.058051866
145	0xbe0e2200	-0.13880157
146	0x3df02533	0.11725845
147	0xbd4d7abc	-0.050165877
148	0x3d5d9a5c	0.054102287
149	0x3d05f84b	0.032707494
150	0x3bf17da3	0.0073697134
151	0x3cd301c9	0.025757687
152	0x3dfaa6b7	0.122388296
153	0xbda629b3	-0.08113422
154	0x3cd857a7	0.026408983
155	0xbdc903c6	-0.09815173
156	0xbe04a627	-0.12954007
157	0xbc963132	-0.018334005
158	0x3ddb5967	0.107104115
159	0x3d8d33a7	0.068946175
160	0xbda02f63	-0.07821538
161	0xbda96e9a	-0.08273049
162	0x3ba80cbb	0.0051284707
163	0xbdacbcb6	-0.08434431
164	0xbe032c71	-0.12809922
165	0xbe02e490	-0.12782502
166	0x3d8a707d	0.06759737
167	0xbc6abde9	-0.014327505
168	0xbe0e7d83	-0.13915066
169	0x3e184d29	0.14873184
170	0x3dac047d	0.083992936
171	0x3e1eeabe	0.15519235
172	0xbbcdceb4	-0.0062807444
173	0xbe146088	-0.14489949
174	0x3df7d251	0.121006615
175	0xbe32167a	-0.17391387
176	0xbe19fc73	-0.15037708
177	0xbe2feb17	-0.17179523
178	0xbdd3ebe8	-0.1034773
179	0xbdf726f4	-0.120679766
180	0xbdf6bb98	-0.120474994
181	0xbe09ed18	-0.1346935
182	0x3e24ce10	0.16094232
183	0xbcce20dc	-0.025162153
184	0xbcd17bd1	-0.025571736
185	0xbde896e6	-0.113569066
186	0x3d26c0cf	0.04071122
187	0xbcf1ea72	-0.029530738
188	0xbd0a1c6c	-0.03371851
189	0x3e0fa0c4	0.14026171
190	0xbd8f4a61	-0.069966085
191	0x3dcafcb4	0.099114805
192	0x3c222232	0.009895848
193	0xbcbd1bab	-0.023084482
194	0x3d930299	0.0717823
195	0xbd06572d	-0.03279798
196	0x3d1969cb	0.037454408
197	0x3d7fdeed	0.062468458
198	0xbdf3486b	-0.11879047
199	0xbde3f7e0	-0.11131263
200	0x3c184781	0.009294392
201	0xbde07cf7	-0.10961335
202	0xbc76b108	-0.015056856
203	0xbe081c99	-0.13292159
204	0x3e141dce	0.14464495
205	0x3c07b5a8	0.008283056
206	0x3cc5d943	0.02415145
207	0xbdf58097	-0.11987417
208	0xbb9a7487	-0.004713598
209	0xbcb96be7	-0.02263446
210	0xbe1cdd21	-0.15318729
211	0xbde6c260	-0.11267543
212	0xbe2c7246	-0.16840467
213	0x3e2bb677	0.16768824
214	0xbd54fc73	-0.051998567
215	0xbd404f29	-0.046950493
216	0x3bd0f473	0.006376797
217	0x3dcf886c	0.10133442
218	0x39a6c447	0.00031808225
219	0xbdb7b2e9	-0.08969671
220	0xbd5bfd74	-0.05370851
221	0xbd9c1ce1	-0.07622696
222	0xbe2271a7	-0.15863667
223	0xbe01b488	-0.12666523

bias f4 [7]
0	0x3e326f37	0.17425238
1	0xbdc7fbca	-0.09764822
2	0xbcdbb625	-0.026820252
3	0xbe0eb6af	-0.13936876
4	0x3c0f959f	0.0087637
5	0xbc006cd7	-0.007838449
6	0x3d2fc753	0.0429147
