experiements/starter_team/continuous_state/actor_critic/results/max_damage_ac/checkpoints/model_c1000.pt (torch, 14135 bytes, 5 tensors)

weight f4 [64, 8]
-0.32363877 0.29501465 0.047604408 0.18002883 0.13773456 -0.09943556 0.017747544 -0.2950392
-0.1501705 -0.23898001 0.35009795 0.00048275513 0.20902796 0.043961365 -0.28463882 0.047367003
0.23438211 -0.28523675 0.24620146 -0.3249151 -0.21642618 0.12218135 0.26851958 0.32244143
0.018084818 -0.2387082 0.1393088 0.2829429 0.14194848 -0.35390896 0.21306647 -0.25345215
-0.14500399 -0.3633847 -0.17753503 -0.1718612 0.20698223 -0.056816638 -0.1692123 0.31836778
-0.31760108 0.06068414 0.16844162 0.34393287 0.17918123 0.250366 0.257546 -0.25103596
-0.060704593 -0.3545631 -0.025878077 -0.2752995 0.32937574 0.26312503 -0.018948043 -0.013516195
-0.17869787 0.3512153 0.11199362 -0.054578014 -0.33649218 0.11743809 -0.05350811 -0.20178781
0.13503902 -0.19521397 -0.111685924 -0.26231173 0.2570192 0.16360658 -0.059334803 0.09257624
0.3251503 -0.10096069 -0.19373846 0.29645625 -0.16838042 -0.19024609 -0.12336947 0.083552636
-0.029527452 0.14989677 -0.3541827 0.12169164 -0.08071755 0.31386894 0.23677568 0.06107875
0.30364305 0.31978813 0.34564835 -0.17043284 0.12098066 -0.09506214 0.26374096 -0.3119035
0.19403994 -0.09835159 0.25907782 -0.030855844 -0.00148712 -0.22317436 -0.17665014 -0.20240544
0.20942192 0.1832113 0.06992927 0.28142118 0.08336329 -0.03701802 -0.22541979 -0.1928358
0.3237238 0.11951014 -0.048919506 -0.023556013 -0.08310868 0.0028608441 -0.21764654 -0.21127656
0.23135068 0.16106597 0.37356186 0.11331907 -0.044709317 -0.2644698 0.075173385 -0.23003078
-0.09669355 0.07151173 0.25720748 0.3333232 -0.2596356 -0.31617495 -0.13363469 0.012464832
0.06717744 0.09497969 -0.3215718 -0.26729372 -0.18690327 -0.2200178 -0.26970932 0.007053275
-0.15126954 0.030502811 -0.031514335 0.124216564 0.25559226 0.2584042 0.05069163 -0.028527064
0.11632705 -0.04753681 0.3028206 -0.15133543 -0.332255 0.018591296 -0.08318329 -0.27100128
0.2822177 -0.025470875 0.07401168 -0.14024104 0.10862168 0.17772113 0.21203423 0.3144985
0.2637425 0.03259075 -0.22291797 0.17669703 0.34241176 0.12351428 0.36402327 0.31824806
0.06357843 0.1748135 -0.17254049 0.21281609 -0.019987514 -0.092109814 -0.3297014 -0.25475976
0.21599783 0.3471398 0.095415674 -0.34709108 -0.23182285 -0.0588514 -0.1187292 0.029208686
-0.14282311 -0.14369227 0.18454318 0.06494013 -0.2761895 0.23467636 0.2169206 0.070003144
0.005937497 -0.2412819 0.021329254 -0.34321058 0.24093485 -0.24121007 -0.12092385 0.13764274
-0.047553465 0.32308012 -0.33873123 -0.23896709 0.17850709 0.17527968 -0.11230315 -0.34733722
0.10859679 0.033690367 -0.13947363 -0.3082913 0.11602743 0.31240156 0.33242682 -0.06024584
0.2697354 0.0059266635 -0.35430476 0.12973437 -0.31453463 0.2206095 -0.24598752 -0.19947676
-0.08868574 0.12734279 0.21420982 -0.06310486 -0.3337811 -0.32049522 0.19229463 0.080021046
-0.17159353 -0.0027424078 0.20619631 0.15195242 -0.20259495 0.044830468 -0.07922878 0.2572573
-0.15026471 -0.14530285 0.24658835 0.03487295 0.08824648 0.07028878 -0.32185125 -0.044547316
00000000: fbb3 a5be 290c 973e d7fc 423d 7a59 383e
00000010: 4a0a 0d3e dfa4 cbbd 4c63 913c 610f 97be
00000020: 4cc6 19be 2db7 74be 0a40 b33e 4c1a fd39
00000030: 6d0b 563e d510 343d 2ebc 91be e703 423d
00000040: dd01 703e 8d0a 92be 3c1c 7c3e 465b a6be
00000050: d39e 5dbe 373a fa3d 667b 893e 0b17 a53e
00000060: 9d26 943c ec6f 74be f7a6 0e3e e4dd 903e
00000070: f15a 113e 8e33 b5be 192e 5a3e 7bc4 81be
00000080: ed7b 14be 8f0d babe becb 35be 62fc 2fbe
00000090: 26f3 533e 90b8 68bd fd45 2dbe 1a01 a33e
000000a0: 9c9c a2be ef8f 783d f67b 2c3e f817 b03e
000000b0: 497b 373e f92f 803e 12dd 833e c987 80be
000000c0: 61a5 78bd 4b89 b5be 43fe d3bc 0ef4 8cbe
000000d0: f0a3 a83e 53b8 863e ed38 9bbc 0873 5dbc
000000e0: 93fc 36be 7ed2 b33e e95c e53d 328d 5fbd
000000f0: b448 acbe 6283 f03d 522b 5bbd 77a1 4ebe
00000100: ab47 0a3e 2ce6 47be 97bb e4bd b94d 86be
00000110: 0598 833e 7c88 273e 0d09 73bd 9d98 bd3d
00000120: 1a7a a63e 7ac4 cebd 6063 46be 1dc9 973e
00000130: eb6b 2cbe dfcf 42be 22a9 fcbd a51d ab3d
00000140: 8ee3 f1bc 8a7e 193e 6f57 b5be 7739 f93d
00000150: 3e4f a5bd 6eb3 a03e 5375 723e b62d 7a3d
00000160: 1a77 9b3e 45bb a33e d2f8 b03e f285 2ebe
00000170: b5c4 f73d f0af c2bd 0e09 873e d1b1 9fbe
00000180: 68b2 463e 8f6c c9bd d9a5 843e 65c5 fcbc
00000190: 78eb c2ba d287 64be c6e3 34be 5f43 4fbe
000001a0: b372 563e be9b 3b3e 1437 8f3d 7016 903e
000001b0: 5fba aa3d 35a0 17bd 72d4 66be bf76 45be
000001c0: 20bf a53e bbc1 f43d d25f 48bd 8af8 c0bc
000001d0: e234 aabd 007d 3b3b bcde 5ebe e258 58be
000001e0: 31e7 6c3e 7aee 243e 8043 bf3e d413 e83d
000001f0: 1e21 37bd 9668 87be 81f4 993d 308d 6bbe
00000200: 4507 c6bd be74 923d b3b0 833e 57a9 aa3e
00000210: f5ee 84be afe1 a1be 88d7 08be 4b39 4c3c
00000220: 5394 893d b684 c23d 0fa5 a4be b9da 88be
00000230: 9263 3fbe 594c 61be 5717 8abe 291f e73b
00000240: 67e6 1abe 08e1 f93c 2d15 01bd 4165 fe3d
00000250: fddc 823e 8e4d 843e 07a2 4f3d 97b1 e9bc
00000260: e03c ee3d f5b5 42bd 4d0b 9b3e adf7 1abe
00000270: 541d aabe c64c 983c 005c aabd aec0 8abe
00000280: d77e 903e 4ca8 d0bc 7093 973d 599b 0fbe
00000290: 0b75 de3d 87fc 353e 801f 593e f305 a13e
000002a0: 4209 873e e17d 053d 9c44 64be 11f0 343e
000002b0: 9850 af3e 0ef5 fc3d 4261 ba3e 69f1 a23e
000002c0: 6835 823d 4f02 333e 74ae 30be 76ec 593e
000002d0: dbbc a3bc 12a4 bcbd 9fce a8be df6f 82be
000002e0: 892e 5d3e 4fbc b13e 4b69 c33d ecb5 b1be
000002f0: f862 6dbe 2a0e 71bd 4b28 f3bd 0e47 ef3c
00000300: 3940 12be 1124 13be e3f8 3c3e 55ff 843d
00000310: b668 8dbe 004f 703e 6f20 5e3e cf5d 8f3d
00000320: 568f c23b 9a12 77be b0ba ae3c 4cb9 afbe
00000330: a0b7 763e c6ff 76be eca6 f7bd 38f2 0c3e
00000340: 6cc7 42bd c26a a53e 2e6e adbe cab3 74be
00000350: 90ca 363e 847c 333e 32ff e5bd 2fd6 b1be
00000360: fe67 de3d e9fe 093d 2dd2 0ebe 5bd8 9dbe
00000370: ca9f ed3d 19f3 9f3e d933 aa3e 58c4 76bd
00000380: c21a 8a3e 7534 c23b 6f67 b5be 16d9 043e
00000390: af0a a1be 75e7 613e 27e4 7bbe a343 4cbe
000003a0: dfa0 b5bd 2666 023e d259 5b3e 1f3d 81bd
000003b0: 5be5 aabe f317 a4be e2e8 443e 13e2 a33d
000003c0: 37b6 2fbe f8b9 33bb 2025 533e 6a99 1b3e
000003d0: 0d75 4fbe 27a0 373d b342 a2bd 3bb7 833e
000003e0: fede 19be 45ca 14be a881 7c3e f0d6 0e3d
000003f0: 92ba b43d 90f3 8f3d b0c9 a4be 3f77 36bd

bias f4 [64]
0.022706253 -0.20826887 0.01632204 0.006598422 0.27799278 0.11140297 0.051444545 0.16758652
0.14952926 -0.26488125 -0.27121678 0.14036544 0.33736768 0.35537928 0.20041554 0.08171026
0.13189442 -0.26209408 0.25714955 0.114110515 0.28773242 -0.06456269 0.33271468 0.2031623
-0.15749334 0.2371299 0.34298426 -0.023695378 -0.07055584 0.013648518 -0.2815663 0.30209675
-0.05463383 -0.02243165 0.008239462 0.29312676 0.1612435 -0.13365307 -0.08025353 -0.24210013
-0.0033530882 0.3515871 0.17562975 0.24037023 -0.027875397 -0.08043057 0.33839452 -0.2589101
0.0044121663 0.1444104 0.08271973 0.16819577 0.31869435 0.03769564 -0.30306944 0.25596142
-0.18352038 0.25106162 -0.20016266 0.25223368 0.32884458 -0.18581274 0.27763072 0.07025088
00000000: 7702 ba3c 6f44 55be cdb5 853c 9337 d83b
00000010: 1255 8e3e 3e27 e43d 84b7 523d cd9b 2b3e
00000020: 331e 193e 849e 87be eddc 8abe f5bb 0f3e
00000030: 75bb ac3e 46f4 b53e bb39 4d3e b557 a73d
00000040: 550f 073e 3231 86be 1ba9 833e c6b2 e93d
00000050: aa51 933e 7239 84bd 9459 aa3e c709 503e
00000060: ef45 21be 2ed2 723e a29b af3e cf1c c2bc
00000070: 957f 90bd 099e 5f3c 7529 90be 6dac 9a3e
00000080: b9c7 5fbd 94c2 b7bc cffe 063c b614 963e
00000090: 041d 253e 5adc 08be f65b a4bd 19e9 77be
000000a0: 7cbf 5bbb 3903 b43e 49d8 333e 9d23 763e
000000b0: f25a e4bc c8b8 a4bd 0c42 ad3e dd8f 84be
000000c0: ef93 903b 52e0 133e f668 a93d 833b 2c3e
000000d0: e82b a33e be66 1a3d eb2b 9bbe 600d 833e
000000e0: c4ec 3bbe 268b 803e 71f7 4cbe c624 813e
000000f0: 515e a83e b245 3ebe 9d25 8e3e b2df 8f3d

weight f4 [32, 64]
-0.115927525 0.12149493 -0.103419 0.045720953 -0.112100504 -0.035096556 0.03038307 -0.050203912
-0.050493933 -0.010498191 -0.0952251 -0.09729846 0.09742941 -0.06679361 -0.11826059 -0.090854235
0.06977825 -0.054838106 -0.10938764 0.020549908 0.06391991 0.08772457 -0.10518491 -0.040155057
0.04403278 0.09600344 0.092868984 0.12030913 0.10110822 0.0665847 -0.0854677 0.123339206
0.08651322 -0.070167646 0.04246064 0.11116883 -0.08255041 -0.087554276 0.058573715 -0.06606242
0.103400886 0.01857012 -0.0029443984 0.037776385 0.042185806 0.12234937 0.069067255 0.09616886
-0.111614816 0.120876536 0.042116363 -0.08471583 -0.08361417 -0.006709311 -0.08728887 -0.061934937
0.0024144459 -0.06505081 -0.028024271 -0.048202053 -0.10900827 0.037780564 0.049660236 -0.014826509
0.010159514 -0.019362587 -0.06999825 -0.084713556 0.08774447 0.059443224 -0.10985279 -0.11574743
0.031010147 -0.10835612 0.10393449 0.06382356 0.05872399 0.10538224 -0.11036447 -0.08258618
0.002808107 -0.07413851 0.13162722 0.006322378 0.023223309 0.14092715 0.074912876 0.02832974
-0.11530897 0.051041447 -0.11877541 -0.04221642 -0.012030607 0.070518196 0.07545967 -0.0041869045
0.10965515 0.020435696 -0.044609148 -0.109283134 0.07690238 -0.07158209 0.033806145 -0.10433606
-0.13081564 0.08570715 -0.07487421 0.051454194 0.09801956 0.017633075 -0.004067316 -0.06290481
0.021490278 -0.061063826 -0.023154471 0.083855234 0.12582976 0.016693143 -0.10955937 0.11746904
-0.11164186 -0.102864616 -0.041313644 -0.052789304 -0.024571506 0.078732945 -0.06285671 0.10497686
0.021936463 -0.116018385 -0.12527443 -0.014300569 -0.10492534 -0.002665943 -0.029527407 0.10785483
0.08432662 -0.096422374 0.0057485537 0.12718898 -0.08592244 0.12502187 0.01855658 0.09052609
-0.022329899 -0.064657494 0.004083419 -0.010871514 -0.0026634498 0.08538669 0.10724567 -0.045673817
0.078244865 -0.039102055 -0.027581444 0.09416678 0.03437889 0.12004965 0.0015315118 0.1102542
0.071419045 -0.011520689 0.019897413 -0.098791875 0.1103593 0.077033356 -0.014208452 -0.10594782
-0.04976543 -0.058940083 0.02565925 -0.097713105 -0.12326403 0.00051127473 -0.09123571 0.018429961
0.020218264 0.12528078 0.030900693 0.07449923 0.03927195 0.10610351 -0.07133999 0.020351877
-0.011707811 -0.09710711 0.081818074 0.097407 0.09067718 -0.07435094 -0.019563153 0.0024835153
-0.095414385 0.11953509 0.040255085 -0.097517416 0.1051794 -0.02880463 -0.066572964 -0.09899482
-0.07798657 -0.1146843 -0.008899942 -0.11405145 -0.022943094 0.09608938 0.107054666 -0.034548536
-0.04187034 -0.078449145 -0.03626217 -0.027129456 -0.037655637 0.040754676 0.033735886 -0.12041649
0.093363896 0.09434673 -0.010823235 -0.079223245 0.022755787 -0.006379649 0.087402925 -0.043824106
-0.11304365 -0.030202031 -0.04708861 -0.003523752 -0.005810067 -0.06059204 -0.06322934 -0.02421327
0.016472891 -0.10175754 0.061788365 -0.062148795 -0.016561374 -0.06423953 0.026689857 -0.09363508
-0.035760954 -0.054481998 -0.07188411 0.028002262 -0.025755957 -0.11016247 0.006507188 0.032117873
0.009084865 -0.08535643 -0.058176607 0.113243446 -0.10166803 -0.1213889 -0.11141752 -0.08320029
00000000: 696b edbd 55d2 f83d 57cd d3bd e545 3b3d
00000010: f394 e5bd 68c1 0fbd ebe5 f83c 9ea2 4dbd
00000020: bad2 4ebd 9b00 2cbc 6105 c3bd 6a44 c7bd
00000030: 1289 c73d 17cb 88bd 9c32 f2bd c911 babd
00000040: e6e7 8e3d ec9d 60bd a106 e0bd 4858 a83c
00000050: 71e8 823d f0a8 b33d 306b d7bd a179 24bd
00000060: b75b 343d 749d c43d 1832 be3d a264 f63d
00000070: d411 cf3d 8f5d 883d b109 afbd 4499 fc3d
00000080: d82d b13d 0eb4 8fbd 35eb 2d3d 7cac e33d
00000090: 3010 a9bd a84f b3bd feea 6f3d bc4b 87bd
000000a0: d8c3 d33d 5d20 983c cff6 40bb 69bb 1a3d
000000b0: 06cb 2c3d 4e92 fa3d 2273 8d3d 2ef4 c43d
000000c0: 4f96 e4bd 1e8e f73d 3582 2c3d 7e7f adbd
000000d0: e83d abbd c8d9 dbbb 82c4 b2bd 7daf 7dbd
000000e0: ae3b 1e3b 5c39 85bd 2893 e5bc 846f 45bd
000000f0: ba3f dfbd cbbf 1a3d 8868 4b3d e3ea 72bc
00000100: 1774 263c 4a9e 9ebc 3e5b 8fbd 4d7e adbd
00000110: 5fb3 b33d bd7a 733d 80fa e0bd fd0c edbd
00000120: fe08 fe3c d0e9 ddbd 9bdb d43d edb5 823d
00000130: 9188 703d a5d2 d73d c406 e2bd f122 a9bd
00000140: 3808 383b eed5 97bd 49c9 063e f32b cf3b
00000150: cf3e be3c 354f 103e ec6b 993d c513 e83c
00000160: 1c27 ecbd d610 513d 8640 f3bd 20eb 2cbd
00000170: 061c 45bc d86b 903d 998a 9a3d 4d32 89bb
00000180: e192 e03d c368 a73c 15b8 36bd d6cf dfbd
00000190: ff7e 9d3d a199 92bd 5078 0a3d 25ae d5bd
000001a0: 89f4 05be 3b87 af3d a657 99bd a2c1 523d
000001b0: 7bbe c83d 3d73 903c 1f47 85bb 3dd4 80bd
000001c0: 610c b03c 101e 7abd 72ae bdbc 4bbc ab3d
000001d0: 84d9 003e 0fc0 883c aa60 e0bd 9c93 f03d
000001e0: 7da4 e4bd afaa d2bd 7f38 29bd 9939 58bd
000001f0: 2f4a c9bc bd3e a13d 05bb 80bd 1cfe d63d
00000200: 19b4 b33c 0c9b edbd f147 00be ef4c 6abc
00000210: 19e3 d6bd 1ab7 2ebb 76e3 f1bc fee2 dc3d
00000220: 6fb3 ac3d 1879 c5bd 5d5e bc3b d43d 023e
00000230: 1bf8 afbd bc05 003e f803 983c be65 b93d
00000240: 31ed b6bc 266b 84bd 34ce 853b 6f1e 32bc
00000250: 468d 2ebb 38df ae3d 9ea3 db3d 7814 3bbd
00000260: d83e a03d 7a29 20bd 7bf2 e1bc 83da c03d
00000270: e1d0 0c3d 97dc f53d 02bd c83a f4cc e13d
00000280: 2644 923d 46c1 3cbc e6ff a23c 6553 cabd
00000290: 0f04 e23d aac3 9d3d 91ca 68bc 2cfb d8bd
000002a0: d6d6 4bbd 286b 71bd 5933 d23c cf1d c8bd
000002b0: da71 fcbd 1107 063a cad9 babd 6efa 963c
000002c0: c6a0 a53c 9b49 003e 7323 fd3c 0d93 983d
000002d0: a0db 203d cc4c d93d b31a 92bd fbb8 a63c
000002e0: 1ed2 3fbc 18e0 c6bd 3c90 a73d 527d c73d
000002f0: f5b4 b93d 4e45 98bd e842 a0bc 79c2 223b
00000300: 9e68 c3bd d0ce f43d 84e2 243d 36b7 c7bd
00000310: 4c68 d73d b0f7 ebbc 6857 88bd ccbd cabd
00000320: 6cb7 9fbd 9adf eabd 10d1 11bc ce93 e9bd
00000330: 28f3 bbbc 82ca c43d 7a3f db3d c482 0dbd
00000340: 3c80 2bbd f2a9 a0bd a487 14bd 983e debc
00000350: cc3c 1abd 60ee 263d a42e 0a3d ec9c f6bd
00000360: 9235 bf3d dc38 c13d f053 31bc cc3f a2bd
00000370: 586a ba3c 600c d1bb 4e00 b33d e880 33bd
00000380: 6e83 e7bd 406a f7bc fcdf 40bd c0ee 66bb
00000390: 6062 bebb 5c2f 78bd 627e 81bd e85a c6bc
000003a0: 28f2 863c 4266 d0bd cc15 7d3d bc8f 7ebd
000003b0: b8ab 87bc 0490 83bd b0a4 da3c c0c3 bfbd
000003c0: 147a 12bd 8428 5fbd fa37 93bd 0065 e53c
000003d0: 28fe d2bc dc9c e1bd 403a d53b 088e 033d
000003e0: b0d8 143c 5acf aebd 984a 6ebd 2eec e73d
000003f0: 5437 d0bd be9a f8bd de2e e4bd ea64 aabd

bias f4 [32]
-0.03176547 -0.03662921 -0.07490879 0.09546144 -0.0752064 0.012304199 0.06923457 -0.017668158
0.056313597 -0.056647647 0.090053186 -0.045143355 0.01692763 0.11742664 0.07602877 -0.028736446
-0.022968438 -0.09927943 -0.012275208 0.04433692 0.11690511 0.023860006 -0.08070296 -0.030228566
-0.04150087 0.088645086 0.10017317 0.09724664 0.013227026 0.042719677 -0.004633233 0.055714477
00000000: 821c 02bd 8308 16bd c869 99bd 4a81 c33d
00000010: d005 9abd 8d97 493c dbca 8d3d d0bc 90bc
00000020: 16a9 663d 5d07 68bd ce6d b83d 3de8 38bd
00000030: d0ab 8a3c 617d f03d f9b4 9b3d b268 ebbc
00000040: 4e28 bcbc 0453 cbbd f41d 49bc a19a 353d
00000050: f26b ef3d 0f76 c33c 9847 a5bd e6a1 f7bc
00000060: d1fc 29bd 8e8b b53d 9727 cd3d 3f29 c73d
00000070: 2bb6 583c d4fa 2e3d 60d2 97bb dd34 643d

weight f4 [1, 32]
0.0037996538 0.15505417 -0.027455943 0.13147941 -0.06363639 -0.17944832 -0.17031576 0.10016038
0.030259205 0.08324495 0.16088876 -0.101605296 0.19516021 -0.028604245 0.060108595 0.089871444
0.006176363 -0.13901296 0.13473752 -0.16924553 0.038251486 -0.24166119 -0.12831716 0.08490238
-0.13051909 -0.07028091 0.092384376 0.104022205 0.0643089 0.06957955 0.14133646 -0.18264408
00000000: 9d03 793b 85c6 1e3e 49eb e0bc 8aa2 063e
00000010: cc53 82bd 4dc1 37be 4167 2ebe e320 cd3d
00000020: 27e2 f73c 547c aa3d 06c0 243e 7016 d0bd
00000030: 14d8 473e 7353 eabc 6e34 763d 850e b83d
00000040: 1763 ca3b 6a59 0ebe a2f8 093e b34e 2dbe
00000050: 97ad 1c3d 0876 77be 9365 03be 4de1 ad3d
00000060: cca6 05be 70ef 8fbd 0534 bd3d 9809 d53d
00000070: 62b4 833d b97f 8e3d 81ba 103e 0d07 3bbe
