experiements/starter_team/continuous_state/actor_critic/results/max_damage_ac/checkpoints/model_c3000.pt (torch, 14135 bytes, 5 tensors)

weight f4 [64, 8]
000000 60 95 a5 be f4 ac 9a 3e cd 4a 4c 3d 57 e3 38 3e
       -0.32340527 0.30210078 0.049876023 0.18055473
000010 51 d9 18 3e 2c c5 c7 bd 46 24 0c 3c dc 6b 93 be
       0.1492665 -0.097544044 0.00855357 -0.28793228
000020 2d a3 18 be b4 8c 77 be f5 ba b2 3e 3f 53 e8 39
       -0.14905997 -0.24174768 0.34908262 0.0004431251
000030 ac 40 53 3e e9 01 35 3d 78 dc 91 be 48 c5 3b 3d
       0.20630139 0.044191275 -0.28488517 0.04584244
000040 a3 88 6f 3e 77 03 8f be c6 24 77 3e a6 0e a6 be
       0.23391967 -0.2793233 0.24135122 -0.3243305
000050 14 30 56 be 1c c9 ee 3d cd 35 8b 3e 8d 43 ac 3e
       -0.20916778 0.11659452 0.27189484 0.33645287
000060 59 64 32 3c 19 e2 6a be 32 85 0f 3e fc 2c 8c 3e
       0.010888183 -0.22937812 0.14015654 0.2737807
000070 8c 76 1b 3e f4 98 bb be f2 c0 63 3e 83 ae 7c be
       0.15181941 -0.3664013 0.22241572 -0.24675946
000080 fd dd 20 be e6 5a ca be 42 dc 2e be 6f 43 3c be
       -0.15709682 -0.39522475 -0.17076209 -0.18385099
000090 12 6f 39 3e 29 f5 76 bd ac 7b 26 be 85 d7 9d 3e
       0.18108776 -0.060292397 -0.16258115 0.3082849
0000a0 37 e3 9f be a0 dc 6a 3d 88 2c 2b 3e 0e 91 b1 3e
       -0.3122804 0.05733931 0.16716206 0.3468098
0000b0 09 e9 2d 3e ab b9 81 3e 9a 89 88 3e 53 3c 80 be
       0.16983427 0.25336966 0.26667482 -0.25046024
0000c0 78 ae 9c bd cf 12 b8 be f9 f8 05 bd 49 6d 91 be
       -0.07650465 -0.3595185 -0.032708142 -0.2840369
0000d0 ad a3 a3 3e 31 ec 82 3e 9e 5b dc bc 19 79 98 bc
       0.31960812 0.25570825 -0.026899155 -0.018612431
0000e0 9c d4 3b be 2d a9 b4 3e 84 f8 01 3e a6 ad 6b bd
       -0.18342823 0.3528532 0.12692457 -0.05753865
0000f0 db 11 a7 be 75 aa eb 3d 0b f7 80 bd 9b 4b 49 be
       -0.3263081 0.115071215 -0.0629712 -0.19657747
000100 5c 27 08 3e c0 80 4b be c2 14 e0 bd 08 04 85 be
       0.13296264 -0.19873333 -0.10941459 -0.25979638
000110 60 ab 86 3e 07 a1 26 3e c1 fa 83 bd cf 6d c2 3d
       0.26302624 0.16272365 -0.06444312 0.094936006
000120 a6 d7 a6 3e 83 0e ce bd 85 46 46 be de 08 97 3e
       0.32586402 -0.10061362 -0.19362839 0.29498953
000130 c2 3c 2b be b2 26 46 be 99 37 ff bd ed 1d a9 3d
       -0.16722396 -0.19350699 -0.12461776 0.08257661
000140 78 70 a0 bc 98 00 20 3e d7 df ba be 86 a8 00 3e
       -0.01958488 0.15625226 -0.364989 0.12564287
000150 7f 0e ce bd 89 79 a5 3e 1a 13 75 3e 1a 70 72 3d
       -0.10061359 0.32319286 0.23933068 0.05918894
000160 7c 66 9d 3e c2 65 a5 3e 8a d1 b4 3e 18 98 2a be
       0.30742252 0.32304198 0.35316116 -0.16659582
000170 47 9c 03 3e 81 4f bd bd f3 f0 82 3e 9a 2d 9e be
       0.12852584 -0.0924368 0.25574455 -0.30894166
000180 d0 63 46 3e 50 8f c8 bd 0d 76 87 3e dc 63 08 bd
       0.19374013 -0.0979296 0.26457253 -0.03329836
000190 f9 fd f0 3a 44 b5 6c be 71 83 4b be f5 3d 5a be
       0.0018386237 -0.23116022 -0.1987436 -0.21312697
0001a0 f8 1c 58 3e 09 f8 40 3e c0 89 a3 3d 92 e5 90 3e
       0.211048 0.18844618 0.07985258 0.28300148
0001b0 74 83 d7 3d e3 6e 1d bd 5a 70 7c be eb d6 41 be
       0.105231196 -0.038435828 -0.24652234 -0.18929641
0001c0 0f 40 a6 3e 1b 2d e9 3d b9 06 2c bd 83 e2 a7 bc
       0.32470748 0.11385556 -0.0419986 -0.020493751
0001d0 87 3f a2 bd 2d 22 ac 3b 27 46 65 be 2e 5e 57 be
       -0.07922273 0.0052530975 -0.22390042 -0.2103202
0001e0 7c e3 70 3e ba 71 22 3e a0 9d ca 3e 78 1c eb 3d
       0.23524278 0.15863696 0.39573383 0.11480039
0001f0 e8 1a 4c bc 54 7c 83 be b4 fa 1b 3d d9 f7 61 be
       -0.012457587 -0.25680792 0.038080886 -0.22067203
000200 ff d7 c8 bd 89 28 80 3d a8 ee 85 3e a1 95 a8 3e
       -0.09806823 0.062577315 0.26158643 0.32926658
000210 73 4a 86 be 71 4e a0 be 78 2e 10 be 17 07 e1 bb
       -0.26228675 -0.31309846 -0.14080226 -0.0068673003
000220 53 94 89 3d b6 84 c2 3d 0f a5 a4 be b9 da 88 be
       0.06717744 0.09497969 -0.3215718 -0.26729372
000230 92 63 3f be 59 4c 61 be 57 17 8a be 29 1f e7 3b
       -0.18690327 -0.2200178 -0.26970932 0.007053275
000240 32 b4 1b be 8d ad dc 3c e0 a4 20 bd b0 e2 f8 3d
       -0.15205458 0.026938224 -0.039219737 0.12152612
000250 bd 82 73 3e ae 96 86 3e a0 47 9b 3d 4c 8f e8 bc
       0.23780341 0.26286834 0.07582021 -0.028388642
000260 bc 45 fc 3d 0e ed 42 bd 28 60 a4 3e 7e 91 11 be
       0.12317988 -0.047589354 0.3210461 -0.14215657
000270 11 2d a9 be e6 5a a7 3c de 50 9b bd 4d 9d 8a be
       -0.33042195 0.020429086 -0.075837836 -0.27073136
000280 f8 9b 90 3e a5 e6 d6 bc 0d 52 86 3d ae e7 0f be
       0.28243995 -0.026233027 0.06558619 -0.14053223
000290 77 fa c7 3d 95 e9 39 3e e6 a4 63 3e 85 e3 9e 3e
       0.09764569 0.1815551 0.22230873 0.3103296
0002a0 40 45 89 3e b6 ab bb 3c b5 bc 66 be 89 02 34 3e
       0.26810646 0.022909027 -0.22532924 0.17579092
0002b0 3e 9f 9c 3e 3c 97 0a 3e 4d 2f ce 3e 13 db a0 3e
       0.30590242 0.13534254 0.40270463 0.3141714
0002c0 db 5f 83 3d bb 63 3a 3e 6d 20 2e be b1 19 58 3e
       0.06414767 0.18202107 -0.17004557 0.2110355
0002d0 b3 76 49 bc 2f cf c2 bd d2 ce aa be 91 22 80 be
       -0.0122963665 -0.095121734 -0.33360916 -0.25026372
0002e0 e4 ea 59 3e b3 f5 b1 3e aa 31 c8 3d 94 7d b1 be
       0.2128101 0.34757766 0.09775098 -0.3466612
0002f0 a7 36 66 be c6 ec 7e bd 52 6a 01 be 81 30 00 3d
       -0.22481786 -0.062237523 -0.12638214 0.031296257
000300 dc 3d 11 be 84 ad 10 be a0 e7 3b 3e ef 6a 8c 3d
       -0.14183754 -0.14128691 0.18350077 0.068563335
000310 3a 82 8c be 1c 5a 73 3e 74 d4 60 3e ab 29 95 3d
       -0.27443105 0.23764843 0.21956044 0.07283338
000320 e7 9f 13 3b c3 60 7a be cc af b0 3c ac d6 b0 be
       0.002252573 -0.24450974 0.021568201 -0.34538782
000330 f6 2c 74 3e 14 e0 77 be d3 a6 f8 bd 85 58 0b 3e
       0.23845276 -0.24206573 -0.12141194 0.13607986
000340 ee 89 4f bd a0 e3 a1 3e 0e 4f b3 be 14 aa 79 be
       -0.05066865 0.31618977 -0.3502125 -0.24381286
000350 40 36 2b 3e 6b 33 30 3e bc 51 db bd 6f 97 b6 be
       0.16719913 0.17207114 -0.10708949 -0.3566241
000360 97 39 e0 3d 1c 3b 0d 3d 5e 55 11 be 99 49 9d be
       0.109484844 0.0344802 -0.14192721 -0.30720213
000370 3c 08 ea 3d bd 24 a0 3e d5 d2 ab 3e cf d5 78 bd
       0.11427352 0.3127803 0.3355929 -0.06075078
000380 ea bd 8d 3e c1 0b 96 3c a8 6e b9 be f5 c7 0b 3e
       0.27683955 0.018316152 -0.36217237 0.13650496
000390 50 f1 a6 be a7 18 79 3e 8b d2 70 be 50 09 4c be
       -0.32605982 0.2432581 -0.23517816 -0.19925427
0003a0 68 22 b4 bd 38 d9 06 3e 4d 4c 5c 3e ce 30 7e bd
       -0.08795625 0.131688 0.21513481 -0.062058263
0003b0 83 b8 a9 be 40 bd a3 be 2a 69 48 3e 25 ac a7 3d
       -0.33148584 -0.31980324 0.19571367 0.08187131
0003c0 55 37 30 be 9e 20 50 bb 30 a9 53 3e 32 4d 1c 3e
       -0.17208607 -0.0031757723 0.20670009 0.15263823
0003d0 53 79 50 be d1 e5 39 3d 9f 14 a2 bd ea 07 84 3e
       -0.20358782 0.045385186 -0.079140894 0.25787288
0003e0 42 60 13 be 16 e2 03 be d5 9d 81 3e f6 31 23 3d
       -0.14392188 -0.12879214 0.2531573 0.03984257
0003f0 c6 29 d5 3d 1f f8 95 3d 81 2f a6 be c7 f3 2a bd
       0.10408358 0.07322716 -0.32458118 -0.04173639

bias f4 [64]
000000 9b d0 cc 3c 64 91 56 be 97 43 c9 3c b0 76 c5 3b
       0.025001815 -0.209539 0.024568362 0.0060261115
000010 95 0e 86 3e 16 f3 f5 3d 1a 07 28 3d 60 d2 2d 3e
       0.26183 0.120092556 0.041022398 0.16974783
000020 82 4b 15 3e df 63 87 be 02 37 81 be 37 65 16 3e
       0.14579585 -0.26443383 -0.2523728 0.14687048
000030 b7 28 a8 3e ab ca b4 3e 17 0f 52 3e 54 3c c0 3d
       0.32843563 0.35310873 0.20513569 0.09386507
000040 3e 28 07 3e 32 31 86 be 89 42 88 3e 9d 4b ff 3d
       0.13198945 -0.26209408 0.26613262 0.12465594
000050 1f 72 95 3e 95 9d 2f bd b5 b2 ab 3e 02 8e 4e 3e
       0.2918863 -0.04287489 0.3353478 0.20171359
000060 a8 df 1c be bf 58 6e 3e 18 82 ac 3e 4a 27 b0 bc
       -0.15319693 0.23276041 0.33693004 -0.02150311
000070 2f 89 65 bd 4e 4c 89 3c 76 e6 8f be c6 88 9f 3e
       -0.05603903 0.016760018 -0.28105515 0.31159037
000080 75 4f 66 bd ad 90 d6 bc 36 f2 0d 3c ee b4 94 3e
       -0.05622812 -0.026192034 0.008663705 0.29044288
000090 ea f2 27 3e c9 27 08 be c0 9c b0 bd c1 49 74 be
       0.16401258 -0.13296427 -0.08623648 -0.2385626
0000a0 d3 c4 9e 3a 78 55 b5 3e ef 66 3c 3e e8 39 73 3e
       0.0012113102 0.3541677 0.18398641 0.23752558
0000b0 40 59 d3 bc 5f 0f a1 bd dd 1a ac 3e 0a 9c 85 be
       -0.025799394 -0.0786426 0.33614245 -0.2609561
0000c0 38 0c 15 3d c9 6e 11 3e 4f 38 9c 3d aa 5b 2e 3e
       0.036388606 0.14202417 0.076279275 0.17027155
0000d0 56 c4 ae 3e 19 8b 31 3d ce b5 98 be 94 cc 87 3e
       0.34134167 0.043345544 -0.29826206 0.26523268
0000e0 eb 99 3c be d7 7a 7f 3e 73 42 50 be e6 29 81 3e
       -0.1841809 0.24949203 -0.20337848 0.25227278
0000f0 0c e0 a9 3e fb 2f 4a be f9 84 8c 3e d2 93 99 3d
       0.33178747 -0.19744866 0.274452 0.074988976

weight f4 [32, 64]
000000 16 68 ed bd 6f d9 f8 3d 46 cb d3 bd 4c 4b 3b 3d
       -0.115921184 0.12150847 -0.10341506 0.045726106
000010 f8 8f e5 bd 86 80 0f bd cb e7 f8 3c 18 85 4d bd
       -0.112091005 -0.03503468 0.030383965 -0.050175756
000020 8b cf 4e bd a0 0b 2c bc bf 05 c3 bd 2e 42 c7 bd
       -0.050490897 -0.0105008185 -0.0952258 -0.0972942
000030 01 8c c7 3d 86 b6 88 bd 13 36 f2 bd 78 0a ba bd
       0.097435005 -0.066754386 -0.1182672 -0.09084028
000040 79 fd 8e 3d ec 9d 60 bd 58 ec df bd e4 4e a8 3c
       0.0698194 -0.054838106 -0.10933751 0.02054543
000050 2f fe 82 3d 6b b4 b3 3d cc 66 d7 bd 16 74 24 bd
       0.06396138 0.08774646 -0.10517654 -0.04014977
000060 8b 72 34 3d 09 a0 c4 3d 18 32 be 3d a2 64 f6 3d
       0.04405455 0.09600837 0.092868984 0.12030913
000070 d4 11 cf 3d 2b 62 88 3d 94 fa ae bd 27 b2 fc 3d
       0.10110822 0.06659349 -0.08543888 0.12338667
000080 5e 2a b1 3d 0e b4 8f bd af ea 2d 3d 97 e0 e3 3d
       0.08650659 -0.070167646 0.04246014 0.111268215
000090 f4 0b a9 bd a8 4f b3 bd 10 12 70 3d 00 4f 87 bd
       -0.08254233 -0.087554276 0.058610976 -0.06606865
0000a0 d2 da d3 3d 3e 24 98 3c 71 8a 40 bb 0c e6 1a 3d
       0.10344471 0.01857197 -0.0029379393 0.037817046
0000b0 fb ca 2c 3d 0c 92 fa 3d 24 73 8d 3d 2e f4 c4 3d
       0.042185765 0.122348875 0.06906727 0.09616886
0000c0 ac 95 e4 bd 37 88 f7 3d 2b 82 2c 3d 34 80 ad bd
       -0.1116136 0.12086528 0.042116325 -0.084717184
0000d0 b6 3a ab bd 34 13 da bb 82 c4 b2 bd 7a 66 7d bd
       -0.083608076 -0.006655121 -0.08728887 -0.061865307
0000e0 2b e6 1f 3b 93 13 85 bd 28 93 e5 bc 84 6f 45 bd
       0.0024398665 -0.06497874 -0.028024271 -0.048202053
0000f0 c2 35 df bd b0 e9 1a 3d 88 68 4b 3d e0 12 72 bc
       -0.10898925 0.037820518 0.049660236 -0.014775008
000100 1c 1c 74 3b dd d2 87 bc 48 32 81 bd 08 5b a7 bd
       0.00372482 -0.01658004 -0.063084185 -0.0817166
000110 83 49 bc 3d 89 5e 82 3d 96 ca d1 bd fd f4 e2 bd
       0.09193709 0.063656874 -0.10243718 -0.11081884
000120 e4 0a f2 3c f5 e0 e0 bd 86 a0 ee 3d 5c a2 87 3d
       0.029546209 -0.10980407 0.11651711 0.066227645
000130 36 d2 49 3d e8 7f bc 3d 90 f7 e2 bd 35 ab ae bd
       0.04927274 0.09204084 -0.11082375 -0.08528749
000140 1c ce ca 3a ee d5 97 bd 7f c2 05 3e 53 51 19 bc
       0.0015472802 -0.07413851 0.13062476 -0.009357768
000150 cf 15 03 3d 8d 42 17 3e 12 94 86 3d ec c2 ec 3c
       0.03200322 0.14771481 0.06571211 0.02890154
000160 8f 40 fb bd 3b 8c 58 3d e4 f1 e7 bd 18 bb e3 bc
       -0.12268173 0.05286811 -0.11325434 -0.027799174
000170 25 5f e6 3b 19 25 9d 3d 5b f9 a4 3d 76 ed 88 bc
       0.007030385 0.076730914 0.08055373 -0.016714793
000180 c8 5c d9 3d 6f e5 88 3c c1 49 32 bd 8d 33 e7 bd
       0.106134 0.016710965 -0.04352737 -0.112891294
000190 ec 37 95 3d 46 e4 99 bd b0 61 b4 3c fe 7d d7 bd
       0.07286057 -0.07514243 0.022019237 -0.10522078
0001a0 06 59 03 be 40 c1 bd 3d fe f2 92 bd c6 0d 3c 3d
       -0.12826928 0.09265375 -0.07175253 0.045911573
0001b0 da b8 c9 3d 9d 9b 8d 3c f2 f0 31 bc 22 bc 81 bd
       0.09849711 0.017286116 -0.0108606685 -0.063347116
0001c0 fc 58 05 3d be 85 88 bd fa 60 8e bc d2 18 ac 3d
       0.032555565 -0.06666134 -0.017380226 0.084031716
0001d0 47 38 06 3e 20 75 55 3c 89 b6 e0 bd 58 b1 f9 3d
       0.13107406 0.013028413 -0.10972316 0.12192029
0001e0 5f 27 e5 bd 0b a9 f1 bd f4 19 27 bd 90 6f 53 bd
       -0.1118915 -0.117998205 -0.040796235 -0.051620066
0001f0 69 4c 4e bc 0d 8b a6 3d 42 d3 65 bd a0 4c d9 3d
       -0.01259146 0.081319906 -0.056109674 0.10610318
000200 28 4b ba 3c e0 16 ed bd 8a 6d 00 be 51 e8 6e bc
       0.022740915 -0.11576629 -0.12541786 -0.014581756
000210 ac 4a d4 bd 75 9c 06 bb e7 76 f0 bc ce 34 dc 3d
       -0.10365805 -0.0020540033 -0.029353572 0.10752259
000220 bb a0 af 3d fe f6 c4 bd 2c 28 84 3b 27 97 02 3e
       0.08575579 -0.096174225 0.004033109 0.12752973
000230 a7 6a ab bd 54 56 03 3e 46 50 9a 3c 7f 3c bb 3d
       -0.08369952 0.128259 0.018837105 0.09142398
000240 45 9a b0 bc 26 6b 84 bd 92 9d c7 3b 88 50 0d bc
       -0.021557936 -0.064657494 0.006091782 -0.008625157
000250 49 18 a7 ba fc eb af 3d 76 de de 3d de 9d 39 bd
       -0.0012748326 0.08589932 0.10882275 -0.04531657
000260 79 8e a2 3d dc 12 1c bd 06 41 e5 bc ad 38 bd 3d
       0.07937331 -0.038103923 -0.027985107 0.09239326
000270 bc 60 02 3d d2 6c f4 3d 24 b0 92 3a 3c 02 e9 3d
       0.031830534 0.11934818 0.001119141 0.11377379
000280 5f 92 93 3d 63 52 2f bc a8 c3 a1 3c 28 18 c4 bd
       0.072056524 -0.010700795 0.019746616 -0.0957492
000290 6a 72 e4 3d 7d 3e 9f 3d ee 49 44 bc bc d5 d8 bd
       0.11154635 0.077755906 -0.011980517 -0.105876416
0002a0 f5 1f 4b bd fb 02 73 bd 3f 12 d7 3c 2f 5b c2 bd
       -0.049591023 -0.059329014 0.026253818 -0.09490048
0002b0 15 62 fc bd 24 de 23 3a c2 80 b8 bd 2a 77 97 3c
       -0.12323395 0.0006251058 -0.090089336 0.018489439
0002c0 8b 69 a2 3c dc 1d 01 3e 28 bb f9 3c 62 7f 98 3d
       0.019825717 0.12609047 0.03048475 0.07446171
0002d0 85 6b 20 3d ee 02 df 3d 58 0d 92 bd d0 3f b8 3c
       0.03916504 0.10889231 -0.07131451 0.022491366
0002e0 32 a4 2e bc 46 4f bd bd 93 94 a7 3d 91 df c7 3d
       -0.010659264 -0.09243636 0.08182635 0.09759439
0002f0 f2 28 ba 3d 6a 8c 97 bd 47 33 a6 bc 75 da 78 3b
       0.09089841 -0.07399829 -0.020288123 0.0037972007
000300 9e 68 c3 bd d0 ce f4 3d 84 e2 24 3d 36 b7 c7 bd
       -0.095414385 0.11953509 0.040255085 -0.097517416
000310 4c 68 d7 3d b0 f7 eb bc 68 57 88 bd cc bd ca bd
       0.1051794 -0.02880463 -0.066572964 -0.09899482
000320 6c b7 9f bd 9a df ea bd 10 d1 11 bc ce 93 e9 bd
       -0.07798657 -0.1146843 -0.008899942 -0.11405145
000330 28 f3 bb bc 82 ca c4 3d 7a 3f db 3d c4 82 0d bd
       -0.022943094 0.09608938 0.107054666 -0.034548536
000340 3c 80 2b bd f2 a9 a0 bd a4 87 14 bd 98 3e de bc
       -0.04187034 -0.078449145 -0.03626217 -0.027129456
000350 cc 3c 1a bd 60 ee 26 3d a4 2e 0a 3d ec 9c f6 bd
       -0.037655637 0.040754676 0.033735886 -0.12041649
000360 92 35 bf 3d dc 38 c1 3d f0 53 31 bc cc 3f a2 bd
       0.093363896 0.09434673 -0.010823235 -0.079223245
000370 58 6a ba 3c 60 0c d1 bb 4e 00 b3 3d e8 80 33 bd
       0.022755787 -0.006379649 0.087402925 -0.043824106
000380 6e 83 e7 bd 40 6a f7 bc fc df 40 bd c0 ee 66 bb
       -0.11304365 -0.030202031 -0.04708861 -0.003523752
000390 60 62 be bb 5c 2f 78 bd 62 7e 81 bd e8 5a c6 bc
       -0.005810067 -0.06059204 -0.06322934 -0.02421327
0003a0 28 f2 86 3c 42 66 d0 bd cc 15 7d 3d bc 8f 7e bd
       0.016472891 -0.10175754 0.061788365 -0.062148795
0003b0 b8 ab 87 bc 04 90 83 bd b0 a4 da 3c c0 c3 bf bd
       -0.016561374 -0.06423953 0.026689857 -0.09363508
0003c0 14 7a 12 bd 84 28 5f bd fa 37 93 bd 00 65 e5 3c
       -0.035760954 -0.054481998 -0.07188411 0.028002262
0003d0 28 fe d2 bc dc 9c e1 bd 40 3a d5 3b 08 8e 03 3d
       -0.025755957 -0.11016247 0.006507188 0.032117873
0003e0 b0 d8 14 3c 5a cf ae bd 98 4a 6e bd 2e ec e7 3d
       0.009084865 -0.08535643 -0.058176607 0.113243446
0003f0 54 37 d0 bd be 9a f8 bd de 2e e4 bd ea 64 aa bd
       -0.10166803 -0.1213889 -0.11141752 -0.08320029

bias f4 [32]
000000 28 ca 01 bd 2e 98 d3 bc 87 7e 94 bd 4a 81 c3 3d
       -0.03168693 -0.0258294 -0.07250696 0.09546144
000010 58 b9 9a bd 47 f7 08 3d e1 8a 8c 3d d0 bc 90 bc
       -0.07554883 0.033438947 0.068624265 -0.017668158
000020 8d c1 6a 3d 1b 1b 77 bd d0 84 d1 3d 49 d3 29 bd
       0.05731349 -0.060328584 0.1023041 -0.041461263
000030 5a 2d 30 3d c5 ce ef 3d 91 a7 a4 3d 92 e2 84 bc
       0.043012 0.1170936 0.08039773 -0.016221318
000040 4d a0 be bc 49 de c8 bd 8c b7 70 3c b0 88 40 3d
       -0.023269797 -0.098080225 0.0146921985 0.047005355
000050 25 85 f2 3d dd 93 fb 3c a3 47 a5 bd 71 5e fe bc
       0.118418016 0.030710155 -0.08070304 -0.031050893
000060 15 a0 48 bd ec 84 b8 3d 95 fe dd 3d 40 de cb 3d
       -0.04898079 0.09009728 0.10839573 0.099545
000070 3c 50 f9 3c 59 04 0e 3d 60 d2 97 bb 14 f7 31 3d
       0.030433767 0.034672115 -0.004633233 0.043448523

weight f4 [1, 32]
000000 a3 20 92 3b 2c da 2a 3e 2a 7c d3 bc 8a a2 06 3e
       0.004459457 0.16684788 -0.025816042 0.13147941
000010 67 74 e5 bd 4c e8 3c be 77 64 2e be e3 20 cd 3d
       -0.112038426 -0.18447989 -0.17030512 0.10016038
000020 9b 9e b4 3b ed 9b a8 3d 86 38 38 3e bc 47 2c be
       0.0055120713 0.082328655 0.17990312 -0.1682424
000030 32 25 83 3e b4 38 e9 bc 28 15 96 3d 16 65 a2 3d
       0.25614315 -0.028469421 0.07328254 0.07929437
000040 68 de 48 bb 9a f9 0f be c8 e7 2e 3e 95 4c 5a be
       -0.0030650143 -0.14060059 0.17080605 -0.21318276
000050 04 41 bb 3d 85 aa ab be 93 65 03 be 16 8c ad 3d
       0.0914326 -0.33528534 -0.12831716 0.08473985
000060 31 cf 1d be b9 1a c8 bd 9d e9 07 3e 15 27 c7 3d
       -0.15411068 -0.09770722 0.1327271 0.09724251
000070 a7 d7 d6 3d 14 b7 2f 3d 81 ba 10 3e 56 35 50 be
       0.10490351 0.042899206 0.14133646 -0.20332846
