experiements/starter_team/continuous_state/actor_critic/results/max_damage_ac/checkpoints/model_a0.pt (torch, 14879 bytes, 6 tensors)

weight f4 [64, 8]
000000 5d 3f 46 3e 6e 71 c8 bd d3 92 77 3d e7 67 05 3c
       0.19360109 -0.0978726 0.060442757 0.008142448
000010 c7 50 50 3e 82 82 b2 3e c1 64 76 be 90 6e a4 be
       0.20343314 0.34865195 -0.24061872 -0.32115602
000020 02 a8 43 be 6b 76 2b be 4f 60 a0 3e 8e 2a b1 3d
       -0.19107059 -0.16744392 0.31323478 0.08650695
000030 15 ab b0 bd 24 68 20 bd 09 4e ab 3e 19 2f a0 3e
       -0.08626381 -0.039161816 0.33457974 0.31285933
000040 f5 13 e9 bc 81 fa 85 be 90 8a 2a be 07 dd 51 3d
       -0.028451899 -0.26167682 -0.1665442 0.05123618
000050 7c 4f ee 3d f4 70 89 bd c0 46 7f be 82 3b d1 bd
       0.11636254 -0.06710997 -0.24929333 -0.10216428
000060 ae b2 7c 3e 8f ea 34 3e 2d 0b 79 be b3 27 0b 3e
       0.24677536 0.17667602 -0.2432067 0.13589363
000070 03 0b 97 be 01 e8 79 be 42 0c 45 be 78 83 ac 3e
       -0.2950059 -0.24404909 -0.19242957 0.33694053
000080 f4 32 92 bd 79 5c a7 be b3 5c 86 be 88 79 23 3e
       -0.07138625 -0.3268774 -0.262426 0.15964329
000090 ad 42 7e be fe 14 4d 3e 42 7f c4 bc 32 e9 a9 3e
       -0.24830122 0.20027539 -0.023986463 0.33185726
0000a0 26 f4 9a 3d 88 c7 6b be ee 1b a2 3e 40 fa b5 bc
       0.07566099 -0.23025334 0.31661934 -0.022214055
0000b0 a4 59 0e be 7c 95 b2 be d8 d7 da 3c c2 fb 78 3c
       -0.13901383 -0.34879673 0.02671425 0.0151967425
0000c0 9b 4f a3 bd 74 b9 65 be ed 84 a1 be 71 f1 34 be
       -0.07974168 -0.22434026 -0.31546727 -0.17670228
0000d0 6b f7 9a 3e 31 f2 90 3e de a6 1c bc 5c 43 b9 3d
       0.3026689 0.28309777 -0.009561269 0.09046051
0000e0 01 44 c6 bd 59 10 a0 be 6e 8b f7 bd 09 b7 94 be
       -0.096809395 -0.31262472 -0.12087141 -0.29045895
0000f0 ff 3f 95 3d 6d b7 dc 3d 22 cc 86 be da 12 1e 3e
       0.07287597 0.10777173 -0.26327616 0.15436879
000100 c4 47 81 3e f1 43 5c be d4 6b 41 be 34 07 e7 3d
       0.25250065 -0.21510293 -0.1888879 0.11280671
000110 bf b7 87 be 97 be ac 3e 31 58 a2 be 70 68 ba 3d
       -0.26507375 0.3373916 -0.3170791 0.09101951
000120 9f c5 60 3d 96 0c 6c 3e 98 dc 5b be 43 48 ff 3c
       0.054875966 0.23051676 -0.21470869 0.031162387
000130 6f 8e af 3e 58 9a 37 3e 6a 25 a7 be 91 70 91 be
       0.34288356 0.17929971 -0.32645732 -0.28406194
000140 0f 39 a2 3e dd e1 d2 ba e3 f6 63 3d 26 5e 96 bb
       0.31684157 -0.0016089041 0.05565537 -0.00458886
000150 4a 41 64 be 06 59 ee bc 0b 8a b3 bd ce c4 a3 be
       -0.22290531 -0.029095184 -0.08766564 -0.31986088
000160 c5 63 8f 3e b7 30 ce bd 42 0c 29 3e 0a 76 9e be
       0.28005806 -0.10067885 0.16508582 -0.30949432
000170 2e 06 0b 3b 0a f3 17 3e b5 82 a0 3e ea 7b 99 3e
       0.00212134 0.14838806 0.31349722 0.2997735
000180 a9 ba 8e be 2e 8b b6 bd db 3d 7f bd 45 b3 76 be
       -0.27876785 -0.08913265 -0.06231485 -0.24091823
000190 db 47 a7 bd 18 4c 20 be 95 11 9d be e9 32 36 3e
       -0.08168002 -0.15654027 -0.30677477 0.17792858
0001a0 c2 16 cb 3c 72 5a a1 3e 7e 90 8a 3e 0c 78 f5 3d
       0.024791125 0.31514317 0.27063364 0.11985788
0001b0 e2 45 4d 3d 09 e7 6e 3e ce 6d 7c 3d 9c c1 3b be
       0.050115474 0.2333032 0.061628155 -0.18335575
0001c0 2f 04 69 be bb 3b 11 3e c8 51 6b be 09 9e 3a bd
       -0.22755502 0.14182942 -0.22980416 -0.04556087
0001d0 3f f2 ac be 05 d7 8b 3e a7 bd 96 be 0d 9f 77 be
       -0.3377857 0.27312484 -0.29441568 -0.24181767
0001e0 64 0c 09 3e ce e8 13 3e 44 32 56 3d 7b a6 22 3e
       0.13383633 0.14444277 0.05229403 0.1588382
0001f0 eb f5 59 be 9a 64 b9 3b 0f 17 45 3e 57 c1 bc 3c
       -0.21285217 0.0056577446 0.19247077 0.02304141
000200 c4 02 12 be a8 6a 57 3e e3 6b 83 bd 6a 8d 79 be
       -0.14258868 0.2103678 -0.06417062 -0.24370351
000210 59 26 3f 3e 2b 66 e5 3d fd 3b 60 be 7f 1c 86 3e
       0.18666972 0.112011276 -0.21897884 0.26193616
000220 58 3d 65 be 05 54 94 3b cb e7 1d 3e 4a 5e 26 be
       -0.22386682 0.0045266175 0.15420453 -0.16246906
000230 c7 62 1c 3e de 2a 9f 3d 85 90 ec bd 01 7b e5 bd
       0.15272056 0.07771848 -0.115510024 -0.11205102
000240 f7 6f 85 bd 18 3a 0a bd c6 d8 8d 3e 91 30 f8 3b
       -0.06515496 -0.03374681 0.27704448 0.007574149
000250 0a 3f bb bd a9 42 93 be af 4b 41 3e 3d 69 ad bd
       -0.09142883 -0.28761795 0.18876527 -0.08467338
000260 c7 e8 b2 3e d9 e8 69 be d1 07 47 be 4f 99 9c be
       0.3494322 -0.2284273 -0.19436575 -0.30585715
000270 24 43 83 3e 44 4a 57 3e b8 33 48 bd 99 be bd bd
       0.25637162 0.21024424 -0.048877448 -0.09264869
000280 6b 7d 8c 3c 26 03 79 3e 7a ac 92 be cd 38 86 3e
       0.017149648 0.24317607 -0.28647214 0.2621521
000290 44 2d c8 3a a8 9f 9d be 90 3e 14 3e 0e b2 8a 3e
       0.0015272279 -0.3078587 0.1447699 0.2708897
0002a0 66 1d e5 3d 48 08 d4 bd d6 75 55 be 29 32 27 bd
       0.11187248 -0.10353142 -0.20845732 -0.04081932
0002b0 0c d0 ed bd 58 33 fc 3d 76 f2 43 be 53 79 9a 3e
       -0.116119474 0.123144805 -0.1913546 0.30170688
0002c0 67 b4 59 be 1e 81 51 3e 09 23 75 be 21 3e 02 3e
       -0.21260224 0.2045941 -0.23939146 0.12719013
0002d0 2a a8 c3 3c ba 9a 44 be 77 c1 21 be 90 d5 32 be
       0.023883898 -0.19199648 -0.15796457 -0.1746428
0002e0 33 61 f4 3c 48 c8 ae 3e ca c4 4f be 7d 2c ad 3e
       0.029831504 0.34137177 -0.20289913 0.33823004
0002f0 2b 3f cf bd 21 b9 57 3e d3 fa 58 be 68 e2 80 3e
       -0.1011947 0.21066715 -0.21189432 0.25172734
000300 14 db b0 3d f3 55 6b 3e 6b 37 82 be 12 2f d7 bc
       0.08635536 0.22982006 -0.25432906 -0.026267562
000310 4f 3b 9b be 51 f7 d6 3d 2e 86 4b 3d db 64 82 3e
       -0.30318686 0.104963906 0.04968851 0.25467572
000320 c0 d4 26 be 33 11 51 3e 10 37 38 3c 9a 38 0f 3e
       -0.16292095 0.20416717 0.011243597 0.13986436
000330 2a 9f 91 be f6 2e 81 3e 14 06 c2 3d 88 12 34 be
       -0.28441745 0.2523114 0.094738156 -0.17585194
000340 e6 98 94 3e 0c 38 67 be 2f 38 13 be f3 69 5a be
       0.29022902 -0.22579974 -0.14376901 -0.21329479
000350 2c 14 57 be d7 a3 77 bd 58 13 1f 3e a0 8c 05 3d
       -0.21003789 -0.060458984 0.15534723 0.032604814
000360 e2 d5 d1 3d d8 cf 26 bd b3 16 79 be 50 6e 9f 3e
       0.10245873 -0.04072556 -0.24325065 0.3113885
000370 f0 8b 7d be 6a b4 47 bd ac 8b 6f 3e 70 f4 82 bc
       -0.24760413 -0.04875604 0.23393124 -0.015985698
000380 c1 6b 8c bd 7b 7f ad bd fc fd 0c be 59 7c 5c 3e
       -0.0685649 -0.084715806 -0.13768762 0.2153181
000390 62 82 a7 be a7 e6 9d bd 2e fa 9f bd 4f f3 11 be
       -0.32716662 -0.07710009 -0.0781139 -0.14252971
0003a0 31 f7 50 be 89 63 5c 3e 81 c1 6a 3c fd 1b 0c 3d
       -0.20406796 0.21522345 0.0143283615 0.03420638
0003b0 3c 9a 61 3e 2b 74 b2 be 18 20 bd 3c 50 f4 f4 bc
       0.22031492 -0.34854254 0.023086593 -0.029901654
0003c0 79 69 6e 3e 5e 72 54 3e ff 8f aa 3d c6 8c d8 3d
       0.23282422 0.20746753 0.08328246 0.105737254
0003d0 c5 73 1d be 87 9c 5d be b6 e0 93 3e 95 82 c8 bd
       -0.15376194 -0.21641742 0.28882378 -0.097905315
0003e0 76 22 e0 3d 33 1c 24 be ee 89 82 bd de e5 89 3d
       0.10944073 -0.16026382 -0.06373964 0.06733297
0003f0 84 6d 87 3e 20 f1 97 be 33 34 cc 3c 5d a9 b6 3d
       0.2645074 -0.2967615 0.024927234 0.08919022

bias f4 [64]
000000 04 4f b7 bc f0 e4 59 3e 33 61 49 be b5 6e 63 3e
       -0.022376545 0.21278739 -0.19665985 0.222102
000010 74 4b 28 be 26 61 ce bd ca 2a a0 3d 71 38 64 be
       -0.16435033 -0.10077123 0.07820661 -0.22287156
000020 a8 7a 7f 3e ec e8 aa bd da 99 91 3e e1 74 77 be
       0.24949133 -0.083452076 0.28437692 -0.2416568
000030 9c 75 30 be 47 ec 3a bd e9 97 40 3e 31 e9 8d 3d
       -0.17232364 -0.045635488 0.18807949 0.06929243
000040 a7 80 a7 be 56 fd dd bd f1 4d b2 3d e9 b8 74 bd
       -0.3271534 -0.108393356 0.087062724 -0.059746657
000050 56 da 0e be 3e d6 3e 3e ef 5f 96 3e 21 ac a9 bb
       -0.13950476 0.18636414 0.29370067 -0.00517799
000060 40 6a d2 3d b9 34 da bd 78 56 a0 bd c4 fb 9a be
       0.10274172 -0.10654587 -0.078289926 -0.30270207
000070 a8 26 28 3e 3b bf ab bc 5c 76 b7 3d b1 fb a2 3c
       0.16420996 -0.02096521 0.08958122 0.019895406
000080 85 32 4e be a1 5d 06 3e 98 d5 aa be 26 c0 25 3d
       -0.20136459 0.13121654 -0.33366084 0.04046645
000090 60 af 8c 3e 00 b9 95 3e 08 13 81 3e f2 c2 5a 3e
       0.2747755 0.29242706 0.25209832 0.21363428
0000a0 36 c4 ab 3d fd 05 86 3d fb c3 d5 bd ff 43 b2 be
       0.08387034 0.06544111 -0.10437771 -0.34817502
0000b0 f2 c8 1e bd 15 aa a7 3e 80 d8 c0 bd 5a 4f ab be
       -0.038765855 0.3274695 -0.09416294 -0.33458978
0000c0 be 4d 00 3e 6e 07 6a 3e d3 3b 9d 3d da f1 88 3e
       0.12529656 0.22854397 0.07677426 0.26747018
0000d0 f8 b9 76 3b 65 22 07 bc 05 65 e0 3d f5 94 8b be
       0.0037647467 -0.008247946 0.10956768 -0.27262083
0000e0 22 88 fa 3d 6b 73 ae 3e 34 76 8e be 21 ea ab 3d
       0.122329965 0.34072432 -0.27824557 0.08394266
0000f0 0b 2f 4b 3e 8c 5f 7f 3e a3 b1 82 3e a4 d8 67 bd
       0.19842164 0.24938792 0.2552615 -0.05660309

weight f4 [32, 64]
000000 fa 43 8a 3d dd 72 e9 3c 84 4e d4 3d d0 33 ad 3d
       0.06751247 0.028497154 0.10366538 0.08457148
000010 94 10 dc bd a4 66 4a 3d 28 b2 64 bd b3 fd e6 3d
       -0.107453495 0.049414292 -0.055833966 0.11278858
000020 43 ce b1 bd a7 7a 80 3d ea 94 11 bd 89 69 c5 3a
       -0.086819194 0.06273394 -0.035542406 0.0015061359
000030 71 4d c2 bd 3d d8 27 bd 1d 38 1e 3d fa f9 ce 3d
       -0.09487427 -0.040977705 0.038627733 0.10106273
000040 56 30 bb bd ec 07 ee 3d 11 be e7 bd 03 e2 7e bd
       -0.09140079 0.11622605 -0.11315549 -0.06222726
000050 7a d9 84 bd 7f ea 4b 3d aa d4 ae bd ae 96 48 3d
       -0.06486793 0.04978418 -0.08536656 0.048971824
000060 b1 4d bb bd a4 2d 95 3d e4 86 7b 3c 2a 55 b1 bd
       -0.09145678 0.07284096 0.015351985 -0.08658822
000070 44 a4 a2 3d 6f f9 db 3d 0d fd a0 3d ec fb 98 3d
       0.079414874 0.10740935 0.078607656 0.07469925
000080 3c 2a 85 bd 41 81 c4 3d 24 13 cc 3d 80 59 ff 3d
       -0.06502196 0.09594966 0.09964588 0.12468243
000090 a7 d9 b5 3d 67 31 45 3d 16 2e 61 bd 22 ea e9 bd
       0.088794045 0.048142817 -0.05497559 -0.114216104
0000a0 66 cf 96 bb 67 1f c0 3d 16 b9 98 bc d8 4e 92 3b
       -0.0046023605 0.093809895 -0.018642943 0.0044649653
0000b0 93 a1 84 bd f9 b7 16 bc 02 19 f1 3d e2 54 f6 bc
       -0.0647613 -0.009199136 0.11772348 -0.030069772
0000c0 de 63 29 bd cd 85 f8 3d 1d 23 5f bc 7f 96 73 bd
       -0.041355006 0.121348955 -0.0136192115 -0.059469696
0000d0 5b ff e8 bd b9 b9 b5 3d 7b 89 d7 bd e2 36 d8 3d
       -0.1137683 0.088733144 -0.10524269 0.10557343
0000e0 12 9e d3 bd da da 50 bd 32 f5 af 3d 4a 55 5f 3d
       -0.10332884 -0.050989963 0.08591689 0.054524697
0000f0 2d ec 99 3d 55 64 e9 3d 1c b8 cd bc 47 fb c3 3d
       0.0751575 0.1139609 -0.025112204 0.09569412
000100 cc 8f 8a bd c1 a8 ee bd 79 e9 cb 3d c8 5f d2 bd
       -0.06765708 -0.11653281 0.09956641 -0.10272175
000110 04 0c ee 3d 85 56 0d bd 63 6f e9 bd 54 77 4e 3d
       0.116233855 -0.03450634 -0.113981985 0.05040677
000120 32 03 94 bd 8b 6a ce bd 97 1c 88 bd e6 50 59 bd
       -0.07227172 -0.10078915 -0.06646078 -0.053055666
000130 8f a4 d6 bd ec 8c c8 3d 1e 59 89 bd f5 0d c8 3d
       -0.10480606 0.09792504 -0.06706451 0.09768287
000140 c5 9a 1f 3b 39 34 89 3c e8 f5 94 bd 9e 81 db bc
       0.0024353724 0.016748535 -0.072734654 -0.026795205
000150 5c 85 9b 3d b6 e5 9d 3c f7 d2 09 bb 59 3c e2 bd
       0.07593796 0.019274574 -0.0021030286 -0.11046667
000160 31 23 f4 3d 8e 2d 1e 3d a8 f3 50 3c 6b d0 a0 3d
       0.11920775 0.038617663 0.012753405 0.078522526
000170 5e 9a 29 3d 32 f6 06 3c b4 b1 1c bd 2c 3d f4 bd
       0.04140698 0.0082374085 -0.03825541 -0.1192573
000180 15 fe eb bc b2 e5 f7 3b 6e 59 e0 bd eb 21 84 bc
       -0.02880768 0.0075652236 -0.10954557 -0.016129455
000190 d8 78 a0 bc 54 ee 41 3d e2 03 be ba 16 3f c1 3d
       -0.019588873 0.047346428 -0.0014497007 0.09435861
0001a0 e8 c6 9f 3c 56 74 bc 3d bf 0d 61 bd 33 55 7d bd
       0.019504026 0.09201877 -0.05494475 -0.06184883
0001b0 64 1e 84 bd 8b dc a9 3d ec 00 d8 3d 40 68 5b 3d
       -0.06451109 0.08294018 0.10547051 0.053566217
0001c0 84 62 d7 bd 93 ba 20 3c e6 37 f5 bc df 50 bc 3d
       -0.10516837 0.009810108 -0.029933881 0.091951124
0001d0 62 ef 9e bd 62 53 2c bd f3 05 72 3c 79 fd bc ba
       -0.077605024 -0.042071708 0.014771926 -0.0014418802
0001e0 7d 59 87 3d 1d 78 84 3c 4d 10 fb 3c 7e 05 aa bd
       0.066088654 0.016170556 0.030647421 -0.08301829
0001f0 87 b3 fd bb ea c8 d3 bd d7 74 dd bd 1f 7b 28 3d
       -0.0077423486 -0.10341056 -0.10813301 0.041133042
000200 35 52 ac 3c 5b c0 a5 bc 84 12 62 bb d4 f4 ca bd
       0.021035293 -0.020233324 -0.00344959 -0.099099785
000210 af 17 ee 3d 26 51 bd bd a7 8c 15 bd 38 58 24 3d
       0.11625611 -0.092439935 -0.03651109 0.040123194
000220 96 43 7a bd fa 92 17 bd cc 77 71 3c c4 07 70 3d
       -0.06109961 -0.037005402 0.014738034 0.058601156
000230 95 f2 bb 3d 5d d7 91 bd cb 03 8e 3d 98 54 ce 3d
       0.09177128 -0.071211554 0.06934317 0.10074729
000240 f8 7e 89 3d f4 86 57 3d 10 56 ec 3d 3e a3 9b bd
       0.067136705 0.052618936 0.115398526 -0.07599495
000250 d1 7b d6 3d 9f c7 e3 bc 9b c2 a7 3d b5 57 e0 bd
       0.10472835 -0.027805148 0.08191415 -0.10954229
000260 16 d6 9f 3c fb 83 41 bd dd bc 17 bd 2b a2 ea 3c
       0.019511264 -0.047245007 -0.03704535 0.02864178
000270 4c f3 16 3b fd 65 d0 3d 98 3a bc 3c f4 33 22 3d
       0.00230332 0.10175703 0.022977158 0.039600328
000280 17 c3 ed 3d 57 3f 33 3d 3d 43 b6 3d f1 c3 9e 3d
       0.11609476 0.043761577 0.088995434 0.077522166
000290 48 7e e0 3d 75 e3 d0 bd 08 2e e0 3c 5b c9 68 3d
       0.10961586 -0.10199634 0.0273657 0.056832653
0002a0 cd ea 62 3c e7 cf 5d 3d 12 69 9c 3d bb ed df bc
       0.013849926 0.05415335 0.07637228 -0.027335038
0002b0 13 7e cf bb 3a 34 c8 bd 51 a5 b8 3c 5f e1 e6 bd
       -0.006332168 -0.097755864 0.022539767 -0.11273455
0002c0 54 2a 0d 3d 8b d3 85 bd 78 70 c7 3d 6d e9 6a 3d
       0.034464195 -0.06534489 0.097382486 0.05735152
0002d0 db fe a4 bd af 9f 3f bd 27 44 d5 3d 6e b5 16 3d
       -0.08056422 -0.046783146 0.1041339 0.03679412
0002e0 73 8a a9 3d 91 07 a2 3d cc 23 e8 3d 90 d5 f5 3d
       0.0827836 0.079115994 0.11334953 0.120036244
0002f0 11 ae ac 3d 80 6e b4 3d 47 cc c9 3d 69 6b 89 3c
       0.08431638 0.08810139 0.09853416 0.01677485
000300 6c 56 d8 bd bb 30 76 bd ad 93 99 3d d7 0a b1 bd
       -0.10563359 -0.060105067 0.0749887 -0.08644646
000310 5d 70 66 bb fb d8 54 bd cf 9f b9 3d 51 e5 e7 3d
       -0.0035162189 -0.05196474 0.09063684 0.113230355
000320 f0 8f 8a bd 6b 90 51 bd 3b 65 f6 bd 63 b2 15 bd
       -0.06765735 -0.05116312 -0.12031027 -0.036547076
000330 ca 0c 70 3d 43 8b a9 3d 45 ed ca bd ee e7 0b 3d
       0.058605947 0.08278515 -0.09908537 0.034156732
000340 33 60 10 3d 07 da ea 3d 1c 25 6f 3d c9 ab 1d bc
       0.035247993 0.11467367 0.058385 -0.009623476
000350 e3 2a ca bd c0 32 d6 bd 6f 7c 49 bd 50 db f0 bd
       -0.09871461 -0.104588985 -0.049190935 -0.117605805
000360 89 c0 bf bc 75 77 df 3d aa 50 4b bc dc 58 79 3b
       -0.023407238 0.109114565 -0.0124093685 0.003804735
000370 88 67 fd bd 77 6b f6 bd b4 ec 47 3d 1e ee dd 3d
       -0.12373263 -0.12032216 0.048809722 0.10836433
000380 bd a2 86 3d 7e be 9e bd d3 19 0c bc ea f2 c2 3d
       0.065740086 -0.07751177 -0.008551079 0.095189884
000390 96 8b 17 3d da 36 b2 bd f8 55 e4 3c ff b7 45 3d
       0.036998354 -0.08701868 0.027873024 0.048271175
0003a0 77 46 cf 3d 85 5c 40 bd 1c c3 7c bc 92 ce 22 bd
       0.10120862 -0.046963234 -0.015427377 -0.039747782
0003b0 10 e8 92 3d c5 2f 0f 3d 48 eb 92 3d e6 af 9e bc
       0.07173169 0.034957666 0.071737826 -0.019370984
0003c0 87 e6 ed bb b5 e4 56 3d d0 e1 82 3d 59 0c 32 bd
       -0.007260147 0.052464206 0.063907266 -0.043468807
0003d0 78 7a ca bd c0 02 88 3d 60 c3 e8 bd 4b 0d 83 3d
       -0.0988664 0.066411495 -0.1136539 0.0639902
0003e0 ce 03 de bc 02 8e a9 bc d4 dd f2 3d 57 c6 c4 bd
       -0.027101424 -0.020697597 0.118587166 -0.09608143
0003f0 c2 75 f3 39 79 0e 16 3c f8 b8 e3 bd 48 45 cb bd
       0.00046436308 0.009158724 -0.11119264 -0.09925324

bias f4 [32]
000000 d5 1c 3b bd bb ec d3 3d 74 5d 54 3d a1 98 e0 3c
       -0.045681793 0.10347887 0.051846936 0.02741653
000010 27 72 dc 3c bf 8d c7 bc cc 54 dc 3d 40 ac ba 3d
       0.0269099 -0.024359582 0.10758361 0.09114885
000020 46 40 f7 3d 0d e3 bb bd e5 84 44 3d e9 71 dd 3d
       0.12072806 -0.09174166 0.0479783 0.10812742
000030 fb 13 fc bc 7e 25 74 bd 93 ee fd 3d ae 66 13 3c
       -0.030771246 -0.059606068 0.1239902 0.008996649
000040 00 d6 e3 bd 55 2c 84 3d 58 15 81 3d 7b f5 0e bd
       -0.11124802 0.06453768 0.06302899 -0.034902077
000050 90 c8 71 bd a2 e6 24 bd ea b5 f1 3d 91 85 4c bd
       -0.059029162 -0.04025901 0.118022755 -0.049932066
000060 c5 d1 88 bd e6 d2 a4 bd 24 96 70 bd 0d 30 32 3d
       -0.06680635 -0.08048038 -0.058736935 0.043502856
000070 ff 18 d3 bd 10 80 ed 3c 9f fc 61 3d e8 62 0a 3d
       -0.10307502 0.028991729 0.05517256 0.03378573

weight f4 [7, 32]
000000 a4 f0 00 bd 40 22 e5 bd 88 c7 dc bd df f5 15 be
       -0.031479493 -0.11188173 -0.10780245 -0.14644574
000010 aa 06 8e bd e2 d8 ff 3d 22 15 32 3e 49 0a bd 3d
       -0.06934865 0.12492539 0.17390874 0.09230477
000020 5c 2e 21 be d1 d9 23 bd cb e2 12 3d 4b 72 07 be
       -0.15740341 -0.040002648 0.035860818 -0.13227193
000030 95 a3 04 3d bd 62 1e bc ee f0 21 be 85 c4 da 3d
       0.032382566 -0.009667096 -0.15814564 0.106820144
000040 eb 64 d2 bd c2 38 0c be fb c5 db bd fb 08 14 be
       -0.10273155 -0.13693526 -0.10731121 -0.14456551
000050 46 44 f9 3d 03 3f fd 3d 3e 0b 5d 3d c7 f9 33 be
       0.12171225 0.12365534 0.0539658 -0.17575751
000060 6c c9 c2 bd 8d 69 ea 3c 2f 05 2e 3e 35 12 97 3d
       -0.095110744 0.028614784 0.16994165 0.073765196
000070 a1 16 01 3e f3 a0 15 3e 12 32 e9 3d 19 a9 51 3d
       0.12606288 0.14612179 0.11386503 0.051186655
000080 52 3c fc 3d 7f 84 85 3b 34 de 03 be f1 2a 96 3c
       0.12316193 0.0040746327 -0.12877733 0.018331023
000090 9b e1 29 be 0f f3 f2 3d 3c f7 0f be d4 31 2a be
       -0.16589968 0.11862766 -0.14059156 -0.1662057
0000a0 78 66 06 bd 72 80 d6 3c d1 dd 1a 3d 78 28 f8 bd
       -0.032812566 0.026184294 0.037809197 -0.12117094
0000b0 19 aa 2d bd 48 2b 30 be 47 27 cb bd 06 c7 13 3e
       -0.042398546 -0.1720401 -0.09919601 0.1443139
0000c0 81 e7 6d 3d a7 6d 95 bd 75 a2 1a 3c d9 36 29 3e
       0.058082107 -0.07296305 0.009438147 0.16524829
0000d0 b5 48 0e be ad 50 b3 bd ca e7 6a 3d 32 25 9f bd
       -0.13894923 -0.08755622 0.057349958 -0.07770766
0000e0 68 94 32 be c3 70 08 be 69 bd 19 bc db d9 1d 3e
       -0.17439425 -0.13324265 -0.009383538 0.15415137
0000f0 2f b0 2e be 66 a4 86 3d 3f a0 02 3e 55 ab 13 bc
       -0.17059396 0.06574325 0.12756442 -0.009013017
000100 d8 08 e2 bd d1 d9 e7 bc 59 6a 56 bd 8b c0 fa bd
       -0.11036843 -0.028302105 -0.052347515 -0.12243756
000110 48 99 fc bd c5 bf db bd d0 93 06 be b8 e7 d7 bd
       -0.123339236 -0.107299365 -0.13142323 -0.10542244
000120 d3 9c f8 bd 93 24 f3 3d 1b c1 f0 3d e8 c0 e9 bd
       -0.12139287 0.1187221 0.11755582 -0.11413747
000130 a0 92 d8 3d 6c fc 73 3d 26 db 7a 3b 04 cd 05 3e
       0.105748415 0.0595669 0.0038277595 0.13066489
000140 d4 fb 1b be 66 d9 30 3e 3c ff f2 bd 8b b9 fa bd
       -0.15232784 0.17270431 -0.11865088 -0.12242421
000150 db 8e d5 3c 10 20 b6 3d 89 3f f7 bd 92 89 02 be
       0.026069095 0.08892834 -0.12072665 -0.12747791
000160 04 c9 ba 3d e2 d1 b7 3d d9 81 e3 3d fa 09 7a bd
       0.09120372 0.08975579 0.11108751 -0.06104467
000170 a6 fb 8f 3d b8 c7 5a 3d 67 ee 23 3e 50 23 e4 3d
       0.0703042 0.053413123 0.16008912 0.11139548
000180 52 f9 fb bd 7a 42 83 bc ab eb e8 3d 9b c3 27 3a
       -0.123034135 -0.01602291 0.11373075 0.0006399692
000190 1f 9d 55 3d 13 a3 9c bd d4 6e d0 3d d9 65 a6 bc
       0.052151795 -0.076482914 0.10177389 -0.020312237
0001a0 d9 f3 a2 bd b8 f8 c5 bc 70 e5 34 3e c9 50 4f bd
       -0.079566665 -0.02416645 0.17665648 -0.050614152
0001b0 0d 94 14 be fc 32 07 be 92 3c 12 be 3f 03 8e bd
       -0.14509602 -0.13203043 -0.14280918 -0.06934213
0001c0 92 45 14 3e fa a0 26 3e ff 48 35 3c 4b 1e 30 3d
       0.14479664 0.16272345 0.011064767 0.04299764
0001d0 6f 92 81 3d f0 5c b3 3d ef 3d dd bb a2 5c 0c be
       0.06326758 0.08757961 -0.006751768 -0.13707212
0001e0 e3 cc 34 3d c1 a2 22 be 15 94 17 3d 54 d2 ae bc
       0.044140708 -0.15882398 0.037006456 -0.021340527
0001f0 45 49 05 3e bc b3 fb 3d aa e0 13 3e 7c d8 04 bd
       0.13016231 0.12290141 0.14441171 -0.032433018
000200 47 36 18 3e 25 5f 05 be 9c 5c 1a 3e f3 dd c7 3c
       0.14864455 -0.13024576 0.1507439 0.024397826
000210 87 8f 44 bd 81 2a b5 3d 0e 34 52 bd a4 e2 8c 3c
       -0.04798844 0.088459976 -0.051319174 0.017197914
000220 70 46 b5 bd ae 5d 7a 3d 4d 04 08 bd eb 37 09 3e
       -0.088513255 0.061124496 -0.033207227 0.13400237
000230 52 d9 14 3e 3a b5 4d 3c 5a 50 ea bd 06 fa 92 3d
       0.14536026 0.012555415 -0.11441107 0.071765944
000240 f4 68 57 bd 05 7c 7e 3d 91 db 93 3d 00 77 04 be
       -0.052590325 0.062129993 0.07219613 -0.1293602
000250 f2 63 11 3e ac 94 11 bd d3 c7 ca bd 17 fb 17 3e
       0.14198282 -0.035542175 -0.09901395 0.14841877
000260 fc 81 c3 3d 3a 7b 03 bd a9 63 92 bd fd c1 2d be
       0.09546277 -0.03209994 -0.07147915 -0.16968532
000270 5c f4 29 3e 24 ee 9d 3b 28 80 2e 3e 80 fa 6b bc
       0.16597122 0.0048196483 0.17041075 -0.014402986
000280 5b 7e 2c 3e 12 ae ee bd b8 d9 42 3d 5e 29 c0 3d
       0.16845076 -0.11654295 0.047570914 0.0938289
000290 cb ec 23 3e 3f 3f bb bc 76 e1 89 3d 7f bf 06 be
       0.16008298 -0.022857307 0.067324564 -0.13158987
0002a0 80 4a 98 bd ea e7 28 3e d6 b6 d5 bd 04 eb da bd
       -0.07436085 0.16494718 -0.10435264 -0.10689357
0002b0 f7 bc c7 bd c6 d6 29 be cb 72 dd 3a 5b f6 29 bd
       -0.09752839 -0.16585836 0.0016895173 -0.04149471
0002c0 3c 32 e0 3d 94 ac b0 3d b2 22 e1 bd df 93 ca 3d
       0.109470814 0.08626667 -0.10992946 0.098914854
0002d0 84 75 33 bc 58 72 11 3e 07 72 1c be 2a fc 8d 3c
       -0.010953311 0.14203775 -0.15277873 0.017332155
0002e0 6e 94 08 3e f0 d6 14 3c 85 90 f9 3d fc 80 bc bd
       0.13337871 0.009084448 0.12185768 -0.09204289
0002f0 71 f4 b7 3c dd e5 d6 3d f5 fe f0 bd 94 b6 b0 3d
       0.022455426 0.10493062 -0.11767379 0.08628574
000300 73 c7 9e 3c 9d a1 fa 3d 72 cb ee 3d 03 43 10 be
       0.019382214 0.122378565 0.11659898 -0.14088063
000310 31 00 95 3d 5e 74 39 bd 7d 34 18 be 17 c4 1d bd
       0.07275427 -0.045276992 -0.14863773 -0.038517084
000320 f6 71 55 bd 8e 82 b4 3d 6c 81 12 3d 45 75 10 3e
       -0.052110635 0.08813964 0.035767958 0.14107235
000330 af c8 88 3d 13 11 32 be f7 cb 66 bc ec 95 9b bd
       0.06678902 -0.17389326 -0.014086715 -0.07596955
000340 5b c0 37 bd c2 6d 34 3d 4d 80 20 be 74 39 90 3d
       -0.04486118 0.044049986 -0.15673943 0.07042208
000350 31 f3 22 3e 3f 8b 01 bc 7c 43 27 be b0 f6 70 3d
       0.15913083 -0.007906734 -0.16334337 0.05882901
000360 0f e5 bc 3d 5a 23 cd bc f9 94 1e be 68 f5 19 be
       0.09223377 -0.025041271 -0.15486516 -0.15035021
000370 3b 04 b8 bd 23 57 7e 3d 5f 61 cb bd 5d b4 1a 3e
       -0.08985182 0.06209482 -0.099306814 0.15107866

bias f4 [7]
000000 19 61 13 3d 0e f0 01 3e de a2 99 3d ad 9e fa bd
       0.03598127 0.1268923 0.075017676 -0.12237296
000010 08 94 24 3e ce a3 24 be d7 06 80 bd
       0.16072094 -0.16078112 -0.062513046
