experiements/starter_team/continuous_state/actor_critic/results/max_damage_ac/checkpoints/model_a3000.pt (torch, 14903 bytes, 6 tensors)

weight f4 [64, 8]
0	0x3e567b9a	0.20945588
1	0xbd89a981	-0.067217834
2	0x3d9b2653	0.07575669
3	0x3d39b94a	0.04534272
4	0x3e66ac91	0.22526766
5	0x3ec2cc59	0.3804653
6	0xbe4ec624	-0.20192772
7	0xbe941f9f	-0.28930375
8	0xbe4102a2	-0.1884866
9	0xbe23447f	-0.15944098
10	0x3ea2bc53	0.31784305
11	0x3dd12d96	0.10213773
12	0xbda2dc61	-0.0795219
13	0xbcc8ecfb	-0.024527064
14	0x3eb2fe85	0.34959808
15	0x3ea5ccfd	0.32382956
16	0xbd3e5477	-0.04646727
17	0xbe934c0e	-0.28768963
18	0xbe3f7af2	-0.18699244
19	0x3b88e333	0.004177475
20	0x3dad1e51	0.08453048
21	0xbddb6785	-0.10713104
22	0xbe95f090	-0.29285097
23	0xbe0fc510	-0.14040017
24	0x3e840453	0.2578455
25	0x3e40b5ad	0.18819304
26	0xbe739a5f	-0.23789357
27	0x3e205040	0.15655613
28	0xbe8e2271	-0.27760652
29	0xbe679f4a	-0.22619358
30	0xbe33599e	-0.17514655
31	0x3eb49797	0.35271904
32	0xbdc89fd7	-0.09796112
33	0xbeb50d10	-0.35361528
34	0xbe9314bd	-0.2872676
35	0x3ddbe030	0.1073612
36	0xbe91ed1d	-0.28501216
37	0x3e1dfd33	0.15428619
38	0xbd90d9a9	-0.070727654
39	0x3e92e70e	0.28691906
40	0x3da13e18	0.078731716
41	0xbe5ff47b	-0.21870606
42	0x3ea5333c	0.3226565
43	0xbc91749f	-0.017755805
44	0xbe0d9581	-0.13826562
45	0xbeb0177a	-0.3439291
46	0x3d106dc0	0.035260916
47	0x3caf477e	0.021396395
48	0xbd855469	-0.065102406
49	0xbe5082ab	-0.20362346
50	0xbe9b6b98	-0.30355525
51	0xbe16e8e0	-0.14737272
52	0x3ea533ce	0.32266086
53	0x3e9dd475	0.30826154
54	0x3ca89f36	0.02058373
55	0x3de9d11a	0.11416836
56	0xbdf2d252	-0.11856522
57	0xbeae3ff9	-0.34033182
58	0xbe16cbc8	-0.14726174
59	0xbeac91ac	-0.3370489
60	0x3d0c20a6	0.034210823
61	0x3d7efb59	0.062251423
62	0xbe9d0da5	-0.30674472
63	0x3de12dd5	0.1099507
64	0x3e83c0cc	0.2573303
65	0xbe4b2d74	-0.19841558
66	0xbe3622f1	-0.17786767
67	0x3e04061a	0.12892953
68	0xbe8448b9	-0.25836733
69	0x3eb4a8ac	0.35284936
70	0xbe97f461	-0.29678634
71	0x3dd8c186	0.10583787
72	0x3d68ac9b	0.056805234
73	0x3e704e49	0.23467363
74	0xbe5d9531	-0.21638943
75	0x3cdb1554	0.026743568
76	0x3eaec19c	0.34132087
77	0x3e3501f2	0.17676523
78	0xbea7c7a0	-0.3276949
79	0xbe923c8f	-0.28561828
80	0x3ea1438e	0.31496853
81	0xbbbd2f1c	-0.005773438
82	0x3d4a105f	0.04933202
83	0xbc2d41b6	-0.010574749
84	0xbe65fa2a	-0.22458711
85	0xbd0a6e11	-0.033796374
86	0xbdc401fc	-0.09570691
87	0xbea64b5d	-0.32479373
88	0x3e90e3df	0.28298852
89	0xbdbb89bd	-0.09157131
90	0x3e2ed3ba	0.17072955
91	0xbe96b8c7	-0.2943785
92	0x3c103468	0.008801557
93	0x3e24bfc3	0.16088776
94	0x3ea822c5	0.32839027
95	0x3e9f49af	0.31110904
96	0xbe946069	-0.28979805
97	0xbddf5b34	-0.109060675
98	0xbda8a16d	-0.082339145
99	0xbe8a9b24	-0.27071488
100	0xbdd94ef6	-0.10610764
101	0xbe3da29b	-0.1851906
102	0xbeac2502	-0.33621985
103	0x3e15e15e	0.14636752
104	0x3d40caf6	0.04706856
105	0x3eaf760e	0.34269756
106	0x3e971d4a	0.29514533
107	0x3e2c3f47	0.16821013
108	0x3dad81c2	0.08472015
109	0x3e8c1e63	0.27366933
110	0x3dde88b8	0.10865921
111	0xbe0f77a0	-0.14010477
112	0xbe689d21	-0.2271619
113	0x3e0e5bb4	0.1390217
114	0xbe695069	-0.2278458
115	0xbd4affd9	-0.0495604
116	0xbead7e95	-0.33885637
117	0x3e89f07b	0.26941285
118	0xbe97cd0a	-0.2964862
119	0xbe7a1e7a	-0.24425688
120	0x3e17ff83	0.14843564
121	0x3e344d24	0.17607552
122	0x3da29fdb	0.07940646
123	0x3e533d9f	0.20628975
124	0xbe3ab16e	-0.18231747
125	0x3d4aa763	0.04947604
126	0x3e7719db	0.24130957
127	0x3d84e3b4	0.064887434
128	0xbe119393	-0.14216451
129	0x3e4feb2d	0.20304556
130	0xbd962f51	-0.07333244
131	0xbe86ca02	-0.26325995
132	0x3e366ece	0.17815706
133	0x3dc55d91	0.09636987
134	0xbe727898	-0.23678815
135	0x3e7bb5c4	0.24581057
136	0xbe6ba248	-0.23011124
137	0x3bcc4777	0.006234105
138	0x3e167f77	0.14697061
139	0xbe2f92bf	-0.17145823
140	0x3e0eb0f1	0.13934685
141	0x3d8ba4e1	0.068185575
142	0xbdf90bb3	-0.121604346
143	0xbdf4f9ef	-0.119617335
144	0xbd54f832	-0.05199451
145	0xbca32167	-0.019913388
146	0x3e96e93b	0.29474816
147	0x3d08f143	0.03343321
148	0xbd9479a3	-0.07249763
149	0xbe8680ed	-0.26270238
150	0x3e5adf58	0.21374261
151	0xbd7d321c	-0.061815366
152	0x3ebc50fe	0.36780542
153	0xbe564eac	-0.20928448
154	0xbe3be325	-0.18348368
155	0xbe93b440	-0.28848457
156	0x3e8d168d	0.27556267
157	0x3e6b2b42	0.2296572
158	0xbcf5c951	-0.030003222
159	0xbd98ad79	-0.07454962
160	0x3b60a023	0.0034275136
161	0x3e66d31f	0.22541474
162	0xbe9a9d8b	-0.3019832
163	0x3e715660	0.23568106
164	0xbc8e1e47	-0.017348422
165	0xbea9bca3	-0.3315173
166	0x3df0210c	0.11725053
167	0x3e7d1f65	0.24719007
168	0x3dd7baeb	0.10533699
169	0xbde0b4c5	-0.10971979
170	0xbe57b233	-0.21064071
171	0xbd412024	-0.047149792
172	0xbdfc7635	-0.12327234
173	0x3def1ce1	0.1167543
174	0xbe4accf0	-0.1980474
175	0x3e981824	0.29705918
176	0xbe608139	-0.21924295
177	0x3e4e8e1b	0.20171396
178	0xbe780e6c	-0.24224252
179	0x3df30217	0.11865633
180	0x3c793085	0.015209322
181	0xbe4ac430	-0.19801402
182	0xbe2880dd	-0.16455407
183	0xbe39cd54	-0.18144733
184	0x3d655366	0.055987738
185	0x3ebbff74	0.36718333
186	0xbe31514f	-0.17316173
187	0x3ec42359	0.38308218
188	0xbd6d1998	-0.057885736
189	0x3e8076a4	0.25090516
190	0xbe276d93	-0.16350393
191	0x3e95660f	0.29179427
192	0x3da67d47	0.081293635
193	0x3e694b2b	0.2278258
194	0xbe81c47e	-0.25345224
195	0xbcee675f	-0.029102026
196	0xbe9e14b1	-0.3087516
197	0x3dcf5ec4	0.10125497
198	0x3d4853ac	0.04890792
199	0x3e8197cf	0.25311133
200	0xbe2c10da	-0.16803303
201	0x3e4b0025	0.19824274
202	0x3bf19d31	0.007373475
203	0x3e09a5a3	0.13442092
204	0xbe94382b	-0.28949103
205	0x3e7b977e	0.24569508
206	0x3db7a105	0.08966259
207	0xbe398f6e	-0.1812112
208	0x3e862526	0.26200217
209	0xbe87a64d	-0.26494065
210	0xbe3158db	-0.17319052
211	0xbe8c1248	-0.27357697
212	0xbe7d6d98	-0.24748838
213	0xbde8fb9f	-0.11376118
214	0x3dbb6f51	0.09152091
215	0xbc915006	-0.017738353
216	0x3db10996	0.086444065
217	0xbd670af6	-0.056406938
218	0xbe813cd2	-0.25241715
219	0x3e91c136	0.2846772
220	0xbe8958b2	-0.26825482
221	0xbd93844e	-0.072029695
222	0x3e55a781	0.20864679
223	0xbd1c0633	-0.03809185
224	0xbda9d673	-0.08292856
225	0xbdbdf440	-0.092751026
226	0xbe1d0d2b	-0.15337054
227	0x3e3ebfff	0.18627928
228	0xbeb26497	-0.3484237
229	0xbdce48f8	-0.100725114
230	0xbdd1ec04	-0.102500945
231	0xbe29c0fd	-0.16577525
232	0xbe47855c	-0.19484466
233	0x3e726c2a	0.23674074
234	0x3d028d76	0.03187319
235	0x3d8b5c39	0.068046995
236	0x3e739acb	0.23789518
237	0xbea32c8c	-0.31869924
238	0x3d6e24e8	0.058140665
239	0xbad6e1d2	-0.0016394204
240	0x3e688a0c	0.2270891
241	0x3e5e1032	0.21685866
242	0x3dac6788	0.084181845
243	0x3dec5567	0.11539727
244	0xbe1e86ad	-0.15481062
245	0xbe5655d2	-0.20931175
246	0x3e99dbcc	0.30050504
247	0xbdb94233	-0.090458296
248	0x3df11efd	0.11773489
249	0xbe1aa2dc	-0.15101188
250	0xbd6a38d9	-0.05718312
251	0x3da98de6	0.08279018
252	0x3e8cd5db	0.2750691
253	0xbe90c4f3	-0.2827526
254	0x3d258f5a	0.040419914
255	0x3dcfb212	0.10141386

bias f4 [64]
0	0x3ce0f63d	0.027461166
1	0x3e70b6ff	0.23507307
2	0xbe84d8e4	-0.25946724
3	0x3e7db910	0.24777627
4	0xbe70be43	-0.23510079
5	0xbdb80545	-0.0898538
6	0x3df0ecb9	0.11763901
7	0xbe95d1bb	-0.29261574
8	0x3e8d4c94	0.27597487
9	0xbdab4921	-0.083635576
10	0x3e8be9d0	0.27326822
11	0xbe64f783	-0.22360043
12	0xbe627280	-0.22113991
13	0x3cbef564	0.02331037
14	0x3e3d09df	0.18460797
15	0x3e0c95a4	0.13728958
16	0xbeb2dab4	-0.34932482
17	0xbdf60d83	-0.12014296
18	0x3e006b9c	0.1254105
19	0xbcfae164	-0.030625053
20	0xbe396ca9	-0.18107857
21	0x3e35a436	0.17738423
22	0x3e90ca40	0.28279305
23	0x3d843bd1	0.064567216
24	0x3dc8f1dc	0.09811756
25	0xbde8e205	-0.11371235
26	0xbe26374c	-0.16232032
27	0xbeae08ae	-0.33990997
28	0x3e019778	0.12655437
29	0x3cc7925a	0.024361778
30	0x3dce84f6	0.10083954
31	0x3d2b5cad	0.04183643
32	0xbe61f1b1	-0.22064854
33	0x3ddb6f3a	0.10714574
34	0xbeca6c69	-0.39535835
35	0x3bbf00b1	0.00582894
36	0x3e98e3c8	0.29861283
37	0x3e9ff043	0.31237993
38	0x3e40b599	0.18819274
39	0x3e35c925	0.17752512
40	0x3db685a7	0.08912211
41	0x3c9369fd	0.017994875
42	0xbdc5ac73	-0.09652033
43	0xbecfd237	-0.4059007
44	0xbd733da6	-0.059384964
45	0x3ec34111	0.3813558
46	0xbd92672e	-0.07148586
47	0xbec0a4f8	-0.3762586
48	0x3e1d381b	0.15353434
49	0x3e7ff884	0.24997145
50	0x3d573cef	0.052548345
51	0x3e7a167a	0.24422637
52	0x3d7652f8	0.06013772
53	0xbd09a2aa	-0.033602394
54	0x3e024b0b	0.12723939
55	0xbe65a349	-0.2242557
56	0x3daa895a	0.08326979
57	0x3eb14d71	0.34629396
58	0xbe9e7718	-0.30950236
59	0x3dc30662	0.09522702
60	0x3e854f7d	0.26037207
61	0x3e776dcc	0.24162978
62	0x3e80b168	0.2513535
63	0xbd2d4664	-0.042303458

weight f4 [32, 64]
0	0x3d81a492	0.063302174
1	0x3d0a9bbc	0.033839926
2	0x3dc6fa0d	0.09715662
3	0x3db7d387	0.089758925
4	0xbde36717	-0.11103647
5	0x3d45484a	0.048164643
6	0xbd696ece	-0.056990437
7	0x3dd9345b	0.10605689
8	0xbdafb444	-0.08579305
9	0x3d71988c	0.05898337
10	0xbd060931	-0.03272361
11	0xbaab01c6	-0.0013046793
12	0xbdcb3059	-0.09921331
13	0xbd1f7d43	-0.03893782
14	0x3d2ae8fa	0.04172609
15	0x3dd7f515	0.105447926
16	0xbdc2d3bb	-0.09513041
17	0x3de8f986	0.11375718
18	0xbde09674	-0.10966197
19	0xbd88a47c	-0.06671998
20	0xbd82ef2f	-0.06393277
21	0x3d507518	0.05089292
22	0xbda446c8	-0.08021313
23	0x3d50828e	0.050905757
24	0xbdb13289	-0.08652217
25	0x3d978fbf	0.07400464
26	0x3c5ad763	0.013357016
27	0xbdb60e65	-0.08889464
28	0x3da70057	0.08154362
29	0x3de02ae3	0.1094568
30	0x3da94b32	0.082662955
31	0x3d966f73	0.07345476
32	0xbd8759a1	-0.06608892
33	0x3dc2094a	0.09474428
34	0x3dc63254	0.09677568
35	0x3df8dbdc	0.1215131
36	0x3dc0bb50	0.09410727
37	0x3d5976ed	0.053091932
38	0xbd545415	-0.051838
39	0xbdeb7f9a	-0.114989474
40	0xba435640	-0.0007451512
41	0x3dc16df4	0.094448
42	0xbc9f20c2	-0.0194248
43	0x3a4e5c9f	0.0007872078
44	0xbd81ed20	-0.06344056
45	0xbb07bb7f	-0.0020711122
46	0x3dec5bae	0.11540924
47	0xbd188102	-0.037232406
48	0xbd1decf6	-0.03855606
49	0x3dfb2abd	0.12264011
50	0xbc690b07	-0.0142238205
51	0xbd55ad92	-0.052167483
52	0xbde8068c	-0.11329374
53	0x3dae0f7f	0.084990494
54	0xbdd3c1dd	-0.10339711
55	0x3dd184ee	0.102304325
56	0xbdd859d0	-0.105640054
57	0xbd4a60b6	-0.049408637
58	0x3da88475	0.08228389
59	0x3d730c16	0.059337698
60	0x3d9fb651	0.07798446
61	0x3df1e288	0.118107855
62	0xbcc27484	-0.0237372
63	0x3dc0d0ea	0.09414847
64	0xbd954366	-0.07288246
65	0xbdff0aba	-0.12453218
66	0x3dd7f515	0.105447926
67	0xbdd91474	-0.10599604
68	0x3deebd31	0.11657179
69	0xbcedee52	-0.029044304
70	0xbdfc422d	-0.123173095
71	0x3d7290fa	0.05922029
72	0xbda3eabf	-0.08003759
73	0xbdcf4d2f	-0.101221435
74	0xbd8805d8	-0.066417396
75	0xbd5b2d01	-0.053509716
76	0xbdbce3e2	-0.09223153
77	0x3dc0760e	0.09397517
78	0xbd75eff7	-0.0600433
79	0x3dbde950	0.092730165
80	0x3c2c7a0c	0.010527145
81	0x3cbd2c99	0.023092555
82	0xbd92e193	-0.07171931
83	0xbd008704	-0.03137876
84	0x3d9b8e9e	0.075955614
85	0x3c6c20dd	0.014412132
86	0xbb0734d3	-0.002063085
87	0xbdf1c870	-0.118058085
88	0x3df4b1a5	0.119479455
89	0x3d344bda	0.04401765
90	0x3c9ba8b5	0.019001344
91	0x3da69bcd	0.081351854
92	0x3d340dd6	0.043958507
93	0x3c215b0a	0.009848366
94	0xbd22b99c	-0.039727792
95	0xbe00bf2d	-0.12572928
96	0xbcd3dc4c	-0.025861882
97	0x3c69ed6f	0.0142778
98	0xbdc53a39	-0.09630246
99	0xbc9b55c4	-0.018961795
100	0xbcb87135	-0.022514919
101	0x3d2cd435	0.042194564
102	0x3bffdacc	0.007808065
103	0x3dc6614c	0.09686527
104	0x3c5b6e7d	0.013393042
105	0x3dcd246e	0.10016714
106	0xbd8b4294	-0.06799808
107	0xbd664727	-0.0562202
108	0xbd5ce0b9	-0.05392525
109	0x3da6d379	0.08145804
110	0x3dcb245a	0.09919043
111	0x3d803db2	0.062617674
112	0xbddae3ce	-0.106879815
113	0xbb93506b	-0.0044956706
114	0xbd0a91b3	-0.033830356
115	0x3db969e4	0.090534
116	0xbdafe5c8	-0.08588749
117	0xbd101a43	-0.035181295
118	0x3c10f915	0.008848448
119	0xbc434174	-0.011917461
120	0x3d827bf6	0.063713
121	0x3c581a23	0.013189825
122	0x3d1493f4	0.03627391
123	0xbdafab1d	-0.08577559
124	0xbc6ae971	-0.014337883
125	0xbdddbe5f	-0.10827326
126	0xbdf9ea38	-0.12202877
127	0x3d12894e	0.035775475
128	0x3c60d22d	0.013721985
129	0xbdc776af	-0.09739434
130	0x3da6e06c	0.08148274
131	0xbe01bb5e	-0.12669131
132	0x3e1e7e55	0.1547788
133	0xbd4bae95	-0.04972704
134	0xbd5ac5e7	-0.05341139
135	0x3e06778d	0.13131543
136	0xbdaedcda	-0.08538218
137	0xbca8c836	-0.02060328
138	0x3c461d0a	0.012091884
139	0x3d04208d	0.032257605
140	0x3e41df6f	0.1893289
141	0xbe0ed0c9	-0.13946833
142	0x3de3b1ea	0.11117919
143	0x3d23f3b1	0.040027324
144	0x3dde945a	0.108681396
145	0x3dbc628d	0.091984846
146	0x3dd61d21	0.10454775
147	0xbd81f180	-0.063448906
148	0x3dc5045e	0.096199736
149	0xbd324df4	-0.043531373
150	0x3db33886	0.08751015
151	0xbe3269b7	-0.1742314
152	0xbc322791	-0.010873691
153	0xbd379d67	-0.044827845
154	0x3c9462c8	0.018113509
155	0x3d792380	0.06082487
156	0x3d0ff362	0.035144217
157	0x3dd73bc2	0.10509445
158	0xbcaae7ba	-0.020862449
159	0x3d09b499	0.033619497
160	0x3dcff4a9	0.10154087
161	0x3e0404dc	0.12892479
162	0x3e330b12	0.17484692
163	0x3da0d83e	0.07853745
164	0x3d963e75	0.073361315
165	0xbe29b3d5	-0.16572507
166	0x3da4c690	0.08045685
167	0x3dab75e7	0.083720975
168	0xbd06e788	-0.03293565
169	0x3db8ef0b	0.09029969
170	0xbc174b8a	-0.0092343185
171	0x3ccfa292	0.025346074
172	0x3d5e9fd5	0.054351646
173	0xbe152519	-0.14564933
174	0xbc85bcce	-0.01632538
175	0xbceacd7a	-0.028662432
176	0x3c055816	0.008138677
177	0xbdff37c5	-0.12461809
178	0x3d7272cd	0.059191514
179	0x3c5dd614	0.01353981
180	0xbe0ff8db	-0.14059775
181	0x3d2eaf11	0.042647425
182	0x3d94d24f	0.07266676
183	0xbb80df37	-0.0039328593
184	0x3ddbaec6	0.10726695
185	0x3d8c24e1	0.068429716
186	0x3e2b15d4	0.16707546
187	0x3d769888	0.06020406
188	0x3ccc4c4d	0.024938727
189	0x3d44c776	0.048041783
190	0x3d12c03c	0.03582786
191	0x3bb9dcba	0.0056720646
192	0xbdeabdfc	-0.11462018
193	0xbdcf4915	-0.10121361
194	0x3df1b235	0.118015684
195	0xbdc34e97	-0.09536474
196	0x3c9b29a8	0.018940762
197	0xbd05d388	-0.032672435
198	0x3da15650	0.07877791
199	0x3e21c19f	0.15796517
200	0xbda3371d	-0.079694964
201	0xbd2faca5	-0.042889256
202	0xbdf55f81	-0.119811065
203	0xbd619b3c	-0.055079684
204	0x3ddf8890	0.10914719
205	0x3d3e2241	0.046419386
206	0xbd926768	-0.071486294
207	0x3b9e4175	0.0048295804
208	0x3d64a58e	0.055821948
209	0x3e07984f	0.13241695
210	0x3d549779	0.051902268
211	0xbc04a304	-0.008095507
212	0xbdc71135	-0.09720079
213	0xbde53f54	-0.111937195
214	0xbd25956b	-0.0404257
215	0xbe17d71b	-0.1482815
216	0xbd0649b4	-0.032785133
217	0x3debcadd	0.115133025
218	0x3c915349	0.017739909
219	0x3cd26cfb	0.025686732
220	0xbdcf735b	-0.10129424
221	0xbdf1f005	-0.11813358
222	0x3cef2bb0	0.029195637
223	0x3dd16795	0.10224835
224	0x3d720430	0.059086025
225	0xbcfff028	-0.031242445
226	0x3d1a3df2	0.037656732
227	0x3dbb568c	0.09147367
228	0x3cb463af	0.02202019
229	0xbdedfdc0	-0.116206646
230	0x3d7af70c	0.06127076
231	0x3d6f4abd	0.058420885
232	0x3da69a52	0.08134903
233	0xbcf675df	-0.030085502
234	0xbd8227f3	-0.06355276
235	0xbc20c6a5	-0.009812986
236	0x3dda8a33	0.10670891
237	0x3c6d7da9	0.014495292
238	0x3d421edc	0.04739271
239	0x3ca505ff	0.02014446
240	0xbcb5c665	-0.022189328
241	0x3cb1a8b5	0.021686891
242	0x3d2b2237	0.041780677
243	0xbd750cdc	-0.059826717
244	0xbe078079	-0.13232602
245	0x3de7d43f	0.113197796
246	0xbe029258	-0.12751138
247	0x3d2a661c	0.041601285
248	0xbc6f592f	-0.014608665
249	0xbcf3eda8	-0.02977641
250	0x3e1addd7	0.15123688
251	0xbdfac029	-0.12243683
252	0xbcf88c54	-0.030340351
253	0xbbddc397	-0.006767701
254	0xbe137865	-0.14401396
255	0xbdd517fa	-0.10404964

bias f4 [32]
0	0xbd034959	-0.03205237
1	0x3dab1a5f	0.08354639
2	0xbdcc3797	-0.099715404
3	0xbd4af957	-0.049554195
4	0xbd891cad	-0.066949226
5	0x3da8f19f	0.082492106
6	0x3e05ccee	0.13066456
7	0x3d9afe39	0.075680204
8	0x3de3e19f	0.11127018
9	0xbe2fe602	-0.17177585
10	0x3d73aa5e	0.059488647
11	0xbc17c795	-0.009263893
12	0xbd6555f5	-0.05599018
13	0xbc433b11	-0.011915938
14	0x3dd67340	0.10471201
15	0x3e02312a	0.12714067
16	0xbe4a9648	-0.1978389
17	0xbd8363de	-0.064155325
18	0x3d864395	0.06555859
19	0x3c5bad86	0.01340807
20	0xbe2e1f4d	-0.17004128
21	0xbdf0130a	-0.117223814
22	0x3e5fc89d	0.21853872
23	0xbe0d43a9	-0.13795342
24	0xbe5c7d52	-0.21532181
25	0xbd56bf58	-0.052428573
26	0x3c8584fe	0.016298767
27	0x3e35fa02	0.17771152
28	0xbe52a7a4	-0.20571762
29	0x3d57ce41	0.052686933
30	0x3e0f5d0d	0.1400034
31	0x3d05d505	0.032673854

weight f4 [7, 32]
0	0xbd5be9bf	-0.053689715
1	0xbe107c9f	-0.14110039
2	0xbe4b93c6	-0.1988059
3	0xbe71013a	-0.23535624
4	0xbbecfe8e	-0.0072324937
5	0x3e1579cd	0.14597245
6	0x3e78374f	0.24239849
7	0x3e04cd80	0.12969017
8	0xbe10401a	-0.14086953
9	0xbe0c60d3	-0.1370881
10	0x3d0db934	0.03460045
11	0xbe2ba2c0	-0.16761303
12	0xbc0751ea	-0.008259276
13	0x3cd4e71d	0.02598911
14	0xbe01f357	-0.12690483
15	0x3e62a33b	0.2213258
16	0xbe5b30a8	-0.2140528
17	0xbe1ea9e7	-0.154945
18	0xbe003b38	-0.1252259
19	0xbdf1cea6	-0.11806993
20	0x3cccf34f	0.025018362
21	0x3d82f3b2	0.063941374
22	0x3d07dda0	0.033170342
23	0xbea9e232	-0.33180386
24	0xbdc084ff	-0.09400367
25	0x3db589bf	0.088641636
26	0x3e4e9b57	0.20176445
27	0x3e3ed91a	0.18637505
28	0x3bb85014	0.0056247804
29	0x3e2ea621	0.1705556
30	0x3e2ae81e	0.16690108
31	0x3da69999	0.08134765
32	0x3dbee498	0.093209445
33	0xbd4169a7	-0.0472199
34	0xbed91dd6	-0.42405576
35	0xbe85a48d	-0.26102105
36	0xbe1f64c1	-0.15565778
37	0x3e858834	0.26080477
38	0x3a49fb45	0.00077049836
39	0xbe1fee5a	-0.15618268
40	0xbdb5d15a	-0.08877821
41	0xbe8d1030	-0.27551413
42	0x3ddbad1d	0.10726378
43	0xbebbaed5	-0.36656824
44	0xbdf62a12	-0.12019743
45	0x3cfc2b2f	0.03078231
46	0xbdc647d6	-0.0968167
47	0x3efabcbf	0.48972127
48	0xbe6a05ef	-0.22853826
49	0xbe578797	-0.21047817
50	0x3c4ce280	0.012505174
51	0x3e831ae4	0.25606453
52	0xbedcc839	-0.43121508
53	0xbeb80cf5	-0.35947385
54	0x3e341c83	0.17589001
55	0xbeea5a70	-0.45772123
56	0xbeafd7c1	-0.34344295
57	0xbcb5f985	-0.022213707
58	0x3e10e553	0.1414998
59	0x3ef52676	0.47880906
60	0xbf04d0a2	-0.5188085
61	0x3ddd6748	0.10810715
62	0x3ea41c52	0.32052857
63	0x3d2bcc01	0.0419426
64	0xbddebd71	-0.10875977
65	0xbcada748	-0.02119793
66	0xbcccbac3	-0.024991399
67	0xbde128f6	-0.10994141
68	0xbde86470	-0.11347282
69	0xbe040e81	-0.12896158
70	0xbe0f296d	-0.13980646
71	0xbdd8ae45	-0.10580114
72	0xbdf53352	-0.11972679
73	0x3e0ce539	0.13759317
74	0x3df0986e	0.11747824
75	0xbdc07414	-0.0939714
76	0x3de9befe	0.11413382
77	0x3d5318a1	0.05153716
78	0x3bc9390b	0.0061408333
79	0x3ddff8d8	0.10936135
80	0xbe05addb	-0.13054602
81	0x3e4a7d25	0.19774301
82	0xbdf00364	-0.11719397
83	0xbe04ca9c	-0.12967914
84	0x3d43f969	0.047845278
85	0x3dce2f10	0.1006757
86	0xbe0aa28c	-0.13538569
87	0xbdddd670	-0.10831916
88	0x3df08f3b	0.11746069
89	0x3d9f6dfe	0.07784651
90	0x3dca8551	0.09888709
91	0xbdaee277	-0.085392885
92	0x3db4af0d	0.08822451
93	0x3d5073df	0.050891753
94	0x3e12bcbe	0.14329812
95	0x3de56c1f	0.11202263
96	0xbdc77ed4	-0.097409874
97	0x38a2a0aa	7.754688e-05
98	0x3e4b76fd	0.19869609
99	0x3dc4ccf5	0.09609405
100	0x3c6a33c3	0.0142945675
101	0xbdc396c9	-0.09550244
102	0x3d361f01	0.04446316
103	0xbd2c9d88	-0.04214242
104	0xbdada818	-0.08479327
105	0x3d91e18e	0.07123099
106	0x3e2935f0	0.16524482
107	0xbb98625f	-0.0046503986
108	0xbdec2218	-0.1152994
109	0xbe35c297	-0.17750011
110	0xbe2b7185	-0.16742523
111	0xbe3be53b	-0.18349163
112	0x3e81a545	0.25321403
113	0x3e31a146	0.17346677
114	0x3ccf6802	0.02531815
115	0x3c820066	0.01586933
116	0x3e20d21b	0.15705149
117	0x3e22e39a	0.15907136
118	0xba836a67	-0.0010026217
119	0x3c31527d	0.010822889
120	0x3d6859c6	0.05672624
121	0xbe536dd6	-0.20647368
122	0x3bbd4b8b	0.0057768277
123	0xbdf506f7	-0.11964219
124	0x3e7f629e	0.24939963
125	0x3de08b52	0.10964073
126	0x3dbb7f08	0.09155089
127	0xbd4c69bd	-0.049905527
128	0x3e1ff624	0.15621239
129	0xbde053bd	-0.10953472
130	0x3e749669	0.23885502
131	0x3dea4376	0.114386484
132	0xbd8c6941	-0.06856013
133	0x3d4b132d	0.049578834
134	0xbdd9c873	-0.10633936
135	0x3b574afe	0.0032851095
136	0xbd802dad	-0.06258712
137	0x3e1e8663	0.15480952
138	0xbd6edb09	-0.058314357
139	0x3e568cff	0.20952223
140	0x3e31dedc	0.1737017
141	0xbd453413	-0.048145365
142	0xbe05a188	-0.130499
143	0xbd156627	-0.036474373
144	0x3d326b53	0.043559384
145	0x3db55569	0.08854181
146	0x3da3ee74	0.08004466
147	0xbe1e31cf	-0.15448688
148	0x3e6a8730	0.22903132
149	0x3d24bb9a	0.040217973
150	0xbdf50d1c	-0.11965391
151	0x3e8e30cc	0.27771604
152	0x3e02a7a1	0.12759258
153	0xbd8ccb87	-0.06874757
154	0xbdfed8a7	-0.12443667
155	0xbe8da0a9	-0.27661636
156	0x3e8f6143	0.28003892
157	0xbb9391de	-0.0045034727
158	0x3dedfc77	0.116204195
159	0xbd098d3d	-0.03358196
160	0x3e3b9767	0.18319474
161	0xbdda603b	-0.10662886
162	0x3de4520b	0.11148461
163	0x3e1a03b6	0.15040478
164	0x3e1185f4	0.14211255
165	0xbd2a2735	-0.041541297
166	0x3d221fd6	0.039581142
167	0xbe0aa5a9	-0.13539757
168	0xbd8d9b25	-0.06914357
169	0x3e70ac60	0.23503256
170	0xbde28904	-0.1106129
171	0xbd7a43b4	-0.061099723
172	0xbda6b644	-0.08140233
173	0xbe5d43bf	-0.21607874
174	0x3c48aa9e	0.01224771
175	0xbdf07448	-0.11740929
176	0x3e33cbaa	0.1755816
177	0x3dde1e02	0.10845567
178	0xbdf56fa7	-0.119841866
179	0x3db030ee	0.086030826
180	0x3d61adc2	0.05509735
181	0x3e4c9eac	0.19982404
182	0xbe2b410b	-0.1672403
183	0x3ddb7ed4	0.1071755
184	0x3e249427	0.1607214
185	0xbcc0d340	-0.023538232
186	0x3dc50bbd	0.096213795
187	0xbe27d94e	-0.16391489
188	0x3dcde6f0	0.100538135
189	0x3dbb485a	0.09144659
190	0xbe256a39	-0.16153802
191	0x3d98804f	0.07446348
192	0x3cb4392b	0.021999916
193	0x3e18a319	0.14905967
194	0x3e744212	0.23853329
195	0xbcde4a74	-0.027135111
196	0x3d8912cd	0.06693039
197	0xbde1cbdc	-0.11025211
198	0xbe5712d1	-0.21003272
199	0xbd3c68e4	-0.04599847
200	0xbd24e954	-0.04026158
201	0x3e55e5a8	0.20888388
202	0x3c2ae40c	0.010430347
203	0x3e6ffdd5	0.23436673
204	0x3dd215bc	0.10258052
205	0xbe7de7ac	-0.24795407
206	0xbca2ca78	-0.019871935
207	0xbe5d7781	-0.21627618
208	0x3d784d7e	0.060620777
209	0x3debea6c	0.11519322
210	0xbe1f44f2	-0.15553644
211	0x3cd0f2a6	0.025506329
212	0x3e8f1181	0.27943042
213	0x3ddb0225	0.106937684
214	0xbe5e49a5	-0.2170778
215	0x3e55b33b	0.20869152
216	0x3e25be9e	0.16185996
217	0xbd89c389	-0.067267485
218	0xbe5cb6b9	-0.21554078
219	0xbe92845c	-0.28616607
220	0x3d4ab92d	0.049493004
221	0x3d0acac1	0.033884767
222	0xbe35d961	-0.17758705
223	0x3df145c1	0.117808826

bias f4 [7]
0	0x3e8ecebb	0.27892098
1	0x3f222104	0.6333163
2	0x3d630c6c	0.05543177
3	0xbeba7e8f	-0.36424682
4	0xbc1ea2b3	-0.009682345
5	0xbe934a9b	-0.28767857
6	0xbe81987c	-0.2531165
