experiements/starter_team/continuous_state/actor_critic/results/max_damage_ac/checkpoints/model_afinal.pt (torch, 14911 bytes, 6 tensors)

weight f4 [64, 8]
0.20848474 -0.066441976 0.07384082 0.051144425 0.2261942 0.38620102 -0.19550839 -0.28657562
-0.19483592 -0.16319074 0.3119827 0.107152306 -0.081384994 -0.018811967 0.3556444 0.32322335
-0.041469228 -0.28534818 -0.18393779 -0.0053772763 0.08164654 -0.11641681 -0.30278865 -0.14489971
0.25894722 0.1899304 -0.23777644 0.16050634 -0.2753847 -0.22216699 -0.17138055 0.35508487
-0.09839946 -0.35477266 -0.28787196 0.100346945 -0.28934047 0.14811094 -0.077393234 0.28212014
0.08036322 -0.2169714 0.3240281 -0.019647656 -0.13869111 -0.3446548 0.03346964 0.021387849
-0.068752 -0.20567736 -0.30711317 -0.14223008 0.32252085 0.31299263 0.026730906 0.11507041
-0.11231555 -0.33738244 -0.14538135 -0.34580266 0.029599158 0.05177629 -0.31714162 0.1045479
0.25524163 -0.19919625 -0.17809127 0.13095456 -0.25796586 0.3561513 -0.2930388 0.10689075
0.05907428 0.23660223 -0.21619308 0.024012586 0.3399284 0.17422742 -0.33078855 -0.28655177
0.3175379 -0.0033689856 0.051035393 -0.01019535 -0.22311118 -0.033389572 -0.095886946 -0.32326242
0.27997303 -0.09271093 0.16906808 -0.28937212 0.009643807 0.16617367 0.33436444 0.3129288
-0.2839446 -0.10564062 -0.08056399 -0.27661332 -0.10891368 -0.19186786 -0.34358475 0.14284512
0.043060098 0.3406642 0.29392523 0.17630483 0.088240266 0.28116018 0.11809573 -0.13542575
-0.22659329 0.1385618 -0.22714685 -0.050915536 -0.33928698 0.26713356 -0.2984054 -0.24494036
0.14125736 0.17233855 0.07679127 0.21575166 -0.1793391 0.060237337 0.2529405 0.069314
-0.1352923 0.20760182 -0.0701604 -0.27018243 0.17699064 0.08930333 -0.24485792 0.24371086
-0.22768512 0.008044467 0.14681692 -0.17477058 0.13684322 0.06449498 -0.12597552 -0.121352874
-0.054074068 -0.021234468 0.29434285 0.036521405 -0.07095559 -0.25942922 0.21758677 -0.060466886
0.3703336 -0.20625556 -0.18268475 -0.28806198 0.27663988 0.23078088 -0.02936341 -0.07310342
0.0054718303 0.22699869 -0.30058032 0.23273508 -0.017504096 -0.33379903 0.11419296 0.24648815
0.104560025 -0.11023343 -0.2101423 -0.046159104 -0.122777715 0.11765666 -0.19682705 0.2978254
-0.21980482 0.20158468 -0.24204098 0.117575005 0.0146495225 -0.19809406 -0.16491134 -0.18197991
0.05135258 0.36436075 -0.17412618 0.39083415 -0.054632172 0.25878447 -0.15293336 0.2954718
0.07882835 0.22590499 -0.2536696 -0.027925275 -0.30890894 0.10239044 0.050866436 0.25342193
-0.16879636 0.19702059 0.0063788313 0.1335689 -0.29062012 0.24431095 0.08838078 -0.18240182
0.2688175 -0.2618447 -0.167626 -0.28436503 -0.24837942 -0.12533332 0.07669529 -0.020760054
0.086134486 -0.057157062 -0.251901 0.28011635 -0.27003032 -0.07567824 0.20427278 -0.040457983
-0.08097829 -0.090809114 -0.15288982 0.18115343 -0.35094643 -0.103852406 -0.10738278 -0.16797441
-0.19949006 0.23435713 0.02949181 0.07505295 0.2389389 -0.31115285 0.06680934 0.000619525
0.22450323 0.21570663 0.08308051 0.11923748 -0.15424532 -0.2050003 0.30503568 -0.0887273
0.11636714 -0.15177748 -0.059092533 0.085751124 0.2752215 -0.2801721 0.043587085 0.10192979
00000000: 067d 553e bb12 88bd db39 973d d17c 513d
00000010: 749f 673e 24bc c53e 5a33 48be 0aba 92be
00000020: 1183 47be 791b 27be 32bc 9f3e ab72 db3d
00000030: 2dad a6bd 8e1b 9abc 0617 b63e 887d a53e
00000040: a3db 29bd 2819 92be 305a 3cbe dd33 b0bb
00000050: 4d36 a73d f06b eebd 1d07 9bbe 9760 14be
00000060: bb94 843e 1d7d 423e ab7b 73be c65b 243e
00000070: 39ff 8cbe be7f 63be 627e 2fbe afcd b53e
00000080: a885 c9bd c3a4 b5be f463 93be b382 cd3d
00000090: 6f24 94be 65aa 173e 5880 9ebd 0d72 903e
000000a0: 7995 a43d c02d 5ebe 03e7 a53e 1ff4 a0bc
000000b0: 0b05 0ebe 9876 b0be 7617 093d 9235 af3c
000000c0: d9cd 8cbd 169d 52be f03d 9dbe c3a4 11be
000000d0: 7421 a53e 9240 a03e c6fa da3c 09aa eb3d
000000e0: b205 e6bd 64bd acbe d9de 14be 0c0d b1be
000000f0: ef79 f23c 6013 543d 6360 a2be 361d d63d
00000100: 08af 823e 1afa 4bbe 8f5d 36be f418 063e
00000110: 1a14 84be 7759 b63e 2e09 96be 8ae9 da3d
00000120: dff7 713d db47 723e b861 5dbe 0bb6 c43c
00000130: 180b ae3e ac68 323e 1e5d a9be eab6 92be
00000140: 5494 a23e 33ca 5cbb 7d0a 513d 660a 27bc
00000150: 4277 64be 81c3 08bd 6060 c4bd a782 a5be
00000160: a058 8f3e 3adf bdbd 2f20 2d3e 9528 94be
00000170: 0f01 1e3c 6e29 2a3e d131 ab3e 3438 a03e
00000180: 3061 91be 1c5a d8bd bcfe a4bd 43a0 8dbe
00000190: 230e dfbd 0279 44be 57ea afbe fe45 123e
000001a0: c95f 303d 8a6b ae3e 5e7d 963e 4189 343e
000001b0: 50b7 b43d 3af4 8f3e 2ddc f13d 0cad 0abe
000001c0: 1208 68be 25e3 0d3e 2f99 68be cf8c 50bd
000001d0: 06b7 adbe bbc5 883e 98c8 98be a5d1 7abe
000001e0: c5a5 103e 8479 303e be44 9d3d 01ee 5c3e
000001f0: aba4 37be 6dbb 763d 6b81 813e 80f4 8d3d
00000200: 118a 0abe 9295 543e 41b0 8fbd 5a55 8abe
00000210: 093d 353e aae4 b63d 09bc 7abe 578f 793e
00000220: 4a26 69be f1cc 033c 2d57 163e 0ff7 32be
00000230: a120 0c3e f215 843d baff 00be db87 f8bd
00000240: c57c 5dbd e8f3 adbc 1bb4 963e 7897 153d
00000250: 2a51 91bd e8d3 84be 11cf 5e3e 20ac 77bd
00000260: 5e9c bd3e a834 53be b611 3bbe dc7c 93be
00000270: bea3 8d3e d351 6c3e 898b f0bc 3fb7 95bd
00000280: 0a4d b33b 5872 683e aae5 99be 1b52 6e3e
00000290: c064 8fbc b5e7 aabe 00de e93d 6467 7c3e
000002a0: 9123 d63d 11c2 e1bd 8b2f 57be 5411 3dbd
000002b0: e272 fbbd faf5 f03d 088d 49be 927c 983e
000002c0: 8414 61be 376c 4e3e 97d9 77be 2acb f03d
000002d0: 8d04 703c 2bd9 4abe 85de 28be f158 3abe
000002e0: 1557 523d 7e8d ba3e 224e 32be 6a1b c83e
000002f0: fcc5 5fbd 667f 843e 909a 1cbe 1448 973e
00000300: c270 a13d a353 673e fbe0 81be 8cc3 e4bc
00000310: 5029 9ebe 14b2 d13d 5359 503d 85c0 813e
00000320: f4d8 2cbe c4bf 493e 8405 d13b 49c6 083e
00000330: 29cc 94be a62c 7a3e fb00 b53d 8bc7 3abe
00000340: 73a2 893e 8210 86be 26a6 2bbe 4b98 91be
00000350: 2d57 7ebe 6157 00be 6c12 9d3d fd10 aabc
00000360: 4767 b03d 861d 6abd 2bf9 80be 696b 8f3e
00000370: 6a41 8abe 31fd 9abd e22c 513e 45b7 25bd
00000380: f2d7 a5bd 21fa b9bd 268f 1cbe 4980 393e
00000390: 40af b3be 92b0 d4bd 81eb dbbd 7c01 2cbe
000003a0: 1f47 4cbe 51fb 6f3e cf98 f13c 5cb5 993d
000003b0: 66ac 743e 6d4f 9fbe 56d3 883d 9e67 223a
000003c0: 2de4 653e 33e2 5c3e 1d26 aa3d c832 f43d
000003d0: 7cf2 1dbe 99eb 51be a32d 9c3e a9b6 b5bd
000003e0: e551 ee3d 8e6b 1bbe 030b 72bd 499e af3d
000003f0: d5e9 8c3e b872 8fbe 5f88 323d 91c0 d03d

bias f4 [64]
0.033224415 0.23646423 -0.26765704 0.25318846 -0.24369535 -0.09022447 0.12073592 -0.30159464
0.2782886 -0.08544872 0.2753495 -0.21963763 -0.22637975 0.031120924 0.18283562 0.14554921
-0.35337365 -0.12330728 0.12811641 -0.028282724 -0.18289295 0.17829734 0.28189525 0.0721147
0.09816156 -0.115493685 -0.17090353 -0.34478873 0.12266878 0.029812772 0.104300424 0.04375589
-0.22096033 0.102451555 -0.40181753 0.0039719916 0.30282876 0.3167907 0.18167697 0.17449178
0.09265523 0.012409904 -0.092667066 -0.41630358 -0.064342074 0.38766286 -0.06757904 -0.37697813
0.1561935 0.25188416 0.0521991 0.24481077 0.067746036 -0.036762897 0.12832852 -0.21914513
0.07870857 0.34887257 -0.31446362 0.09690231 0.27117983 0.24200138 0.25216433 -0.040152047
00000000: 5316 083d ae23 723e 580a 89be eba1 813e
00000010: 468b 79be 9bc7 b8bd 6544 f73d 9d6a 9abe
00000020: d87b 8e3e bdff aebd 9cfa 8c3e b0e8 60be
00000030: 18d0 67be 4ff1 fe3c 4339 3b3e da0a 153e
00000040: 64ed b4be 8788 fcbd f330 033e 2cb1 e7bc
00000050: 4a48 3bbe 9493 363e 9354 903e dfb0 933d
00000060: ee08 c93d f487 ecbd 5601 2fbe 2688 b0be
00000070: c539 fb3d ea39 f43c 769b d53d 6039 333d
00000080: 6d43 62be 1fd2 d13d 07bb cdbe 7b27 823b
00000090: 5f0c 9b3e 6432 a23e 8709 3a3e f9ad 323e
000000a0: 06c2 bd3d e952 4b3c 3bc8 bdbd be25 d5be
000000b0: c7c5 83bd bf7b c63e e166 8abd 4703 c1be
000000c0: 30f1 1f3e f6f6 803e b9ce 553d adaf 7a3e
000000d0: 6fbe 8a3d b194 16bd 8d68 033e 9567 60be
000000e0: f531 a13d 6d9f b23e 6001 a1be b874 c63d
000000f0: 15d8 8a3e 36cf 773e af1b 813e 7976 24bd

weight f4 [32, 64]
0.063452035 0.032876074 0.09725908 0.09159278 -0.111548364 0.048631992 -0.058524176 0.105975136
-0.08514768 0.059644327 -0.031040821 -0.0015930192 -0.0989528 -0.039098457 0.042203005 0.105511665
-0.0946513 0.11345699 -0.10977587 -0.06649448 -0.06378211 0.05139852 -0.07983366 0.051282246
-0.085736945 0.07366254 0.013950645 -0.08919181 0.08190645 0.109283134 0.08332832 0.07322463
-0.06742034 0.09544523 0.09694482 0.12194437 0.09433476 0.05327429 -0.051136196 -0.11405011
-0.0030335586 0.093542 -0.0202086 -3.4255383e-05 -0.06352077 -0.0011608304 0.11482818 -0.03611935
-0.039242722 0.120834306 -0.014030814 -0.052077003 -0.11290805 0.08589705 -0.1031839 0.10008704
-0.104100525 -0.049334135 0.08254058 0.058108818 0.07899746 0.119310305 -0.025612332 0.093223505
-0.073559396 -0.12571497 0.10648615 -0.10773998 0.11735741 -0.02877932 -0.12372761 0.061185736
-0.081125595 -0.10146237 -0.066999406 -0.052869316 -0.09022399 0.09326452 -0.058570374 0.091630355
0.011945981 0.024374938 -0.072067276 -0.031677715 0.07541597 0.013690209 -0.0027001025 -0.119745255
0.11958371 0.04550929 0.020425033 0.0820323 0.04417391 0.009222772 -0.040508818 -0.12741657
-0.02460695 0.014972638 -0.09374589 -0.019743664 -0.023518283 0.0413211 0.00959266 0.09760787
0.013511679 0.10236789 -0.06945982 -0.054419685 -0.051915642 0.08066783 0.09866293 0.06371668
-0.10721796 -0.00632622 -0.033755604 0.089885555 -0.08780538 -0.034567434 0.0077477 -0.012897447
0.062690206 0.012712676 0.037299372 -0.085663 -0.015789557 -0.10962707 -0.12342448 0.035515305
0.012927408 -0.103461586 0.086647294 -0.12651202 0.15538476 -0.045677185 -0.058166973 0.13664818
-0.08790389 -0.018316895 0.014031115 0.031365406 0.19537134 -0.14326361 0.111835085 0.03568845
0.112975 0.09448788 0.10401805 -0.062416255 0.096384645 -0.044542182 0.08738831 -0.17847738
-0.012667555 -0.046489708 0.02267866 0.061317496 0.036069565 0.1052005 -0.022105314 0.033531692
0.09938736 0.13408655 0.17974566 0.08062878 0.070653364 -0.17033148 0.08386574 0.08683608
-0.04155965 0.09150199 -0.014913037 0.026705593 0.05735172 -0.14855789 -0.018885503 -0.020115871
0.005523977 -0.13202442 0.057998534 0.0106525645 -0.14311235 0.049050294 0.07015064 -0.0109878825
0.11106764 0.06731371 0.16942848 0.053691495 0.022279069 0.047503196 0.028137961 0.0019173059
-0.11517061 -0.108107984 0.12256768 -0.09249346 0.01871015 -0.029066993 0.07294488 0.16213058
-0.081192605 -0.0395156 -0.11599428 -0.05637777 0.11439139 0.043062482 -0.07033009 0.0013750462
0.060062643 0.13381884 0.05102124 -0.0066742096 -0.096107356 -0.11224794 -0.039647773 -0.15104511
-0.033060655 0.11334832 0.02237655 0.026221437 -0.1000111 -0.11798005 0.029384552 0.10211393
0.055911012 -0.025879404 0.042074215 0.0933771 0.020047452 -0.119829245 0.06523925 0.0614554
0.07127658 -0.030837614 -0.06936243 -0.009596014 0.10938217 0.013128544 0.044614583 0.028888062
-0.025708595 0.013328675 0.04095098 -0.06199483 -0.13404721 0.11990857 -0.12902734 0.033148635
-0.009529006 -0.0314192 0.1539389 -0.12938693 -0.03127547 -0.004731421 -0.15270323 -0.10832291
00000000: 24f3 813d 10a9 063d c52f c73d ff94 bb3d
00000010: 7873 e4bd 5732 473d 0cb7 6fbd 7e09 d93d
00000020: e861 aebd 9c4d 743d 5249 febc dbcc d0ba
00000030: c4a7 cabd b425 20bd 0fdd 2c3d 8016 d83d
00000040: 8ad8 c1bd 235c e83d 2cd2 e0bd 422e 88bd
00000050: 32a0 82bd 4187 523d d47f a3bd 550d 523d
00000060: da96 afbd 63dc 963d 3f91 643c 32aa b6bd
00000070: 92be a73d d6cf df3d 0aa8 aa3d cbf6 953d
00000080: ad13 8abd ca78 c33d 018b c63d f8bd f93d
00000090: 9532 c13d 2436 5a3d 3074 51bd 1b93 e9bd
000000a0: abce 46bb f392 bf3d 828c a5bc 70ad 0fb8
000000b0: 2d17 82bd 0127 98ba 092b eb3d e2f1 13bd
000000c0: fabc 20bd fa77 f73d 80e1 65bc b24e 55bd
000000d0: 563c e7bd cbea af3d 1552 d3bd 6ffa cc3d
000000e0: a832 d5bd 9712 4abd 090b a93d 8303 6e3d
000000f0: 6cc9 a13d f658 f43d f4d0 d1bc f7eb be3d
00000100: 4fa6 96bd 6dbb 00be 6915 da3d c7a6 dcbd
00000110: 1559 f03d 9cc2 ebbc e764 fdbd e59d 7a3d
00000120: 2d25 a6bd 81cb cfbd fc36 89bd 7f8d 58bd
00000130: 5bc7 b8bd 7801 bf3d 7de7 6fbd b2a8 bb3d
00000140: 13b9 433c f3ad c73c 0298 93bd 7ec0 01bd
00000150: b073 9a3d e64c 603c 34f4 30bb 003d f5bd
00000160: 4ee8 f43d f367 3a3d 6652 a73c 8d00 a83d
00000170: b4ef 343d 1c1b 173c 93ec 25bd 7d79 02be
00000180: 8494 c9bc cc4f 753c d8fd bfbd 77bd a1bc
00000190: 6aa9 c0bc 5040 293d 882a 1d3c a3e6 c73d
000001a0: 1760 5d3c 42a6 d13d f340 8ebd 2de7 5ebd
000001b0: 7fa5 54bd 2d35 a53d ca0f ca3d e47d 823d
000001c0: 1795 dbbd 2e4c cfbb 5143 0abd eb15 b83d
000001d0: 4fd3 b3bd 9596 0dbd 6be0 fd3b d04f 53bc
000001e0: b963 803d d448 503c 3ac7 183d 1570 afbd
000001f0: 1a59 81bc 2884 e0bd f9c5 fcbd 7f78 113d
00000200: 7bcd 533c abe3 d3bd 2374 b13d 5e8c 01be
00000210: 2f1d 1f3e 0018 3bbd 7e40 6ebd 80ed 0b3e
00000220: f406 b4bd 500d 96bc c3e2 653c 0379 003d
00000230: 6d0f 483e b2b3 12be cb09 e53d 0d2e 123d
00000240: 705f e73d dd82 c13d 6a07 d53d 30a8 7fbd
00000250: 5065 c53d dd71 36bd a4f8 b23d c6c2 36be
00000260: 948b 4fbc fe6b 3ebd 99c8 b93c 0e28 7b3d
00000270: aebd 133d 5c73 d73d 3416 b5bc 8758 093d
00000280: 9a8b cb3d fc4d 093e 3f0f 383e b420 a53d
00000290: b6b2 903d 606b 2ebe cdc1 ab3d 1dd7 b13d
000002a0: 743a 2abd 6565 bb3d d055 74bc b0c5 da3c
000002b0: a3e9 6a3d 8f1f 18be c5b5 9abc 0aca a4bc
000002c0: 7a02 b53b 6931 07be df8f 6d3d 1888 2e3c
000002d0: 0b8c 12be f6e8 483d 24ab 8f3d 8506 34bc
000002e0: 6e77 e33d c5db 893d a97e 2d3e 9deb 5b3d
000002f0: 9882 b63c b692 423d 9581 e63c 1c4e fb3a
00000300: 92de ebbd b867 ddbd c404 fb3d 366d bdbd
00000310: 0746 993c e71d eebc 2064 953d 8f05 263e
00000320: 4f48 a6bd 1cdb 21bd 698e edbd 60ec 66bd
00000330: 0846 ea3d 4962 303d 3909 90bd e53a b43a
00000340: 3f04 763d ce07 093e a6fb 503d 54b3 dabb
00000350: efd3 c4bd 3fe2 e5bd b465 22bd 92ab 1abe
00000360: 9c6a 07bd 2a23 e83d 074f b73c 57ce d63c
00000370: 9fd2 ccbd 869f f1bd dfb7 f03c 1c21 d13d
00000380: f202 653d 0b01 d4bc 0356 2c3d 7e3c bf3d
00000390: 8e3a a43c 0969 f5bd 289c 853d a8b8 7b3d
000003a0: 75f9 913d 2a9f fcbc e40d 8ebd 9a38 1dbc
000003b0: c203 e03d 1b19 573c c8bd 363d a8a6 ec3c
000003c0: d59a d2bc 8460 5a3c 37bc 273d 4aee 7dbd
000003d0: ac43 09be a092 f53d be1f 04be ddc6 073d
000003e0: 8c1f 1cbc 6bb1 00bd 29a2 1d3e 027e 04be
000003f0: b51a 00bd 090a 9bbb 3c5e 1cbe 67d8 ddbd

bias f4 [32]
-0.031873345 0.08013241 -0.1084813 -0.057033297 -0.07746753 0.09006881 0.13580926 0.06998673
0.10925606 -0.17699815 0.06603624 -0.01785097 -0.06407164 -0.005512296 0.102144614 0.13296212
-0.20585509 -0.07234572 0.07038252 0.022399003 -0.17973745 -0.11753601 0.22425735 -0.14470385
-0.22515216 -0.050426673 0.02554547 0.18331502 -0.21012066 0.05668523 0.1499556 0.031768143
00000000: a08d 02bd 761c a43d 722b debd bf9b 69bd
00000010: 4ca7 9ebd ff75 b83d 9511 0b3e 3455 8f3d
00000020: a4c1 df3d 013f 35be 023e 873d 333c 92bc
00000030: fe37 83bd 7ea0 b4bb 3231 d13d 3927 083e
00000040: adcb 52be fe29 94bd b624 903d 1d7e b73c
00000050: 180d 38be b8b6 f0bd b8a3 653e 3f2d 14be
00000060: 4a8e 66be 338c 4ebd bc44 d13c efb6 3b3e
00000070: df29 57be c62e 683d f68d 193e 501f 023d

weight f4 [7, 32]
-0.052728362 -0.14276336 -0.19877294 -0.23469295 -0.0056641707 0.14628814 0.24370994 0.13081275
-0.14011943 -0.1373744 0.033333406 -0.16695355 -0.008857435 0.025274495 -0.12714094 0.22123079
-0.21356013 -0.15596786 -0.12586942 -0.11878631 0.024985045 0.06527557 0.032034196 -0.33183753
-0.09334508 0.090262964 0.20155214 0.18685062 0.006030085 0.1705356 0.16700125 0.083690956
0.099478714 -0.06232216 -0.47047698 -0.30204308 -0.17244318 0.3021457 0.020040315 -0.16603151
-0.10050903 -0.32333022 0.13490036 -0.4126246 -0.15139091 0.06990563 -0.10415339 0.53886837
-0.26852933 -0.24914606 0.026520941 0.28831375 -0.47716793 -0.41697243 0.22898917 -0.5058182
-0.38685936 -0.010433739 0.17297974 0.5286687 -0.5688937 0.12891321 0.36053932 0.04944755
-0.108619094 -0.020821951 -0.024183016 -0.10928104 -0.11306787 -0.12960277 -0.14023693 -0.10569628
-0.11965952 0.1382118 0.11740104 -0.09329016 0.11472988 0.051138267 0.0062184515 0.10865257
-0.1297081 0.19840673 -0.11738279 -0.1303009 0.048618317 0.10109359 -0.13572933 -0.10750498
0.1181754 0.077376924 0.09828019 -0.086125135 0.088942796 0.05068392 0.14257154 0.11225878
-0.09743903 6.580347e-05 0.19861887 0.09602885 0.01426176 -0.09546207 0.044480003 -0.04214383
-0.084760174 0.07117683 0.16524738 -0.0046996414 -0.115337536 -0.1774899 -0.16741435 -0.18342422
0.25313997 0.17342001 0.025329797 0.01593601 0.15697405 0.15902081 -0.0009746384 0.010747989
0.056660563 -0.20645396 0.005808677 -0.11959176 0.24933238 0.109671585 0.09161618 -0.049941394
0.15332858 -0.10550642 0.25286898 0.12855673 -0.061398838 0.03641592 -0.11255813 0.0063906224
-0.055978924 0.16844663 -0.070703454 0.22476737 0.18389471 -0.059628293 -0.13278942 -0.05118547
0.056071095 0.09885413 0.07766532 -0.16645333 0.24238071 0.059171543 -0.13769986 0.29219624
0.14104831 -0.06894906 -0.13602553 -0.29153064 0.29573348 -0.011302384 0.10478828 -0.034285523
0.18098964 -0.101585 0.121824436 0.15671004 0.14211805 -0.052660447 0.038330197 -0.1334349
-0.06513482 0.24882187 -0.11822608 -0.049905565 -0.07269863 -0.2306694 0.02264057 -0.12891228
0.18445174 0.11916666 -0.12831298 0.082656264 0.06541573 0.21697962 -0.18636222 0.117560886
0.17144437 -0.030077891 0.09108695 -0.17686747 0.11227591 0.08375074 -0.17193998 0.06880697
0.0197453 0.15638681 0.2598389 -0.007842264 0.0746123 -0.12702303 -0.22273178 -0.04244003
-0.039996482 0.22899927 0.004135053 0.2526926 0.11491897 -0.2599012 -0.020490585 -0.23847501
0.07797511 0.13324541 -0.1578759 0.009868926 0.30105203 0.12662733 -0.23155782 0.23122407
0.17979503 -0.07347931 -0.22951965 -0.30796006 0.07109406 0.027768062 -0.19522242 0.114118546
00000000: b2f9 57bd 8f30 12be 228b 4bbe 5953 70be
00000010: 829a b9bb 8fcc 153e 198f 793e c7f3 053e
00000020: 787b 0fbe e0ab 0cbe 9c88 083d dff5 2abe
00000030: c61e 11bc 750c cf3c 3c31 02be 538a 623e
00000040: 82af 5abe 0ab6 1fbe eae3 00be 3d46 f3bd
00000050: 70ad cc3c 33af 853d 4a36 033d 9ce6 a9be
00000060: b52b bfbd cadb b83d af63 4e3e c555 3f3e
00000070: 0598 c53b e2a0 2e3e 6002 2b3e 2a66 ab3d
00000080: 7fbb cb3d 8545 7fbd 5ce2 f0be 64a5 9abe
00000090: f294 30be d7b2 9a3e 962b a43c 2a04 2abe
000000a0: aed7 cdbd 8a8b a5be 5223 0a3e 8843 d3be
000000b0: 3806 1bbe af2a 8f3d 5f4e d5bd 47f3 093f
000000c0: ad7c 89be 2520 7fbe 7242 d93c dc9d 933e
000000d0: 5b4f f4be 697d d5be 237c 6a3e 4d7d 01bf
000000e0: 6e12 c6be 46f2 2abc 9a21 313e d556 073f
000000f0: 04a3 11bf d301 043e 9c98 b83e 8489 4a3d
00000100: b073 debd cc92 aabc 761b c6bc bdce dfbd
00000110: 2190 e7bd 97b6 04be 459a 0fbe 4b77 d8bd
00000120: 0d10 f5bd 6587 0d3e f56f f03d e90e bfbd
00000130: 80f7 ea3d 5c76 513d 27c4 cb3b 3d85 de3d
00000140: 33d2 04be 222b 4b3e 6366 f0bd 996d 05be
00000150: 0024 473d 280a cf3d a1fc 0abe 922b dcbd
00000160: f205 f23d cb77 9e3d 2047 c93d 6062 b0bd
00000170: a427 b63d f199 4f3d 46fe 113e eee7 e53d
00000180: 1d8e c7bd f8ff 8938 bf62 4b3e c6aa c43d
00000190: 28aa 693c 9e81 c3bd aa30 363d 029f 2cbd
000001a0: be96 adbd 28c5 913d 9c36 293e 73ff 99bb
000001b0: 1636 ecbd eabf 35be ab6e 2bbe 8fd3 3bbe
000001c0: 909b 813e 0495 313e 6f80 cf3c 3c8c 823c
000001d0: cebd 203e 5ad6 223e e07e 7fba 5518 303c
000001e0: e814 683d ab68 53be b756 be3b 86ec f4bd
000001f0: fd50 7f3e 7f9b e03d 44a1 bb3d 598f 4cbd
00000200: 2b02 1d3e c013 d8bd 0b78 813e 60a4 033e
00000210: 597d 7bbd dc28 153d e084 e6bd 6d68 d13b
00000220: 284a 65bd 467d 2c3e f9cc 90bd 6b29 663e
00000230: e54e 3c3e cc3c 74bd f3f9 07be dba7 51bd
00000240: ceaa 653d 0974 ca3d ff0e 9f3d be72 2abe
00000250: a632 783e dc5d 723d 3101 0dbe bf9a 953e
00000260: f86e 103e 2a35 8dbd 474a 0bbe 8143 95be
00000270: 616a 973e a22d 39bc 3d9b d63d fa6e 0cbd
00000280: 5955 393e cc0b d0bd 177f f93d 9978 203e
00000290: 6587 113e 7bb2 57bd 2000 1d3d 29a3 08be
000002a0: 6865 85bd 29cb 7e3e 8420 f2bd c769 4cbd
000002b0: 05e3 94bd 9934 6cbe b778 b93c 9501 04be
000002c0: ebe0 3c3e a60d f43d 7a64 03be b047 a93d
000002d0: aff8 853d e82f 5e3e bdd5 3ebe c3c3 f03d
000002e0: 1d8f 2f3e e965 f6bc cb8b ba3d bf1c 35be
000002f0: eaf0 e53d 8285 ab3d 0911 30be abea 8c3d
00000300: e5c0 a13c dd23 203e 9b09 853e d77c 00bc
00000310: 55ce 983d 5312 02be cd13 64be 99d5 2dbd
00000320: 5ad3 23bd c97e 6a3e 577f 873b ed60 813e
00000330: a35a eb3d c511 85be dfdb a7bc cb32 74be
00000340: 6ab1 9f3d 7c71 083e 38aa 21be 47b1 213c
00000350: 7e23 9a3e 98aa 013e 7e1d 6dbe 01c6 6c3e
00000360: 301c 383e 527c 96bd 3307 6bbe f1ac 9dbe
00000370: c399 913d d979 e33c 63e8 47be fcb6 e93d

bias f4 [7]
0.27828345 0.6872155 0.054556068 -0.36414108 -0.025190067 -0.29942888 -0.27836305
00000000: 2b7b 8e3e 5bed 2f3f 2f76 5f3d b370 babe
00000010: 665b cebc be4e 99be 9a85 8ebe
