experiements/starter_team/continuous_state/actor_critic/results/max_damage_ac/checkpoints/model_a2000.pt (torch, 14903 bytes, 6 tensors)

weight f4 [64, 8]
0	0x3e532549	0.20619692
1	0xbd970d1a	-0.07375546
2	0x3d961cc6	0.07329707
3	0x3d055c39	0.032558654
4	0x3e616c4e	0.22013971
5	0x3ebda228	0.37037778
6	0xbe5b1d7b	-0.21397965
7	0xbe993911	-0.2992635
8	0xbe418480	-0.18898201
9	0xbe261314	-0.16218215
10	0x3ea250f0	0.31702375
11	0x3dc0ffb3	0.09423771
12	0xbda955c5	-0.08268312
13	0xbd01906b	-0.03163187
14	0x3eaef3f8	0.34170508
15	0x3ea358ae	0.31903595
16	0xbd344945	-0.044015188
17	0xbe90c6c5	-0.2827665
18	0xbe3c466e	-0.18386242
19	0x3cacc8f9	0.021091925
20	0x3dbef6d9	0.09324426
21	0xbdbfc69b	-0.09364053
22	0xbe8e0d40	-0.27744484
23	0xbe03327e	-0.1281223
24	0x3e82bd08	0.25534844
25	0x3e3db3e2	0.18525651
26	0xbe746e1f	-0.23870133
27	0x3e188c21	0.14897205
28	0xbe903974	-0.28168833
29	0xbe6e0907	-0.23245631
30	0xbe39e74f	-0.18154643
31	0x3eb1f5bd	0.34757796
32	0xbdc04f62	-0.09390141
33	0xbeb28cae	-0.34872955
34	0xbe917f12	-0.2841726
35	0x3dfa7050	0.12228453
36	0xbe8df033	-0.2772232
37	0x3e2a2921	0.16617252
38	0xbd6c946b	-0.05775873
39	0x3e98b739	0.29827288
40	0x3da1f11d	0.07907317
41	0xbe61085f	-0.2197585
42	0x3ea4becf	0.32176825
43	0xbc85667a	-0.016284216
44	0xbe0cc114	-0.13745528
45	0xbeafac3b	-0.3431109
46	0x3d12fc47	0.03588512
47	0x3cb31b48	0.021863595
48	0xbd88efc5	-0.066863574
49	0xbe53a8ea	-0.20669904
50	0xbe9bdae5	-0.3044044
51	0xbe200b1c	-0.15629238
52	0x3ea35354	0.31899512
53	0x3e9a3746	0.30120295
54	0x3c46654e	0.012109114
55	0x3ddd508b	0.10806378
56	0xbdf01d2f	-0.11724316
57	0xbeac495d	-0.33649722
58	0xbe12f983	-0.14352994
59	0xbea52ce4	-0.3226081
60	0x3d30e97e	0.043191426
61	0x3d9a8d3c	0.075464696
62	0xbe960f21	-0.29308417
63	0x3df96d47	0.12179046
64	0x3e83bf0b	0.25731692
65	0xbe4d6aa9	-0.20060219
66	0xbe3889f4	-0.18021375
67	0x3dff87c5	0.12477068
68	0xbe8574f2	-0.26065785
69	0x3eb296ea	0.34880763
70	0xbe9abed1	-0.30223706
71	0x3dd1ca84	0.10243705
72	0x3d69271b	0.05692206
73	0x3e705c80	0.23472786
74	0xbe5c7696	-0.21529612
75	0x3cf51131	0.029915424
76	0x3eafdd80	0.3434868
77	0x3e37d8ac	0.17953748
78	0xbea63f8a	-0.3247035
79	0xbe91177a	-0.28338224
80	0x3ea09d90	0.3137021
81	0xbbe7c2e5	-0.007072794
82	0x3d4a90f9	0.049454663
83	0xbc39ba71	-0.011335955
84	0xbe66998d	-0.22519512
85	0xbd0e8246	-0.034792207
86	0xbdc415e7	-0.0957449
87	0xbea6dd8e	-0.32590908
88	0x3e9053ea	0.2818902
89	0xbdc1f0c1	-0.09469748
90	0x3e2d0621	0.16896869
91	0xbe9abb88	-0.302212
92	0x3ba5e132	0.0050622458
93	0x3e1ddbb0	0.15415835
94	0x3ea41d6a	0.3205369
95	0x3e9c6181	0.3054314
96	0xbe945777	-0.2897298
97	0xbdda05ab	-0.10645612
98	0xbda2328f	-0.079197995
99	0xbe85bdb6	-0.261213
100	0xbdcd2da2	-0.100184694
101	0xbe350e4f	-0.1768124
102	0xbea75036	-0.32678384
103	0x3e1e85d0	0.15480733
104	0x3d39cbcf	0.045360383
105	0x3eadc182	0.33936697
106	0x3e9598a1	0.2921801
107	0x3e1e28a4	0.1544519
108	0x3d9e435d	0.07727692
109	0x3e86bee8	0.26317525
110	0x3dc33f33	0.09533539
111	0xbe1a4389	-0.15064825
112	0xbe687604	-0.2270127
113	0x3e0f4190	0.13989854
114	0xbe696d24	-0.2279554
115	0xbd439beb	-0.047756117
116	0xbeacfc78	-0.33786368
117	0x3e8b0126	0.27149314
118	0xbe96c54f	-0.2944741
119	0xbe78f93b	-0.24313824
120	0x3e16c6c6	0.14724264
121	0x3e2ed22e	0.17072365
122	0x3d981c20	0.074272394
123	0x3e42a472	0.19008043
124	0xbe43c73f	-0.19118975
125	0x3d10f36b	0.03538839
126	0x3e6670d9	0.22503985
127	0x3d5529c7	0.052041795
128	0xbe10a23b	-0.14124386
129	0x3e53c23d	0.20679565
130	0xbd8e9f36	-0.06963961
131	0xbe80f1b4	-0.25184405
132	0x3e3c889d	0.18411489
133	0x3dd9201b	0.10601827
134	0xbe6756b9	-0.22591676
135	0x3e82a906	0.2551958
136	0xbe6b440f	-0.22975181
137	0x3bbf18dd	0.0058318214
138	0x3e1778cf	0.14792179
139	0xbe2c18c5	-0.16806324
140	0x3e11f0fe	0.14252087
141	0x3d933bcd	0.071891405
142	0xbdf2d632	-0.11857261
143	0xbdefd88d	-0.11711226
144	0xbd57df9b	-0.05270348
145	0xbcae4c53	-0.021276629
146	0x3e95f727	0.29290125
147	0x3ce2870a	0.027652282
148	0xbd9b8ffe	-0.07595824
149	0xbe8940bc	-0.268072
150	0x3e550bda	0.20805302
151	0xbd877d11	-0.066156514
152	0x3ebb8af7	0.3662946
153	0xbe5860b9	-0.21130647
154	0xbe3b370c	-0.18282717
155	0xbe94a43a	-0.29031545
156	0x3e8cb5e8	0.27482533
157	0x3e68dca1	0.22740413
158	0xbcff5759	-0.03116958
159	0xbd9c1654	-0.07621446
160	0x3b916585	0.004437151
161	0x3e68ad7a	0.22722426
162	0xbe99c684	-0.30034268
163	0x3e77cf65	0.24200208
164	0xbc6d2944	-0.0144751705
165	0xbea75f48	-0.3268988
166	0x3dfc4737	0.12318271
167	0x3e80e142	0.25171858
168	0x3dd8314a	0.10556276
169	0xbde136d7	-0.10996788
170	0xbe58fa18	-0.21189153
171	0xbd437bd0	-0.0477255
172	0xbdfdc175	-0.123904146
173	0x3dee4e0f	0.11635982
174	0xbe4bb3a7	-0.1989275
175	0x3e9799f6	0.2960965
176	0xbe5f75d5	-0.21822293
177	0x3e4ecfc5	0.20196445
178	0xbe784e5a	-0.24248639
179	0x3df795e7	0.120891385
180	0x3c84728c	0.016167901
181	0xbe49b0aa	-0.19696298
182	0xbe27409a	-0.16333237
183	0xbe385f0a	-0.18005005
184	0x3d5f3192	0.054490633
185	0x3ebae220	0.36500645
186	0xbe34d2d7	-0.17658554
187	0x3ebdadad	0.37046567
188	0xbd85cd34	-0.0653328
189	0x3e76982f	0.24081491
190	0xbe349ea2	-0.17638639
191	0x3e90d284	0.2828561
192	0x3da871af	0.082248084
193	0x3e695977	0.22788034
194	0xbe828517	-0.25492164
195	0xbcf576b0	-0.029963821
196	0xbe9e5c01	-0.30929568
197	0x3dce479a	0.10072251
198	0x3d4139f2	0.0471744
199	0x3e810446	0.25198573
200	0xbe2bb3cd	-0.16767807
201	0x3e4bdcbe	0.19908425
202	0x3bfa8334	0.007645035
203	0x3e0a9142	0.13531974
204	0xbe93d78f	-0.28875396
205	0x3e7d375a	0.24728146
206	0x3db99916	0.09062402
207	0xbe3897d5	-0.1802667
208	0x3e87f6a0	0.26555347
209	0xbe840287	-0.25783178
210	0xbe2d91ec	-0.16950196
211	0xbe81ba17	-0.25337288
212	0xbe74c236	-0.2390221
213	0xbdc6c124	-0.097048074
214	0x3de5c4ed	0.11219201
215	0xbb5b1f90	-0.003343556
216	0x3db6d763	0.089278005
217	0xbd597854	-0.05309327
218	0xbe80aca3	-0.2513171
219	0x3e965ca4	0.29367554
220	0xbe873f7d	-0.26415625
221	0xbd857f7e	-0.06518458
222	0x3e5d84b7	0.21632658
223	0xbd01a30b	-0.03164963
224	0xbda67e2f	-0.08129536
225	0xbdbc35b4	-0.091899306
226	0xbe1b7e41	-0.15184881
227	0x3e478971	0.19486023
228	0xbeb006b7	-0.34380123
229	0xbdc1a9e4	-0.09456232
230	0xbdc3207b	-0.095276795
231	0xbe23ccd8	-0.1599611
232	0xbe499c48	-0.19688523
233	0x3e6d0758	0.23147333
234	0x3ce36bde	0.027761396
235	0x3d60a81c	0.05484782
236	0x3e6d74f0	0.2318914
237	0xbea8ee49	-0.32994297
238	0x3d37f116	0.04490765
239	0xbc414ba2	-0.011797817
240	0x3e68215a	0.22668973
241	0x3e5ad544	0.21370417
242	0x3da708b0	0.08155954
243	0x3dddb248	0.1082502
244	0xbe21d976	-0.15805611
245	0xbe5c2c87	-0.21501361
246	0x3e95ffed	0.29296818
247	0xbdc5145b	-0.09623023
248	0x3ded7806	0.11595158
249	0xbe1d2e9c	-0.15349811
250	0xbd6d0cbc	-0.057873473
251	0x3d9ce3ad	0.07660613
252	0x3e8b87f2	0.27252156
253	0xbe936a68	-0.2879212
254	0x3d0f8cb2	0.035046287
255	0x3dc6fb75	0.0971593

bias f4 [64]
0	0x3c5a1e53	0.013312894
1	0x3e67bd6d	0.22630854
2	0xbe76cad3	-0.24100809
3	0x3e752f8a	0.23943916
4	0xbe5ffcaf	-0.21873735
5	0xbdb74dd3	-0.08950391
6	0x3dddf0e0	0.10836959
7	0xbe8d2ef6	-0.2757489
8	0x3e8a3933	0.26996765
9	0xbda4d85f	-0.08049082
10	0x3e8b9164	0.27259362
11	0xbe6dd7ea	-0.23226896
12	0xbe56a46c	-0.2096116
13	0x3c01db0b	0.007925759
14	0x3e3f7afa	0.18699256
15	0x3df255c6	0.11832766
16	0xbeac77e8	-0.3368523
17	0xbdef13c3	-0.11673691
18	0x3df36d42	0.11886074
19	0xbd04b3f4	-0.03239818
20	0xbe3231b2	-0.1740177
21	0x3e3487f8	0.17629993
22	0x3e91b79e	0.284604
23	0x3d4e6dc8	0.050397664
24	0x3dc68104	0.096925765
25	0xbde6dc29	-0.11272461
26	0xbe0f8461	-0.14015342
27	0xbea926f1	-0.33037522
28	0x3e0a1e28	0.13488066
29	0x3c1b0619	0.009461903
30	0x3dbc764a	0.09202249
31	0x3d1147d4	0.03546889
32	0xbe61281b	-0.21987955
33	0x3deec925	0.11659459
34	0xbec3e137	-0.38257763
35	0x3c45e0d3	0.012077528
36	0x3e94588f	0.28973815
37	0x3e9ad53b	0.30240807
38	0x3e513da8	0.20433676
39	0x3e3d315b	0.18475859
40	0x3da668f8	0.0812549
41	0x3ceff20d	0.029290223
42	0xbdcfac7a	-0.10140319
43	0xbec63f92	-0.38720375
44	0xbd50a904	-0.050942436
45	0x3ebaa2d3	0.3645235
46	0xbda477e4	-0.0803068
47	0xbeb9dec8	-0.3630278
48	0x3e18140f	0.14851402
49	0x3e7720e9	0.24133648
50	0x3d58caa2	0.05292762
51	0x3e7a397c	0.24435991
52	0x3d425913	0.04744823
53	0xbcb80c4f	-0.022466807
54	0x3dfb3b5c	0.12267181
55	0xbe733380	-0.23750114
56	0x3dbf9e27	0.09356337
57	0x3eadf290	0.33974123
58	0xbe9a41af	-0.30128238
59	0x3db35de4	0.087581426
60	0x3e743ab7	0.23850523
61	0x3e77ef2a	0.24212328
62	0x3e7ce023	0.24694876
63	0xbd449a66	-0.04799881

weight f4 [32, 64]
0	0x3d830cdc	0.06398937
1	0x3d034d01	0.03205586
2	0x3dcb33d5	0.099219956
3	0x3db410a8	0.087922394
4	0xbddffc1a	-0.109367564
5	0x3d43feed	0.047850538
6	0xbd63c6a4	-0.05560936
7	0x3dde31fc	0.108493775
8	0xbdb00aa4	-0.085957795
9	0x3d75e8a4	0.060036317
10	0xbd0ae4ed	-0.033909727
11	0xba970d25	-0.0011524303
12	0xbdc79825	-0.09745816
13	0xbd24bf93	-0.040221762
14	0x3d2caf3d	0.042159308
15	0x3dd47b43	0.10375073
16	0xbdc02384	-0.09381774
17	0x3deae96f	0.11470305
18	0xbde3794b	-0.11107119
19	0xbd85ea28	-0.065388024
20	0xbd838e6c	-0.06423649
21	0x3d50439a	0.05084572
22	0xbda5a26d	-0.08087621
23	0x3d4bba75	0.049738366
24	0xbdb32de2	-0.08748986
25	0x3d97d74f	0.07414114
26	0x3c6c96cf	0.014440252
27	0xbdb41d69	-0.08794672
28	0x3da70660	0.08155513
29	0x3ddec148	0.10876709
30	0x3da58c74	0.0808343
31	0x3d963c17	0.0733568
32	0xbd85d304	-0.06534389
33	0x3dc442ca	0.095830515
34	0x3dc965ba	0.09833856
35	0x3df976da	0.12180872
36	0x3dbe2a04	0.092853576
37	0x3d539b2d	0.05166166
38	0xbd51ba5b	-0.051203113
39	0xbdeb5bc0	-0.11492109
40	0xb9efe9a0	-0.00045759697
41	0x3dc2cc34	0.09511605
42	0xbca28f34	-0.019843675
43	0x3b2950bb	0.0025835473
44	0xbd7f9cc7	-0.062405374
45	0xbb880f8d	-0.0041522444
46	0x3ded0841	0.1157384
47	0xbd11df12	-0.035613127
48	0xbd21d430	-0.039509
49	0x3dfb8b43	0.122824214
50	0xbc67f83b	-0.014158304
51	0xbd5c9782	-0.053855427
52	0xbdeaf044	-0.11471608
53	0x3db0e11d	0.08636687
54	0xbdd4d8b4	-0.10392895
55	0x3dd37821	0.10325647
56	0xbdd85bca	-0.105643824
57	0xbd4d1bc9	-0.050075326
58	0x3dab80e5	0.08374194
59	0x3d6f44a1	0.05841506
60	0x3d9d049c	0.07666895
61	0x3def48e3	0.11683824
62	0xbcc0c87b	-0.023533097
63	0x3dc346ae	0.095349655
64	0xbd9252bf	-0.07144689
65	0xbdf90b51	-0.121603616
66	0x3dd2168d	0.102582075
67	0xbdd48952	-0.10377754
68	0x3dee1371	0.11624802
69	0xbcfe7e98	-0.031066224
70	0xbdf74e33	-0.12075462
71	0x3d6233b6	0.055225097
72	0xbd9e0860	-0.07716441
73	0xbdcfa644	-0.101391345
74	0xbd87bd33	-0.06627884
75	0xbd5a2da9	-0.0532662
76	0xbdc6786f	-0.0969094
77	0x3dc4d4f3	0.09610929
78	0xbd7e6206	-0.0621052
79	0x3dc3d5ed	0.095622875
80	0x3bf65db3	0.007518494
81	0x3ca66824	0.02031333
82	0xbd92feb2	-0.071774855
83	0xbcfafaa2	-0.03063709
84	0x3d9d260e	0.07673274
85	0x3c82fe83	0.015990501
86	0xbaff8f56	-0.0019497673
87	0xbde9eedb	-0.11422511
88	0x3df6aac4	0.1204429
89	0x3d302597	0.0430046
90	0x3c86206e	0.016372886
91	0x3da6211e	0.08111785
92	0x3d317317	0.04332265
93	0x3c1e5f92	0.00966634
94	0xbd1cc71d	-0.038275827
95	0xbdfdaa3f	-0.123859875
96	0xbcdb1249	-0.026742117
97	0x3c3c5a91	0.011496202
98	0xbdce61ef	-0.10077273
99	0xbc99f34f	-0.018792776
100	0xbcab836c	-0.02093669
101	0x3d376cf5	0.044781644
102	0x3b8ea91a	0.0043536546
103	0x3dc2ad8c	0.09505758
104	0x3c834bfc	0.016027443
105	0x3dc58e20	0.09646249
106	0xbd823f62	-0.063597456
107	0xbd6dd5cb	-0.058065217
108	0xbd6ca5cb	-0.0577753
109	0x3daa5232	0.08316459
110	0x3dcf0da0	0.10110021
111	0x3d705589	0.058675323
112	0xbdd98ba6	-0.10622339
113	0x3906ea5a	0.00012866539
114	0xbd06aac7	-0.03287771
115	0x3dbc00f0	0.09179866
116	0xbda8ea3b	-0.08247801
117	0xbd1c4d42	-0.038159616
118	0x3c39ebe5	0.011347746
119	0xbc01e3f5	-0.007927884
120	0x3d8347bc	0.064101666
121	0x3c601828	0.013677634
122	0x3d0eb26a	0.034838118
123	0xbdab914e	-0.08377324
124	0xbc39d649	-0.0113425935
125	0xbdd97a6b	-0.106190525
126	0xbdf1003a	-0.11767621
127	0x3d1a7c4b	0.03771619
128	0x3c7a95ed	0.015294534
129	0xbdae7d67	-0.08520012
130	0x3d8dc620	0.06922555
131	0xbdfbbba2	-0.122916475
132	0x3e1a902e	0.15094063
133	0xbd672972	-0.05643601
134	0xbd43aaeb	-0.047770422
135	0x3df1c6cd	0.11805496
136	0xbda48998	-0.080340564
137	0xbcc66752	-0.024219189
138	0x3c25cb47	0.010119266
139	0x3d10a540	0.035313845
140	0x3e339601	0.1753769
141	0xbe04deb4	-0.1297558
142	0x3dda0c9a	0.10646935
143	0x3d4d46b9	0.050116275
144	0x3dcf52f2	0.101232424
145	0x3dafaf94	0.08578411
146	0x3dda2518	0.10651606
147	0xbd868732	-0.06568755
148	0x3dc76e28	0.097378075
149	0xbd285162	-0.041093238
150	0x3db23913	0.08702292
151	0xbe276bca	-0.16349712
152	0xbbd24d12	-0.006417879
153	0xbd33a5ab	-0.043859165
154	0x3c052661	0.008126826
155	0x3d6d9150	0.05799991
156	0x3d005771	0.03133339
157	0x3dd86b8a	0.105673864
158	0xbc7f1f60	-0.015571445
159	0x3d0f93a2	0.035052903
160	0x3dd4213b	0.10357901
161	0x3def733c	0.11691901
162	0x3e25fccd	0.16209717
163	0x3d9d2194	0.0767242
164	0x3da34611	0.079723485
165	0xbe1ff097	-0.15619121
166	0x3d92325a	0.0713851
167	0x3d9e7245	0.07736639
168	0xbcb0c02f	-0.021576015
169	0x3dac3001	0.084075935
170	0x3b4c3e6a	0.0031165131
171	0x3c9ebf69	0.01937838
172	0x3d3ac38f	0.045596655
173	0xbe0d8bb2	-0.13822821
174	0xbc30f8cc	-0.010801505
175	0xbd314f3f	-0.043288466
176	0x3c52769d	0.012845662
177	0xbde697bb	-0.11259409
178	0x3d8012eb	0.06253608
179	0x3ca3daa1	0.020001711
180	0xbe06f3f7	-0.13179003
181	0x3cf12cc4	0.029440291
182	0x3d9ffd48	0.078119814
183	0x3bdee9fc	0.0068027955
184	0x3dd0ae4a	0.10189493
185	0x3d8ed56d	0.069743015
186	0x3e248756	0.16067252
187	0x3d90def4	0.07073775
188	0x3d082e8f	0.033247527
189	0x3d535f0c	0.051604316
190	0x3d420255	0.047365505
191	0x3c2dea6e	0.010614974
192	0xbde6f103	-0.11276438
193	0xbdbc0faa	-0.09182675
194	0x3ddf7dfb	0.10912701
195	0xbdc13b74	-0.09435168
196	0x3c846e6b	0.016165933
197	0xbd198a32	-0.03748531
198	0x3dabcc2f	0.08388554
199	0x3e1881ef	0.14893316
200	0xbd9c560c	-0.076336
201	0xbd3b71c8	-0.045762807
202	0xbdfafd70	-0.122553706
203	0xbd542c5d	-0.05180012
204	0x3dcb0d88	0.0991469
205	0x3d5cae6f	0.05387729
206	0xbd9b2617	-0.075756244
207	0x3c4059ca	0.011740157
208	0x3d50c0b1	0.050965015
209	0x3e03d473	0.12874012
210	0x3d5a57aa	0.05330626
211	0xbc1923eb	-0.009346942
212	0xbdc7b344	-0.09750989
213	0xbde20d00	-0.11037636
214	0xbd2c4eed	-0.042067457
215	0xbe103a2f	-0.14084695
216	0xbcfadf08	-0.030623928
217	0x3deca719	0.11555309
218	0x3c223205	0.009899621
219	0x3cb9edfe	0.022696491
220	0xbdd780e0	-0.10522628
221	0xbdf16b2b	-0.11788019
222	0x3d02ecc8	0.031964093
223	0x3dd3a9d8	0.103351295
224	0x3d7ac8db	0.061226707
225	0xbd275704	-0.04085447
226	0x3ce5df6b	0.028060636
227	0x3dba3b46	0.09093337
228	0x3cd6baff	0.026212214
229	0xbde0e03c	-0.10980269
230	0x3d5c2053	0.053741764
231	0x3d5d4bd3	0.05402739
232	0x3db853c7	0.09000354
233	0xbd0a7889	-0.033806358
234	0xbd5c0af5	-0.053721387
235	0xbc680720	-0.014161855
236	0x3dccd0d8	0.10000771
237	0x3c9b6b63	0.018972104
238	0x3d56210c	0.05227761
239	0x3c1eb0c3	0.009685698
240	0xbc956c63	-0.01824016
241	0x3cfd7ff0	0.030944794
242	0x3d36f620	0.044668317
243	0xbd65aabc	-0.056071028
244	0xbe00d6d2	-0.12581947
245	0x3dd2e453	0.10297456
246	0xbdfe6495	-0.12421528
247	0x3d4dfe92	0.050291605
248	0xbc9ecca1	-0.019384684
249	0xbce7a72c	-0.028277956
250	0x3e155887	0.14584552
251	0xbdeb4140	-0.11487055
252	0xbcc947b2	-0.02457032
253	0xbbc6bf36	-0.0060652746
254	0xbe0a7720	-0.13522005
255	0xbdcc8729	-0.09986717

bias f4 [32]
0	0xbd124cca	-0.035717763
1	0x3db84869	0.08998186
2	0xbda3439d	-0.079718806
3	0xbd11e49f	-0.03561842
4	0xbd3adecb	-0.04562263
5	0x3d7bf1db	0.06150995
6	0x3dfb8c82	0.12282659
7	0x3db571ac	0.08859572
8	0x3de83b6f	0.11339461
9	0xbe1dcaf2	-0.15409449
10	0x3d45e7c8	0.048316747
11	0x3c6619a2	0.014044197
12	0xbd1c6867	-0.038185503
13	0xbcd4c92b	-0.02597483
14	0x3de104e7	0.10987263
15	0x3de17019	0.11007709
16	0xbe3b847b	-0.18312256
17	0xbd35a3da	-0.044345714
18	0x3d60a45c	0.054844245
19	0xbc238f2d	-0.009982866
20	0xbe164573	-0.1467493
21	0xbdc84681	-0.097790726
22	0x3e46d911	0.19418742
23	0xbdfd4f46	-0.12368636
24	0xbe406812	-0.187897
25	0xbd5dc4c3	-0.054142725
26	0xbadb0bc5	-0.0016711882
27	0x3e2444bc	0.16041845
28	0xbe412037	-0.18859945
29	0x3d400591	0.04688031
30	0x3ded37f9	0.115829416
31	0x3d164851	0.03669006

weight f4 [7, 32]
0	0xbd631465	-0.05543937
1	0xbe0dc88c	-0.13846034
2	0xbe4c8e4f	-0.19976161
3	0xbe720236	-0.23633656
4	0xbc1adc04	-0.00945187
5	0x3e14c2a3	0.14527373
6	0x3e7580bb	0.23974888
7	0x3e029a99	0.12754287
8	0xbe136960	-0.14395666
9	0xbe0e84fd	-0.13917919
10	0x3d1178f0	0.035515726
11	0xbe2dd171	-0.16974427
12	0xbbc46614	-0.005993614
13	0x3cf10401	0.029420855
14	0xbe05909e	-0.13043448
15	0x3e64dd40	0.22350025
16	0xbe5cb721	-0.21554233
17	0xbe1d67ec	-0.15371674
18	0xbdfe5ef6	-0.12420456
19	0xbdf51cbd	-0.11968372
20	0x3cc1d62c	0.023661695
21	0x3d7ebad0	0.062189877
22	0x3d0b1134	0.033951953
23	0xbeaae50a	-0.33377868
24	0xbdc417e7	-0.095748715
25	0x3db57008	0.08859259
26	0x3e4d7880	0.20065498
27	0x3e3f698d	0.18692608
28	0x3b837525	0.0040117675
29	0x3e2b4a07	0.16727458
30	0x3e2ba6c4	0.16762835
31	0x3da2602c	0.079284996
32	0x3db4bc97	0.08825033
33	0xbcaa31e1	-0.020775737
34	0xbea11510	-0.31461382
35	0xbe2bedda	-0.16789952
36	0xbe048138	-0.12939918
37	0x3e39b0e8	0.1813389
38	0xbd406bc5	-0.046977777
39	0xbe12fe7f	-0.14354895
40	0xbd8ec066	-0.06970291
41	0xbe2f54f2	-0.17122248
42	0x3d9bc982	0.07606794
43	0xbe888241	-0.26661876
44	0xbd967e69	-0.073483296
45	0xbd2af703	-0.041739475
46	0xbdb896ce	-0.09013139
47	0x3ec0608a	0.37573653
48	0xbe0af7e2	-0.13571122
49	0xbe048e5f	-0.12944935
50	0xbb0376ed	-0.00200599
51	0x3e4a2fbd	0.19744773
52	0xbea58f34	-0.32335818
53	0xbe825453	-0.2545496
54	0x3dcb1d26	0.09917669
55	0xbeaf23e4	-0.3420707
56	0xbe81019e	-0.25196546
57	0xbd621976	-0.055200063
58	0x3d993b12	0.0748197
59	0x3eba6569	0.36405495
60	0xbecf32ef	-0.40468547
61	0x3dadca1b	0.08485814
62	0x3e717995	0.23581536
63	0x3ce6cac0	0.02817285
64	0xbddf86a1	-0.1091435
65	0xbcb6f837	-0.022335155
66	0xbcfb39a4	-0.030667134
67	0xbdeabb55	-0.11461512
68	0xbdec37bb	-0.11534067
69	0xbe006231	-0.12537457
70	0xbe0c54e2	-0.13704255
71	0xbdda943b	-0.10672804
72	0xbdf64014	-0.12023941
73	0x3e07c821	0.13259937
74	0x3df1dfbb	0.11810251
75	0xbdcab3e7	-0.09897595
76	0x3de5d480	0.11222172
77	0x3d60ba53	0.054865193
78	0x3bbcbe09	0.0057599586
79	0x3deb587a	0.11491485
80	0xbe0ac171	-0.13550355
81	0x3e465991	0.19370104
82	0xbdee74ac	-0.11643347
83	0xbe019bb7	-0.12657057
84	0x3d2d3eae	0.042296104
85	0x3dc512ca	0.09622724
86	0xbe083910	-0.13303018
87	0xbde99f08	-0.11407286
88	0x3de6d669	0.11271364
89	0x3da358e3	0.07975938
90	0x3dd1ee3a	0.10250516
91	0xbda331f4	-0.07968512
92	0x3da93715	0.08262459
93	0x3d52b4d4	0.051441982
94	0x3e174391	0.14771868
95	0x3de550fc	0.11197087
96	0xbdc7b509	-0.097513266
97	0xbac265df	-0.0014831385
98	0x3e4491bd	0.1919622
99	0x3db9662a	0.090526894
100	0x3c45f596	0.012082478
101	0xbdb9c57e	-0.09070872
102	0x3d450f8e	0.048110537
103	0xbd2fc40a	-0.042911567
104	0xbdadad0e	-0.08480273
105	0x3d85939b	0.06522294
106	0x3e2a5639	0.16634454
107	0xbc2806c6	-0.010255521
108	0xbdf22b3e	-0.11824654
109	0xbe32a438	-0.17445457
110	0xbe2b12c6	-0.1670638
111	0xbe34e2d2	-0.1766465
112	0x3e7cfd65	0.24706037
113	0x3e2c99a3	0.16855483
114	0x3cd20436	0.025636774
115	0x3ca37f9a	0.019958306
116	0x3e1a0462	0.15040734
117	0x3e1d7a6d	0.15378733
118	0x3b1cc969	0.002392376
119	0x3b744573	0.003727284
120	0x3d515bb3	0.05111284
121	0xbe5142bc	-0.20435613
122	0x3c20c8de	0.0098135155
123	0xbde77c91	-0.11303056
124	0x3e7869fd	0.24259181
125	0x3de23530	0.11045301
126	0x3dc5bbb3	0.096549414
127	0xbd4d8345	-0.050174017
128	0x3e23215c	0.15930694
129	0xbdedbb33	-0.11607971
130	0x3e594c9a	0.21220627
131	0x3db857c3	0.09001114
132	0xbd9d17cf	-0.07670557
133	0x3d8fd094	0.07022205
134	0xbdbf065c	-0.09327385
135	0xb88baf7f	-6.660725e-05
136	0xbd8ff86b	-0.07029804
137	0x3e054c42	0.13017371
138	0xbd4194fb	-0.04726122
139	0x3e3bc15a	0.18335477
140	0x3e255c79	0.16148557
141	0xbcf5d5e6	-0.030009221
142	0xbe02dcdb	-0.12779562
143	0xbc15573e	-0.009115038
144	0x3caa36b1	0.020778032
145	0x3d8e625d	0.06952355
146	0x3da8b453	0.08237519
147	0xbe0d140c	-0.13777179
148	0x3e504256	0.20337805
149	0x3c550c58	0.013003431
150	0xbdc9d012	-0.098541394
151	0x3e800b93	0.2500883
152	0x3dd6e9e0	0.10493827
153	0xbd820d65	-0.06350211
154	0xbdd6f1a3	-0.10495307
155	0xbe7e62d5	-0.24842389
156	0x3e80f8be	0.25189775
157	0x3af2d6ad	0.0018527113
158	0x3e0bd540	0.13655567
159	0xbcf961b4	-0.030442096
160	0x3e3c411d	0.18384214
161	0xbde528fa	-0.11189456
162	0x3dc1db83	0.09465697
163	0x3e0e5806	0.13900766
164	0x3e10dc6f	0.14146589
165	0xbce88470	-0.028383464
166	0x3d38c2bd	0.045107592
167	0xbe0c3a8f	-0.13694213
168	0xbd92c974	-0.071673304
169	0x3e5e8dd7	0.21733795
170	0xbdda7335	-0.10666505
171	0xbd9d44ea	-0.0767916
172	0xbdb7b379	-0.089697786
173	0xbe4ec6a1	-0.20192958
174	0x3bc324d6	0.005955319
175	0xbdccf41d	-0.100074984
176	0x3e24be9f	0.16088341
177	0x3dc19818	0.09452838
178	0xbdea01c0	-0.11426115
179	0x3dbbae67	0.09164124
180	0x3d1e12c9	0.038592134
181	0x3e3ace50	0.18242764
182	0xbe1b9448	-0.15193284
183	0x3db87146	0.0900598
184	0x3e156485	0.14589126
185	0xbc77f1f6	-0.015133372
186	0x3dd75bb3	0.10515537
187	0xbe14aecf	-0.14519809
188	0x3da9e392	0.08295359
189	0x3dc659d6	0.096851036
190	0xbe173a21	-0.14768268
191	0x3da02bc3	0.07820847
192	0x3cd087c1	0.025455358
193	0x3e09b636	0.13448414
194	0x3e3e6512	0.18593243
195	0xbd960ab5	-0.07326261
196	0x3d6467fe	0.055763237
197	0xbd94027a	-0.07227035
198	0xbe3d1191	-0.18463732
199	0xbd4c5c0b	-0.049892467
200	0xbd3a50b6	-0.04548713
201	0x3e23db4e	0.16001627
202	0x3cc47e29	0.02398594
203	0x3e418e41	0.18901922
204	0x3da1bbe2	0.07897164
205	0xbe5ebdc2	-0.21752074
206	0xbc9f18ce	-0.019421007
207	0xbe256f77	-0.16155802
208	0x3c926de4	0.017874666
209	0x3d99430a	0.0748349
210	0xbe1aa9bf	-0.15103815
211	0x3d663e5a	0.056211807
212	0x3e68bd14	0.22728378
213	0x3d6e043d	0.05810951
214	0xbe3bb77b	-0.18331711
215	0x3e1c4623	0.1526113
216	0x3df5b48c	0.11997327
217	0xbd54a2d8	-0.051913112
218	0xbe3c3def	-0.18383001
219	0xbe6cbd55	-0.231191
220	0xbba004f3	-0.0048834025
221	0x3d41b52e	0.047291927
222	0xbe0c8510	-0.13722634
223	0x3e02202d	0.12707587

bias f4 [7]
0	0x3e90c433	0.28274688
1	0x3f0074c4	0.5017817
2	0x3d7d3357	0.06181654
3	0xbeb60d3a	-0.35556966
4	0x3ca4e923	0.0201307
5	0xbe893065	-0.26794735
6	0xbe429281	-0.190012
