experiements/starter_team/continuous_state/actor_critic/results/max_damage_ac/checkpoints/model_a0.pt (torch, 14879 bytes, 6 tensors)

weight f4 [64, 8]
000000 a9 44 db 3d cf ea 41 be 45 2b 7c 3e 3f 99 4b 3e
       0.10706455 -0.18937229 0.24625881 0.19882677
000010 4a d7 8b be 58 96 24 bd af 17 0c be 34 e8 90 3e
       -0.2731269 -0.04018244 -0.1368091 0.28302157
000020 3d f6 a3 3c 36 e0 10 be 5a 9c 2c be 5f 66 88 be
       0.020014876 -0.1414803 -0.16856518 -0.26640603
000030 f6 52 86 be c0 05 95 3d c4 dd 3e be 1a 7b 11 3e
       -0.2623517 0.07276487 -0.18639284 0.14207116
000040 41 fd 1f be d1 b8 99 3d 40 ff 5b 3d 8e bb 50 be
       -0.15623952 0.07505954 0.053710222 -0.20384046
000050 77 98 1d 3e 3a 4a a5 3e ef dd 3f be 1a 7c 3f 3e
       0.15390192 0.32283193 -0.18737005 0.18699685
000060 ec ff b0 3e fd 71 22 be 91 da 9d be a6 33 3c 3e
       0.34570253 -0.15863796 -0.30830815 0.18379077
000070 8e fb 73 be b9 29 c3 bd 37 00 55 be e8 76 8a bd
       -0.23826429 -0.09529442 -0.20800863 -0.06760961
000080 25 4a c5 3b af 12 00 3e 0f 9b af bd 9b 63 ab bc
       0.0060208016 0.12507127 -0.08574497 -0.020921519
000090 02 71 33 3d e8 98 4e 3e 42 22 38 be 07 30 aa 3e
       0.043808945 0.20175517 -0.17981818 0.33239767
0000a0 05 1d 9e be 37 99 99 3e 31 b0 94 bc ba f7 16 3e
       -0.30881515 0.29999706 -0.01815042 0.14742938
0000b0 8b 42 cf bd 21 7b 64 3d 85 48 05 be e3 83 67 3e
       -0.10120114 0.055781487 -0.13015945 0.22608905
0000c0 7f eb 9e 3e b6 09 9c bd 34 9b b1 be 53 52 95 3c
       0.31039044 -0.0761904 -0.34688723 0.018227732
0000d0 f5 64 ca 3d 9e 41 b2 3e 28 ed 65 be 42 d5 23 3e
       0.09882537 0.34815687 -0.22453749 0.1599932
0000e0 4e 36 9c 3e 72 83 96 be 5c 5c 2e 3d 7a 92 9f be
       0.3051018 -0.2939716 0.04256855 -0.3116644
0000f0 88 0f 54 be 6a c8 6f bd c9 bd 47 3e b3 d1 78 be
       -0.2070905 -0.05854074 0.19505991 -0.24298744
000100 70 05 1d bd a9 47 32 3e c1 5c 49 be 15 3a 04 3e
       -0.038335264 0.17410149 -0.19664289 0.12912782
000110 ae 58 2e be 12 0a 8f bd b4 fe a8 be ef fc 9e 3e
       -0.17026016 -0.06984343 -0.33006823 0.31052348
000120 7e 84 a2 be 32 fc 38 3e a3 a9 a0 3d 2f 3a 2f 3d
       -0.3174171 0.18064955 0.07844856 0.042780098
000130 79 1c 7c 3e 32 64 a7 bd 80 6a 0b 3e 27 48 a0 be
       0.24620236 -0.081734076 0.13614845 -0.31305048
000140 30 6c a1 be f8 e8 de bd c6 2c 2d be ce 5c 58 3d
       -0.31527853 -0.10884279 -0.16911611 0.05282288
000150 a1 ef 86 3d 40 fd 76 3e 11 f1 3a be ae c6 87 3c
       0.06588674 0.24120045 -0.18256022 0.01657423
000160 a1 e9 79 be 08 b7 25 be a8 fc a5 3e 1f e1 9a 3e
       -0.24405529 -0.16183102 0.32419324 0.3024988
000170 c4 72 b3 3e ef 47 3f be 7a 7c 7e bd 46 15 9d be
       0.35048497 -0.18679784 -0.06213043 -0.30680293
000180 99 73 29 be f5 04 fc 3d 2c 2a 96 bd e6 80 04 3a
       -0.16548003 0.12305633 -0.073322624 0.0005054608
000190 d3 14 9b bb 2e 34 02 bd 1d f2 ae 3e 49 23 8e 3e
       -0.004732707 -0.031788044 0.34169093 0.27761295
0001a0 e3 0d 86 be 9e 72 b2 3d 7c 82 af be 1d 92 e4 bd
       -0.2618247 0.08713268 -0.3427924 -0.111606814
0001b0 cd 98 7e be 33 ee 49 be c2 0b 66 be 2b 84 2b 3e
       -0.24862976 -0.19719772 -0.22465423 0.16749637
0001c0 35 cf b9 3e 1a 1a 69 be c5 25 f0 3d 84 47 98 3e
       0.362909 -0.22763863 0.11725954 0.29742062
0001d0 5b 70 ac be d4 77 40 be 3c 36 cb 3a a5 4f 73 3e
       -0.3367947 -0.18795711 0.0015503834 0.2376085
0001e0 62 c5 dc bc 45 d6 cb bd 5c 7b e7 3d 59 ab f4 3c
       -0.026949588 -0.09952978 0.11302826 0.029866861
0001f0 8c e9 42 be cc d4 a7 bd f3 e1 42 3e d9 1f 5a be
       -0.19034404 -0.08194885 0.19031505 -0.21301211
000200 ac d9 8c bd 95 ba 8d be a3 e3 7b 3e e1 8f 18 be
       -0.06877455 -0.27681413 0.24598555 -0.14898635
000210 5b 41 7a 3e 3f 08 0f 3e 39 38 9a be 5f c9 93 be
       0.24438994 0.1396799 -0.3012102 -0.2886457
000220 a7 6b 89 3e f6 fc 98 3d f2 37 56 3e 8c 1d 56 bd
       0.26839945 0.074701235 0.20919779 -0.05227427
000230 b1 55 04 3d 02 25 b1 3e b1 87 d9 bd e8 fa 88 3e
       0.032308284 0.34598547 -0.10621584 0.26753926
000240 88 46 10 be 83 e3 a0 be 75 37 87 bd 07 ec 96 be
       -0.14089406 -0.31423578 -0.066023745 -0.2947695
000250 12 d7 a3 be bf ba 7b 3e eb 50 98 be 6b 81 39 3e
       -0.32000023 0.24582957 -0.29749236 0.18115775
000260 3c 00 58 be 44 23 3f be 3b ec 6f be 3a bb 81 3d
       -0.2109384 -0.18665797 -0.23429959 0.06334539
000270 5e 10 a8 3e 90 fa ef bd 2f ae 89 3e 33 5c 15 3d
       0.32824987 -0.11717713 0.26890704 0.03646488
000280 bd a8 5b bd d4 89 a7 3e 3f 8b 7f 3e 48 ad 97 be
       -0.05362772 0.32722342 0.24955462 -0.2962439
000290 26 25 82 3e c6 f5 cb bd 45 1d 40 be 4b 82 62 be
       0.25418967 -0.09958987 -0.18761165 -0.22120015
0002a0 90 2c 15 3d b9 fc 92 3e 77 09 89 be 71 19 3d 3e
       0.03641945 0.28708437 -0.26765034 0.18466736
0002b0 1d 09 7e be f7 09 12 3e 8f d8 4d 3e c7 a5 33 3a
       -0.24808164 0.14261614 0.20102142 0.0006853011
0002c0 8f 99 b1 be 9e 92 a9 3e b3 42 2e 3e e0 36 e4 bd
       -0.34687468 0.33119673 0.17017631 -0.11143279
0002d0 49 c8 a7 be 7d d6 aa be 8e 71 36 3c 34 33 8c be
       -0.32769993 -0.33366767 0.011135472 -0.27382815
0002e0 e7 6c 81 be 42 de 13 3e 23 e7 9b 3e 5e 41 a0 be
       -0.25278398 0.14440253 0.3044978 -0.3129987
0002f0 8d b0 31 3d 5a 03 44 be af 7d 02 3e ad 07 85 be
       0.043381263 -0.19141904 0.12743257 -0.2598242
000300 e8 21 ec bc de 0f 81 be 9b 54 f2 bd fc c7 44 bd
       -0.028824762 -0.25207418 -0.118325435 -0.048042282
000310 44 80 83 3e d5 2c 0a bd 50 3c a3 3e 51 ea 49 be
       0.25683796 -0.03373416 0.31881952 -0.19718291
000320 0d cb 52 bd 3f 5b ec bd fb 46 fa 3d a7 79 1b be
       -0.051463176 -0.11540841 0.1222057 -0.15183125
000330 5f 5c 96 3c e5 0d 40 be 69 99 ae be c7 3e 4c 3e
       0.018354593 -0.187553 -0.34101418 0.19945823
000340 35 e2 1e 3e fa 28 3a 3e 13 63 96 be a3 95 7d 3e
       0.15515979 0.18179694 -0.29372463 0.24764113
000350 e7 a8 43 3d 7b d4 d1 3d 43 36 a2 3e 54 6c 42 bd
       0.0477685 0.102456056 0.31682023 -0.04746659
000360 78 fc 3f 3e 42 43 8c be 08 df dd 3d 10 ff a5 3e
       0.18748653 -0.27395064 0.108335555 0.3242116
000370 48 0d 8c be 38 f6 10 3e 30 7b 2f be 98 95 91 be
       -0.27353883 0.14156425 -0.17136836 -0.28434443
000380 67 fa 4a be ce a6 41 3e 95 c1 f2 3d be 44 75 be
       -0.19822083 0.18911287 0.11853329 -0.23952004
000390 50 a4 e1 bd 58 85 cd 3c 48 48 88 3e 1b bc 31 3d
       -0.11017668 0.025087997 0.26617646 0.043392282
0003a0 d6 c7 bf 3d 98 1c 16 bd 44 d6 00 3e cb 8c ab 3d
       0.093642876 -0.036648363 0.12581736 0.083764635
0003b0 a0 97 49 3e 92 8c 79 be cd 25 8d be 7f b3 1a be
       0.19686747 -0.2437003 -0.27567902 -0.15107535
0003c0 e4 d7 0d 3d c8 b1 06 3e 2c 58 0b be 5d 0e b4 3e
       0.034629717 0.13153756 -0.13607854 0.35167208
0003d0 95 37 d0 3d 5a ed 97 be bd ff 7c 3e 6c b9 43 3e
       0.101668514 -0.29673272 0.24706931 0.19113702
0003e0 ee 31 5e 3b de ba 20 be 34 b3 3d 3e f4 72 dc bd
       0.0033904272 -0.15696284 0.18525392 -0.10764113
0003f0 21 10 47 be 36 c7 85 3e c0 0d 1c 3e a0 ca 75 bd
       -0.19439746 0.26128548 0.1523962 -0.06000769

bias f4 [64]
000000 69 76 1d 3e 34 ad 81 3e 02 6b 94 3e 36 10 a8 3e
       0.15377201 0.25327456 0.2898789 0.32824868
000010 10 b9 d6 3d 45 12 8a be 9b 4f 61 3e 3b 4f fc 3d
       0.104845166 -0.26967064 0.22003023 0.123197995
000020 3f bd 86 3d a4 c0 91 be 95 f5 96 be 6b 22 5d be
       0.065790646 -0.28467286 -0.2948424 -0.2159516
000030 80 b3 f0 bd 48 fd a8 3e 19 18 d0 bd 44 e6 60 3e
       -0.11752987 0.33005738 -0.10160846 0.2196284
000040 20 71 ac 3e 48 67 1e be d7 a1 03 3e 13 6c 71 3e
       0.33680058 -0.15469086 0.12854706 0.23576383
000050 3e 1e 8b 3e 35 57 a0 3e 66 ce b5 be b4 74 08 be
       0.2717151 0.31316534 -0.35509032 -0.13325769
000060 96 74 89 be 31 0f 10 3e 4a 0f 8d 3e b7 40 39 bd
       -0.2684676 0.14068295 0.27550727 -0.045227733
000070 4a 2a ac 3e e1 50 98 be 3d ee 88 bd 74 9d a7 3e
       0.33626014 -0.29749206 -0.06686065 0.32737315
000080 16 43 b7 bd 99 75 3c 3e ff ed 36 be 2f 62 85 bd
       -0.089483425 0.18404235 -0.17864226 -0.06512868
000090 b1 20 1d 3e 9c b5 91 be c9 f5 24 be b8 4d b3 be
       0.15344502 -0.2845887 -0.16109385 -0.35020232
0000a0 08 c2 ae be fb d4 b3 3e 02 ad 50 3b d9 f2 74 3e
       -0.3413241 0.3512343 0.0031841402 0.23920764
0000b0 7e 9f 3b be 76 14 bd 3d b8 93 86 38 10 4d 47 bd
       -0.1832256 0.09232418 6.417133e-05 -0.048657477
0000c0 af 0f 66 be 40 f6 6b be 68 77 d9 3c 45 6a af be
       -0.2246692 -0.23043156 0.026546195 -0.34260765
0000d0 81 8c 5a 3e 31 77 2d be 9f e2 a3 3e 9d eb 77 3e
       0.2134266 -0.16939999 0.32008836 0.24210973
0000e0 3a cc 88 be 2a 8a 1c 3e 13 f9 6b 3e 31 cd 9d be
       -0.26718313 0.1528708 0.23044233 -0.3082061
0000f0 5c 08 58 be d8 b6 60 3e 91 23 aa 3d f3 19 a1 3e
       -0.21096939 0.2194475 0.08307565 0.3146511

weight f4 [32, 64]
000000 f2 97 dc 3c 2f 6d 25 bd 75 96 91 bc ba 29 73 bd
       0.026927922 -0.04038733 -0.017771939 -0.059365965
000010 e9 2c 9d 3d 91 8f 5e 3c 8f 81 c1 3d dc f6 e1 3d
       0.076745816 0.013584034 0.094485395 0.11033413
000020 4f 15 69 bd 40 3b 03 3e 68 61 a0 bd 07 bf e0 3d
       -0.056905087 0.12815571 -0.07831079 0.109739356
000030 97 ce 04 be d7 50 a5 3d ce 22 90 3d 31 e0 b4 bd
       -0.12969433 0.080720596 0.070378885 -0.088318236
000040 cd ac cf 3b 88 9e 81 bd 8b a8 8e 3c fa 4b ee 3b
       0.006337738 -0.063290656 0.017414352 0.0072722407
000050 d0 6d bc bc cf d1 24 bd a9 82 e1 3d 89 03 ee 3d
       -0.023001581 -0.04023915 0.110112496 0.11621768
000060 49 91 04 3e 84 04 d7 3d dd 9a 12 3d 41 fb f9 3d
       0.12946047 0.10498908 0.03579222 0.12206126
000070 05 29 af bd 69 f1 92 3a 00 99 be bd 48 69 e1 bd
       -0.08552746 0.0011210862 -0.09306526 -0.11006409
000080 59 2e 08 3e 5d b8 9f bc 1f 99 fc bd 8e 6a cb bd
       0.1329893 -0.019497091 -0.12333893 -0.09932433
000090 70 aa e0 3d e8 20 84 bd 1f ec 1a bd 0d a0 e2 bc
       0.109700084 -0.06451589 -0.03782284 -0.027664209
0000a0 4c b1 d8 3c 08 ad ad 3d ba 63 b0 bc 08 b1 22 3d
       0.02645173 0.08480269 -0.021531928 0.03971961
0000b0 c5 49 8d 3d 7e 5d b7 bd 74 38 5c 3b 21 f8 32 bd
       0.06898836 -0.08953379 0.0033602985 -0.043693665
0000c0 74 4d 2e bb ec 27 bf 3b 96 da 02 3d b2 5e 19 3d
       -0.0026596459 0.0058336165 0.03194674 0.037443824
0000d0 80 16 8e 3b 97 50 1f bd f9 63 6f bd d8 70 a1 3d
       0.0043361783 -0.038895216 -0.05844495 0.07882851
0000e0 94 3d ee 3d 92 45 04 be 4e a0 ee 3d ff 24 85 3d
       0.11632839 -0.12917164 0.116516694 0.06501197
0000f0 e9 52 a7 bc 7d 15 76 3d 88 4f 1d bd fd f0 f1 3d
       -0.020425277 0.060079087 -0.038405925 0.11813543
000100 13 72 70 bd 2e 42 f1 bc e3 d3 d8 bd fa 50 99 bd
       -0.05870254 -0.029450502 -0.10587289 -0.07486148
000110 e7 e9 83 3d 4c fc 85 bd 1a 49 60 bd 26 29 bf bd
       0.06441098 -0.065422624 -0.054757215 -0.0933402
000120 02 42 88 bc 75 45 1a 3d 75 a6 9e 3d 5d b5 a1 3d
       -0.016633037 0.037663896 0.07746593 0.078959204
000130 1f ba d7 bd a2 d6 8a bd e5 24 35 bc 84 a7 c5 3d
       -0.10533547 -0.06779219 -0.01105616 0.09651092
000140 a4 ad 5d bd e0 60 ec 3d 56 4d 87 3d f1 ac c4 bd
       -0.054120675 0.11541915 0.066065475 -0.096032985
000150 5b 7a e1 bd 43 12 a0 3d 84 bd 01 be bd 9c 3c 3d
       -0.110096656 0.07815983 -0.1266995 0.046047915
000160 68 a6 82 bb ed 45 90 3d 27 58 c7 3b 49 bd 93 3d
       -0.0039871223 0.07044587 0.0060835066 0.07213838
000170 c9 7a a5 bb ff 1e 06 be aa c0 0c 3e 6e 0e aa bd
       -0.0050500375 -0.13097762 0.1374537 -0.083035335
000180 c3 14 d8 3d f2 c1 7b bd 2c 8e f9 3d 32 58 0a bc
       0.10550835 -0.061464258 0.1218532 -0.008443879
000190 b2 3e 36 bd 4e 91 c7 bd 99 be 98 bd 2e 0b 7b bd
       -0.044493385 -0.097445115 -0.074582286 -0.06128996
0001a0 f2 04 bf 3d a4 1a d6 3d e3 77 54 bd 88 e3 c2 3d
       0.09327115 0.104543 -0.051872145 0.095160544
0001b0 1a fc c5 3d 58 89 d1 bd 6f 5f b1 3d 4b 10 c4 3b
       0.09667225 -0.10231274 0.08660781 0.0059833876
0001c0 79 67 34 bd 6d 47 9e bd cc db 4f bd 48 1e f4 3d
       -0.04404399 -0.07728467 -0.050746724 0.11919838
0001d0 b5 d2 af bd 8d c1 93 3c 9b 64 cd 3c b0 e4 12 3d
       -0.08585111 0.018036628 0.025072386 0.035862625
0001e0 02 59 73 bb 4c de 48 bd 45 75 14 bd 55 49 d3 bd
       -0.003713191 -0.049040124 -0.03624465 -0.10316721
0001f0 3f 63 af bd 69 4c 98 3d cf 3c 5a b9 c1 c9 64 bc
       -0.085638516 0.07436449 -0.00020812753 -0.0139641175
000200 48 58 17 bd 71 68 ce bd 52 2f d8 bc 77 15 97 bc
       -0.036949426 -0.10078514 -0.026389752 -0.018442852
000210 7c c7 93 3c 0e 76 2b 3b d4 0f b6 39 16 de 88 bd
       0.018039457 0.0026162895 0.00034725538 -0.066829845
000220 09 04 92 3d 65 56 fa 3d 52 ad 85 3d 20 cf 89 3d
       0.07129676 0.1222351 0.06527199 0.06728959
000230 b4 68 29 bd 7c a0 e8 bc 44 7f 02 ba 74 a0 97 bc
       -0.04135962 -0.028396837 -0.00049780705 -0.018509127
000240 f9 77 bf 3d 5d 3b c2 bc 93 ac c7 3c aa 39 cf bc
       0.09349055 -0.023709947 0.024374282 -0.025296051
000250 62 1a 96 bd e9 c3 8f bd be e7 99 bd 1a b7 8f 3c
       -0.07329251 -0.07019789 -0.075149044 0.017543364
000260 6c 7d 81 3d 73 ee ec bc 9d a1 cd 3d 52 ac 5c bd
       0.063227504 -0.028922295 0.10040591 -0.053875275
000270 33 d7 87 3d 33 7a 08 bd b9 2a af 3d 03 9a b1 bd
       0.06632843 -0.033319663 0.085530706 -0.086719535
000280 77 fb 6d 3d d8 37 73 3d 6a 39 b7 3d b4 7b d8 3d
       0.058101144 0.05937943 0.08946498 0.105704695
000290 b1 cd b6 bd 3e 2a f5 3d af 6b b3 3d 4d ce be 3c
       -0.08925951 0.11970948 0.087607734 0.023291731
0002a0 e9 8d 4d 3d 53 b2 89 3d f6 85 e0 3d 48 d0 e2 3d
       0.050184164 0.06723466 0.10963051 0.11074883
0002b0 fa 23 b5 bd 86 24 59 bd 93 22 bd bc c8 41 33 bd
       -0.088447526 -0.053013347 -0.023087775 -0.043763906
0002c0 5a af 6d 3d c5 76 ed 3d e9 cf 41 ba 02 f0 65 3d
       0.058028556 0.11594919 -0.0007393347 0.056137092
0002d0 d7 32 c7 bb f6 87 cb bd e6 e8 8d 3d fc 80 a9 3d
       -0.0060790586 -0.09938042 0.069291875 0.08276555
0002e0 4a 0e 8f bc bd 93 c7 3c ea d8 be 3b cb e9 a8 bd
       -0.017462868 0.02436244 0.005824198 -0.082477175
0002f0 55 72 9a bd 2c d7 92 bd 24 18 82 bd 03 16 bb bd
       -0.07541338 -0.07169947 -0.06352261 -0.09135058
000300 c0 b8 ba bd 3c 14 fa bd dd 43 f5 3c 73 aa cf bd
       -0.091172695 -0.12210891 0.029939586 -0.101399325
000310 45 ce bd 3d 09 96 fa 3d 83 e2 34 bc b5 5b 4b bd
       0.092678584 0.12235648 -0.011040333 -0.049648006
000320 d8 90 e4 bd d7 fa c8 3d 3c 89 ff 3d 3a 3c 88 3d
       -0.11160439 0.09813469 0.12477347 0.06652112
000330 64 f4 d0 bd f7 b1 e2 bd d7 38 d3 bd 73 cd bc 3c
       -0.10202864 -0.110691 -0.10313576 0.023047185
000340 04 18 a1 bd f8 b3 54 3d 65 65 e5 3d 12 07 d7 bc
       -0.07865909 0.051929444 0.1120098 -0.026248489
000350 ac e4 f1 bc fb bd 14 bc 3a c0 17 bd 94 c9 a1 bd
       -0.029527985 -0.009078498 -0.037048556 -0.07899776
000360 42 ab 87 bd 2c bf a1 bc 97 0c a2 bd 4e ea c0 bd
       -0.06624462 -0.019744478 -0.079125576 -0.0941969
000370 6e 99 04 be 19 43 a4 3d 7d 93 9c 3d 57 d5 90 3d
       -0.12949154 0.0802061 0.07645319 0.07071941
000380 f9 ca 5c 3d 51 07 26 3d 92 d3 01 3d f0 cf cb 3d
       0.053904507 0.04053432 0.03169591 0.0995177
000390 b1 72 af 3d 8d 80 82 bc 0e a3 c4 3c e6 e3 f9 3d
       0.085667975 -0.015930438 0.024003532 0.12201671
0003a0 76 ef 61 bd 87 08 48 3b e9 48 63 bd aa 93 68 bd
       -0.05516001 0.003052266 -0.055489454 -0.05678145
0003b0 e9 9a 2e 3d fa c0 d1 3d 47 c7 c9 3d f6 eb 95 bd
       0.042628203 0.102418855 0.09852462 -0.073203966
0003c0 78 fb 15 bd 5e 9b 04 3e 00 2e b6 3d 7d a9 a7 bd
       -0.036616772 0.12949893 0.088954926 -0.08186624
0003d0 86 40 ea 3c 8f 36 01 3e 15 f7 7a bd bb 13 f7 3d
       0.02859522 0.12618469 -0.061270792 0.1206431
0003e0 a7 dc 01 be 95 e9 e9 bd 75 c7 67 3d 7b 57 e1 3d
       -0.12681828 -0.11421505 0.0565867 0.11003014
0003f0 a7 e0 ed 3d ee 87 5c bc 4f 9b ba bd 13 e4 86 3d
       0.11615115 -0.013460143 -0.09111654 0.065864705

bias f4 [32]
000000 cc c9 e3 bd 4b 55 7c bc 2f 47 ec 3c 4b 3b e3 3b
       -0.11122474 -0.015401195 0.028842537 0.0069345585
000010 8a 19 ce bd 02 2e 68 3c 5e 65 48 3c 9a 9c f7 3d
       -0.10063465 0.014171125 0.012231199 0.12090416
000020 e4 c2 07 bd d4 dc 0e 3e a7 20 68 3d 07 48 7f 3d
       -0.033144847 0.13951427 0.056671765 0.06232455
000030 ef 40 f7 bd 8c 01 8d bd 64 2b c1 3c 7b a8 88 bd
       -0.12072932 -0.06885061 0.02358026 -0.0667276
000040 d0 d1 c0 bd 91 54 c8 3c fc 95 83 bd 32 35 bf 3d
       -0.094150186 0.024454387 -0.064250916 0.09336318
000050 98 0b ae 3b 54 e7 db bd 9a f5 cd 3d 81 63 ac 3d
       0.0053114407 -0.10737482 0.100566104 0.08417416
000060 8a e3 84 bd 30 0c c6 3d 35 5b 79 bd 4c c6 7a bc
       -0.06488712 0.09670293 -0.060877997 -0.015306067
000070 52 71 47 bc 59 96 15 3d e2 a6 79 3c 8c 4e a7 bd
       -0.012173014 0.036520336 0.015237542 -0.081692785

weight f4 [7, 32]
000000 fc 17 0c be cc 2b 25 3d 38 f8 d0 bc 56 41 40 be
       -0.13681024 0.04032497 -0.025508985 -0.18774924
000010 7f 84 5d 3b 82 8f 4d 3e 33 56 a4 3c e1 bc c9 3d
       0.0033800898 0.20074275 0.020060634 0.09850479
000020 dc 2a 8a 3d 96 db 40 3e 49 0f c6 bd 9d 46 22 be
       0.06746456 0.18833765 -0.09670884 -0.1584725
000030 e8 a6 4a be 61 50 85 3d 20 cd ba 3d ab d0 9c bd
       -0.19790232 0.06509472 0.09121156 -0.07656988
000040 eb 79 e0 3d ce a0 ac 3c 37 80 99 3d 08 a3 10 3e
       0.10960754 0.021072771 0.07495158 0.14124691
000050 99 6f 08 3e fc c2 80 3d a6 15 36 3e b2 f2 5f be
       0.13323821 0.0628719 0.17781696 -0.21869925
000060 20 e0 ae bd b6 62 99 bc d1 76 0e be 00 b4 99 3c
       -0.08538842 -0.018723827 -0.13912512 0.018762589
000070 5e a0 93 bd 14 b7 50 bd 79 cf 3c 3e 3c 89 11 3d
       -0.07208322 -0.050955847 0.1843852 0.035531268
000080 a6 b0 3d bd c3 68 ca 3b b4 93 05 be 48 e8 cb 3d
       -0.046311043 0.0061770394 -0.13044626 0.099564135
000090 62 fe 24 3e 32 07 21 3e d3 a7 84 bd 69 15 22 3d
       0.16112664 0.15725401 -0.064773224 0.0395712
0000a0 35 c6 35 3e b4 17 1b 3e 7c 91 cd bc f8 33 f1 bd
       0.17751391 0.15145761 -0.025093786 -0.117774904
0000b0 6c 3c f3 bd 7a 8f a6 3c a5 b2 30 3e 12 3c 34 be
       -0.11876759 0.020332087 0.17255647 -0.1760104
0000c0 ff ad b2 bc 9a 52 9c 3c fd 59 40 bd 71 3f 19 be
       -0.021811483 0.019082356 -0.04696082 -0.14965607
0000d0 90 61 24 3e f1 5d 35 3d 43 8d 2a bd ac b8 1e be
       0.16052842 0.044279043 -0.041638624 -0.15500134
0000e0 ae 7b db 3c 09 8c da 3d 8b aa f0 bd 00 47 f8 bd
       0.026792374 0.10671241 -0.117512785 -0.12122917
0000f0 62 16 e8 3c 81 61 35 be fe 40 6b 3d 0e 92 e7 bd
       0.028330985 -0.17712976 0.05743503 -0.113071546
000100 e2 33 90 bd 85 40 1c 3e d9 8c 13 be 18 df c7 3d
       -0.07041146 0.15258987 -0.14409198 0.09759349
000110 12 5f f5 bd c0 26 0b bd 05 dc ae bc e6 37 30 3e
       -0.11981024 -0.0339725 -0.021345148 0.17208824
000120 cf 30 33 bd 07 2d 2a 3e c9 63 a2 bd d8 c1 f0 bd
       -0.04374772 0.16618739 -0.07929189 -0.11755723
000130 d1 ce 2c bd db dc c8 ba 69 11 13 3e 74 b5 a3 3d
       -0.042189423 -0.0015324609 0.1436211 0.07993594
000140 4d da af 3d 92 41 db 3d ea 44 9b 3c 30 43 8f bb
       0.085865594 0.10705866 0.01895376 -0.004372023
000150 36 36 8b 3d 40 d6 ca 3d 28 c3 9e 3b 41 bb 3b 3d
       0.06797449 0.09904146 0.004845042 0.045832876
000160 58 d5 66 3c dd 10 c8 3d ea 5e 8c bc b8 f0 87 3d
       0.014088951 0.097688414 -0.017135102 0.0663771
000170 d0 b3 c0 3d f3 dd b3 3d 7c 72 64 3d 49 7b 2a be
       0.094092965 0.08782568 0.055773243 -0.16648592
000180 94 fa 41 3e 26 58 04 bd 40 ed 08 3e 9d 1d ff 3d
       0.18943244 -0.032310627 0.13371754 0.1245682
000190 de 4d b5 3b 5b a5 0e 3e b0 86 17 3d 93 68 9d 3d
       0.005532964 0.13930266 0.036993682 0.076859616
0001a0 25 a2 07 3e 86 63 2e bd 7c 20 11 be d7 8f 0c 3d
       0.13245447 -0.04257538 -0.14172548 0.034316864
0001b0 3c 6d b6 3d 11 da 2b 3d c3 6f 28 be 54 cd 14 be
       0.089075536 0.04195601 -0.16448884 -0.14531451
0001c0 f6 03 da 3d 15 8c 21 be a4 99 07 be 44 93 6b bd
       0.10645287 -0.15776093 -0.13242203 -0.05751349
0001d0 eb 0c 82 bd c5 78 85 3d 55 6f 1b bd 69 da a7 3d
       -0.0635012 0.065171756 -0.03794797 0.08195955
0001e0 3e 47 d5 3d a6 3f ee 3d b2 0d 0b be cd 4a 9c 3d
       0.10413979 0.11633234 -0.13579443 0.076314546
0001f0 10 73 21 be 89 31 47 3d 61 7d 5b bd ce 6e 91 bd
       -0.15766549 0.048631225 -0.053586368 -0.071012124
000200 a1 e1 4b bc f6 73 17 be 53 a8 90 bc 41 2e 14 3d
       -0.012443931 -0.1479033 -0.017658388 0.036176924
000210 ad e3 c1 bd c3 d3 15 be 00 1b 8c bd 89 b4 24 be
       -0.09467254 -0.14631562 -0.06841087 -0.16084494
000220 a3 3f 11 be ab ff 31 be 43 08 b6 3d b9 61 ba 3d
       -0.14184432 -0.17382686 0.088882945 0.0910067
000230 f1 d7 e0 bc a8 0b bb 3d 81 71 37 be f4 a1 01 3e
       -0.027446719 0.09133083 -0.17914392 0.12659436
000240 51 e2 12 3d 45 a9 14 be b5 f1 09 be 51 68 04 3e
       0.035860363 -0.14517696 -0.1347111 0.12930419
000250 aa c1 f1 bb 10 d1 33 bd 34 ed 10 be 05 ce 28 bd
       -0.007377823 -0.04390055 -0.14152986 -0.0412121
000260 ce 77 14 bd 88 b3 04 3e 64 d6 c3 bd 4e 3a 19 3e
       -0.036247067 0.1295911 -0.09562376 0.14963648
000270 74 a4 d7 3d ad ae df bd 31 b1 28 be d0 81 e1 bd
       0.10529414 -0.10921989 -0.16473843 -0.11011088
000280 db ad 32 3e 6c 5d 15 3d 48 53 60 bd 41 7a 28 3d
       0.17449133 0.036466047 -0.054766923 0.041132215
000290 0a 13 ac 3d 9e 9d 07 3e 49 1d c8 3d b5 39 1f be
       0.08402069 0.1324372 0.09771211 -0.15549357
0002a0 91 40 29 be 31 9e 3c 3d 4e e6 bc 3d 7a bf f4 bd
       -0.16528536 0.0460493 0.09223615 -0.11950584
0002b0 85 57 05 bd 28 f4 6e bd 8a 2f dd 3c fc 75 2c 3c
       -0.03255417 -0.058338314 0.027000207 0.010526177
0002c0 69 60 36 3e 87 69 4d bc d8 f8 d7 bd 86 62 55 bd
       0.17810215 -0.012537367 -0.1054551 -0.052095912
0002d0 34 95 f2 bd 2b c6 fd bd 27 49 e0 bd de 11 1c 3b
       -0.118448645 -0.12391313 -0.10951453 0.002381436
0002e0 3c dc 1f 3e 57 0b 2a 3b ce 96 1c be 64 d5 3d 3d
       0.15611356 0.00259467 -0.15291902 0.046346083
0002f0 4f 51 e8 3d 4d 6c 6b bd 75 0f cd 3d e9 f9 db bd
       0.113436334 -0.05747633 0.10012714 -0.10741026
000300 1e b5 15 be 4e 0c 89 bd 65 dc 42 bd a5 5e 0d 3e
       -0.14619872 -0.066918 -0.047573466 0.13805635
000310 ca 2c dd 3d 70 b5 26 3e 31 05 93 3d 98 a5 1f be
       0.107995585 0.1628015 0.071787246 -0.15590513
000320 09 04 d8 bd c1 d8 6a 39 6c 85 24 bb 54 f5 a1 bd
       -0.10547645 0.00022396726 -0.002510394 -0.07908121
000330 e3 10 17 3e 3e 3c 08 be 3e 5d 9c bd 53 2d e3 bd
       0.14752536 -0.1330423 -0.07634972 -0.11092629
000340 bd 0d eb bd ff 2e 11 3e 84 cc fd 3d d3 1b c0 bd
       -0.1147723 0.14178084 0.12392524 -0.09380307
000350 6e 8c 6d 3d 8d f6 1d 3e ed ac b1 bd 5e a9 c8 3c
       0.057995252 0.15426083 -0.08675561 0.024494823
000360 8a 60 e0 bd 55 b1 1a 3e 38 78 6f bd 2c 37 e2 3c
       -0.10955913 0.1510671 -0.05846426 0.027614199
000370 c7 e8 cf bd 9f 6c a0 3d fa bf 97 3d d4 3c 82 bd
       -0.10151821 0.07833218 0.074096635 -0.06359258

bias f4 [7]
000000 2f a2 fc 3d 58 a4 06 be 07 14 42 bd a9 da a1 3d
       0.123356216 -0.1314863 -0.04738238 0.07903034
000010 24 c9 1e 3d 48 6a 62 be fe 9b 3a bd
       0.03876604 -0.22110856 -0.045558922
