experiements/starter_team/continuous_state/actor_critic/results/heuristics_ac/checkpoints/model_a0.pt (torch, 14879 bytes, 6 tensors)

weight f4 [64, 8]
-0.34934416 0.26272267 0.09980792 -0.0018962513 -0.24307899 -0.05708188 0.3326266 0.34047335
0.022354819 -0.121235564 -0.3365353 -0.1401897 0.3028043 -0.20417204 0.0106237205 -0.024558708
0.14187245 -0.27851087 -0.043739688 -0.30947736 0.12819682 0.1356393 -0.013331058 0.22825335
-0.16134803 -0.3373482 -0.0153481895 -0.30612394 -0.15718575 0.16510715 0.34379214 0.16278844
0.28412777 -0.19659771 0.34281105 -0.052927285 0.28722236 -0.3483396 -0.009591155 -0.3503595
-0.3157057 0.11302818 -0.3016266 0.030037383 -0.06268614 0.16000345 0.0040170853 0.2933846
0.30977637 0.1533987 0.3407305 0.10834871 -0.0030784872 -0.041386988 -0.27354398 -0.19941342
0.33608785 0.07826788 0.33124888 -0.19294576 -0.34579867 0.22344609 0.35416675 -0.07176551
-0.30449462 0.19625953 0.09292621 0.13839048 -0.14016049 -0.14190768 0.2803162 0.03469735
-0.27133545 -0.32799765 0.15865967 0.3342683 0.21354568 0.16231269 0.28588364 -0.18365525
0.3132143 -0.3294807 -0.17559126 -0.13213022 -0.09268472 0.16637686 0.088433184 0.0856558
0.0053041102 0.07096737 0.24164039 0.22577655 0.3087323 0.24777876 -0.042612527 -0.33869973
0.13323376 0.019242862 0.20520602 -0.293956 -0.06809215 -0.07971297 0.18462458 -0.26831535
0.20617262 -0.19554877 0.118226185 0.2393051 0.14867862 0.34294102 -0.07792404 -0.07717257
-0.16973013 0.051969122 -0.08799254 -0.1727927 -0.25675538 -0.2926633 -0.3445719 -0.009626251
-0.00824462 -0.068874694 -0.024325844 0.15491617 -0.32251742 0.29405 0.15639406 -0.16738777
-0.18045396 0.33494356 0.0475332 -0.27265662 0.32638308 -0.24621885 -0.22260857 -0.23567459
0.037855458 0.057606976 0.0806769 0.055126365 0.123643264 0.037348352 -0.11306714 -0.14285152
-0.1547137 0.34221894 -0.21214621 0.24920669 0.30604726 -0.040640578 0.09396107 0.08540063
-0.14785342 -0.096931234 0.045124944 0.08553025 -0.2939214 -0.14786406 -0.26101953 -0.3031523
-0.29679355 -0.22556618 -0.008919144 0.04471042 -0.1451478 -0.21574235 0.18457313 0.3001692
0.33595833 0.025039047 -0.30073318 -0.059129782 -0.067610525 -0.24948825 0.009346986 0.21809967
0.095346704 -0.2986537 -0.12963519 0.33398673 0.083043925 -0.091778755 0.23748596 0.27603483
0.1319245 0.23697811 -0.109086476 0.10199459 -0.07920829 0.22371781 0.2852447 -0.31741357
0.28911853 -0.15328293 -0.32751268 -0.34721795 -0.19858868 0.33021757 -0.1108417 0.2068071
-0.04034272 -0.34158742 -0.16201063 0.23774579 -0.34272292 0.043213297 -0.13564642 -0.04370956
-0.018220767 0.15930103 -0.15726496 0.35306948 -0.08259017 -0.21646036 0.25403532 -0.13967441
-0.049633518 0.18428198 0.09765578 0.3126247 -0.10116247 0.030598208 -0.21641189 -0.09768326
-0.13883297 -0.097239435 -0.12702426 0.09185994 -0.2585274 0.32379508 -0.2309235 0.08100732
-0.32876125 -0.038379405 -0.27634302 0.21905448 0.20246546 -0.057828132 -0.2342538 -0.026394144
0.057457566 0.24391547 -0.06422377 -0.010281386 0.2351749 -0.28322077 0.21830577 -0.20824301
0.22856183 -0.1474741 0.13611072 0.2090621 -0.06276715 -0.29499707 -0.032483626 0.00430932
00000000: 3ddd b2be 9683 863e 1868 cc3d a38b f8ba
00000010: b3e9 78be b0ce 69bd 094e aa3e 8652 ae3e
00000020: 7421 b73c 5a4a f8bd 5b4e acbe e48d 0fbe
00000030: 2a09 9b3e 7a12 51be 1d0f 2e3c 582f c9bc
00000040: 0347 113e fa98 8ebe 6328 33bd d173 9ebe
00000050: 0746 033e 07e5 0a3e 836a 5abc 3fbb 693e
00000060: 6b38 25be e7b8 acbe f976 7bbc 47bc 9cbe
00000070: 4df5 20be d911 293e 8605 b03e 03b2 263e
00000080: 3279 913e e950 49be ee84 af3e 48ca 58bd
00000090: cf0e 933e 9159 b2be 3824 1dbc 5262 b3be
000000a0: 2da4 a1be 527b e73d cd6e 9abe f510 f63c
000000b0: 9761 80bd f2d7 233e c1a1 833b 8236 963e
000000c0: 029b 9e3e 8c14 1d3e 3a74 ae3e eee5 dd3d
000000d0: 72c0 49bb 6785 29bd f50d 8cbe 0833 4cbe
000000e0: b513 ac3e e94a a03d 7499 a93e 9393 45be
000000f0: 860c b1be 0dcf 643e 5855 b53e ccf9 92bd
00000100: b8e6 9bbe 42f8 483e 1950 be3d 3cb6 0d3e
00000110: 3b86 0fbe 3f50 11be 9b85 8f3e cf1e 0e3d
00000120: 7bec 8abe 4fef a7be ae77 223e 3725 ab3e
00000130: b8ab 5a3e 4c35 263e 575f 923e 1f10 3cbe
00000140: a05d a03e b2b1 a8be 32ce 33be 254d 07be
00000150: 7dd1 bdbd b25e 2a3e 751c b53d 4f6c af3d
00000160: 1ace ad3b 5757 913d 9470 773e f831 673e
00000170: 2912 9e3e b7b9 7d3e 798a 2ebd 0d6a adbe
00000180: 6e6e 083e 35a3 9d3c 8721 523e 6781 96be
00000190: e673 8bbd 8e40 a3bd 3a0e 3d3e a160 89be
000001a0: ea1e 533e f03d 48be 9220 f23d 650c 753e
000001b0: 353f 183e f795 af3e a496 9fbd a70c 9ebd
000001c0: bccd 2dbe 93dd 543d 6f35 b4bd 92f0 30be
000001d0: 7175 83be f7d7 95be ba6b b0be 6cb7 1dbc
000001e0: 7114 07bc 2d0e 8dbd fe46 c7bc 58a2 1e3e
000001f0: 0121 a5be b98d 963e c425 203e b367 2bbe
00000200: ecc8 38be b97d ab3e 2cb2 423d a699 8bbe
00000210: af1b a73e cb20 7cbe 80f3 63be ae54 71be
00000220: 530e 1b3d 4bf5 6b3d ee39 a53d 2fcc 613d
00000230: ae38 fd3d 96fa 183d bf8f e7bd ab47 12be
00000240: 456d 1ebe 5237 af3e db3c 59be 0a30 7f3e
00000250: 3ab2 9c3e bc76 26bd a96e c03d 87e6 ae3d
00000260: e366 17be e283 c6bd efd4 383d 7c2a af3d
00000270: de7c 96be ad69 17be 5aa4 85be c736 9bbe
00000280: 53f5 97be d2fa 66be 9a21 12bc 4622 373d
00000290: a0a1 14be 90eb 5cbe bd00 3d3e c7af 993e
000002a0: bb02 ac3e b01e cd3c b3f9 99be 1232 72bd
000002b0: 6377 8abd d979 7fbe 1a24 193c 8555 5f3e
000002c0: 2245 c33d 23e9 98be 16bf 04be 4f00 ab3e
000002d0: ef12 aa3d 80f6 bbbd 852f 733e 7054 8d3e
000002e0: 3717 073e 64aa 723e bb68 dfbd 8ae2 d03d
000002f0: f537 a2bd 4816 653e 980b 923e 0884 a2be
00000300: 5807 943e 33f6 1cbe beaf a7be 8dc6 b1be
00000310: d55a 4bbe 4712 a93e f900 e3bd 3ec5 533e
00000320: 683e 25bd 8ce4 aebe 1de6 25be a273 733e
00000330: 6179 afbe 6d00 313d e5e6 0abe cc08 33bd
00000340: b843 95bc cf1f 233e 110a 21be 86c5 b43e
00000350: 0925 a9bd c9a7 5dbe eb10 823e cf06 0fbe
00000360: 844c 4bbd 6ab4 3c3e c1ff c73d 5810 a03e
00000370: 452e cfbd 18a9 fa3c 149b 5dbe 290e c8bd
00000380: 3b2a 0ebe 7825 c7bd a612 02be 1021 bc3d
00000390: b45d 84be 78c8 a53e 3677 6cbe 2ae7 a53d
000003a0: 6553 a8be b933 1dbd d57c 8dbe d14f 603e
000003b0: 1b53 4f3e 31dd 6cbd 3ae0 6fbe 8838 d8bc
000003c0: a058 6b3d fac4 793e c087 83bd 4273 28bc
000003d0: b0d1 703e 5002 91be 8c8b 5f3e a83d 55be
000003e0: 1d0c 6a3e 7303 17be 9c60 0b3e 6014 563e
000003f0: 108c 80bd db09 97be 8d0d 05bd 3235 8d3b

bias f4 [64]
0.1924141 -0.33855566 0.30025354 0.22577378 0.081596166 -0.0022085109 0.026299505 0.15683393
0.29756287 0.086219065 -0.0364119 -0.07920378 0.29531312 0.2080036 -0.30233473 0.30264828
-0.11538172 0.22962674 -0.15753405 -0.122216724 0.14923565 -0.25347263 -0.24081354 -0.10630704
0.2597459 -0.051104058 0.32956183 0.03353648 -0.18108472 0.079053566 -0.26066136 -0.25159162
0.34704196 -0.34066927 -0.27631372 -0.097405516 -0.31977805 -0.22556451 -0.21178892 -0.09864391
0.18264265 0.014795765 0.10350977 0.038613275 0.17945047 -0.3480414 0.24272658 -0.05879576
-0.01326557 -0.22705139 0.12145539 -0.29913238 0.20041409 -0.344191 -0.25874907 -0.2979768
-0.049128126 0.34734568 -0.21170025 -0.09931728 0.17333482 -0.04075462 -0.33954573 0.12926537
00000000: 3408 453e 2b57 adbe d5ba 993e 3e31 673e
00000010: e41b a73d aabc 10bb 0f72 d73c 1399 203e
00000020: 295a 983e 9f93 b03d a524 15bd 9735 a2bd
00000030: 4833 973e e5fe 543e 9ecb 9abe b7f4 9a3e
00000040: 404d ecbd 4623 6b3e 9b50 21be c34c fabd
00000050: 3bd1 183e 2ac7 81be d397 76be 81b7 d9bd
00000060: 6afd 843e 7d52 51bd 54bc a83e 8c5d 093d
00000070: 466e 39be d6e6 a13d 6875 85be 9ed0 80be
00000080: 7caf b13e 346c aebe fe78 8dbe 8b7c c7bd
00000090: f3b9 a3be 62fa 66be 32df 58be d105 cabd
000000a0: ad06 3b3e f069 723c eefc d33d f428 1e3d
000000b0: ddc1 373e 7b32 b2be 518d 783e d3d3 70bd
000000c0: d557 59bc 2980 68be 9abd f83d e127 99be
000000d0: 5a39 4d3e ce39 b0be c27a 84be 6a90 98be
000000e0: 933a 49bd 4bd7 b13e f3c7 58be dc66 cbbd
000000f0: af7e 313e 51ee 26bd f0d8 adbe 245e 043e

weight f4 [32, 64]
0.051696926 0.020630963 0.11715908 -0.109757155 -0.01878789 0.095496215 0.05829806 0.015186191
0.011210761 0.013675959 0.0014227759 -0.051139124 0.101135924 0.045951065 -0.00017053446 0.022600688
0.056659568 0.08370828 0.10058176 0.019444084 -0.08045323 -0.12417023 -0.078334846 -0.012980804
-0.05839087 0.074984305 -0.03411905 -0.024622805 0.056659155 -0.06797827 0.095507875 0.026166502
0.11518454 -0.03789974 0.0041585397 0.11386818 -0.051194485 0.0006919405 -0.00036945348 0.10845114
-0.113634214 0.06628565 0.082759835 0.028053313 -0.006916383 0.0038082344 0.104104586 0.001414001
0.084714785 0.12266388 -0.079698734 0.06801342 0.000550562 -0.024524508 -0.049756795 0.066714115
0.02812037 0.10429336 0.0274193 -0.08846379 -0.009906736 -0.112874225 -0.045455508 -0.07037844
0.0777105 0.00474261 -0.067926556 -0.011141253 0.009610895 0.057890788 -0.017932344 0.023181153
-0.06933003 0.052583948 0.039492544 -0.11660827 -0.043478318 -0.033324465 -0.0334378 0.04689304
-0.064567 -0.06749963 0.08932944 -0.03972163 0.0191333 0.09112195 -0.09334574 -0.10756779
-0.07306029 0.11735507 0.08893913 0.09108583 0.041971825 0.028710581 0.073591664 -0.08995502
6.67174e-05 -0.1065792 -0.1126528 0.06270428 0.024142057 -0.033537753 0.017805077 -0.07577762
-0.10334914 0.113370635 0.042684406 0.09216191 0.052858092 -0.091466725 0.0914794 -0.074070714
-0.116276845 -0.03190664 -0.11315376 0.09927469 0.089634545 -0.057117477 0.11468719 -0.10597878
-0.075642504 -0.0069317073 -0.08683472 0.09031923 -0.10566521 0.058374528 -0.046258654 -0.1060537
0.023294838 -0.020297116 0.063772194 -0.017358398 -0.103004016 -0.047569387 0.11014993 0.12149258
0.002252244 0.09513605 -0.018893812 0.06400804 -0.07614429 -0.10156896 -0.06859381 -0.12781185
0.073695764 -0.0979035 0.035813726 -0.023280248 0.0055728825 0.11291116 0.05948386 0.0024860476
0.03444619 -0.114385635 -0.05680864 0.036547694 0.030614981 -0.05886939 0.04883281 0.092219
0.0028504874 0.046282385 -0.08034918 -0.05537981 0.0061185644 -0.026237706 0.068458244 0.062358953
-0.08256594 -0.07396928 0.021904657 -0.06284756 -0.02358118 -0.032868057 0.12386278 0.06636515
-0.1029141 0.033885323 0.1226358 0.021321138 0.12031471 -0.02546192 0.0024956155 -0.10033029
-0.049928162 0.036143843 0.03835546 0.093655534 0.0160328 -0.1205444 0.009060779 -0.017325057
-0.055187467 0.124677606 -0.041798107 -0.074839115 -0.10643606 -0.10410059 -0.11073572 -0.09545516
-0.05008134 -0.065117225 0.062221035 -0.082895994 -0.023504876 0.09958685 -0.095870234 -0.1162262
-0.089897186 0.05722697 -0.018498601 -0.121626 0.10194407 -0.07383968 -0.021710955 -0.11326917
-0.07864257 0.005312089 0.075335935 0.031305034 -0.037605714 -0.07028972 0.040943485 0.005591292
-0.03252303 0.042707033 -0.12004616 0.021818517 -0.041574936 -0.045541674 0.036982086 0.07529173
0.02612854 0.09787955 0.04536644 -0.013439963 0.005505559 -0.119634435 0.12087298 0.08464683
-0.022101797 0.034308113 -0.09865119 -0.096085414 -0.06977413 0.065811194 0.03458054 0.11415108
-0.061059345 0.047665548 -0.0873509 0.08017505 -0.11790647 0.081101894 -0.11025423 -0.07849254
00000000: 28c0 533d 4402 a93c 1af1 ef3d 5cc8 e0bd
00000010: 10e9 99bc 8593 c33d f2c9 6e3d 80cf 783c
00000020: 57ad 373c 2111 603c 707c ba3a 4277 51bd
00000030: 5a20 cf3d 2f37 3c3d 7fd1 32b9 1425 b93c
00000040: dd13 683d 3f6f ab3d cffd cd3d 3349 9f3c
00000050: aac4 a4bd f64c febd 056e a0bd 70ad 54bc
00000060: 442b 6fbd 5f91 993d 6bc0 0bbd c4b5 c9bc
00000070: 6e13 683d 3138 8bbd a299 c33d 225b d63c
00000080: dfe5 eb3d c23c 1bbd 5c44 883b b833 e93d
00000090: 4fb1 51bd 5763 353a 35b3 c1b9 a21b de3d
000000a0: 0eb9 e8bd c5c0 873d fd7d a93d 10d0 e53c
000000b0: d3a2 e2bb 9293 793b c934 d53d 0056 b93a
000000c0: f27e ad3d 3337 fb3d 1739 a3bd 9f4a 8b3d
000000d0: 9753 103a 9fe7 c8bc c8cd 4bbd 69a1 883d
000000e0: b15c e63c c297 d53d 719e e03c 812c b5bd
000000f0: dd4f 22bc 9a2a e7bd 8e2f 3abd 9222 90bd
00000100: af26 9f3d e567 9b3b 141d 8bbd cd89 36bc
00000110: 0477 1d3c e41e 6d3d dae6 92bc 67e6 bd3c
00000120: e7fc 8dbd 4462 573d efc2 213d 51d0 eebd
00000130: 5216 32bd 3c7f 08bd 13f6 08bd eb12 403d
00000140: b43b 84bd 3f3d 8abd 5af2 b63d 26b3 22bd
00000150: 70bd 9c3c 259e ba3d 0d2c bfbd 804c dcbd
00000160: a2a0 95bd db57 f03d b825 b63d 358b ba3d
00000170: a6ea 2b3d 7432 eb3c 3ab7 963d 563a b8bd
00000180: a2ea 8b38 3246 dabd 83b6 e6bd 1a6b 803d
00000190: 90c5 c53c e25e 09bd f4db 913c 4c31 9bbd
000001a0: b7a8 d3bd dd2e e83d d8d5 2e3d 62bf bc3d
000001b0: ba81 583d e852 bbbd 8d59 bb3d 63b2 97bd
000001c0: 8e22 eebd 89b0 02bd 29bd e7bd 8750 cb3d
000001d0: 5192 b73d 04f4 69bd 1ee1 ea3d 670b d9bd
000001e0: 75ea 9abd 6023 e3bb 67d6 b1bd 4af9 b83d
000001f0: 0067 d8bd 211a 6f3d b779 3dbd af32 d9bd
00000200: d1d4 be3c 2346 a6bc ff9a 823d 3333 8ebc
00000210: c5f3 d2bd 1ed8 42bd 4996 e13d 1ad1 f83d
00000220: 629a 133b b0d6 c23d 32c7 9abc a616 833d
00000230: 8af1 9bbd 6303 d0bd e97a 8cbd 1ce1 02be
00000240: ceed 963d a181 c8bd 6ab1 123d 38b6 bebc
00000250: ba9c b63b f73d e73d 59a5 733d f5ec 223b
00000260: 7317 0d3d 0443 eabd 2db0 68bd 09b3 153d
00000270: 45cc fa3c 0821 71bd ea04 483d 51dd bc3d
00000280: 3ecf 3a3b 9992 3d3d 1c8e a4bd f1d5 62bd
00000290: 3d7e c83b 75f0 d6bc d633 8c3d 1a6c 7f3d
000002a0: 5518 a9bd 357d 97bd 6571 b33c 39b6 80bd
000002b0: 522d c1bc a8a0 06bd c5ab fd3d 74ea 873d
000002c0: a1c4 d2bd 56cb 0a3d 7a28 fb3d aba9 ae3c
000002d0: 8f67 f63d 8495 d0bc 7b8d 233b f879 cdbd
000002e0: 7981 4cbd 910b 143d 9d1a 1d3d 79ce bf3d
000002f0: 3857 833c fbdf f6bd a973 143c 47ed 8dbc
00000300: 410c 62bd f956 ff3d 7e34 2bbd 4045 99bd
00000310: 26fb d9bd b132 d5bd 69c9 e2bd ff7d c3bd
00000320: 1722 4dbd 2e5c 85bd 7cdb 7e3d 60c5 a9bd
00000330: 4c8d c0bc 31f4 cb3d 9d57 c4bd 0008 eebd
00000340: 041c b8bd d466 6a3d 618a 97bc 0d17 f9bd
00000350: 0dc8 d03d 4239 97bd 2cdb b1bc abf9 e7bd
00000360: 5b0f a1bd 0811 ae3b ba49 9a3d b539 003d
00000370: 7308 1abd 0ff4 8fbd 5bb4 273d 2837 b73b
00000380: de36 05bd 92ed 2e3d c3da f5bd bfbc b23c
00000390: 7b4a 2abd e889 3abd 877a 173d 8d32 9a3d
000003a0: 850b d63c 1375 c83d 29d2 393d 4a33 5cbc
000003b0: fa67 b43b e602 f5bd 418c f73d 515b ad3d
000003c0: d40e b5bc aa86 0c3d a309 cabd 6ec8 c4bd
000003d0: bde5 8ebd 05c8 863d 53a4 0d3d 0bc8 e93d
000003e0: 5d19 7abd f33c 433d 07e5 b2bd d132 a43d
000003f0: f378 f1bd c018 a63d f8cc e1bd b2c0 a0bd

bias f4 [32]
0.016550945 0.023858387 -0.04750926 -0.10862229 -0.07067312 -0.056650277 -0.02248727 -0.052983407
0.11846844 0.06912752 0.038175106 0.061654586 -0.043181226 -0.059094902 -0.08641934 -0.10980056
-0.072270654 -0.027767193 -0.07330792 0.05657442 0.12115205 0.061615426 -0.011990461 -0.010708744
0.063074626 0.053277653 0.09582464 0.08445856 -0.122147225 0.08866849 0.03856304 -0.023319108
00000000: d995 873c aa72 c33c 1299 42bd 5d75 debd
00000010: 12bd 90bd 1f0a 68bd 3937 b8bc 2105 59bd
00000020: 959f f23d bb92 8d3d 805d 1c3d 8589 7c3d
00000030: ccde 30bd 7f0d 72bd 9ffc b0bd 1edf e0bd
00000040: a302 94bd 0678 e3bc 7622 96bd 94ba 673d
00000050: 911e f83d 7560 7c3d a373 44bc ba73 2fbc
00000060: 452d 813d ab39 5a3d b53f c43d 9cf8 ac3d
00000070: 5328 fabd d397 b53d 47f4 1d3d b707 bfbc

weight f4 [7, 32]
0.14500017 0.07477924 0.06374167 0.100034036 0.0596069 0.12935188 0.15679277 0.058682874
0.17522347 -0.17334376 -0.10287125 -0.034151394 0.08378672 -0.16873114 0.13464214 -0.030960564
0.006692696 0.013181828 -0.13004783 0.1481932 0.06455571 -0.041530184 -0.059239883 -0.11000281
0.095873274 0.112513006 0.09720687 0.11028202 -0.052960493 0.019400503 0.1394901 0.023197427
0.06903919 -0.0046397448 -0.019750673 0.06619481 -0.059988875 0.11022589 -0.05273131 0.15438582
-0.08224498 -0.041906536 0.15782276 0.14210683 -0.022147816 -0.101654 -0.15397671 -0.097892255
0.16385959 0.043075293 0.02244468 0.14352174 0.054983716 -0.030746045 -0.14337525 -0.17462556
0.106850974 0.082434334 -0.084496655 0.15095167 -0.13919136 -0.084611446 -0.012943631 0.11300481
0.007501603 -0.08830147 0.03437531 0.03175085 0.15331222 -0.088208534 -0.13474683 0.12750748
0.10792915 -0.0756091 0.0037365202 -0.1548187 0.022194361 -0.09666596 0.0023710758 0.07868866
0.16947865 0.17060253 -0.05363628 0.0689539 0.14149964 0.095042534 0.032416325 0.13046779
-0.115068294 -0.10526441 0.1689001 0.12090178 0.093163505 0.12907892 0.16142602 -0.12639768
0.1220328 -0.17359674 0.078016765 -0.07423543 -0.17968976 0.033127908 -0.07997786 0.10024298
0.021350179 0.12702143 -0.034151305 0.049825024 -0.1463001 0.022647232 0.020625336 0.0004441549
-0.08025785 0.10732335 0.14931634 0.10379611 -0.043999933 0.031680882 -0.17246884 0.04988897
0.1368118 0.13319433 -0.043533616 0.12873238 -0.07832378 -0.15926337 -0.08437283 -0.13409288
0.013674851 0.10138336 0.17008448 0.13807575 -0.13620873 -0.16636877 -0.14238736 -0.14404023
0.16189142 -0.11585814 0.13811429 -0.064349994 0.06252984 0.06905669 -0.0629927 0.014019813
0.06852173 -0.05398053 0.05336312 -0.08911921 0.16441315 -0.031135794 0.11467876 0.048388693
0.09532716 -0.018327748 0.15868925 -0.05485821 -0.1053966 -0.10337395 -0.095974885 -0.0023690835
0.1641657 -0.07446257 -0.02406494 0.15556087 -0.115956925 0.08894738 0.065424345 -0.10947389
0.02297102 0.0073852083 -0.059463467 -0.16022682 0.08684352 -0.07847243 0.109445825 0.15103872
-0.0667465 0.12894642 -0.09048512 -0.11877345 -0.10587447 -0.13872084 -0.16661304 -0.16704826
0.12301536 -0.1695919 -0.0021888083 0.053602725 0.049351852 -0.109295 0.13864034 -0.16199903
-0.14896445 0.16384806 -0.028534379 -0.12590143 0.040991865 0.1077513 0.10805509 -0.054968566
-0.16937672 0.11187065 -0.031348046 0.13112696 0.116191484 -0.0053730505 0.07750935 -0.026823573
-0.07738404 -0.015275571 0.12434056 0.103898175 -0.063014984 0.04569719 0.13927765 0.15342514
0.15150255 0.09339348 -0.081820354 -0.17067088 0.0040598977 -0.103535086 -0.14655285 -0.10081229
00000000: ed7a 143e dc25 993d fe8a 823d a5de cc3d
00000010: 5d26 743d d274 043e 498e 203e 745d 703d
00000020: c86d 333e 0781 31be 29ae d2bd 55e2 0bbd
00000030: 5f98 ab3d dbc7 2cbe a1df 093e 02a1 fdbc
00000040: 674e db3b 98f8 573c 422b 05be f5bf 173e
00000050: c935 843d 8e1b 2abd 85a5 72bd 2749 e1bd
00000060: 3559 c43d 386d e63d 6514 c73d 8adb e13d
00000070: 1aed 58bd ceed 9e3c 7ed6 0e3e 8808 be3c
00000080: 6b64 8d3d 0009 98bb 2acc a1bc 2591 873d
00000090: e5b6 75bd 1dbe e13d c9fc 57bd 5117 1e3e
000000a0: 0e70 a8bd 30a6 2bbd 4a9c 213e 7484 113e
000000b0: 566f b5bc f92f d0bd 12ac 1dbe bc7b c8bd
000000c0: cfca 273e b86f 303d e8dd b73c 5df7 123e
000000d0: 9b36 613d 21df fbbc f6d0 12be 0bd1 32be
000000e0: afd4 da3d 55d3 a83d 950c adbd 1393 1a3e
000000f0: 2e88 0ebe c448 adbd 8611 54bc 116f e73d
00000100: 02d0 f53b 67d7 b4bd 20cd 0c3d 2e0d 023d
00000110: e1fd 1c3e ada6 b4bd 13fb 09be 5291 023e
00000120: f509 dd3d f2d8 9abd 68e0 743b cb88 1ebe
00000130: f3d0 b53c cef8 c5bd 0d64 1b3b 8527 a13d
00000140: d08b 2d3e 6eb2 2e3e b7b1 5bbd b437 8d3d
00000150: 48e5 103e a9a5 c23d fbc6 043d 5999 053e
00000160: eda8 ebbd de94 d7bd 26f4 2c3e 5a9b f73d
00000170: 82cc be3d 442d 043e dd4c 253e 656e 01be
00000180: 55ec f93d 58c3 31be 41c7 9f3d bf08 98bd
00000190: 9800 38be 21b1 073d 6fcb a3bd 314c cd3d
000001a0: 92e6 ae3c e811 023e 3de2 0bbd 5315 4c3d
000001b0: b2cf 15be b086 b93c 77f6 a83c 76dd e839
000001c0: 3a5e a4bd 58cc db3d 62e6 183e 0e93 d43d
000001d0: 4639 34bd d0c3 013d ac9b 30be 6058 4c3d
000001e0: 6418 0c3e 1864 083e 4e50 32bd 6cd2 033e
000001f0: 3868 a0bd f015 23be aacb acbd a54f 09be
00000200: 7b0c 603c 14a2 cf3d a02a 2e3e bb63 0d3e
00000210: 4d7a 0bbe 935c 2abe fecd 11be 487f 13be
00000220: ddc6 253e 0847 edbd d56d 0d3e eec9 83bd
00000230: a50f 803d 986d 8d3d 5102 81bd 5cb3 653c
00000240: 1f55 8c3d b01a 5dbd 4993 5a3d 2284 b6bd
00000250: ec5b 283e 7e10 ffbc b3dc ea3d 3933 463d
00000260: e33a c33d 1324 96bc 6f7f 223e 01b3 60bd
00000270: 2cda d7bd b9b5 d3bd 7b8e c4bd a042 1bbb
00000280: 0e1b 283e d57f 98bd d623 c5bc 594b 1f3e
00000290: d37a edbd 0b2a b63d 33fd 853d d933 e0bd
000002a0: b82d bc3c 9eff f13b f78f 73bd 8012 24be
000002b0: 04db b13d 27b6 a0bd 2225 e03d e5a9 1a3e
000002c0: 64b2 88bd 880a 043e 4350 b9bd 7f3f f3bd
000002d0: b7d4 d8bd d60c 0ebe 9c9c 2abe b30e 2bbe
000002e0: 7aef fb3d 80a9 2dbe 1c72 0fbb 888e 5b3d
000002f0: 2b25 4a3d 0fd6 dfbd bcf7 0d3e 13e3 25be
00000300: 238a 18be c9c7 273e eec0 e9bc 4eec 00be
00000310: 16e7 273d b7ac dc3d fd4b dd3d b826 61bd
00000320: 1771 2dbe 701c e53d cf66 00bd 2546 063e
00000330: cdf5 ed3d 6a10 b0bb 39bd 9e3d 1cbd dbbc
00000340: 867b 9ebd 6346 7abc 43a6 fe3d 91c8 d43d
00000350: 000e 81bd fa2c 3b3d cd9e 0e3e 7b1b 1d3e
00000360: 7c23 1b3e 1545 bf3d 6e91 a7bd 59c4 2ebe
00000370: e408 853b 340a d4bd f311 16be ad76 cebd

bias f4 [7]
-0.0159141 0.20505899 -0.111998335 -0.06581502 -0.14506349 -0.11230371 -0.027539767
00000000: 495e 82bc fcfa 513e 625f e5bd 06ca 86bd
00000010: 868b 14be 7dff e5bd 149b e1bc
