experiements/starter_team/continuous_state/actor_critic/results/heuristics_ac/checkpoints/model_c2000.pt (torch, 14135 bytes, 5 tensors)

weight f4 [64, 8]
000000 b7 3d 8c bb da d4 88 be 8e 29 be bd c1 d0 97 3e
       -0.004279818 -0.26724893 -0.0928527 0.29651454
000010 13 d4 22 3d 48 d1 7c 3e 14 6e a0 3e 22 d8 79 3e
       0.03975303 0.2468921 0.31333983 0.24398854
000020 6b f1 af be 89 03 b8 3d d8 d7 b8 be a0 70 23 3d
       -0.34363875 0.08985049 -0.36102176 0.03990233
000030 c1 d8 3a 3e ff a2 37 3e 9d ff 06 bd 6a 24 9a 3e
       0.18246748 0.17933272 -0.032958616 0.30105907
000040 f6 54 9c be a9 5c 81 be 37 e1 6c 3e 62 59 a4 be
       -0.3053357 -0.25266007 0.23132788 -0.32099444
000050 f4 d5 b0 3d c9 fd 47 be b6 9e 2a 3e 62 d9 f2 3d
       0.08634558 -0.19530405 0.16662106 0.11857869
000060 a0 f1 5a 3e c2 42 c5 bd 95 55 23 3e b0 6a 87 bc
       0.21381235 -0.09631874 0.15950616 -0.016530365
000070 35 a6 bf 3d 8d 45 0e be 92 88 44 be f1 8c f7 bd
       0.09357873 -0.13893719 -0.19192722 -0.12087429
000080 29 3c 41 3e f1 ee 50 be a4 fa bf 3e d2 ce ce 3d
       0.18870606 -0.20403649 0.3749591 0.100980416
000090 0f 52 83 be 93 19 1c be 70 22 7f 3e eb 5f 93 bd
       -0.25648543 -0.15244131 0.2491548 -0.07196029
0000a0 56 ce 9a be 89 0d 03 3e 85 7f 9a be bb 7d 8d be
       -0.30235547 0.12798132 -0.30175415 -0.27634987
0000b0 17 15 79 3d 8c 2a 87 3e a2 74 97 be d8 dd 16 be
       0.06081113 0.26399648 -0.2958117 -0.14733064
0000c0 54 f7 8d 3e a6 dd 95 3e 87 7a 53 3e be f6 b2 bd
       0.2772776 0.29270667 0.20652209 -0.087384686
0000d0 36 b2 dc 3d 93 b2 1e 3e c0 83 8b 3e 71 71 8e be
       0.107761785 0.15497808 0.27248955 -0.27820924
0000e0 9c a7 05 bc d1 8e 4d be 19 0a 83 3e ce 75 99 3e
       -0.008157637 -0.20074011 0.2559364 0.2997269
0000f0 9a a4 0c 3e c3 c0 d4 bc e4 72 2d bd 1b 16 9b bd
       0.13734666 -0.025970822 -0.042345896 -0.07572576
000100 a9 69 1b be 0b 04 b0 be 2a dd 12 3e bb 02 26 be
       -0.15177025 -0.34378085 0.1434218 -0.16211979
000110 63 cf 9e be 7a 6e 19 3e ce 53 fe bd e1 27 8f be
       -0.31017599 0.1498355 -0.12418328 -0.27960113
000120 1c 16 21 bd 12 6d 42 3e 43 ff 16 bd b0 27 4e bd
       -0.039327726 0.1898692 -0.03686453 -0.050330818
000130 c1 cb 6b 3d f2 ad 60 be 28 26 80 be 43 06 b4 be
       0.05756736 -0.21941355 -0.2502911 -0.35161027
000140 c6 dc 40 3d a0 23 db 3d f9 c7 1d bd 1e f0 5c 3d
       0.047085546 0.10700154 -0.038520787 0.05393993
000150 7a 26 71 bd 25 98 d7 3d ae 9e a5 bd 69 90 a4 be
       -0.058874585 0.10527066 -0.080869064 -0.32141426
000160 a6 f3 bc 3e 65 b6 99 be 31 01 13 bd 17 30 ce 3d
       0.3690464 -0.30021968 -0.035889808 0.10067766
000170 02 2e 35 3e bd 2a aa bc f3 36 0b be 4e 8e 8c 3d
       0.17693332 -0.020772332 -0.1359518 0.0686308
000180 a1 1c 45 bd 0d 06 7f be 3a 38 3a bd 9e 82 cb be
       -0.048123006 -0.24904652 -0.045463778 -0.3974809
000190 c7 c2 91 bd af 82 00 3e 43 51 72 be 1b f9 15 3e
       -0.07117229 0.12549852 -0.23663811 0.14645807
0001a0 43 22 b2 be 21 ec 99 3e 1c bd 70 be 4a 14 48 be
       -0.34791765 0.30062965 -0.2350964 -0.1953899
0001b0 49 6c 8f 3d 72 bb 4e be a0 d0 b2 bb 7c 5d 2a be
       0.07003076 -0.20188692 -0.005456999 -0.16637224
0001c0 75 ea a3 3e e0 bb ad bd b1 a2 d7 3d 29 f7 ed bd
       0.32014814 -0.084831 0.10529078 -0.11619408
0001d0 ae 1f 83 be 3d 95 b3 be 3d 01 b1 3c 92 e7 a5 3e
       -0.25610107 -0.35074797 0.021607036 0.32403237
0001e0 c3 d9 34 39 a3 10 17 3c 64 50 8a 3d 53 f6 5e be
       0.0001724726 0.009220275 0.067536145 -0.21773653
0001f0 99 b8 28 3e 3c f8 9b 3e 29 52 09 3e 48 58 9d 3d
       0.16476668 0.30462825 0.13410248 0.07682854
000200 ea fa 5a be 7c 8e 0b be 90 04 eb 3d 2d 76 66 3e
       -0.21384779 -0.13628572 0.114754796 0.22506018
000210 1a bb 99 bc c7 4c af 3c 78 42 74 3e c4 d2 fc bd
       -0.018765975 0.021398915 0.23853481 -0.12344888
000220 e0 2e a1 3e 72 f6 90 bd f4 ea 43 be 09 1c 9f be
       0.31481075 -0.07078256 -0.19132596 -0.31076077
000230 57 73 64 3e 3a 0b 04 be bf 7d ac be 6f 96 52 3e
       0.22309624 -0.12894908 -0.33689687 0.20565198
000240 b8 4d fa 3d 66 29 b2 bd 50 6b c6 be 46 56 97 3d
       0.12221855 -0.086993024 -0.38753748 0.07389502
000250 64 25 a0 3e 28 f9 f0 3d 4a d4 b2 3e ad f4 74 3e
       0.31278527 0.11766273 0.3492759 0.23921461
000260 1f bb db bd 68 95 a5 3d de ec 97 bd 05 8f 0f 3e
       -0.1072905 0.080851376 -0.07418226 0.14019401
000270 96 0a 93 3e 56 ac 89 3e 11 81 0d 3e ca 9a 03 3e
       0.28719014 0.26889294 0.13818766 0.12852016
000280 09 91 ac be c5 91 af 3e d9 da 9c bc f6 33 02 be
       -0.33704403 0.342909 -0.019147323 -0.12715134
000290 df 05 58 3e 7a f8 9d 3e 2a 99 89 3e c8 b5 83 be
       0.2109599 0.30853635 0.26874667 -0.25724626
0002a0 8b dd 28 3e c5 ff a2 bd ac 29 b8 3c 4b 50 ab 3b
       0.16490762 -0.079589404 0.022480808 0.0052280775
0002b0 3f 46 8a be a1 67 2f 3e 01 2c 63 3e 23 10 47 3e
       -0.2700672 0.17129375 0.22184755 0.1943975
0002c0 1b 90 67 3e 15 67 50 3d 49 18 68 bc 3c c8 64 be
       0.22613566 0.050879557 -0.014165946 -0.22342008
0002d0 d4 d0 85 3e 86 16 90 3e 13 af 54 3d bb b4 8a 3e
       0.26135886 0.28142184 0.051924776 0.2709101
0002e0 5c a4 69 be cb f2 08 be 55 8b 8d be 72 21 90 3e
       -0.22816604 -0.13373868 -0.27645364 0.28150517
0002f0 9a 98 ab 3e ea 09 88 be 5a c8 b1 3e c1 41 db bd
       0.33514863 -0.26570064 0.3472317 -0.10705901
000300 63 98 14 be d7 00 5c 3c e0 c9 28 3e 7a f9 cf 3e
       -0.14511256 0.013427935 0.16483259 0.40620023
000310 8c b4 78 be b4 b2 72 3e 5f 30 f1 bd 48 d9 97 be
       -0.24287623 0.23700982 -0.11776804 -0.2965796
000320 17 a3 6c 3e 34 e7 65 be 99 28 be 3d 02 ec 81 be
       0.23109089 -0.22451478 0.09285087 -0.25375372
000330 b6 32 7d 3e 65 13 ad bd 16 16 ac be 5a bb a1 be
       0.24726376 -0.08450965 -0.336106 -0.3158825
000340 80 67 3f be 77 33 a6 bd 5b 9b b8 be 3a e4 34 3e
       -0.18691826 -0.08115285 -0.36056027 0.17665187
000350 11 34 b5 be 1d b3 4b 3e 39 de 99 3e d1 af 34 be
       -0.35391286 0.19892545 0.30052355 -0.17645194
000360 31 5d 28 3e e0 a7 44 3e d8 8a 5d 3e 34 25 6f be
       0.164418 0.19204664 0.21634996 -0.23354036
000370 b0 90 24 be ac 6f 43 bd a1 3d 9e 3e 8f 02 b2 be
       -0.16070819 -0.04771392 0.30906394 -0.34767577
000380 2d 00 d7 3d 8e d1 5b 3e c8 f2 88 3d 6c 07 ac be
       0.104980804 0.21466658 0.06686932 -0.33599412
000390 77 97 ab 3e 19 c9 4c 3e c6 0e 34 be 54 1d 3c be
       0.33513996 0.19998588 -0.1758376 -0.18370563
0003a0 a5 b6 82 3e aa f1 d5 bd c1 72 20 3e ae fe 31 3e
       0.25529972 -0.104464844 0.15668775 0.17382309
0003b0 c8 d6 41 be 57 fe a0 3e 2e be 07 3e dc 57 f1 3c
       -0.18929589 0.31444046 0.13256142 0.02946084
0003c0 cf 7f e7 bd fd 0b c7 3d 03 0d 42 3d 45 d5 b3 3d
       -0.113036744 0.097190835 0.04737569 0.08780912
0003d0 a2 dc c9 be 68 3f 12 be 30 5c 2f 3e de 6a 9e bd
       -0.39426142 -0.14282 0.1712501 -0.07735227
0003e0 84 92 9f be fa 20 87 be ac a1 8b be 2f f4 0b be
       -0.3116647 -0.26392347 -0.27271783 -0.13667367
0003f0 14 c5 38 3e 39 25 f6 bd fa 24 12 be 42 b1 8b be
       0.1804393 -0.120188184 -0.14271918 -0.27283674

bias f4 [64]
000000 d4 4c 20 be 04 1e 96 be dc 79 aa be 15 ff 73 bb
       -0.15654308 -0.29319775 -0.33296096 -0.0037230898
000010 b9 2d 85 3e 64 2e 15 be 8a df dd 3d 3e 3f 12 3d
       0.26011446 -0.14568478 0.10833652 0.035704844
000020 8f f2 8a be 9e 5f b6 3e c2 6e 51 be 64 bf 39 be
       -0.27138183 0.35619825 -0.20452407 -0.18139416
000030 7f 64 cd 3e f4 bc 92 be 99 ae ae 3e f6 1d 68 3e
       0.40115735 -0.28659785 0.34117582 0.22667679
000040 5d 5a 98 be 2a 58 90 3e ab 77 d6 3d 65 4c e2 be
       -0.29756442 0.28192264 0.104720436 -0.4419891
000050 68 ba 5e bc 43 be b1 3e 71 bf 8f be 3b 62 8f 3e
       -0.013594247 0.3471547 -0.28075746 0.2800463
000060 9a 8b ea bc e7 16 53 be ae 6a 89 3e 35 9b 47 bd
       -0.02863102 -0.20614205 0.26839203 -0.048732
000070 cf a2 31 3d 73 d4 70 3e 9f 90 b1 3c 6b f0 a5 be
       0.043368157 0.23518543 0.021675406 -0.32409987
000080 bd 01 a3 3c ac 91 b4 3e 40 44 90 be b6 6b c2 3c
       0.01989829 0.3526739 -0.2817707 0.023733001
000090 d4 be 95 be 75 8b 51 bc 13 fa 70 bd 06 98 9f 3e
       -0.29247153 -0.012789597 -0.05883224 0.31170672
0000a0 fe cf 9c 3e a3 b3 30 3e 7d 6e a5 3e 40 ad 76 3b
       0.30627435 0.17256026 0.32310858 0.0037639886
0000b0 e5 f9 65 3d 15 89 de 3d 1e 25 55 3e 10 da ec 3e
       0.05614652 0.1086599 0.2081494 0.46260118
0000c0 54 c3 2a 3e 06 59 4c 3e 01 8c 7b 3e 0f 5b 89 3e
       0.16676074 0.19955835 0.24565126 0.26827285
0000d0 d7 36 9f be b1 6f da 3d 61 67 87 be 4d 79 0a 3c
       -0.31096527 0.10665835 -0.2644606 0.008451772
0000e0 a4 a2 63 3d 0d 35 2a bd 42 54 eb 3d d3 da 1c 3d
       0.055575028 -0.0415545 0.1149068 0.038294625
0000f0 92 38 a8 be e6 8e e1 bd f3 55 33 3c 40 e4 ac bd
       -0.3285566 -0.11013584 0.010945785 -0.08441973

weight f4 [32, 64]
000000 80 7e 49 3d 77 1f 3f 3d 2e fa db 3d 41 99 b1 bd
       0.049192905 0.046660867 0.10741077 -0.08671809
000010 3a 90 07 3e e5 84 68 bd bc 52 20 3d a6 00 02 3d
       0.13238612 -0.056767363 0.0391414 0.0317389
000020 a6 8a dc bd 6c 14 d3 3d 94 cf e6 bd 38 50 8d 3c
       -0.107686326 0.103066295 -0.11270061 0.017250165
000030 34 3c 62 3d 8c bf 30 bd e0 9c 93 bd f3 e8 76 3b
       0.055233195 -0.043151423 -0.07207656 0.003767547
000040 ed ec d3 3d 57 ee 4b bd cd 23 75 bc be 3b 87 3d
       0.103479244 -0.049787845 -0.014962149 0.06603192
000050 e4 90 ba 3d bf ac b8 3d 9e 44 84 bd fc e5 9f bd
       0.09109667 0.09017324 -0.064584 -0.07807538
000060 7f 2a 10 be 20 6d 7b bc 08 e4 6f 3d 2c cf 83 3d
       -0.14078711 -0.015345842 0.058567077 0.06435999
000070 bc 4c e2 3c 36 ed cb bd 9a dc a8 3d 2e 74 8e bd
       0.02762448 -0.09957354 0.082452014 -0.06955753
000080 04 a4 01 3d 22 3b 4c 3d 4c 74 fa 3d 85 11 67 bd
       0.031650558 0.04986108 0.12229213 -0.056413192
000090 20 97 94 3d 72 f4 e8 3d fe 02 83 bd dd c7 65 bd
       0.07255387 0.11374749 -0.06397055 -0.056098808
0000a0 37 a7 ce 3d 12 51 10 3e ee f3 c2 3d e1 1a b3 3d
       0.100904875 0.14093426 0.09519182 0.08745361
0000b0 80 f0 bc bd 4c da 12 3c be 6c ca 3d 6f 42 18 3e
       -0.09225559 0.008963179 0.09884022 0.14869092
0000c0 c4 26 c0 3c 39 4b da bb 46 cd 43 bc d8 47 8d bb
       0.023455985 -0.0066617993 -0.0119507965 -0.004311543
0000d0 88 a9 b6 3d 96 55 44 3d b4 53 d7 bd c0 1b b5 3d
       0.08919054 0.047933184 -0.10514012 0.088431835
0000e0 b9 c8 a4 bd cf e2 4b bc 33 2a 95 3c d1 ac fd bd
       -0.08046097 -0.012444212 0.018208599 -0.12386478
0000f0 67 80 23 3d bf 9d b4 bc 34 41 93 bc 6f ab 43 bc
       0.039917376 -0.022047875 -0.017975427 -0.011942728
000100 03 e0 81 3d 17 08 68 3d e8 d4 a8 bc a9 dc a8 bc
       0.06341555 0.05664834 -0.020609334 -0.020613031
000110 85 07 36 3e d2 17 95 3d d5 2b 23 bd 6a 9f 45 3d
       0.17776306 0.07279934 -0.039836723 0.048247732
000120 30 e1 41 3d f1 60 ec 3d a4 f0 03 ba 9f 8b db bc
       0.047333896 0.115419276 -0.00050331117 -0.026799975
000130 a6 99 ba bd be 44 d8 bd f9 58 43 3d e8 8c 88 bd
       -0.09111337 -0.105599865 0.047692273 -0.06667501
000140 49 b6 a1 3d 06 22 3e 3d 5e b2 40 3d 17 37 1c 3e
       0.07896096 0.046419166 0.047045104 0.1525539
000150 1a a3 98 bb 9a 0a 87 bb bc 77 e3 b9 3f 1d c7 bd
       -0.004658115 -0.004121137 -0.00043386023 -0.09722375
000160 32 94 51 bd fa 19 09 bc 5f 75 f9 bd fe 2f 97 bd
       -0.05116672 -0.00836801 -0.1218059 -0.07382201
000170 4b 2d 91 3c 0b 99 a6 3d 67 33 40 3d 54 f1 79 bd
       0.017721793 0.081346594 0.04692402 -0.061021164
000180 93 ca 6a 3b 68 85 1f 3e 97 25 cc bd fa 85 ba bd
       0.003582631 0.15578234 -0.09968107 -0.09107585
000190 e4 a9 75 3c 2d cc dc 3d 80 7a 0c 3c 6c 17 c4 bd
       0.014994118 0.10781131 0.008574128 -0.0957478
0001a0 c0 bd 89 bc 80 8f 9c 3d c3 61 aa bc e8 07 5a bd
       -0.016814113 0.07644558 -0.02079857 -0.053230196
0001b0 4f 10 59 bd 64 c2 5f 3d fe cb a8 bc 05 5e 8f 3d
       -0.05299407 0.054628745 -0.020605084 0.07000355
0001c0 5e 0a f2 3c d9 1f 93 bd 4f 03 48 3d d4 9e 20 3e
       0.02954596 -0.07183809 0.04883128 0.15685588
0001d0 64 8f 5a bd 66 2b 1c be a2 ac 60 3c 81 6a 39 bd
       -0.053359404 -0.1525093 0.013713034 -0.045267586
0001e0 12 39 f6 bd 4c fb 17 bc 5d 12 12 3e aa 67 27 3d
       -0.12022604 -0.009276222 0.14264818 0.040870346
0001f0 9e e5 ba 3d ca 73 a9 3c ba da aa 3d 5b 8f af 3d
       0.09125827 0.020685095 0.083425 0.08572265
000200 20 d6 79 bd 2f 8b 00 3e e6 e9 b3 3d bb 6c 14 bd
       -0.06099522 0.12553094 0.08784847 -0.036236506
000210 6c b0 09 bd 86 0b 40 3c da 87 5d bd c2 af e6 bd
       -0.033615515 0.011721497 -0.054084636 -0.11263992
000220 a0 ff 55 3c 43 e6 a0 3d 5f ab f0 bc 3a e2 94 3d
       0.013061434 0.07856419 -0.029378591 0.07269712
000230 ba 3b ff 3d ee ab 82 bd 05 c7 1a bd 2c a5 0a 3d
       0.12462564 -0.06380449 -0.037787456 0.033848926
000240 4e 9d 93 ba b9 3d c7 bd 5d e6 ce bd 2e bb eb bd
       -0.001126209 -0.097285695 -0.10102532 -0.11510311
000250 c7 f6 1c 3d 2a b1 59 3c 67 b9 d3 3d 6a d4 99 bd
       0.038321283 0.013286868 0.10338097 -0.07511218
000260 f9 6b 49 bd e3 17 d3 bd 34 fe 1f ba 16 43 ad 3d
       -0.049175236 -0.103072904 -0.0006103248 0.08460061
000270 37 e4 d1 3d c7 7a d0 3d 6f f7 ed bd e0 3a 77 bd
       0.10248607 0.10179668 -0.1161946 -0.060358882
000280 d2 2c 9f 3d 92 0e 0c bd 15 d3 36 3d 06 a9 9a bd
       0.07772221 -0.034193583 0.044634897 -0.0755177
000290 38 b9 46 bd 00 52 8c 3d f9 32 38 bd 8a bd 02 be
       -0.048516482 0.06851578 -0.044970486 -0.12767616
0002a0 48 3f f9 3d 80 3c cd 3d 47 8c df 3a b8 69 bc bc
       0.12170273 0.10021305 0.0017055356 -0.02299963
0002b0 c6 46 75 bb 78 85 1f 3d 36 e7 c7 bd 80 cf 9e bc
       -0.0037426217 0.038945645 -0.09760897 -0.019386053
0002c0 19 66 c5 3c 64 aa fd bd 80 45 57 3d 03 96 2f 3d
       0.024096536 -0.12386015 0.052556515 0.04286767
0002d0 c8 de b8 3c 99 07 d5 3c 30 ed b5 bc 99 d5 d8 3d
       0.022567168 0.0260046 -0.022207826 0.105876155
0002e0 6f 5b dd bd 07 ed c4 3c 7c d2 ce bd 8d ca b0 bc
       -0.10808455 0.024038805 -0.100987405 -0.021580959
0002f0 68 8c e0 bc 9b 9b c8 3d a3 8a 33 bd 30 74 d2 3c
       -0.0274107 0.097953044 -0.043833386 0.025690168
000300 c4 02 db 3c 04 e8 a0 bd 49 1b 73 3d fa 11 ca 3d
       0.026734717 -0.078567535 0.059352193 0.0986671
000310 84 a3 09 bc ce 7f ba 3d c9 32 f7 3d 23 e0 9c bd
       -0.008400802 0.09106408 0.120702334 -0.07659938
000320 30 d1 c7 3c c2 ec c0 bd f6 95 8c 3d a2 04 be 3b
       0.02439174 -0.09420158 0.0686454 0.005798892
000330 e6 c2 c8 bd 3c fe 78 bd 5d 6b 13 3e 6b c2 e9 bb
       -0.09802799 -0.06078933 0.14396425 -0.007133772
000340 c7 95 80 bc c9 84 eb 3d 64 30 21 3e dd 5a e1 bd
       -0.01569642 0.11499936 0.15741116 -0.11003659
000350 dd df 6f 3d d2 48 9c 3b 5d 84 82 bd 93 1d 48 bd
       0.058563102 0.004769423 -0.063729025 -0.04885633
000360 c5 62 4b bd bc d3 8c 3d cb 2b d0 3d b1 9e 14 3e
       -0.04965474 0.068763226 0.10164603 0.14513661
000370 c8 eb bf 3d 29 f5 ea 3c ef cc a8 bd c6 34 bf bd
       0.093711436 0.028681355 -0.08242213 -0.093362376
000380 5f 89 a7 bd 6b ed 4e 3c 2e 1e 2a bd e8 78 fd bd
       -0.08180498 0.012629847 -0.041532688 -0.12376577
000390 00 6a c8 3d b7 a2 1c bd 2e 14 8a bd e4 98 c7 3d
       0.09785843 -0.038241114 -0.0674213 0.097459584
0003a0 c9 c2 01 be c8 5b 07 be d9 ef 2a 3e a5 c9 39 bb
       -0.12671961 -0.13218606 0.16693057 -0.002834895
0003b0 e3 01 c2 3d c8 11 9e bb cb be 33 bd d5 7f 98 bb
       0.09473016 -0.004823897 -0.043883126 -0.0046539106
0003c0 91 b4 07 bb 06 90 b2 bb f3 bf 99 bd f8 92 eb 3d
       -0.0020706991 -0.005449298 -0.075073145 0.115026414
0003d0 20 f3 3e 3d a8 c2 17 3e a7 dd 72 bd ab 42 d7 3b
       0.04661858 0.14820349 -0.059293415 0.0065692267
0003e0 10 76 70 bd 3a 1d b0 3d fb c6 dc bd 1c c6 a5 bd
       -0.058706343 0.085993245 -0.1078014 -0.08094427
0003f0 b1 f1 88 bd d9 ac 67 bc 2c e4 1c be 53 a9 5c bd
       -0.06686724 -0.014140331 -0.15321416 -0.053872418

bias f4 [32]
000000 f4 2c 15 3c 2b f8 19 3e a3 11 68 bd 1b 36 e4 bd
       0.009104956 0.15036075 -0.056657445 -0.11143132
000010 d6 d0 ca bd a2 3d 85 bd 6e 75 de bc cd 45 9b 3d
       -0.099031135 -0.06505896 -0.027155604 0.07581673
000020 4c 7e e0 bd 0c 9a ae bd c4 4f 65 3d 4a 38 55 3d
       -0.10961589 -0.08525476 0.055984274 0.052055635
000030 91 66 3c 3d ee a0 55 3d a8 94 ce 3c 03 e4 39 bc
       0.045996252 0.052155428 0.02521737 -0.011345866
000040 9a a7 cf 3d 15 e0 01 3e 69 bf c7 bd 58 47 c0 3d
       0.10139389 0.12683137 -0.097533055 0.09388608
000050 91 1e 48 3e c6 4a 9a bc e0 0f af bd 73 f9 ee 3d
       0.1954291 -0.018834483 -0.0854795 0.116686724
000060 4f c5 9a bd 8d db b1 39 61 b9 ac 3d 4b 9c 4e bd
       -0.07557165 0.0003392365 0.08433796 -0.05044202
000070 a6 1d 94 3d 1e 9b fe 3d 63 85 c9 bd c5 33 db 3c
       0.072322175 0.1243193 -0.098398946 0.026758084

weight f4 [1, 32]
000000 20 10 11 be 20 6e 8c be 54 2e 20 be 1d d2 77 3e
       -0.14166307 -0.2742777 -0.15642673 0.24201246
000010 bf 33 11 be ea 76 1a bc 04 93 50 bd c7 5b ea 3e
       -0.14179896 -0.009427765 -0.050921455 0.45773146
000020 77 b6 8e bd cf 3a 93 be e4 2d af 3e 55 30 26 be
       -0.06968396 -0.28755805 0.342147 -0.16229375
000030 7a 03 48 3e 56 0f 3a 3e 65 05 aa 3d 0f 5b 62 bd
       0.19532576 0.18169913 0.0830181 -0.05526262
000040 9c f3 49 be d0 74 9a be 1e 7b 5f bc ea b7 de 3e
       -0.19721836 -0.30167246 -0.013640193 0.4349969
000050 e5 fa d3 3e be 3a 9b 3e a0 63 d9 bd fa 87 f3 bd
       0.41402355 0.30318254 -0.10614705 -0.1189117
000060 68 37 2f 3d 89 60 77 be b9 ac 62 be e4 2f 2f bd
       0.04277745 -0.24157919 -0.22136201 -0.04277028
000070 59 0d e2 bc 19 94 e2 bd 36 ea bb bd 5e 7e d1 be
       -0.027594255 -0.11063404 -0.091755316 -0.40916723
