experiements/starter_team/continuous_state/actor_critic/results/heuristics_ac/checkpoints/model_c1000.pt (torch, 14135 bytes, 5 tensors)

weight f4 [64, 8]
-0.022323178 -0.30683333 -0.09981921 0.2686833 0.030290132 0.248353 0.28967407 0.23747738
-0.3245042 0.092142016 -0.2863485 0.006756764 0.16949624 0.2159982 -0.06228473 0.2691071
-0.3053357 -0.25266007 0.23137385 -0.3209879 0.08662045 -0.19530405 0.16684231 0.1187884
0.20180161 -0.07569207 0.14811608 -0.0033331553 0.11122238 -0.12359918 -0.19900995 -0.12433377
0.18769908 -0.17397808 0.37826726 0.12820366 -0.22920509 -0.15517129 0.21226025 -0.07236936
-0.30235547 0.12105979 -0.30175415 -0.27487186 0.060804863 0.26669842 -0.2950338 -0.1475091
0.2745994 0.29000878 0.22997724 -0.0775588 0.109742664 0.19135351 0.2737724 -0.27544263
-0.020005513 -0.15500571 0.26539245 0.30047604 0.15749191 -0.063093245 -0.03982606 -0.04218083
-0.15177025 -0.34378085 0.1434218 -0.16211979 -0.31017599 0.1498355 -0.12418328 -0.27960113
-0.035107233 0.16103517 -0.021260483 -0.03769428 0.17687349 -0.14809589 -0.21463859 -0.3271044
0.0471801 0.10397947 -0.03901613 0.055397738 -0.059371397 0.103431664 -0.07810315 -0.32141426
0.34321773 -0.27115956 -0.04288591 0.088399895 0.19246532 -0.012325183 -0.14633428 0.07265888
-0.011791976 -0.17667362 -0.022544065 -0.34094337 -0.06806507 0.13303822 -0.24608132 0.19476381
-0.34791765 0.30373925 -0.2350964 -0.19525988 0.0729276 -0.20188493 -0.005802996 -0.16630623
0.32274115 -0.081859194 0.124508426 -0.10444331 -0.25137636 -0.32496014 0.043974485 0.33644003
-0.0103738345 0.010592186 0.07896013 -0.19867945 0.14069599 0.31963235 0.13046132 0.07262073
-0.20261542 -0.14463314 0.11867302 0.23134303 -0.010270368 0.015729949 0.24738884 -0.1161396
0.32854235 -0.05521332 -0.14461483 -0.29169524 0.22115304 -0.17115834 -0.31585538 0.23148468
0.08471646 -0.10086763 -0.37609547 0.10774424 0.28044727 0.16615634 0.33935052 0.23395178
-0.09577907 0.15870196 -0.11590838 0.14510526 0.21510142 0.25647324 0.09757846 0.08841137
-0.33381414 0.31985343 -0.0293383 -0.13911107 0.205485 0.3120655 0.25210652 -0.28377512
0.16253783 -0.083504066 0.04312153 0.02154972 -0.2876369 0.19257554 0.23024608 0.20413251
0.22165082 0.025156714 -0.009302795 -0.23806335 0.25279698 0.28998476 0.06087698 0.2600499
-0.25122523 -0.1454835 -0.29227218 0.30052683 0.31418973 -0.26478532 0.3424536 -0.10626248
-0.15408804 0.019740054 0.17721158 0.36767983 -0.287263 0.15363838 -0.09464873 -0.29826438
0.24183503 -0.22465444 0.09285087 -0.24825186 0.2525378 -0.07436153 -0.3368705 -0.316209
-0.1848542 -0.03860678 -0.32765016 0.21131018 -0.3836058 0.100785114 0.30297366 -0.16455963
0.16498762 0.17965946 0.21216169 -0.23793638 -0.15491995 -0.047777228 0.3012906 -0.3519698
0.10504032 0.20278731 0.06572839 -0.294688 0.3300987 0.21840236 -0.16891801 -0.19291963
0.26612103 -0.09091974 0.17981939 0.19496015 -0.19157188 0.3316894 0.14411332 0.042604048
-0.056030735 0.062111463 0.095255226 0.08026577 -0.3025771 -0.16896538 0.13389729 -0.038932282
-0.3116647 -0.26392347 -0.27271783 -0.13667367 0.1804393 -0.120188184 -0.14271918 -0.27283674
00000000: 19df b6bc 4219 9dbe 046e ccbd dc90 893e
00000010: 0323 f83c 4050 7e3e 2950 943e 452d 733e
00000020: 6a25 a6be f4b4 bc3d 459c 92be d867 dd3b
00000030: 6c90 2d3e a22e 5d3e 461e 7fbd 68c8 893e
00000040: f654 9cbe a95c 81be 44ed 6c3e 8758 a4be
00000050: 1066 b13d c9fd 47be b6d8 2a3e 5547 f33d
00000060: 15a5 4e3e 7204 9bbd beab 173e 1171 5abb
00000070: 8fc8 e33d 9121 fdbd 44c9 4bbe b4a2 febd
00000080: 3034 403e 4f27 32be 3fac c13e d247 033e
00000090: bdb4 6abe 39e5 1ebe c05a 593e 6336 94bd
000000a0: 56ce 9abe 32ee f73d 857f 9abe 01bc 8cbe
000000b0: 850e 793d b28c 883e ac0e 97be a00c 17be
000000c0: 4b98 8c3e 087c 943e 277f 6b3e 26d7 9ebd
000000d0: c3c0 e03d 2df2 433e e52b 8c3e d106 8dbe
000000e0: 9ae2 a3bc d1b9 1ebe 85e1 873e ffd7 993e
000000f0: 8f45 213e 0837 81bd a720 23bd cec5 2cbd
00000100: a969 1bbe 0b04 b0be 2add 123e bb02 26be
00000110: 63cf 9ebe 7a6e 193e ce53 febd e127 8fbe
00000120: 9acc 0fbd 67e6 243e 772a aebc 5165 1abd
00000130: 531e 353e 73a6 17be 38ca 5bbe 3a7a a7be
00000140: ec3f 413d 30f3 d43d 61cf 1fbd bde8 623d
00000150: 6c2f 73bd fbd3 d33d 8bf4 9fbd 6990 a4be
00000160: 3cba af3e 6dd5 8abe 23a9 2fbd 010b b53d
00000170: a115 453e 90ef 49bc a7d8 15be 2ece 943d
00000180: 2233 41bc eee9 34be 55ae b8bc 2190 aebe
00000190: b365 8bbd 2c3b 083e befc 7bbe 2a70 473e
000001a0: 4322 b2be b683 9b3e 1cbd 70be 35f2 47be
000001b0: 115b 953d ecba 4ebe 0f27 bebb 2e4c 2abe
000001c0: 543e a53e cba5 a7bd 46fe fe3d 60e6 d5bd
000001d0: 67b4 80be 2d61 a6be 971e 343d de41 ac3e
000001e0: 04f7 29bc d98a 2d3c d9b5 a13d a072 4bbe
000001f0: 9c12 103e daa6 a33e a797 053e 2dba 943d
00000200: 6b7a 4fbe b61a 14be d70a f33d 30e5 6c3e
00000210: 0c45 28bc 18dc 803c 8053 7d3e 99da edbd
00000220: b436 a83e 5d27 62bd e915 14be 1459 95be
00000230: f175 623e 2244 2fbe ccb7 a1be 520a 6d3e
00000240: d37f ad3d b093 cebd 968f c0be 03a9 dc3d
00000250: c996 8f3e e324 2a3e 5abf ad3e 0e91 6f3e
00000260: d127 c4bd c482 223e 5f61 edbd 7996 143e
00000270: 8c43 5c3e 7650 833e 37d7 c73d 0511 b53d
00000280: b0e9 aabe d4c3 a33e e056 f0bc 2273 0ebe
00000290: a96a 523e 0dc7 9f3e 1b14 813e f94a 91be
000002a0: 5170 263e 2e04 abbd 34a0 303d 0a89 b03c
000002b0: 2545 93be 8632 453e a1c5 6b3e 1d08 513e
000002c0: 6ff8 623e 7415 ce3c c06a 18bc e1c6 73be
000002d0: 9b6e 813e e278 943e 245a 793d 4325 853e
000002e0: 98a0 80be a0f9 14be b3a4 95be a7de 993e
000002f0: 7add a03e f191 87be 1456 af3e 25a0 d9bd
00000300: 41c9 1dbe e5b5 a13c f476 353e 8840 bc3e
00000310: 2314 93be 6153 1d3e 31d7 c1bd 1cb6 98be
00000320: 9aa3 773e d00b 66be 9928 be3d bc35 7ebe
00000330: a24c 813e dc4a 98bd 4a7a acbe 25e6 a1be
00000340: 6b4a 3dbe 2522 1ebd c3c1 a7be b261 583e
00000350: fb67 c4be 6d68 ce3d 5d1f 9b3e 5282 28be
00000360: 84f2 283e a6f8 373e ea40 593e 98a5 73be
00000370: 56a3 1ebe 0eb2 43bd c342 9a3e 6335 b4be
00000380: 611f d73d 7aa7 4f3e 9b9c 863d 58e1 96be
00000390: b202 a93e dea4 5f3e d8f8 2cbe b98c 45be
000003a0: 0441 883e 2134 babd 9322 383e a2a3 473e
000003b0: 6b2b 44be 31d3 a93e 7192 133e 9581 2e3d
000003c0: 7c80 65bd 9768 7e3d 2c15 c33d 6162 a43d
000003d0: 63eb 9abe 4305 2dbe 5f1c 093e 7577 1fbd
000003e0: 8492 9fbe fa20 87be aca1 8bbe 2ff4 0bbe
000003f0: 14c5 383e 3925 f6bd fa24 12be 42b1 8bbe

bias f4 [64]
-0.1914716 -0.2880804 -0.33268607 -0.0058899033 0.23622575 -0.14612931 0.11345622 0.046001907
-0.27138183 0.36929244 -0.20648187 -0.15800893 0.38431862 -0.28348824 0.34729105 0.24073307
-0.29000404 0.2757715 0.109373525 -0.38056985 -0.03172869 0.34116086 -0.28588772 0.249749
-0.04684316 -0.19623883 0.28992957 -0.06388261 0.03784511 0.23848855 -0.033783093 -0.32409987
0.021911755 0.3235871 -0.26459104 0.039604746 -0.29695413 -0.012283754 -0.07341214 0.32479092
0.29585865 0.18215787 0.3072898 -0.011546115 0.017014155 0.12116587 0.21099617 0.38343808
0.16103442 0.23437078 0.24393426 0.2709087 -0.31096527 0.09722193 -0.26310888 -0.008199544
-0.0049675945 -0.06088406 0.04091543 0.0522564 -0.31036225 -0.09055387 0.010970806 -0.08306596
00000000: 2211 44be 467f 93be d455 aabe 1700 c1bb
00000010: 2ae5 713e eca2 15be bc5b e83d 7f6c 3c3d
00000020: 8ff2 8abe e613 bd3e fc6f 53be 18cd 21be
00000030: 69c5 c43e 5f25 91be 22d0 b13e bb82 763e
00000040: 697b 94be ec31 8d3e 3aff df3d 0dda c2be
00000050: f1f5 01bd a3ac ae3e e05f 92be 34be 7f3e
00000060: 9dde 3fbd d5f2 48be a671 943e e3d4 82bd
00000070: 7903 1b3d 5836 743e 2460 0abd 6bf0 a5be
00000080: 4880 b33c 35ad a53e 7a78 87be 9638 223d
00000090: 5f0a 98be cc41 49bc 1b59 96bd ff4a a63e
000000a0: c97a 973e 9887 3a3e 1755 9d3e eb2b 3dbc
000000b0: 4561 8b3c d025 f83d 610f 583e ff51 c43e
000000c0: 35e6 243e e5fe 6f3e e7c9 793e 8cb4 8a3e
000000d0: d736 9fbe 4b1c c73d 35b6 86be 6157 06bc
000000e0: 34c7 a2bb 9061 79bd f096 273d cf0a 563d
000000f0: cde7 9ebe 4f74 b9bd e5be 333c 7c1e aabd

weight f4 [32, 64]
0.03894084 0.03150499 0.10741974 -0.09326857 0.123214334 -0.06021159 0.04636871 0.032399796
-0.107686326 0.094018176 -0.112906545 0.0047522574 0.061228123 -0.043293525 -0.067320116 0.0023695475
0.10451782 -0.056957167 -0.010735867 0.053561207 0.08109676 0.08826529 -0.06531793 -0.06856258
-0.1284737 -0.01546934 0.05891264 0.06860338 0.023219435 -0.100407384 0.061110172 -0.06955753
0.02774102 0.054092817 0.112972684 -0.049892537 0.07174372 0.11384727 -0.0666335 -0.057790395
0.11178228 0.1502131 0.10143993 0.09289308 -0.1021076 0.016244983 0.10472099 0.13512991
0.027311463 -0.0044325357 -0.010170177 -0.02209003 0.08919054 0.070329845 -0.10440006 0.08839863
-0.059500035 -0.013133474 0.0064836703 -0.122999735 0.04668436 -0.019618269 -0.027837224 -0.014110257
0.045936137 0.030358061 -0.020595137 -0.032286018 0.16143487 0.06677442 -0.031907137 0.050730206
0.047333896 0.09954105 -0.00087487546 -0.049148172 -0.0816268 -0.1058179 0.05716437 -0.07255835
0.08084946 0.033081718 0.051675882 0.13148974 -0.025596738 -0.008951422 -0.0036933592 -0.081089504
-0.028444564 -0.008548485 -0.12309516 -0.06874416 0.0072013037 0.07829934 0.0093988385 -0.061021164
-0.0034181064 0.16468598 -0.11606305 -0.08116804 0.013568076 0.107982434 0.003817248 -0.098469816
0.0032851677 0.09554679 -0.01581075 -0.044300545 -0.070637286 0.06919747 -0.009946007 0.045842428
0.035004903 -0.072244965 0.05222986 0.1252826 -0.053359404 -0.11375529 0.015190153 -0.045566764
-0.08283204 -0.014428594 0.121721454 0.042389113 0.10330717 0.022239903 0.06439201 0.08135263
-0.058381647 0.12138339 0.08784847 -0.03901375 -0.031493094 0.008624265 -0.056815624 -0.112881355
0.013061434 0.07060185 -0.029377729 0.07284951 0.1167263 -0.06380449 -0.04312394 0.02504544
-0.001126209 -0.11183383 -0.10677652 -0.11596324 0.032393582 0.014482568 0.09911506 -0.076396115
-0.04929561 -0.103072904 -0.0013954428 0.08848584 0.09126105 0.10652531 -0.116404064 -0.060358882
0.07772221 -0.040300183 0.04215722 -0.07598932 -0.048516482 0.06851578 -0.044989333 -0.12706122
0.11972026 0.09463369 -0.0019203677 -0.02299963 -2.2366557e-05 0.027040498 -0.10460353 -0.021598853
0.007707828 -0.12144425 0.052556515 0.040839106 0.022567168 0.023090065 -0.022207826 0.10436396
-0.1085939 0.026499743 -0.101163805 -0.020301003 -0.0274107 0.095453724 -0.043769117 0.0250297
0.0317467 -0.07691616 0.05934767 0.10573681 -0.028628102 0.09384039 0.11356473 -0.062322564
0.02439174 -0.09245662 0.06878964 0.029104149 -0.11082188 -0.06129245 0.09069382 -0.0010139454
-0.015973877 0.11098136 0.12434798 -0.08521325 0.080163226 -0.0026897714 -0.06961743 -0.09795465
-0.03601352 0.06840519 0.09800493 0.13363987 0.09797267 0.045576777 -0.056435563 -0.093362376
-0.08615834 0.047743328 -0.051304325 -0.10084469 0.09785843 -0.038284097 -0.06485533 0.087341174
-0.11847307 -0.1392642 0.12723032 -0.0120808035 0.07580144 -0.015098395 -0.049958065 0.012346893
0.014097612 -0.011884161 -0.08904178 0.11719689 0.04661858 0.1292737 -0.05927261 0.011163966
-0.061535116 0.0864354 -0.09946394 -0.06863537 -0.072829284 -0.003951415 -0.1363504 -0.055632517
00000000: 6e80 1f3d 600b 013d e1fe db3d 9803 bfbd
00000010: cc57 fc3d 6ea0 76bd 1eed 3d3d a6b5 043d
00000020: a68a dcbd 9a8c c03d 8c3b e7bd d3b8 9b3b
00000030: 57ca 7a3d 8d54 31bd 21df 89bd 694a 1b3b
00000040: 700d d63d eb4b 69bd 7de5 2fbc ff62 5b3d
00000050: 0f16 a63d 6fc4 b43d 68c5 85bd 8a6a 8cbd
00000060: 9c8e 03be 1d73 7dbc 614e 713d ee7f 8c3d
00000070: af36 be3c 63a2 cdbd a94e 7a3d 2e74 8ebd
00000080: 2341 e33c 6e90 5d3d 395e e73d 1e5c 4cbd
00000090: 5fee 923d c228 e93d 2577 88bd 9fb5 6cbd
000000a0: 1cee e43d 76d1 193e bdbf cf3d ba3e be3d
000000b0: ca1d d1bd 3314 853c f577 d63d 7f5f 0a3e
000000c0: 4abc df3c ce3e 91bb d0a0 26bc 27f6 b4bc
000000d0: 88a9 b63d 1809 903d b3cf d5bd 570a b53d
000000e0: 4fb6 73bd c82d 57bc f874 d43b 49e7 fbbd
000000f0: 1938 3f3d 7eb6 a0bc e40a e4bc b52e 67bc
00000100: 8827 3c3d 78b1 f83c 22b7 a8bc 583e 04bd
00000110: 2f4f 253e 07c1 883d 0fb1 02bd 7aca 4f3d
00000120: 30e1 413d 2edc cb3d e657 65ba 984f 49bd
00000130: f42b a7bd 0eb7 d8bd 3025 6a3d 7999 94bd
00000140: 6794 a53d b280 073d 17aa 533d 3fa5 063e
00000150: 40b0 d1bc fca8 12bc 490c 72bb 4112 a6bd
00000160: 9304 e9bc f20e 0cbc 5119 fcbd bdc9 8cbd
00000170: eaf8 eb3b 685b a03d 96fd 193c 54f1 79bd
00000180: 4f02 60bb 71a3 283e 77b2 edbd 6e3b a6bd
00000190: a34c 5e3c e525 dd3d cb2a 7a3b 8baa c9bd
000001a0: f84b 573b 09ae c33d 8c85 81bc 7d74 35bd
000001b0: 48aa 90bd 67b7 8d3d 94f4 22bc 45c5 3b3d
000001c0: 4d61 0f3d 2bf5 93bd faee 553d 154a 003e
000001d0: 648f 5abd 89f8 e8bd 1fe0 783c 37a4 3abd
000001e0: d8a3 a9bd e965 6cbc 1949 f93d 35a0 2d3d
000001f0: b692 d33d 7530 b63c f5df 833d 359c a63d
00000200: 9821 6fbd db97 f83d e6e9 b33d e2cc 1fbd
00000210: e7fe 00bd ca4c 0d3c 80b7 68bd 572e e7bd
00000220: a0ff 553c b497 903d 90a9 f0bc 2032 953d
00000230: 330e ef3d eeab 82bd baa2 30bd 182c cd3c
00000240: 4e9d 93ba 2309 e5bd a6ad dabd 237e edbd
00000250: 22af 043d 4b48 6d3c d6fc ca3d 9175 9cbd
00000260: 32ea 49bd e317 d3bd 4ae7 b6ba 1038 b53d
00000270: 13e7 ba3d f129 da3d 4165 eebd e03a 77bd
00000280: d22c 9f3d ce11 25bd 0dad 2c3d 4aa0 9bbd
00000290: 38b9 46bd 0052 8c3d bc46 38bd 561c 02be
000002a0: e52f f53d 4fcf c13d d9b4 fbba b869 bcbc
000002b0: d19f bbb7 0984 dd3c 603a d6bd 14f0 b0bc
000002c0: f391 fc3b c3b7 f8bd 8045 573d e846 273d
000002d0: c8de b83c 6027 bd3c 30ed b5bc c6bc d53d
000002e0: 7b66 debd fd15 d93c f82e cfbd 4a4e a6bc
000002f0: 688c e0bc 3e7d c33d 3f47 33bd 160b cd3c
00000300: d408 023d 3886 9dbd 8b16 733d 8a8c d83d
00000310: 7b85 eabc 642f c03d a094 e83d f245 7fbd
00000320: 30d1 c73c e559 bdbd 95e1 8c3d d36b ee3c
00000330: 95f6 e2bd cb0d 7bbd aebd b93d 5de6 84ba
00000340: a6db 82bc 324a e33d 27aa fe3d 4984 aebd
00000350: 9e2c a43d e046 30bb 9593 8ebd 739c c8bd
00000360: ea82 13bd 0518 8c3d cfb6 c83d e4d8 083e
00000370: e5a5 c83d b7ae 3a3d fa28 67bd c634 bfbd
00000380: c973 b0bd 828e 433d 7c24 52bd a987 cebd
00000390: 006a c83d c9cf 1cbd dfd2 84bd eedf b23d
000003a0: 02a2 f2bd 469b 0ebe aa48 023e 90ee 45bc
000003b0: c93d 9b3d 425f 77bc d4a0 4cbd 9f4a 4a3c
000003c0: acf9 663c c9b5 42bc 895b b6bd ec04 f03d
000003d0: 20f3 3e3d 5360 043e d6c7 72bd 11e9 363c
000003e0: 3f0c 7cbd 0b05 b13d c0b3 cbbd b390 8cbd
000003f0: 8527 95bd df7a 81bb 709f 0bbe ecde 63bd

bias f4 [32]
0.010536057 0.15002179 -0.07463467 -0.121487886 -0.11824246 -0.06574745 -0.021682158 0.017580364
-0.10806591 -0.10667053 0.03338197 0.045771264 0.05275204 0.062611975 0.0354852 -0.015701357
0.10642544 0.12552123 -0.09363396 0.088248506 0.19401328 -0.023691308 -0.08437616 0.12536289
-0.07187829 -0.01448523 0.08449704 -0.04743277 0.08031753 0.121150926 -0.1090603 0.028579922
00000000: 6d9f 2c3c 509f 193e 10da 98bd a4ce f8bd
00000010: 1a29 f2bd 99a6 86bd c89e b1bc b204 903c
00000020: a951 ddbd 1476 dabd 88bb 083d a67a 3b3d
00000030: 8612 583d b53a 803d ee58 113d 22a0 80bc
00000040: 95f5 d93d a388 003e 29c3 bfbd a2bb b43d
00000050: 6bab 463e 4614 c2bc 68cd acbd 215f 003e
00000060: ed34 93bd 7553 6dbc c90c ad3d dd48 42bd
00000070: 847d a43d fa1d f83d 025b dfbd 7120 ea3c

weight f4 [1, 32]
-0.1428833 -0.23408449 -0.15527387 0.16444083 -0.1160532 -0.00571985 -0.04943647 0.295206
-0.06976373 -0.21942356 0.21983303 -0.14121094 0.10282381 0.1919437 0.08699749 -0.0684096
-0.16117485 -0.28282696 -0.00022135024 0.36592644 0.34325942 0.25221646 -0.106117584 -0.08191575
0.054177262 -0.1739206 -0.2012851 -0.04488752 -0.04174881 -0.08498377 -0.04441494 -0.3997449
00000000: 0050 12be d8b3 6fbe 1d00 1fbe 2d63 283e
00000010: 4dad edbd 946d bbbb e57d 4abd 3e25 973e
00000020: 49e0 8ebd 92b0 60be e91b 613e 9a99 10be
00000030: 4a95 d23d e48c 443e bd2b b23d 551a 8cbd
00000040: 050b 25be b2ce 90be 411a 68b9 b65a bb3e
00000050: b3bf af3e 8422 813e 2d54 d9bd 72c3 a7bd
00000060: fae8 5d3d 3e18 32be ae1d 4ebe fadb 37bd
00000070: cd00 2bbd f90b aebd 71ec 35bd 5dab ccbe
