experiements/starter_team/continuous_state/actor_critic/results/heuristics_ac/checkpoints/model_c2000.pt (torch, 14135 bytes, 5 tensors)

weight f4 [64, 8]
000000 3b 25 f7 bd 82 4f 04 3d f7 b3 0d be 33 2b 2c 3e
       -0.12067648 0.032302387 -0.13838182 0.16813354
000010 93 4d 28 3e 48 89 07 be 2a c1 8d be 70 74 8e be
       0.16435842 -0.13235962 -0.27686435 -0.2782321
000020 c1 75 10 be e5 f7 94 be d2 1d 84 be f8 34 cf 3d
       -0.1410742 -0.2909538 -0.25804 0.10117525
000030 9d ab a5 be a9 0f 3f 3d 1b 50 87 3e 38 3a c9 bc
       -0.32357493 0.046645794 0.26428303 -0.024563894
000040 0a 8a ae 3c 02 bd a1 be d2 4a f9 3d 6f cf ae be
       0.021306057 -0.31589514 0.12172474 -0.34142634
000050 96 c0 2d 3e 6e 64 91 3e f8 14 49 be 16 47 9d 3e
       0.16967997 0.28396934 -0.19636905 0.30718297
000060 1a 79 c9 3d 14 3c 8f be 69 2d f6 3d 1d ff 0b bc
       0.098375514 -0.27975523 0.1202038 -0.00854471
000070 90 89 8b 3e 4d c1 8b be a0 0a 19 3e 6e 6b a5 be
       0.2725339 -0.27295914 0.1494546 -0.32308525
000080 53 18 3c 3e f8 7f 8c 3c 31 8c 81 3e 2d 2e a2 3d
       0.18368654 0.017150864 0.2530227 0.079189636
000090 b5 62 ea bc d0 80 9a 3e db 2e 05 3d fe 2c 1d 3e
       -0.02861152 0.301764 0.032515388 0.15349194
0000a0 aa f3 bf bd 66 c1 a9 be 91 ca 2b be 5e 7e 58 3e
       -0.09372647 -0.33155364 -0.16776492 0.21141955
0000b0 d2 25 21 be 1f f0 f6 3e 2c 90 a8 bc 8c b2 eb bd
       -0.15737084 0.48230073 -0.020576559 -0.115086645
0000c0 a8 5f 01 be d6 7f b2 be 09 9a 44 3e 49 32 24 3d
       -0.12634146 -0.34863156 0.19199385 0.04008702
0000d0 5e 61 41 be 6b 1b 7f be 7a 2b 4b 3e 4c de a3 3e
       -0.18884799 -0.24912803 0.19840804 0.32005537
0000e0 7d 7a 3e 3a 87 7a 89 bd de dd f6 bc 52 a2 a3 be
       0.0007266177 -0.06712823 -0.030135091 -0.31959778
0000f0 9d 05 12 3e e3 af a5 bd f0 01 3f 3b e7 54 ba 3e
       0.14259954 -0.08090188 0.0029145442 0.363929
000100 da a4 35 be f7 f5 24 3d 78 23 14 be 7c e2 43 3c
       -0.17738667 0.040273633 -0.14466655 0.011955854
000110 90 08 b8 3e 9c bc 27 3e 11 c7 97 bd 8f a8 55 be
       0.35944033 0.16380543 -0.07411016 -0.20865081
000120 f4 1c 49 3e 55 59 86 3e 20 c3 c5 bd 90 5e ab be
       0.19639951 0.2624003 -0.09656358 -0.33470583
000130 30 20 4c be ed 68 a3 3e 5a 6c 19 be fd c5 fa bd
       -0.19934154 0.3191599 -0.14982739 -0.122447945
000140 43 a2 c4 3e 5b fb 4c be 47 e7 91 3d aa 97 bd 3e
       0.38405046 -0.2001776 0.07124191 0.37029773
000150 de e1 3d 3e 8b e6 4d be 17 80 01 be c8 2e 17 ba
       0.18543193 -0.20107476 -0.12646519 -0.0005767164
000160 22 ad a0 3b 20 6a 82 3e db be a5 3e b6 45 25 3e
       0.0049034515 0.25471592 0.32372174 0.16139874
000170 6e 1c 60 3e db c5 b5 be 01 57 f5 3d 9a 4d a1 3e
       0.21885845 -0.35502514 0.11979485 0.31504518
000180 29 fd 8d 3d 49 39 bf 3c 19 94 0b bd 6f 85 e8 be
       0.06933052 0.023342745 -0.034076784 -0.45414302
000190 ce 85 ef bc ae 56 8c 3d 9b 82 12 bc e1 21 b4 3e
       -0.029238608 0.0685247 -0.008942272 0.35182098
0001a0 99 de 2a 3e 32 b1 21 3d ce 62 98 3e 7d 43 f5 3c
       0.16686477 0.039475627 0.29762882 0.029939407
0001b0 be 1f 5d bd 5f b1 c8 be 11 8e 92 be e1 16 12 bd
       -0.05398535 -0.39197823 -0.28624013 -0.03566635
0001c0 38 f0 a3 3e 3d 6d ab 3e 04 4e 58 be 53 d4 38 3e
       0.3201921 0.3348178 -0.2112351 0.18049745
0001d0 06 bd a9 3e da 68 82 bc 5a 7f 37 3e 52 da 30 be
       0.33152026 -0.015919138 0.17919675 -0.17270783
0001e0 e9 4e a8 bd a8 a8 a2 be 97 b3 23 be 33 6f ee bd
       -0.08218176 -0.317693 -0.15986477 -0.11642303
0001f0 8c a9 c3 3e 71 6d 83 be 5e ff be bc 63 af 8b be
       0.38215292 -0.25669435 -0.023315128 -0.27282247
000200 72 e1 36 3d a3 3a 41 3e 34 a4 7b be 90 90 5c be
       0.044648595 0.18870024 -0.24574357 -0.21539521
000210 b2 2a df bd 9b 24 6e be b5 9e 77 3e 44 52 7b be
       -0.10896815 -0.23256151 0.24181636 -0.245431
000220 54 ac d2 3d 47 00 3e 3c 26 67 85 be fc 28 3c 3e
       0.10286775 0.011596746 -0.2605526 0.1837501
000230 5d d4 a7 be 18 11 a3 3e 93 0a 50 3d b4 bf 9e bc
       -0.32779208 0.3184898 0.050791334 -0.01937852
000240 17 7a 09 3e aa 9d 8d 3e ca cf a5 be 09 17 d0 bd
       0.1342548 0.2765935 -0.32385093 -0.101606436
000250 9a d3 72 be bb 6f b7 bd 10 73 8a be 04 ee bf 3c
       -0.23713532 -0.08956858 -0.2704091 0.023428924
000260 0a d1 aa bd b5 d4 aa 3d ba 5f f4 bd 63 51 1b be
       -0.08340652 0.08341352 -0.11932321 -0.15167765
000270 20 ed a8 3d ee ec 63 3e f7 e0 77 3e 33 f3 54 3e
       0.08248353 0.2225835 0.24206911 0.20795898
000280 44 7d 71 be 97 e2 a0 3e 30 67 ac be b7 87 49 3c
       -0.23582941 0.31422874 -0.33672476 0.012300423
000290 28 1e 56 3e 56 db 2e be c3 5c 7b be 09 b1 ae 3e
       0.20909941 -0.17075858 -0.24547105 0.34119442
0002a0 42 9e 8f 3d 3c d3 ab 3e 38 af bf be a0 2a 44 bd
       0.07012607 0.33559597 -0.3743837 -0.047892213
0002b0 87 8f 27 3e 6f 23 3f 3e f7 38 fd bd 3b 05 8f be
       0.16363345 0.1866586 -0.12364381 -0.27933678
0002c0 dc 6e 4a 3e c6 49 1a ba b2 9a 81 3e 79 80 92 bd
       0.19768852 -0.0005885627 0.25313336 -0.071534105
0002d0 a0 22 38 be 9e eb 20 3d 2e b9 83 be 36 a4 94 be
       -0.17981958 0.039287202 -0.25727218 -0.29031533
0002e0 fe c0 4a 3e 29 62 8b bd 08 13 6b be 9d 8a 83 3e
       0.19800183 -0.06805832 -0.22956479 0.2569169
0002f0 93 df 61 3d 7f a8 fb 3d 1f c3 cd bd 95 49 91 be
       0.055144858 0.122879975 -0.10046982 -0.2837645
000300 12 1b 17 3e 6a 6e 9c 3e 1d 5f 67 be 2d e8 35 be
       0.1475642 0.3055299 -0.22594877 -0.1776435
000310 5a 77 1c be fe 12 f8 3b 7e fc e1 3e 27 bf 51 3d
       -0.15279904 0.0075706234 0.4413795 0.051207688
000320 9a cf 59 be b3 56 a1 3c 3a e7 a5 be 1c 5b 0d bd
       -0.212706 0.019694662 -0.32402974 -0.034510717
000330 22 17 9d 3d aa b9 1c 3b b6 3e 9d be 0b d6 1c 3a
       0.07670428 0.0023914375 -0.30711907 0.00059828226
000340 dd bb a0 3e 67 83 0a 3b 6a a8 13 be 37 f0 16 bb
       0.31393328 0.002113545 -0.14419714 -0.0023031363
000350 c2 46 ba 3e e9 77 61 bd 6c 18 fa be 3c e8 0a be
       0.3638211 -0.055045996 -0.48846757 -0.13565153
000360 70 52 47 3e 10 24 8d 3e f7 1c 6b 3e 01 b0 18 bd
       0.19465041 0.27566576 0.22960268 -0.037277225
000370 06 36 32 3e f9 f5 ac 3c 54 47 8e bd 64 01 45 be
       0.17403421 0.021113383 -0.069471985 -0.19238812
000380 cd c4 fa bd c2 1c eb bd b4 90 97 be 71 19 bb be
       -0.12244568 -0.114800945 -0.29602587 -0.36542848
000390 74 d7 9b 3e f0 af 13 be e6 bb b2 3e 88 16 75 be
       0.30437815 -0.14422584 0.3490898 -0.23934376
0003a0 6f fd 3b be cb a8 1a be b6 69 28 be f0 92 dc 3b
       -0.18358396 -0.15103452 -0.16446576 0.0067313835
0003b0 1e 86 14 be d2 7a 36 be 3d 73 74 3e 1e 17 0c 3d
       -0.14504287 -0.1782029 0.23872085 0.034201734
0003c0 b5 a6 11 be 92 44 74 be 78 d8 22 bd 28 fc f1 bb
       -0.1422375 -0.23854282 -0.039757222 -0.0073847957
0003d0 15 f7 92 be 7d 5f 44 be 2e 78 af be fc 82 50 3e
       -0.28704134 -0.19177051 -0.34271377 0.20362467
0003e0 87 a6 c4 3d 58 56 13 3e 08 75 03 3e 35 9d 4a bc
       0.09602075 0.14388406 0.12837613 -0.012366583
0003f0 df df 1f be 26 73 8a be ab ed a8 3e 11 66 06 be
       -0.15612744 -0.27040976 0.32993826 -0.13124873

bias f4 [64]
000000 99 4a 19 3e 7d d4 6c 3e 0a 81 ae 3e 26 6c 46 3e
       0.14969863 0.23127933 0.34082824 0.19377193
000010 e1 31 72 be a8 a6 5c 3e 5a 41 6c 3e 0d d3 81 3d
       -0.2365184 0.2154795 0.23071805 0.06339083
000020 61 f6 b6 3d a1 33 f2 bd 78 7b 56 3c 27 f6 66 bd
       0.08933712 -0.11826254 0.013090961 -0.056387093
000030 e6 2e 7b 3d 39 bf 30 3e d5 22 2f be 5f 9f dc 3e
       0.061324023 0.17260446 -0.17103131 0.4309034
000040 e8 e7 a0 be 48 13 67 3e ff d7 65 bd d5 76 22 be
       -0.3142693 0.22565949 -0.056114193 -0.15865643
000050 26 bf 95 bc 7b df 26 be 10 73 cc 3e 24 f9 f8 bd
       -0.018279623 -0.16296189 0.39931536 -0.12156895
000060 30 58 31 bd 96 06 cd bd ad 59 e1 3d e1 34 d1 bd
       -0.043296993 -0.10011022 0.110034324 -0.10215164
000070 27 22 6d 3e b5 1f df 3e 18 0d 2f 3e 58 2a 7e be
       0.2315756 0.43578878 0.17094839 -0.2482084
000080 cf e8 a1 bd c7 af 30 3d 42 ea a0 3e e4 eb a6 3e
       -0.07905733 0.043136384 0.31428725 0.32601845
000090 04 be 8c 3e 59 da 1a bd 00 6e 4a 3e 33 70 b2 3e
       0.2748872 -0.03780589 0.19768524 0.34851226
0000a0 ab e4 98 3d 63 f1 34 be 4a 74 9a 3e ff 99 3f 3c
       0.0746549 -0.17670207 0.30166847 0.01169443
0000b0 73 ed 80 3e d0 86 5e 3e 6f ea 0c be df 75 2e be
       0.2518116 0.21731114 -0.13761304 -0.17037152
0000c0 29 06 38 3e 9e 0b a1 be 93 bd 53 be 89 f2 28 be
       0.179711 -0.31454176 -0.20677786 -0.1649877
0000d0 87 68 43 3d 2c ad cc 3e ea f1 5f 3d 40 7c 8a 3e
       0.047707107 0.3997587 0.054674067 0.2704792
0000e0 86 7b 6f bd 29 29 4f be a3 e0 a5 3e 5d 77 95 be
       -0.05846741 -0.20230545 0.32397947 -0.2919263
0000f0 ad 29 8f be f4 fe 7b 3e 1d 36 be 3e d1 7b 58 be
       -0.27961484 0.24608976 0.3715066 -0.21140982

weight f4 [32, 64]
000000 9c f3 8f bd 8c e1 d4 bc 71 d3 6b bb d2 3e 7b 3c
       -0.07028887 -0.025986455 -0.0035984183 0.015334802
000010 9d 28 03 be ed f9 89 3d 96 f4 aa 3d 7a d9 09 3d
       -0.12808461 0.06737123 0.08347432 0.033654667
000020 8c bb e2 bd 8c 73 b7 3c 38 27 95 3c c8 73 24 bd
       -0.11070928 0.022393964 0.018207178 -0.04014948
000030 e3 d6 2f bd d5 23 77 3b 0e 16 e9 bb d8 0f 33 bd
       -0.04292954 0.0037710567 -0.007113225 -0.04371628
000040 46 4b cd 3d c3 2b 7f 3d 35 9d d6 3d 90 ed ad 3c
       0.10024123 0.062297594 0.104792036 0.021231443
000050 03 b4 e5 3b 14 e7 e1 3d 64 fe f1 ba a0 dc 98 bd
       0.0070099845 0.11030403 -0.0018462655 -0.07463956
000060 13 20 c8 3d a1 7f ff 3c 71 d3 ad bb 58 7e d2 3d
       0.09771743 0.031188788 -0.005304747 0.102780044
000070 8a 13 88 3c cd ac e0 3d 4c 95 d9 bd 9e 27 da bc
       0.01661088 0.10970459 -0.10624179 -0.02663022
000080 76 90 5d bd f5 3b 09 3e d7 cd f0 3b c8 5b 85 3b
       -0.054092847 0.13401778 0.007348757 0.004069779
000090 1b b4 ae 3c e0 09 0f bd 3f ad f9 3c 35 38 c3 3d
       0.021326115 -0.034921527 0.030478118 0.09532205
0000a0 03 41 64 bc dd 1b bd bd 58 f7 b7 bd ef 8d b6 bd
       -0.013931516 -0.0923383 -0.08982724 -0.089137904
0000b0 7e 79 0b 3d fd 59 2b 3b f7 52 48 bd fb 88 e6 3d
       0.03405141 0.0026146166 -0.048907246 0.11256596
0000c0 ac 30 7e 3d 62 6e 6c bd d5 9f 81 3d f8 94 cc 3c
       0.062058136 -0.057722457 0.06329314 0.024973378
0000d0 7a 5d 6b bd 6e a6 14 bd 88 b7 b8 3d d2 98 54 3c
       -0.057462193 -0.036291532 0.09019381 0.012975888
0000e0 b3 cd 92 3d 57 05 ec bd 68 5d 68 3d 94 9a 15 bd
       0.0716814 -0.11524456 0.056729704 -0.03652437
0000f0 89 70 94 3d 65 40 b7 bd de b3 36 bd 3e 50 19 bb
       0.07248027 -0.08947829 -0.04460513 -0.0023393775
000100 82 b1 98 bd 8c 7c fa 3c ef 87 f9 bd 5a 5a 46 3a
       -0.07455732 0.030576967 -0.121841304 0.0007566564
000110 50 16 f0 3c ab d8 9e 3d 73 dc 9b bd f4 40 8b bd
       0.029307514 0.0775617 -0.07610407 -0.06799498
000120 e6 63 e0 bd fd 74 b2 3d 63 ec ee bd 92 68 80 3d
       -0.10956554 0.0871372 -0.11666181 0.06269945
000130 7b c6 32 3e 6a 97 e4 bd e3 5f fe 3d f4 36 91 bc
       0.17458527 -0.111616924 0.12420633 -0.017726399
000140 d1 74 1d 3d ac 9f f9 3d be c7 9d bd d5 4d 46 3c
       0.038441483 0.12188658 -0.077041134 0.012103518
000150 3b 3d ea bd a5 d3 a8 bd 62 93 ae bc cc 48 08 be
       -0.1143746 -0.08243493 -0.021310512 -0.1330902
000160 a1 58 43 3e 7d df d3 bd 60 cc 96 bd 30 b2 62 3d
       0.19076778 -0.103453614 -0.073632 0.055345714
000170 87 0f 6b 3d 4f 6c bd 3d 54 fa b4 3d 7d 64 03 be
       0.057387855 0.09249174 0.08836809 -0.12831302
000180 fd ae cc bc 6b 0f 0d 3c ca fa 02 bc 01 ff c5 bc
       -0.024985785 0.008609633 -0.007994363 -0.024169447
000190 23 cf 17 be 6b 91 67 bd 06 3e 5e bd 3e 48 88 3d
       -0.1482511 -0.056535166 -0.05425837 0.06654404
0001a0 68 39 4e bc 5b 51 cb bc 84 fc 14 bd 3e e1 bc 3d
       -0.012586929 -0.024819067 -0.03637363 0.09222649
0001b0 c1 35 b8 bd 53 85 df bc 5f 55 af bd b5 ec 03 3e
       -0.08994628 -0.027285254 -0.08561205 0.12883265
0001c0 8a ef 92 3d dd 4b 70 bc 3c fa 04 3e 18 75 2f bd
       0.07174595 -0.014666525 0.12986082 -0.04283628
0001d0 45 f5 6c bd 28 7e 0d 3e 52 17 bc bd 58 d0 87 3c
       -0.057851095 0.13817656 -0.091841355 0.016578838
0001e0 5f dc 39 3d 1e 6a cf 3d 1b ec 93 bc e3 a9 5b 3d
       0.045376178 0.10127662 -0.01805692 0.053628813
0001f0 cc 6f fc 3d f5 5d 20 3c 26 eb 59 bd a3 ed d8 3b
       0.12326011 0.009788026 -0.05320277 0.0066201254
000200 73 c2 84 3d c2 ef 7b bd a8 9e 6f 3e 95 e3 77 bd
       0.06482401 -0.061507948 0.23400366 -0.060519774
000210 61 05 d4 3d e0 6d ff 3d c1 31 d3 3d 9b c3 3a 3d
       0.103525884 0.12472129 0.10312224 0.0455967
000220 0b d5 05 bd bc dc d9 3d 8e f5 60 bd a1 6e 72 be
       -0.032673877 0.10637805 -0.05492168 -0.23675014
000230 81 03 83 3e dd ff 21 be a7 a4 0c be fd 9e c5 3d
       0.2558861 -0.1582026 -0.13734685 0.09649465
000240 ab 52 a6 bd 60 2d 48 3e cb 5f 7a 3d 50 71 81 3c
       -0.081212364 0.19548559 0.06112651 0.015801102
000250 a5 f0 62 be 8e 95 90 bd cd 30 02 3e 10 f3 26 3c
       -0.22162111 -0.07059775 0.12713929 0.010189787
000260 89 5e c3 3d 85 49 3d bd a2 51 80 3d 0b 00 f6 bd
       0.095395155 -0.04621269 0.0626557 -0.12011727
000270 f9 f8 9d 3d 95 2f 0d 3d fb e9 e7 bd ac 7d 0d bd
       0.077135034 0.034469206 -0.11323925 -0.03454368
000280 79 3a 24 3d 77 c5 b6 3b cc 51 ce bd f0 73 d5 bd
       0.040094826 0.005577739 -0.10074195 -0.10422504
000290 1d 4a 2c bd 1b a9 38 3d c2 26 25 3e 3a 22 86 3a
       -0.042062867 0.045083147 0.16128066 0.0010233589
0002a0 bf 33 8e 3d 66 60 45 be 9f ca bb 3d b5 01 a8 bd
       0.069434635 -0.19275054 0.09169506 -0.082034506
0002b0 0d ba 76 bd c4 c8 34 3b e3 ab 1f 3d 44 4e ac 3d
       -0.060236026 0.0027585486 0.038982283 0.084133655
0002c0 5b 18 43 be d1 7c 3f 3d 1d 97 52 3d 6c 2a e2 3d
       -0.1905226 0.046749894 0.051413644 0.110432476
0002d0 52 dd 64 3d 43 2a 44 bd 59 c3 09 bd 21 ea 88 bd
       0.05587513 -0.047891866 -0.033633564 -0.066852815
0002e0 25 8f 5a 3c 83 4e 1d be 35 53 ae bd 76 25 c1 3d
       0.013339792 -0.15361981 -0.08511964 0.09430973
0002f0 99 87 8b 3c 5e f6 c5 bc a2 7d 8b bb 45 2e 4f bd
       0.017032431 -0.024165329 -0.00425692 -0.050581235
000300 f1 ba eb 3d 5e a5 e2 bd 8c 1a cc 3d 05 0d 20 3d
       0.115102656 -0.110666975 0.09966001 0.039074916
000310 00 6a 06 bd c6 21 73 bc d7 c7 af bd 69 85 a6 bd
       -0.032815933 -0.014839595 -0.08583038 -0.08130915
000320 15 60 ee bb c0 de be bc 13 f9 28 bd 7c ac 6a 3c
       -0.0072746375 -0.023299575 -0.04125316 0.01432335
000330 16 41 9f bb 45 b5 eb 3d a3 9f 9c 3d ff a6 d9 bd
       -0.004860054 0.11509184 0.07647636 -0.10627555
000340 d0 4a d1 3d aa e9 8b bc 7f 59 f9 bd 5a a5 d0 bc
       0.102193475 -0.017079193 -0.12175273 -0.02546947
000350 9f 07 81 3c 32 68 6f 3d ca b0 89 bd df 99 18 bd
       0.015750704 0.058448978 -0.06723173 -0.037256118
000360 9b eb ba 3d 7b 3c fd 3d 19 0c c5 bd c9 b6 2e bd
       0.091269694 0.12365051 -0.09621448 -0.042654786
000370 99 35 b0 bc ab e3 d9 3c c0 7d ba bd 79 9f ee 3c
       -0.021509932 0.026597818 -0.09106016 0.029128777
000380 5f 00 cd 3c 18 ae cb bd 04 6c af 3d f1 ac 16 3d
       0.025024591 -0.09945315 0.08565524 0.036786024
000390 fd 16 89 3b ad 1e fc 3c a9 ce 04 3d 5f 46 4a bd
       0.0041836486 0.030776346 0.03242365 -0.049383517
0003a0 a3 bd 6b bd b4 10 1c bd e3 f0 c4 bd 48 05 cd 3c
       -0.0575539 -0.038101867 -0.09616258 0.025026932
0003b0 46 e9 46 3b 79 f0 c7 bc 7e cc 32 3d 7b 80 e0 3d
       0.0030351444 -0.024406658 0.04365205 0.10962006
0003c0 aa e8 e0 bd 84 86 31 3d 57 4a 6c 3d 18 04 9b bc
       -0.10981877 0.043341175 0.057688083 -0.01892285
0003d0 8a f4 85 3d 62 74 80 bd 24 de dc 3d d0 29 8c bd
       0.06540783 -0.06272198 0.107845575 -0.068439126
0003e0 f2 cd b9 3d bc 0b c6 bd 5c 95 7a 3d f0 0e 5b 3c
       0.09072484 -0.09670207 0.061177596 0.013370261
0003f0 e8 59 0d 3d 05 d9 a4 bd a3 dc 36 3c 1b 8a 44 3d
       0.03450957 -0.08049206 0.011161002 0.04798327

bias f4 [32]
000000 6d 07 ea bd 4c da f3 3d 6a 61 f2 3d ec 73 c9 bd
       -0.114271976 0.11906871 0.118349865 -0.098365635
000010 b2 55 19 3d 26 ff ba 3c 8b 8e be bd 30 29 73 3e
       0.03743524 0.022826742 -0.09304532 0.2374618
000020 cf 4a 9d 3d 8a df be bb b9 b0 25 bd c6 5a e3 3d
       0.07680284 -0.005824988 -0.04045174 0.11101298
000030 7e b6 04 3e b6 68 ef bc 4c fe c6 3d 83 0f 6e 3d
       0.1296024 -0.029224735 0.09716472 0.058120262
000040 5f 54 c1 bc 33 d6 ee 3d 7b 49 03 be aa 90 65 bd
       -0.023599802 0.11661949 -0.12821 -0.056046166
000050 39 24 40 3d 48 11 f3 bd 73 ff 1b 3d 54 31 30 3e
       0.046909545 -0.118685305 0.038085412 0.17206317
000060 25 49 b1 bc 51 18 38 3d 68 9f d9 bd e1 9f a5 3d
       -0.021641323 0.044945065 -0.106261075 0.08087135
000070 9d fd df bd 42 1b 81 3c 9f e1 f2 3d 65 27 6f 3d
       -0.10937045 0.015760068 0.1185944 0.05838718

weight f4 [1, 32]
000000 75 7c d3 bd d9 b1 9b 3e 79 73 0d 3f c5 bb 11 3e
       -0.10326473 0.30409124 0.5525432 0.14231785
000010 6b ea a5 be a6 2d d6 be 47 85 ad bc 8b b4 0e bf
       -0.3240541 -0.41831702 -0.021181716 -0.55744237
000020 c5 e1 4b 3e 7c 3d 97 3d d2 78 08 3e 39 7e c0 bd
       0.19910343 0.07384774 0.1332734 -0.09399075
000030 10 0b c0 3e 2c b7 4d be 23 0b f6 3e 75 68 3b be
       0.3750844 -0.20089406 0.48055372 -0.18301566
000040 58 61 56 3d 23 b9 57 3e b4 91 fb bd 34 cf ee 3d
       0.052338928 0.21066718 -0.1228365 0.116606146
000050 d1 2d 19 be fa 24 a6 3e 51 ab aa 3c e8 ef e7 3e
       -0.14958884 0.32450086 0.020833643 0.4530022
000060 3a 3c 88 3e 51 d6 d7 bb 44 51 eb 3c c0 3e 16 3e
       0.2660845 -0.006586828 0.028725274 0.14672375
000070 ac 44 0e be c8 a2 0e 3e ab 84 ea 3d 45 69 bd 3e
       -0.13893384 0.13929284 0.11451086 0.36994377
