experiements/starter_team/continuous_state/actor_critic/results/heuristics_ac/checkpoints/model_c0.pt (torch, 14111 bytes, 5 tensors)

weight f4 [64, 8]
00000000: d010 a5be e095 17be 1d96 c0bd 4fb3 7a3c
00000010: 908c 97bc 8be2 c53a a8eb 2cbe ff25 b1be
00000020: 3e5d 9ebe 7b8a 81bd 19b9 54be c248 923e
00000030: c315 a6be 53fe 6b3e 2b3e 663d 8608 1fbe
00000040: 4c3e 4d3e 5b7e ba3c c2c4 09be fb75 933e
00000050: d729 a13e 2e2d 573e ed24 e63d 58a9 59be
00000060: c033 4abb 1777 3cbe 14e4 e9bd 0d57 89be
00000070: 142e cd3d 16d2 2dbe eaff ffbd 872c 973e
00000080: fa61 9fbe 2ac2 3f3c fb51 7b3e e942 843e
00000090: d50d 573e eadc 823d 3ad2 a73e 12c5 973e
000000a0: 47ee 923e a8b6 77bd 7ce4 4abd deae 79be
000000b0: 79c0 903e aaa7 8fbe 9138 4ebe 56dd 9cbe
000000c0: a715 44be a071 783e b330 8b3c 3fad a3be
000000d0: 8df2 19be 6ad7 61be b16f 113e c0e6 2e3d
000000e0: 216e e5bd 5e9b 513b 8a91 2e3e 492f 1dbe
000000f0: 986c d6bd 2cb5 5e3d bb55 8b3e 2047 eabd
00000100: 84f3 1fbe 6ea7 ca3d f197 523e 924b df3c
00000110: f74f 0ebe d606 9a3c dea3 b63d 49cc 96be
00000120: 6009 083e 3779 91be 3024 06be 203a 87be
00000130: 83ba 8dbd 28e9 39be 24ad 603e 2950 d43d
00000140: 5bdf 6abe 18d8 94be 7d24 92bc db54 6bbe
00000150: d1dd 23bc 22b3 adbe 971c 4fbd 6b52 e43d
00000160: 4a6d 8e3e d82f 553e 62f4 833e 0c71 ae3e
00000170: 78d9 a0be 72ab 2e3e e552 8abc 50dd 20bd
00000180: 322a 183e c970 893e 0267 b2be 9266 aabe
00000190: dfb2 d73c eb05 453e 56f6 9d3e e8c4 b73d
000001a0: e6b2 353d 29dc a3bd 1f63 a1be 43bd cebd
000001b0: a22c 42bd 1c61 04bd 06f0 93be d7e2 783e
000001c0: 5aba abbe 1e3f 3abe 1b6d f33d 179c bdbd
000001d0: 4a91 40be 4765 563d b559 733e 3a34 613e
000001e0: 5993 8f3e 7b93 943d 4bad 2e3e d873 76bd
000001f0: 497e 593e 35cd 383a 57da d1bd 78d0 49be
00000200: 3942 8bbe 360a 07be 504d 1dbe 5f9a 033e
00000210: fd59 a73e efe6 903d e183 903e 93c9 8c3e
00000220: b15d ec3d ca58 963e e6ff 84bd 4278 a13e
00000230: 020b 85be a26a 84be 249b 07be 2bb1 25bd
00000240: cf70 8a3e e0d1 793d 550b a5be 0e99 09be
00000250: 5821 393d 46c5 19be 2a45 13bd d2ba b33e
00000260: f67d 1c3e 76ae 7a3e d797 f0bd 9b4f 583e
00000270: 767e ed3c b7a0 3f3d ad77 413e 9524 933c
00000280: ba7d d3bd a413 aebd 19ab a9be d595 ad3e
00000290: b96e 28be 7968 253e ddf8 963e 76a0 4fbe
000002a0: a5f6 8bbe 24ce a6be 0881 ce3d 166a ad3e
000002b0: 68c8 963e 83ce a13e 2495 6abe 9c74 a33d
000002c0: 0f90 0b3e cef4 05be 3948 103e 2509 34bd
000002d0: 6456 843e c2f1 7ebd 5153 523e b24b f23d
000002e0: 1922 1bbe 2318 ad3e 1c4f cebd 0290 fcbd
000002f0: a7a4 aabe 2b69 01be d9be 79be 9164 a53e
00000300: 955f 87be 5ca6 3dbe 1dab 583e 10e4 0e3e
00000310: b775 9bbe b93f 8a3e 46de 213e 48ff 2ebd
00000320: 26f2 85be b53a 64be 0d27 a13e 3a93 2bbe
00000330: d5bb 7f3d dfb8 833e 9bff 233e 78e8 e6bd
00000340: 5284 e73b ce74 c1bd d419 603e 9ce5 a03c
00000350: eb65 ef3d 5fd6 f4bd d037 4e3e 2320 9c3d
00000360: aea3 1a3e 0952 b33e 9a68 8a3c c785 d8bd
00000370: 19fd 193e cfe0 403e 1d34 86be 7d67 bd3d
00000380: 67bd 6abe 20e4 8dbe 677f 373d 5f35 3cbc
00000390: 123a 9bbe 4756 88be 0eba 6ebe 9af5 b13e
000003a0: 73d4 623d 929d 0e3e 48af 833e 3c78 73be
000003b0: 91e4 0cbe cdb3 59be defb 8abe 8891 503e
000003c0: c77b 9ebe 4e78 aabc 4c9f 0cbc 7e80 033e
000003d0: 8df2 5cbe b835 533e 937a b1bc 9f3a 47be
000003e0: fc93 16bd 93a2 88be a064 1ebe a396 773d
000003f0: 71c0 5e3e 8e24 8a3e d15f fb3d 2d6a 893e
-0.3223939 -0.14803267 -0.09403632 0.01530154 -0.018499643 0.0015097422 -0.1688677 -0.345993
-0.30930513 -0.06325241 -0.20773734 0.28571135 -0.32438478 0.23046236 0.05621163 -0.15530595
0.20043296 0.02276533 -0.13453963 0.2880095 0.31477234 0.21013328 0.11237512 -0.21256006
-0.00308536 -0.18404804 -0.114204556 -0.26824227 0.10018554 -0.16974673 -0.124999836 0.2952616
-0.31129438 0.011704007 0.24542992 0.25832298 0.2100137 0.06389792 0.32777578 0.2964254
0.28697416 -0.06047693 -0.049534306 -0.24383113 0.28271845 -0.28057605 -0.20138766 -0.30637616
-0.19148885 0.24262094 0.016990995 -0.31968114 -0.15033932 -0.2205483 0.14202763 0.04270053
-0.11202646 0.0031983475 0.17047706 -0.15350069 -0.10469931 0.054371998 0.27213845 -0.11439347
-0.15620238 0.09895216 0.20565774 0.027257714 -0.13897692 0.018802088 0.08917974 -0.29452732
0.13284826 -0.28412792 -0.13099742 -0.26411533 -0.0692034 -0.18155348 0.21941048 0.10366852
-0.22936766 -0.29071116 -0.017839665 -0.22981589 -0.010001616 -0.3392573 -0.050564375 0.111485325
0.27817756 0.20819032 0.25772387 0.34070623 -0.31415915 0.17057589 -0.01688523 -0.03927356
0.14859846 0.2684386 -0.34844214 -0.3328138 0.02633041 0.19240539 0.30852002 0.08973104
0.044360064 -0.080009766 -0.31520936 -0.100946926 -0.047405846 -0.032319173 -0.2889406 0.24305283
-0.33540612 -0.1818814 0.118860446 -0.092582874 -0.18805423 0.05234268 0.2376469 0.21992579
0.28042105 0.07254692 0.17058294 -0.06016907 0.2123958 0.0007049621 -0.10246723 -0.19708431
-0.2719896 -0.13187489 -0.15361524 0.12851857 0.32685843 0.07075297 0.28225616 0.2749754
0.11541308 0.29364616 -0.06494121 0.31537062 -0.2598496 -0.25862604 -0.13242775 -0.040452164
0.2703919 0.060991168 -0.32235208 -0.13437292 0.045197815 -0.1501666 -0.035954632 0.3510347
0.15282425 0.24480614 -0.11747711 0.21124117 0.028990965 0.04678413 0.18893309 0.01796178
-0.10326715 -0.0849984 -0.3313835 0.33903375 -0.16448487 0.16153134 0.29486743 -0.20276055
-0.27336612 -0.32579148 0.100832045 0.3387 0.29449773 0.31602868 -0.22908455 0.07981226
0.13629173 -0.13081667 0.14090051 -0.043954033 0.2584716 -0.062242277 0.20539595 0.11830844
-0.15149726 0.33807477 -0.10073683 -0.12332155 -0.33328745 -0.12637775 -0.24389209 0.3230329
-0.2644011 -0.18520492 0.21159025 0.13954186 -0.30363247 0.27001742 0.15807447 -0.042723924
-0.26161307 -0.2228802 0.31475106 -0.16755381 0.06243499 0.25726983 0.16015474 -0.11274809
0.0070653344 -0.09446107 0.21884853 0.019640736 0.11689361 -0.119549505 0.20138478 0.07623317
0.15101501 0.35023525 0.016895581 -0.10572391 0.15037955 0.18835758 -0.26211634 0.092482544
-0.22923814 -0.27713108 0.044799235 -0.011487334 -0.30317742 -0.26628324 -0.23313162 0.34757692
0.05537839 0.13927296 0.25719666 -0.23776335 -0.13759066 -0.21259995 -0.27145284 0.20368016
-0.3095381 -0.020809319 -0.008582901 0.12841985 -0.21576901 0.20625961 -0.021664893 -0.19455956
-0.036762223 -0.26686534 -0.15468073 0.060446393 0.21753098 0.26981014 0.12274135 0.26838818

bias f4 [64]
00000000: 309b 93bd 92fd 37be ea9f 153e 8d10 dbbd
00000010: b5d7 4f3c 8d65 9a3e 0893 d7bc 07e6 533e
00000020: 3815 90be 2edf 37bc fd14 573a 9c4b a2be
00000030: 284f c3bc a8b0 e9bd e01f 703e b5b3 32be
00000040: 08bd febd 8afd f9bd 4adc a9be 6929 a73d
00000050: 9cf2 8d3d 9e51 653e 0908 563e cc7d 59be
00000060: 4c25 56be d0ae acbe f4f9 6c3e a43a a1be
00000070: 0fb6 823d 62f9 253d 164e 583e 6a08 2c3d
00000080: e750 d3bd 0b13 18bd 878f a7bb 7a27 5f3e
00000090: 7f0e c03d fde5 4abe c2bc af3e 8894 88be
000000a0: 9bc5 25be 55b6 2c3e cacb c03d ef28 8bbe
000000b0: c3a0 243e 7f74 a5be 5191 4c3d 6139 45be
000000c0: cef3 aabe f599 16bd 2034 a13c 246f 30be
000000d0: 66f1 3e3e aaa5 acbe 023b 893e 6415 d2bd
000000e0: 55c5 0d3e 8e91 b6bd 923c 7ebe b7c8 4fbe
000000f0: eebd e1bd 7c23 103d 4d77 1f3e 895e 9abe
-0.07207334 -0.17967823 0.14611784 -0.10696516 0.012685706 0.30155602 -0.026315227 0.20693217
-0.2814119 -0.011222644 0.00082047266 -0.3169831 -0.023841456 -0.11410648 0.2344966 -0.17451365
-0.124383986 -0.12206562 -0.3317588 0.08162195 0.0693104 0.22394416 0.20901503 -0.21239394
-0.20912665 -0.3372712 0.23142225 -0.31490052 0.06382381 0.040521033 0.21123537 0.04200021
-0.10318165 -0.037127536 -0.0051135453 0.21792403 0.09377765 -0.19814296 0.34323698 -0.2667582
-0.16188662 0.16866429 0.0941387 -0.27179667 0.1607695 -0.32315442 0.049943272 -0.1926017
-0.33389133 -0.03676792 0.019678175 -0.17229897 0.18646774 -0.33720142 0.26802832 -0.10257986
0.13844807 -0.08914481 -0.24827793 -0.2029141 -0.11022554 0.03519009 0.15572853 -0.3015025

weight f4 [32, 64]
00000000: 1c0f 793d 95db 73bd b1fa 9dbc a8b0 b5bc
00000010: fd17 d1bd 5c11 93bd 16da b73d 89bd e03d
00000020: cefb bebd 3e7b aabd 54d7 a0bd 06e7 6bba
00000030: 4745 cebd 9487 3ebd eb48 913d 42a9 dbbd
00000040: 5162 88bd 9c33 363d a0b4 e8bd b745 d23d
00000050: ae4f ae3d 5432 a1bc cab5 37bc d0a8 22bc
00000060: 5e30 8d3d 3c6f 13bd c8a1 08bd 8649 babd
00000070: 1420 4abd 006b e63a 5662 57bd b429 86bd
00000080: 3c41 e139 b0fe 0abd 8f96 3bbd 3cb8 5b3d
00000090: 4008 46bc 7ca7 c83d b8e3 193d c008 2e3d
000000a0: 504b c23d 7e31 d5bc 3ca4 793d 7d86 e2bd
000000b0: ff69 d2bd e89d b5bc 01b6 c1bd 2c35 3dbd
000000c0: a60c 023d 00e8 1dba 8862 fc3d 90ca 5a3d
000000d0: 93d9 b03d cd44 53bd f23c e4bd ed68 9abd
000000e0: 72bb 9e3d 3f2e a8bd 70b0 f0bd a72c af3d
000000f0: dc23 26bd 9c96 013d c354 16bd f4b0 023d
00000100: c02b 2e3c 9d31 b33d 79a7 a73d 7c25 85bd
00000110: 5afc ebbc cd3f d3bd e080 c8bd 6198 cebd
00000120: de52 bebd e9c9 b33d 8c51 3dbd 0448 013c
00000130: d3a2 ffbc 56c4 c83d 6adb 963d ba84 6fbd
00000140: 5ed4 f13d 24e6 5fbd 5e3d d83d 21cc 4dbd
00000150: 879f 623d 589d 66bb cff3 7f3c 3cce c7bd
00000160: 70da a0bc e8fb d6bb 3668 da3c 8575 4abd
00000170: 0af3 a1bd e271 813d de8a 373d 274a 8f3d
00000180: 7cc1 d43d 3c45 a63d e08a cc3d 0e66 ba3d
00000190: e898 0d3d d0b0 a23d fcbb 6d3d 2433 113d
000001a0: 2a4e 4ebd 23f6 ee3d 2a75 9cbd 3f32 b5bd
000001b0: d6cc 66bd 4096 f53b 39b5 e5bd f0d8 b83d
000001c0: 45d7 aa3d 065a 5ebd 06f3 af3c 7895 e6bc
000001d0: f60a 3a3d 0d9e c5bd c16e c0bd 7850 ac3d
000001e0: a639 fd3d 8a84 8bbd a455 083d 01f9 a2bc
000001f0: 0bb8 38bd 5460 153d 6d37 d1bc 02be 973d
00000200: 5c97 2c3d f07b a9bd 3df5 89bd 1e23 8d3d
00000210: 30b9 eb3d 7dc4 c3bd 1859 893d 6b48 a4bc
00000220: 00b6 923a 704b ad3d e0bc 26bd 7984 523d
00000230: 4484 943d 66ef ad3d d5c0 703d 7e24 85bd
00000240: 891f e03c d8c0 62bd 3852 9c3c 5518 1dbc
00000250: 1fd2 ca3d 6ed6 be3d 50b4 8a3d d022 9a3c
00000260: 46f2 eabd 9bd6 abbd 054e 53bd ad22 78bd
00000270: 5ce3 efbd 9ce7 f5bd 2c29 893d 7015 fabd
00000280: 1519 d4bc 405c ad3c 8726 df3d e047 ed3d
00000290: 5c21 9a3d ca62 c33d 99b5 9cbc 223f f7bd
000002a0: 9599 aebc 3494 eebc aebe ca3d 8d16 1b3d
000002b0: 35fa f63d 60c1 9bbc 8b29 c73d e0a3 f2bb
000002c0: f2d9 96bd 9ac1 e6bd bea2 7ebd 2438 943d
000002d0: dca1 123c d5e2 9abd dd9d bd3c 44bb 463d
000002e0: d78a c8bd 5144 b5bd 08f7 8d3c 21c7 d6bd
000002f0: 0c1a 4f3d 1ce3 27bd b58d 80bd 080f e43d
00000300: 008a e4bd 48f3 f5bd 68d3 34bd 249f a9bd
00000310: aad3 863d 281c f03d 4cca 37bd 98df f4bc
00000320: 2a70 c6bd fc7e 9c3d 98e5 bdbd aed9 eebd
00000330: bc2e e3bd d465 a4bd 4ecb 973d eafe cabd
00000340: d8f8 6e3d f48a 113d 4e39 cdbd 54e9 f1bd
00000350: acb4 25bd 7036 1e3c cc78 b63d 38f3 f43d
00000360: b823 103d 1853 003d 6c77 41bd 509d 1cbd
00000370: e0a1 b73b 68d1 3c3d c05d 8cbc 0468 b2bd
00000380: 0a86 ee3d b06d d0bc 60ea aabd 70b1 abbc
00000390: 40b9 3f3b 0cbc b43d aa43 d03d 784c fe3c
000003a0: 90c1 8dbc 00cd 033b 3846 033d 9230 a2bd
000003b0: a0d7 7cbd 003b dbbb 30b8 3d3d 7cb2 f5bd
000003c0: 2c16 32bd 80b3 b93c 9c5c 5abd 8045 043c
000003d0: 76ec b6bd 3e23 8cbd 8834 a1bc b050 3dbc
000003e0: c220 c63d 5884 afbc 7e41 c73d e0df d4bd
000003f0: c0ca 9ebc b687 f73d 5ce4 47bd d00b 26bc
0.060805425 -0.05953558 -0.019284578 -0.022178963 -0.102096535 -0.071810454 0.089771435 0.10973651
-0.09325372 -0.08324288 -0.078535706 -0.0008998964 -0.10071807 -0.046516016 0.07093986 -0.10725643
-0.06659377 0.044482812 -0.113625765 0.10267203 0.085112914 -0.019677319 -0.0112127755 -0.009927943
0.06893991 -0.035994753 -0.03335741 -0.09096055 -0.049347 0.0017579496 -0.052584015 -0.06550923
0.00042963948 -0.033934295 -0.04579788 0.053642496 -0.012086928 0.0979757 0.037570685 0.042488813
0.09487021 -0.026024576 0.06094764 -0.11060808 -0.102741234 -0.022170022 -0.094585426 -0.046193287
0.031750344 -0.00060236454 0.12323481 0.053415835 0.08635249 -0.051579285 -0.11144437 -0.07539544
0.07750596 -0.08211946 -0.11752403 0.08553439 -0.040561542 0.031637773 -0.03670193 0.031907037
0.010630548 0.08749697 0.0818624 -0.0650129 -0.028806854 -0.103149034 -0.09790206 -0.10087658
-0.092931494 0.08778746 -0.046220347 0.007890705 -0.03120557 0.09803073 0.07366069 -0.058476187
0.11808084 -0.05466284 0.1055858 -0.0502435 0.05532792 -0.0035189 0.015622093 -0.09756133
-0.01963541 -0.0065607913 0.02666102 -0.04942848 -0.07907684 0.063205495 0.04481017 0.06996565
0.10388467 0.08118674 0.09987426 0.09101497 0.03456965 0.079438806 0.058040604 0.035449162
-0.05036751 0.116680406 -0.07639535 -0.08847474 -0.05634769 0.007494718 -0.11216206 0.090257525
0.08341841 -0.05428507 0.021478187 -0.028147444 0.04542061 -0.096492864 -0.09396125 0.08413786
0.12364511 -0.06812389 0.0332848 -0.019894125 -0.045097392 0.03646882 -0.025539124 0.07409288
0.042136535 -0.08275592 -0.067362286 0.06891464 0.11509931 -0.095589615 0.067064464 -0.020054063
0.0011193156 0.08461654 -0.04070747 0.051395867 0.0725179 0.08492927 0.05877765 -0.06501101
0.027358787 -0.05535969 0.019082174 -0.009588321 0.09903359 0.09318243 0.06772673 0.018815428
-0.11471991 -0.08390542 -0.051588077 -0.060579944 -0.11713287 -0.120070666 0.06697306 -0.1221112
-0.025890866 0.021162152 0.108960204 0.11585975 0.07525894 0.09540327 -0.019129561 -0.120725885
-0.021313468 -0.029123403 0.098996505 0.037863303 0.12059442 -0.019013107 0.097247206 -0.0074047893
-0.073657885 -0.11267395 -0.06216692 0.072372705 0.008949723 -0.07562796 0.023146564 0.048518434
-0.097921066 -0.08850921 0.017329708 -0.104871996 0.05056195 -0.040988073 -0.062770285 0.111356795
-0.11159134 -0.12009293 -0.044146925 -0.08282307 0.065833405 0.117241204 -0.04487066 -0.029891774
-0.09689362 0.07641408 -0.09272307 -0.11662613 -0.11092898 -0.08027235 0.07411824 -0.09911902
0.058342785 0.035532907 -0.100206956 -0.11812082 -0.040455505 0.009656534 0.08909759 0.11960453
0.035190314 0.031329244 -0.04723303 -0.038235962 0.005604014 0.046098143 -0.017134547 -0.08711246
0.1164666 -0.025442928 -0.08345485 -0.020958632 0.0029254705 0.088249296 0.10169156 0.031042323
-0.017304212 0.0020111203 0.032049388 -0.0791942 -0.061729074 -0.006690383 0.046318233 -0.11996934
-0.043478176 0.0226686 -0.053310975 0.008073211 -0.0893182 -0.068426594 -0.01967837 -0.011554882
0.09674217 -0.021425411 0.097292885 -0.10394263 -0.019383788 0.12086432 -0.048801765 -0.010134652

bias f4 [32]
00000000: 6d51 07bd 0a1c 1b3d 2bfa e9bd f89d 0fbd
00000010: c4ab a9bd acd0 843c 9e3c fb3d e6ef d5bd
00000020: 0c55 4a3c 302e f2bc f041 a63d 04c1 c03d
00000030: 3e65 c23c 6a63 71bd 47cc 9c3d 02d4 ecbd
00000040: 7e34 59bd 197b 75bd d25b ec3d d9a8 4a3c
00000050: 7a32 823d 9297 53bb 8fdd ef3d 860d 1eba
00000060: 340d d8bd c864 1a3d 77ad 94bd 996a a63d
00000070: 3d25 00bc 418e 4dbc 38e8 cfbc 7c59 45bd
-0.033036638 0.037868537 -0.11424669 -0.03506276 -0.08284715 0.016212784 0.12267421 -0.104461476
0.012349378 -0.02956304 0.08118045 0.09411815 0.023729917 -0.0589327 0.0765615 -0.11563875
-0.053028576 -0.05993185 0.11540951 0.012369358 0.06357284 -0.0032286388 0.11712181 -0.0006029237
-0.10549393 0.03769377 -0.07259648 0.08125801 -0.007821378 -0.012546123 -0.025379285 -0.048181042

weight f4 [1, 32]
00000000: 6031 94bd 0fe8 123e 7a3e 8d3d 5f7a 17be
00000010: 214e 843d 7f41 00bd e35a f0bd 52ba 6cbd
00000020: 00a7 00be ebcd 273e 8520 f23c 94f2 9a3d
00000030: e416 043e 3c73 dfbd b36a d4bd 1d3c 063e
00000040: 3480 4dbc 6bb4 8c3d 03aa 2cbc 07c4 72bd
00000050: c0be 803d 48f4 c93d 6a88 21be 4b78 b93d
00000060: e746 0e3e 6d0f 313e ae2e 193d 417f 1e3e
00000070: 4556 843d 7208 e73c a325 833d dfbe 62bc
-0.0723598 0.14346336 0.06896682 -0.14792775 0.064602144 -0.031312462 -0.11736085 -0.057794876
-0.12563705 0.16387145 0.029556522 0.07565799 0.12899357 -0.10910651 -0.10371914 0.13108869
-0.012542773 0.068703495 -0.010538581 -0.059268977 0.06286383 0.09861046 -0.15774694 0.09056147
0.13894235 0.1729104 0.037398033 0.15478231 0.06461767 0.02820227 0.06403663 -0.0138394525
