experiements/starter_team/continuous_state/actor_critic/results/heuristics_ac/checkpoints/model_a1000.pt (torch, 14903 bytes, 6 tensors)

weight f4 [64, 8]
0	0x3e1ba30c	0.15198916
1	0x3dd410b8	0.10354751
2	0x3c178aa8	0.009249367
3	0xbeb76823	-0.35821638
4	0x3e59443b	0.21217434
5	0xbe557924	-0.20846993
6	0xbc940d4a	-0.018072743
7	0xbe576846	-0.21035871
8	0x3e95cc50	0.2925744
9	0x3e8041a7	0.2505009
10	0x3e2e2243	0.17005257
11	0x3d424ed1	0.047438446
12	0x3cf299bd	0.029614324
13	0x3e7123ff	0.23548888
14	0xbdbe453e	-0.09290551
15	0xbdfe1471	-0.12406243
16	0xbe39318b	-0.18085305
17	0x3d5a3034	0.053268626
18	0xbea16980	-0.31525803
19	0x3e062033	0.1309822
20	0xbe9fcdee	-0.312118
21	0x3e916fca	0.284056
22	0xbe6fa19c	-0.23401493
23	0x3dce531a	0.10074444
24	0x3e74d701	0.23910142
25	0xbea229f6	-0.3167264
26	0x3e24703a	0.16058436
27	0x3e906d69	0.28208473
28	0xbe027fd1	-0.1274407
29	0x3e950729	0.29107025
30	0x3e87de9c	0.26537025
31	0x3ea53855	0.3226954
32	0x3e34c1d2	0.17652062
33	0xbe3a7ba0	-0.18211222
34	0xbe7abba1	-0.24485637
35	0x3dd60e0f	0.104519
36	0x3de21c64	0.11040571
37	0x3dbf71b3	0.09347858
38	0x3b497ce8	0.0030744616
39	0xbe4938d4	-0.19650584
40	0x3ea72d5c	0.32651794
41	0xbde002d3	-0.10938039
42	0xbe290c88	-0.16508687
43	0xbd5c7dfd	-0.05383109
44	0x3dd17339	0.10227055
45	0x3ce501bf	0.027954934
46	0x3e929606	0.28630084
47	0x3db77f73	0.08959856
48	0xbe5ea1e4	-0.21741444
49	0xbe53dcdf	-0.20689724
50	0xbd50a799	-0.050941084
51	0xbe0145e2	-0.12624314
52	0xbe8998ae	-0.26874298
53	0xbe8eef86	-0.27917117
54	0xbea47399	-0.32119444
55	0xbdccd7e9	-0.10002119
56	0x3e764d64	0.2405296
57	0x3e143533	0.14473419
58	0xbeb0f5bf	-0.3456249
59	0x3ea6ac55	0.32553354
60	0xbe6f5c69	-0.23375095
61	0x3eae69ef	0.34065196
62	0x3d5abe26	0.053403996
63	0x3e20ccac	0.15703076
64	0xbd2c2241	-0.042024855
65	0xba129e7b	-0.00055930734
66	0xbe91fb79	-0.2851217
67	0xbd5317d5	-0.0515364
68	0xbe1257a6	-0.14291248
69	0x3ebf7666	0.37395018
70	0x3e1355d7	0.14388214
71	0x3e85b4f8	0.2611463
72	0x3eab6c01	0.33480838
73	0xbdfc1541	-0.12308741
74	0xbeb10f95	-0.345822
75	0x3e3bc2bd	0.18336006
76	0x3e04865b	0.12941878
77	0xbe8f64bd	-0.28006545
78	0x3eb36e72	0.350452
79	0xbd4e42fd	-0.050356854
80	0xbd6eaeb0	-0.058272064
81	0x3dc79f27	0.09747153
82	0xbddd459a	-0.10804291
83	0xbe3e7d46	-0.18602476
84	0x3d524cbf	0.051342722
85	0xbc66282f	-0.014047666
86	0xbdc3ce86	-0.095608756
87	0x3e97d961	0.29658034
88	0xbcde3f7e	-0.027129885
89	0x3ea02ba5	0.31283298
90	0xbe80e719	-0.25176314
91	0xbd21c162	-0.039491065
92	0x3e535774	0.2063883
93	0xbd37b8ee	-0.044854097
94	0xbdaee7f9	-0.08540339
95	0x3d735580	0.05940771
96	0xbe1c0fff	-0.15240477
97	0x3e9e1a75	0.3087956
98	0xbeaefd6d	-0.34177724
99	0xbe676044	-0.22595316
100	0x3ea201b3	0.3164192
101	0x3e9e6ce8	0.30942464
102	0x3e852fdd	0.2601308
103	0xbdcb998c	-0.09941396
104	0xbdf7986c	-0.12089619
105	0x3da9e500	0.082956314
106	0xbea4a4cf	-0.3215699
107	0x3e0d2030	0.1378181
108	0xbeb7e9ef	-0.35920665
109	0x3ea3fcf7	0.32028934
110	0xbe67ec0a	-0.22648636
111	0x3dd6b0b9	0.10482926
112	0x3d639f57	0.05557188
113	0x3e3bb530	0.18330836
114	0xbda865ba	-0.08222528
115	0xbce0ca7a	-0.027440298
116	0xbe94972b	-0.29021582
117	0x3eba94ee	0.3644175
118	0xbe143563	-0.1447349
119	0x3ea529b3	0.32258376
120	0x3da96838	0.08271831
121	0xbe8ad855	-0.27118173
122	0xbe7f1479	-0.24910153
123	0xbcf0eda0	-0.029410183
124	0x3e290dbd	0.16509147
125	0xbe22dcd3	-0.1590455
126	0xbe7d0b97	-0.24711452
127	0x3ea6c3e8	0.3257134
128	0xbe4bc1b3	-0.19898109
129	0x3ea7e2e4	0.3279029
130	0x3e881561	0.2657881
131	0x3e2be962	0.16788247
132	0x3e20b064	0.15692288
133	0xbdf19676	-0.11796276
134	0x3d88767a	0.066632226
135	0x3dcd0a6c	0.100117534
136	0x3e6c5cfb	0.23082344
137	0xbe497b84	-0.19676024
138	0x3dff6a39	0.12471432
139	0x3d922ff8	0.071380556
140	0xbea44bc4	-0.32089055
141	0xbe355e46	-0.17711744
142	0x3db5a59b	0.08869477
143	0x3e5c9066	0.21539459
144	0x3bb21677	0.005434807
145	0xbe63ac78	-0.2223376
146	0x3eab3e3a	0.33445913
147	0xbd3d36ee	-0.046194963
148	0x3e75d3d4	0.24006587
149	0x3e3b9733	0.18319397
150	0x3dbefc10	0.09325421
151	0x3de7b5e6	0.11313991
152	0xbe5a6b72	-0.2133005
153	0x3d848f47	0.064726405
154	0xbe5df723	-0.21676306
155	0x3e3e6516	0.18593249
156	0x3d6450cd	0.05574112
157	0xbd7b6f48	-0.061385423
158	0x3eac747f	0.3368263
159	0x3ea0ed2f	0.31430957
160	0xbdf736f7	-0.120710306
161	0xbe31e7f8	-0.17373645
162	0xbe9404a7	-0.289098
163	0xbe788efd	-0.24273296
164	0xbe875c69	-0.2643769
165	0x3dd64423	0.10462215
166	0xba9b3ef1	-0.001184432
167	0xbe7bde1c	-0.24596447
168	0xbeb868b1	-0.36017373
169	0x3ea1de73	0.31615028
170	0x3e88407e	0.26611704
171	0x3ebd2ce9	0.36948326
172	0xbe8deacf	-0.27718207
173	0x3d845672	0.06461801
174	0x3eace93d	0.33771697
175	0xbe87a43b	-0.26492485
176	0xbdc38ccd	-0.0954834
177	0xbebae879	-0.36505488
178	0x3eb08162	0.3447371
179	0x3e9ee2f5	0.3103253
180	0xbe894ec7	-0.26817915
181	0xbe196c6c	-0.14982766
182	0x3b18ed69	0.0023334867
183	0xbeaccd82	-0.3375054
184	0xbe96a2b0	-0.29420996
185	0xbe3824e3	-0.17982821
186	0x3e9377c4	0.2880231
187	0x3d4d26fd	0.05008601
188	0xbe30cfd3	-0.17266779
189	0xbe9480dd	-0.29004565
190	0xbe739a66	-0.23789367
191	0x3e56f500	0.20991898
192	0xbdc9b344	-0.09848645
193	0x3d0108d8	0.031502575
194	0xbe9f34c4	-0.31094944
195	0x3e160b91	0.1465285
196	0xbe8489a2	-0.25886256
197	0x3dc9c49e	0.09851955
198	0x3d8864fc	0.06659886
199	0x3e970617	0.29496834
200	0xbd93b1be	-0.07211636
201	0xbda751dc	-0.0816991
202	0xbe79d9ea	-0.24399534
203	0x3e991d66	0.29905242
204	0x3e02f471	0.1278856
205	0xbcaf8478	-0.02142547
206	0x3e1707bd	0.14749046
207	0x3e35bc82	0.17747691
208	0xbe119dd2	-0.1422036
209	0xbe049860	-0.12948751
210	0xbd21af42	-0.03947378
211	0xbe34a4a9	-0.17640938
212	0xbd8d3b08	-0.06896025
213	0x3e682872	0.22671679
214	0x3d810dba	0.06301446
215	0xbe33d59a	-0.17561951
216	0x3e88a7f6	0.26690644
217	0x3eb36c50	0.35043573
218	0xbe9b7d98	-0.30369258
219	0xbe8fb193	-0.28065166
220	0xbbb1d9ba	-0.0054275664
221	0x3eaf5f04	0.3425218
222	0x3e298026	0.16552791
223	0xbe70fb26	-0.23533306
224	0x3defb1fd	0.117038704
225	0xbe0cfc60	-0.13768148
226	0x3e5dc8eb	0.21658675
227	0x3d1b172a	0.037863888
228	0xbe5c2a12	-0.21500424
229	0xbdcd6f4d	-0.100309946
230	0xbea641e5	-0.3247215
231	0xbca00cea	-0.019537408
232	0xbe0ad3ee	-0.13557407
233	0xbeb73ff6	-0.35790986
234	0xbe43eec8	-0.19134057
235	0x3e58833d	0.21143813
236	0x3e272e47	0.16326247
237	0xbe507946	-0.20358762
238	0xbe8d75b6	-0.2762887
239	0xbe8d665d	-0.2761716
240	0xbe84064c	-0.25786054
241	0x3e526ca2	0.20549253
242	0xbd171e41	-0.036894087
243	0x3c70f55c	0.014706936
244	0x3ea5f9ef	0.32417247
245	0x3dc003dc	0.09375736
246	0x3e788a6e	0.24271557
247	0x3e2bdd81	0.16783716
248	0xbe6a1874	-0.2286089
249	0x3dd79cbe	0.10527943
250	0xbc064de1	-0.008197279
251	0xbea41d69	-0.32053688
252	0xbd5718cf	-0.052513894
253	0xbe509367	-0.2036873
254	0xbdf83efe	-0.1212139
255	0xbe80adc2	-0.25132567

bias f4 [64]
0	0x3d4321a3	0.0476395
1	0xbe1cae45	-0.15300854
2	0x3e3683c7	0.17823707
3	0x3e147679	0.14498319
4	0x3e188439	0.14894189
5	0x3c5bbed0	0.013412192
6	0xbe9ca0f6	-0.30591553
7	0x3e84578a	0.25848037
8	0x3eb6015c	0.35547912
9	0xbdc8477f	-0.09779262
10	0x3eaa225a	0.33229333
11	0x3e86efb3	0.2635475
12	0x3e93495e	0.28766912
13	0x3df9ff83	0.12206938
14	0x3ea57ad2	0.32320267
15	0x3e7577ee	0.23971531
16	0x3ea617bb	0.3243998
17	0x3cf6e683	0.030139213
18	0x3ea9d0ac	0.33167017
19	0x3baf39d4	0.00534747
20	0xbe3044ab	-0.17213695
21	0xbe4f8ec2	-0.20269302
22	0xbe7d00ce	-0.24707338
23	0x3e484797	0.1955856
24	0xbe8c6ad7	-0.27425262
25	0x3e9677f8	0.29388404
26	0x3e4d788c	0.20065516
27	0x3e78620c	0.24256152
28	0xbe8cb219	-0.27479628
29	0xbd2865ea	-0.041112818
30	0xbeb902f5	-0.3613507
31	0xbeb89752	-0.36052948
32	0x3d3d1262	0.04616011
33	0x3d9d521a	0.07681675
34	0xbe1a7b31	-0.15086056
35	0x3e77efcf	0.24212573
36	0xbe8eb080	-0.27869034
37	0xbe216630	-0.15761638
38	0xbc1d4810	-0.009599701
39	0x3dbc41eb	0.0919226
40	0x39f1e287	0.00046135878
41	0xbea2de70	-0.3181033
42	0x3eb349a2	0.35017115
43	0x3e337a2c	0.17527074
44	0x3e0f5421	0.13996936
45	0xbe633e51	-0.2219174
46	0x3e7d5dc3	0.24742799
47	0x3ea2c7f8	0.3179319
48	0x3e76cb95	0.24101098
49	0x3e3ffb0c	0.1874811
50	0x3e9105f1	0.28324845
51	0xbe790f09	-0.24322142
52	0x3d422081	0.04739428
53	0x3e57ac40	0.21061802
54	0x3e8d0164	0.27540123
55	0xbe862676	-0.26201218
56	0x3d8fcbb2	0.07021274
57	0xbe8e7e6f	-0.27830836
58	0xbe273e45	-0.16332348
59	0x3e8c9a6c	0.27461565
60	0xbeb2b046	-0.3490011
61	0xbe96c41f	-0.29446504
62	0x3de2c36b	0.11072429
63	0x3e371638	0.1787957

weight f4 [32, 64]
0	0x3d9cb945	0.07652525
1	0x3c800fd5	0.01563255
2	0xbd9cb9b5	-0.07652608
3	0x3d7155ea	0.058919825
4	0xbdcae854	-0.09907594
5	0x3b97edf1	0.004636519
6	0x3e4ceaea	0.20011488
7	0x3d6b01b4	0.05737467
8	0x3d431933	0.047631454
9	0xbdcea2bd	-0.100896336
10	0xbd84b001	-0.064788826
11	0xbd61438e	-0.054996066
12	0xbbbea2cd	-0.005817747
13	0x3de8368e	0.113385305
14	0x3d85deb9	0.065366216
15	0xbded2a63	-0.1158035
16	0x3d1cad52	0.03825123
17	0xbd881678	-0.066449106
18	0x3afc8279	0.0019264958
19	0x3d3e9fff	0.046539303
20	0x3dd89e15	0.10577027
21	0x3d8ee481	0.069771774
22	0xbceeade8	-0.02913566
23	0xbcb36c99	-0.02190237
24	0xbdc3c6cc	-0.09559402
25	0x3d694b36	0.056956492
26	0xbd988ed4	-0.07449117
27	0xbdec1de3	-0.11529138
28	0x3e139658	0.1441282
29	0xbd459bf0	-0.048244417
30	0x3c8b3666	0.016993713
31	0x3d95e9dc	0.07319996
32	0xbdf7df17	-0.12103098
33	0xbe20dc40	-0.15709019
34	0x3c9d4da3	0.01920206
35	0xbcdc5c36	-0.026899438
36	0xbbd9a3e6	-0.0066418527
37	0x3df571f4	0.119846255
38	0x3cf3e3f4	0.029771782
39	0xbd14aad6	-0.036295734
40	0x3d01ddf3	0.031705808
41	0x3e31ac71	0.17350937
42	0x3d1bea59	0.03806529
43	0x3d554c75	0.05207487
44	0x3d55def7	0.05221459
45	0x3d6e6b8f	0.058208045
46	0x3d51a648	0.05118397
47	0xbe2f9d10	-0.17149758
48	0x3c805ad7	0.015668316
49	0x3d0fa6cf	0.03507119
50	0xbe034ed0	-0.12823033
51	0xbcd95798	-0.026531026
52	0xbd9088b2	-0.070573226
53	0xbd11ef6b	-0.035628717
54	0xbc8d512a	-0.017250616
55	0xbd93eb13	-0.07222571
56	0xbc2b360a	-0.010449896
57	0x3da43be3	0.08019235
58	0x3de6a5fd	0.112621285
59	0x3c1779e2	0.009245368
60	0x3da56bbe	0.08077191
61	0xbdb33af3	-0.08751478
62	0xbc3b8019	-0.011444115
63	0xbd41ee02	-0.047346123
64	0x3cb7c2ea	0.02243181
65	0xbd33029b	-0.043703657
66	0xbe20402f	-0.15649484
67	0x3cd290c0	0.025703788
68	0xbd3543ab	-0.044253986
69	0xbe0bf9fe	-0.13669583
70	0x3c84dc62	0.016218368
71	0xbe331480	-0.17488289
72	0xbe22ed8b	-0.15910928
73	0xbb33019a	-0.0027314187
74	0x3da54ffd	0.08071897
75	0xbd4197f8	-0.04726407
76	0xbe363b82	-0.17796138
77	0xbe05df78	-0.13073528
78	0xbdf721c0	-0.12066984
79	0xbda0d157	-0.078524284
80	0xbbfa130a	-0.007631664
81	0x3dd8c9a1	0.10585333
82	0xbddde520	-0.10834718
83	0xbe051fa2	-0.13000348
84	0xbdbd7e11	-0.09252561
85	0xbe038805	-0.12844856
86	0x3c821452	0.01587883
87	0x3dcfa3ea	0.10138686
88	0xbceaca48	-0.028660908
89	0xbdeaa3cb	-0.11457022
90	0xbe1279c8	-0.14304268
91	0xbd590d8f	-0.052991446
92	0xbd06b668	-0.0328888
93	0xbdbe4b00	-0.09291649
94	0xbd6f9aed	-0.058497358
95	0xbbf039b5	-0.007331098
96	0xb8659039	-5.4732172e-05
97	0x3d3d39bc	0.046197638
98	0x3d912749	0.07087571
99	0xbbe81bcf	-0.007083393
100	0x3e2501ce	0.1611397
101	0x3b359108	0.0027704854
102	0x3d17bdb9	0.037046168
103	0xbdf065c6	-0.11738162
104	0x3df7b853	0.12095704
105	0x3d5ceff8	0.05393979
106	0xbd56e74f	-0.052466687
107	0xbd4e544d	-0.050373364
108	0xbd7c5a76	-0.061609708
109	0x3d417563	0.04723109
110	0xbdc8aefb	-0.09799
111	0xbd81607f	-0.06317233
112	0x3e142ed2	0.14470986
113	0x3d2e5fbe	0.042571776
114	0x3d834c08	0.06410986
115	0x3c8e952f	0.01740512
116	0x3c5766e8	0.013147093
117	0x3ded91bb	0.116000615
118	0xbcceb316	-0.02523188
119	0xbdfcfd2d	-0.12352977
120	0x3e09c6fe	0.13454816
121	0x3d6bcb3a	0.05756686
122	0x3d2d5193	0.042314123
123	0xbd54b735	-0.051932532
124	0x3b9338d2	0.0044928575
125	0x3d288933	0.04114647
126	0x3dae6fba	0.08517404
127	0x3dbfd2d5	0.09366385
128	0xbdb41870	-0.087937236
129	0xbd0ff2d0	-0.035143673
130	0xbcc33c03	-0.023832327
131	0x3da3faa8	0.08006793
132	0x3da1ba41	0.07896853
133	0x3d97a832	0.074051276
134	0x3cb39b60	0.021924675
135	0xbd5e0ab0	-0.05420941
136	0x3d9bbb92	0.076041356
137	0x3ddd914c	0.10818729
138	0x3dc3742a	0.09543641
139	0xbddd593b	-0.10808035
140	0x3e099fc4	0.13439852
141	0xbd4ba9f0	-0.049722612
142	0x3cc76ff1	0.02434537
143	0x3d663df8	0.05621144
144	0x3ba9a230	0.005176805
145	0x3dea73f6	0.11447899
146	0xbc8e1898	-0.017345712
147	0x3daf3c93	0.085564755
148	0xbdfb84e8	-0.12281209
149	0xbc0c7ea4	-0.008575115
150	0x3d43bb5a	0.047786094
151	0x3da70cd6	0.08156745
152	0xbd8ec3fd	-0.069709755
153	0x3d37b8b3	0.044853877
154	0x3df396fb	0.118940316
155	0x3df8c1f1	0.121463664
156	0x3dbc4277	0.09192365
157	0xbdfa85ed	-0.122325756
158	0xbdd094a1	-0.10184599
159	0xbdd11510	-0.102090955
160	0x3b01a4b2	0.0019782004
161	0xbddd9945	-0.108202495
162	0x3dd08f44	0.10183576
163	0xbd8e1a97	-0.06938665
164	0x3c3211ed	0.010868532
165	0xbda184ba	-0.07886644
166	0xbdeeef05	-0.11666683
167	0x3db6763f	0.089092724
168	0xbcee81e6	-0.029114675
169	0x3df1410d	0.117799856
170	0xbd92e15a	-0.07171889
171	0x3d2065fc	0.03915976
172	0xbd85169f	-0.06498455
173	0x3dc7b06a	0.09750445
174	0x3d86f600	0.065898895
175	0x3a3a2f80	0.0007102415
176	0xbde164f9	-0.11005587
177	0xbd9d812b	-0.076906525
178	0x3d33df4f	0.043914136
179	0x3d9d519d	0.07681582
180	0x3cce396f	0.02517387
181	0xbde61733	-0.11234894
182	0xbd33b3f8	-0.043872803
183	0x3d87a6f3	0.0662364
184	0xbb29a875	-0.0025887762
185	0xbdafc6d2	-0.08582844
186	0x3dc467f3	0.09590139
187	0x3df59d11	0.11992849
188	0x3cab7526	0.020929884
189	0xbdf14df3	-0.11782446
190	0xbd5457d3	-0.05184157
191	0x3dbabca6	0.09118013
192	0xbd2f0772	-0.04273171
193	0xbd2c9492	-0.042133875
194	0x3e1aeda9	0.15129723
195	0xbb0991da	-0.0020991475
196	0x3d48a688	0.04898694
197	0x3d9a6d05	0.07540325
198	0xbbd9a780	-0.006642282
199	0xbcdd714a	-0.02703156
200	0xbae297cc	-0.0017287671
201	0xbcffaf51	-0.031211527
202	0x3c453166	0.012035703
203	0x3de5382b	0.11192354
204	0x3d8bc9cb	0.06825598
205	0x3b904f64	0.0044039954
206	0x3dd025d6	0.10163467
207	0xbe09e135	-0.13464816
208	0x3dec51ae	0.11539017
209	0x3d4f5c43	0.050625097
210	0x3d7c9e28	0.061674267
211	0x3da574fb	0.08078953
212	0xbd4d05e3	-0.050054442
213	0x3df53a4c	0.1197401
214	0xbdbf9970	-0.09355438
215	0xbd276e29	-0.04087654
216	0xbdc30e91	-0.09524263
217	0x3d5c9feb	0.053863447
218	0x3dbfd5c2	0.09366943
219	0x3d94b5f1	0.07261265
220	0x3c21cce5	0.009875511
221	0xbd1c6521	-0.03818238
222	0xbd998b14	-0.0749723
223	0xbdcebdc3	-0.10094788
224	0xbde87a27	-0.11351424
225	0x3e047555	0.12935384
226	0x3d342b2b	0.04398648
227	0x3e3dc885	0.18533523
228	0x3d1cec55	0.03831132
229	0xbdf4eaa6	-0.11958818
230	0x3cd276fd	0.025691504
231	0x3abf1849	0.0014579381
232	0xbd04a367	-0.032382395
233	0xbdf1b001	-0.11801148
234	0xbcb37bba	-0.021909583
235	0x3d16c8df	0.03681266
236	0x3bd7ab76	0.006581719
237	0x3d54cb9f	0.051952
238	0x3dbd8163	0.09253194
239	0x3ded69fe	0.11592482
240	0xbe21ef2f	-0.15813898
241	0x3cbbea1b	0.022938779
242	0x3e2720c4	0.16321093
243	0x3c2baeab	0.010478656
244	0x3e0abff7	0.13549791
245	0xbc78d3a6	-0.01518718
246	0xbde6478c	-0.11244115
247	0x3deb7f51	0.11498893
248	0x3d5847c4	0.052802816
249	0x3d18da0e	0.03731733
250	0xbd2ae42e	-0.041721515
251	0x3e09b8b6	0.13449368
252	0xbe05f342	-0.13081077
253	0xbd7faf2e	-0.062422924
254	0x3c3e715c	0.011623707
255	0x3cc75ef6	0.024337273

bias f4 [32]
0	0xbe02406b	-0.12719886
1	0x3d289eac	0.041166946
2	0x3d4dad33	0.050214004
3	0xbc648d84	-0.013949756
4	0x3c2e8688	0.010652192
5	0xbd62499a	-0.055245973
6	0xbe39fc5a	-0.1816267
7	0x3e4e03c4	0.20118624
8	0xbdc85fc6	-0.09783892
9	0x3d85a382	0.06525327
10	0x3de2f5e9	0.1108206
11	0x3db2ffd3	0.08740201
12	0x3e374749	0.17898287
13	0xbd9fa01c	-0.0779421
14	0x3e0612c7	0.130931
15	0xbc7a3794	-0.01527204
16	0xbda232c8	-0.07919842
17	0xbd79e578	-0.061009854
18	0x3c8341c3	0.016022569
19	0x3da94b57	0.08266323
20	0x3d53b0fd	0.05168246
21	0x3da68977	0.08131688
22	0x3cd142ea	0.025544602
23	0x3d28748c	0.041126773
24	0x3e2f2fad	0.1710803
25	0xbe04e064	-0.12976223
26	0xbe28d8ab	-0.16488902
27	0xbd51ab13	-0.05118854
28	0xbcd46d14	-0.025930919
29	0xbe20dc29	-0.15708984
30	0x3e0b09da	0.13577977
31	0xbe0c5579	-0.1370448

weight f4 [7, 32]
0	0xbe153780	-0.14571953
1	0xbdc9320f	-0.09824001
2	0x3cb4464c	0.022006176
3	0xbdd7eef9	-0.10543627
4	0x3d896097	0.06707876
5	0xbd1c899a	-0.038217165
6	0x3b19a24c	0.0023442684
7	0xbda74242	-0.081669345
8	0x3d140d0c	0.036145255
9	0xbe2d5188	-0.16925633
10	0x3d8c6eb8	0.068570554
11	0x3de0da17	0.10979097
12	0xbd929ec1	-0.07159186
13	0x3e1f9bb1	0.15586735
14	0xbd51dfd7	-0.05123886
15	0x3df5515c	0.11978409
16	0x3d4b29ba	0.04960034
17	0x3e2ad521	0.16682865
18	0xbe115b71	-0.14195038
19	0x3e17121f	0.14753006
20	0xbd120d1c	-0.035657033
21	0xbe29afd3	-0.16570978
22	0x3e0e9d4d	0.13927193
23	0x3e08643d	0.13319488
24	0x3e1c0143	0.15234856
25	0xbe124855	-0.14285405
26	0x3da865a2	0.0822251
27	0x3df41fb3	0.11920109
28	0xbd915eaa	-0.07098134
29	0x3de4a49d	0.1116421
30	0xbd9d9e29	-0.07696182
31	0xbd3df659	-0.046377514
32	0xbd96309c	-0.0733349
33	0xbee2086c	-0.4414705
34	0x3d52b279	0.051439736
35	0x3efa3869	0.48871163
36	0xbe946504	-0.2898332
37	0x3e2ddec3	0.16979508
38	0xbe646d4d	-0.2230732
39	0x3e988801	0.29791263
40	0x3d429964	0.047509566
41	0x3df1245e	0.117745146
42	0x3ecfec0e	0.40609783
43	0x3efa8166	0.48926848
44	0x3e2ec743	0.170682
45	0x3eb2ed41	0.34946635
46	0x3e4facdf	0.20280789
47	0x3cbe72a0	0.023248017
48	0x3ea2a96c	0.31769884
49	0x3e291f3a	0.16515818
50	0xbe2f58be	-0.17123696
51	0x3ec92417	0.39285347
52	0xbe9ecb1b	-0.31014332
53	0x3ea3fd80	0.32029343
54	0xbdd0cf38	-0.10195774
55	0x3ee28619	0.44242933
56	0x3e49e86c	0.19717568
57	0xbee90cc6	-0.45517558
58	0xbec0dd93	-0.37669048
59	0xbe909ce5	-0.282447
60	0x3e11a6b2	0.14223745
61	0xbee3b961	-0.4447737
62	0x3ec06108	0.3757403
63	0xbec04a29	-0.3755658
64	0x3dda4058	0.10656804
65	0x3e230e3a	0.15923396
66	0xbe2dfb56	-0.16990408
67	0xbbed5369	-0.0072426093
68	0x3df8c755	0.121473946
69	0xbd9ecf1b	-0.07754346
70	0x3cefe531	0.029284092
71	0xbdcc7476	-0.09983151
72	0xbd2d2e0c	-0.04228024
73	0x3dbbf45a	0.09177466
74	0x3d89cd27	0.06728583
75	0xbd895688	-0.06705958
76	0xbe3a22bd	-0.18177314
77	0xbde2fb71	-0.11083115
78	0xbbb4e6ea	-0.005520691
79	0xbe320124	-0.17383248
80	0x3d789aba	0.060694434
81	0xbe42a423	-0.19007926
82	0x3c71b893	0.014753479
83	0xbe52f120	-0.20599794
84	0x3e2a197a	0.16611281
85	0xbe07c3ab	-0.13258235
86	0xbc9645a9	-0.018343763
87	0xbe11ed4e	-0.14250681
88	0x3daaf147	0.08346801
89	0x3e22c584	0.15895659
90	0x3d61fa50	0.055170357
91	0x3ce81dc2	0.028334502
92	0xbd867cc9	-0.0656677
93	0xbdd74b67	-0.10512429
94	0x3e05bc00	0.13059998
95	0xbdf78416	-0.1208574
96	0x3e0fbb00	0.14036179
97	0x3e208cc2	0.15678695
98	0x3de1a66b	0.1101807
99	0xbe604285	-0.21900375
100	0x3d979cdb	0.07402965
101	0x3cf52d02	0.029928688
102	0x3e86b82a	0.2631238
103	0xbd7bf596	-0.061513506
104	0xbe47fda8	-0.19530356
105	0xbdffb3df	-0.124854796
106	0xbe6d7666	-0.23189697
107	0xbe6504ca	-0.22365108
108	0x3c4f078a	0.012636075
109	0x3c18ca0c	0.0093255155
110	0x3d4c78c6	0.049919866
111	0xbdb0807c	-0.086182564
112	0x3d51a25e	0.051180236
113	0xbdd80af7	-0.105489664
114	0xbe39fb44	-0.18162256
115	0xbe7593d1	-0.23982169
116	0xbd9c1d9b	-0.07622834
117	0xbc8de1c2	-0.017319564
118	0xbb4a02d1	-0.0030824433
119	0xbb2b4e4a	-0.0026139193
120	0xbe1e2625	-0.15444238
121	0x3c11b7c0	0.008893907
122	0x3cca83d8	0.024721071
123	0x3cd9912e	0.026558485
124	0xbdea04e0	-0.11426711
125	0x3e8825ed	0.26591435
126	0xbdcb8cb6	-0.09938948
127	0x3db6a5fc	0.08918378
128	0x3d118e9b	0.03553639
129	0x3e36e387	0.17860232
130	0x3c8fec1a	0.017568637
131	0x3da46869	0.08027727
132	0x3d6770c0	0.05650401
133	0xbd5117d5	-0.05104812
134	0x3e050662	0.12990716
135	0x3d72d367	0.05928364
136	0xbd7fc9bf	-0.06244826
137	0xbe2de0af	-0.16980241
138	0x3c9d7a1f	0.019223271
139	0xbd943e44	-0.07238439
140	0xbe45e73f	-0.19326495
141	0xbdb8b44b	-0.09018763
142	0xbe30b51b	-0.17256586
143	0xbd134be4	-0.035961047
144	0xbc4ed6fa	-0.012624497
145	0x3d8cb868	0.0687111
146	0xbc119e21	-0.0088877985
147	0xbe0b8adb	-0.13627188
148	0x3d297b03	0.04137708
149	0x3d95e842	0.0731969
150	0x3d386030	0.045013607
151	0xbdc03359	-0.09384794
152	0x3ae85111	0.0017724355
153	0x3e3f02c1	0.18653394
154	0x3e11a92a	0.14224687
155	0x3e636bb1	0.2220905
156	0xbdeeba6c	-0.11656651
157	0x3e46358d	0.19356366
158	0xbb9e2613	-0.004826316
159	0x3c3b4ca2	0.011431845
160	0xbe8f832b	-0.2802976
161	0xbd4ddb34	-0.050257877
162	0xbc40f317	-0.011776707
163	0x3a858c64	0.0010188934
164	0xbd00dfc4	-0.0314634
165	0xbd02b211	-0.0319081
166	0xbe924e7f	-0.28575513
167	0x3de727c1	0.11286879
168	0x3dd417f2	0.1035613
169	0x3ddae232	0.106876746
170	0x3e81aa7b	0.2532538
171	0x3e584d35	0.21123202
172	0x3e4dfdf4	0.20116407
173	0x3a72c1e7	0.0009260461
174	0x3e284b32	0.16434935
175	0xbd1f606c	-0.038910314
176	0x3d89e45d	0.0673301
177	0x3e5da170	0.21643615
178	0x3d4e625f	0.050386783
179	0x3d066239	0.032808516
180	0x3e0666e9	0.13125195
181	0xbd4b8e67	-0.049696352
182	0xbe0772b2	-0.13227347
183	0x3e84d56a	0.25944072
184	0x3cc1777b	0.023616543
185	0xbe21dcd4	-0.15806895
186	0xbe89e3b0	-0.26931524
187	0xbd23eb6e	-0.040019445
188	0x3e9f3153	0.3109232
189	0xbeb027ca	-0.34405357
190	0x3eab47e1	0.33453277
191	0x3deb0a6d	0.11476598
192	0x3e32cfe8	0.17462122
193	0x3e27fbdc	0.1640467
194	0xbd40acca	-0.047039784
195	0xbe5b5778	-0.21420085
196	0xbd616279	-0.05502555
197	0xbc04ab73	-0.008097517
198	0x3eb49077	0.35266468
199	0xbe94cc40	-0.2906208
200	0xbe0f6730	-0.14004207
201	0x3e2eaf49	0.17059053
202	0xbec1ad2e	-0.37827438
203	0xbc2e50d0	-0.010639384
204	0xbe6315eb	-0.2217633
205	0xbe27a5de	-0.16371867
206	0xbe940ce8	-0.28916097
207	0xbe52c220	-0.20581865
208	0xbe6cebc6	-0.23136815
209	0xbd010df8	-0.031507462
210	0xbe236215	-0.15955384
211	0xbd80495a	-0.06263991
212	0x3cca9b86	0.024732362
213	0xbe8d728f	-0.27626464
214	0x3e1379f2	0.14401987
215	0xbe5d63a8	-0.21620047
216	0xbea6c2f6	-0.32570618
217	0x3d34f61c	0.04418002
218	0x3e8a3da7	0.27000162
219	0x3e313bec	0.17308015
220	0xbe81063a	-0.25200063
221	0x3e785ef5	0.24254973
222	0xbe9d73f8	-0.3075254
223	0x3d768088	0.06018117

bias f4 [7]
0	0xbd98e5ba	-0.07465692
1	0x3e8de0e6	0.27710646
2	0xbe687104	-0.22699362
3	0xbe986cbd	-0.2977046
4	0xbe40a1a4	-0.18811661
5	0x3eb5c26f	0.35499904
6	0xbdbcb8b1	-0.092149146
